model.pth (torch, 24820 bytes, 6 tensors)

fc1.weight f4 [64, 16]
0	0x3e28d5b2	0.16487768
1	0xbe388527	-0.18019544
2	0xbcf89070	-0.03034231
3	0x3e04ca66	0.12967834
4	0x3e381544	0.17976862
5	0xbda544b1	-0.080697425
6	0x3da44c82	0.08022405
7	0x3e3af0ba	0.18255892
8	0xbe823013	-0.25427303
9	0xbe9da520	-0.30790043
10	0xbe7813d4	-0.24226314
11	0x3e4a8019	0.19775428
12	0xbe81a4f8	-0.25321174
13	0xbeba0480	-0.36331558
14	0xbed4914f	-0.41517112
15	0xbdc4fbeb	-0.09618362
16	0xbefe36cf	-0.4965119
17	0xbe33daa6	-0.17563877
18	0x3db1f9f8	0.08690256
19	0x3e37b47a	0.1793994
20	0xbe450eb4	-0.1924389
21	0xbea16d2d	-0.31528607
22	0xbeea0a8e	-0.45711178
23	0xbdd9a404	-0.106269866
24	0xbe00f070	-0.1259172
25	0xbe5385bb	-0.20656483
26	0xbef1562d	-0.4713606
27	0xbe8d9ded	-0.2765955
28	0xbdf9d885	-0.12199501
29	0xbdc5b86c	-0.09654316
30	0xbf06a3bd	-0.52593595
31	0xbe20c0ab	-0.15698497
32	0xbdb5c044	-0.088745624
33	0x3e01031a	0.1259884
34	0xbde00194	-0.10937801
35	0xbe1760a4	-0.14782959
36	0xbe25eca6	-0.16203555
37	0x3ca682a0	0.020325959
38	0xbe68fd6e	-0.22752926
39	0x3d840f80	0.06448269
40	0xbdb09520	-0.08622193
41	0xbe5e20be	-0.21692178
42	0xbe72c04a	-0.23706165
43	0xbdb058b4	-0.08610669
44	0xbd9b66dc	-0.07587978
45	0xbdc2003c	-0.09472701
46	0xbd1eb748	-0.03874901
47	0xbd03cad8	-0.03217587
48	0x3db9e010	0.0907594
49	0xbd7d4580	-0.06183386
50	0xbe3ff56a	-0.18745962
51	0xbd859484	-0.06522468
52	0xbda585a4	-0.080821306
53	0x3d3c7600	0.04601097
54	0x3daa6e1c	0.08321783
55	0x3e570adc	0.21000236
56	0xbe342894	-0.17593604
57	0xbe65cf64	-0.22442394
58	0x3e63da06	0.22251138
59	0x3e10d5ee	0.14144108
60	0xbdf0a918	-0.11751002
61	0x3e2d2ac2	0.16910842
62	0x3d7ab290	0.061205447
63	0xbd60d720	-0.05489266
64	0xbe50ccb2	-0.20390585
65	0xbe1617c0	-0.14657497
66	0x3e5584c2	0.20851424
67	0xbdfb9f78	-0.122862756
68	0x3da3d300	0.079992294
69	0xbe26ae39	-0.16277398
70	0xbe8707ad	-0.26373044
71	0xbdbe4290	-0.092900395
72	0xbe984e17	-0.29747078
73	0xbed8c1b0	-0.42335272
74	0xbeb2d4ec	-0.34928071
75	0x3d4e3048	0.050339013
76	0x3e163cee	0.1467168
77	0xbe1e4864	-0.15457302
78	0xbec0f657	-0.37687942
79	0xbe02d048	-0.12774765
80	0xbe79cd04	-0.24394614
81	0xbe46dbb2	-0.19419745
82	0xbddc6bc0	-0.10762739
83	0x3d7458a8	0.05965486
84	0xbdc4a50c	-0.09601793
85	0xbe7cabfb	-0.2467498
86	0xbea0f839	-0.3143938
87	0xbdfc9a60	-0.12334132
88	0xbef711c5	-0.48255745
89	0xbdc7cc93	-0.09755816
90	0xbeebd0ed	-0.46057835
91	0x3dffc278	0.12488264
92	0xbd5a33a4	-0.053271905
93	0xbe4ec8e5	-0.20193823
94	0xbe599335	-0.21247561
95	0xbeb964e4	-0.36209786
96	0x3e805191	0.2506223
97	0xbf4f85fd	-0.81063825
98	0xbe083800	-0.13302612
99	0xbd113eb0	-0.035460174
100	0xbe4f6416	-0.20253024
101	0xbe503d27	-0.20335828
102	0xbe036cfe	-0.12834546
103	0xbe733892	-0.23752049
104	0xbe825a08	-0.25459313
105	0xbe175f70	-0.147825
106	0xbe20f1bb	-0.15717213
107	0x3f98cf48	1.1938257
108	0xbf0f1057	-0.5588431
109	0xbf8bf463	-1.0933956
110	0xbfc9ebcc	-1.5775084
111	0xbf1ee7d9	-0.6207252
112	0xbe134201	-0.14380647
113	0x3da15730	0.07877958
114	0xbe4f56f4	-0.20248014
115	0x3da6613c	0.08124015
116	0xbe3c5374	-0.1839121
117	0x3dc32a91	0.09529603
118	0xbd4a0c76	-0.04932829
119	0xbe05a57e	-0.13051412
120	0xbea753ca	-0.32681113
121	0xbdca7926	-0.098863885
122	0xbf0621b5	-0.5239518
123	0xbe383cc8	-0.17991936
124	0xbdc8ec4b	-0.09810694
125	0xbe0cc671	-0.13747574
126	0xbdd97741	-0.10618449
127	0xbeb9ad54	-0.3626505
128	0xc0114203	-2.269654
129	0xbea7543d	-0.32681456
130	0x3e1289b8	0.14310348
131	0x3e5ded32	0.21672514
132	0xbe2fcb48	-0.1716739
133	0xbef25ffb	-0.47338852
134	0xbeedd175	-0.46448866
135	0xbe26080c	-0.16214007
136	0xbf0aea60	-0.5426388
137	0xbec2b28a	-0.3802684
138	0x403eda0f	2.9820592
139	0x3de05250	0.109532
140	0xc05906bc	-3.391036
141	0xc01e0226	-2.4688811
142	0x3f1d92aa	0.61551917
143	0xbe5abb8a	-0.21360603
144	0x3fc21a11	1.5164205
145	0xbf77fd13	-0.96870536
146	0xbe7c4458	-0.24635446
147	0xbe23149a	-0.15925828
148	0x3e366da8	0.17815268
149	0xbf8e7862	-1.1130488
150	0xbfbefaf0	-1.492033
151	0x3df920f8	0.121644914
152	0xbf99de26	-1.2020919
153	0xbfacf1d9	-1.3511306
154	0xbfeebc3e	-1.8651197
155	0x410b64a0	8.712067
156	0x401de29c	2.4669561
157	0x40494cbb	3.1453083
158	0xc00e24ce	-2.2209964
159	0xbe518e42	-0.20464423
160	0x3dc1a96b	0.09456142
161	0xbfbaac6b	-1.4583868
162	0xbd09ffa8	-0.03369108
163	0xbe2b817c	-0.16748613
164	0x3e1e080a	0.15432754
165	0xbf7831a6	-0.9695076
166	0xbf626cb9	-0.8844715
167	0x3dbc9280	0.0920763
168	0xbf29928a	-0.66239226
169	0xbf65c315	-0.89750797
170	0xbf0ff065	-0.5622619
171	0x4064ea71	3.5768092
172	0xbeba1027	-0.36340448
173	0x3fe15f00	1.7607117
174	0x406f36eb	3.737727
175	0xbf8ea9cc	-1.1145568
176	0x3dcd386c	0.10020527
177	0xbb4e5f00	-0.003148973
178	0xbe109576	-0.14119515
179	0x3d6bc150	0.057557404
180	0xbdc88b1c	-0.09792158
181	0xbd7ae140	-0.06124997
182	0x3d6aa260	0.05728376
183	0x3e08cc94	0.1335929
184	0xbe1494e8	-0.14509928
185	0xbdb33b70	-0.08751571
186	0xbdfdbe3c	-0.123898
187	0x3df7cf34	0.12100068
188	0x3d0433b0	0.032275856
189	0xbe350f52	-0.17681625
190	0x3e41a17c	0.18909258
191	0x3d57e9e8	0.052713305
192	0xbe36993c	-0.17831892
193	0xbebf1e3a	-0.3732775
194	0xbe07c69c	-0.13259357
195	0x3e12ab86	0.14323243
196	0xbd8ae1ec	-0.067813724
197	0xbf0ed9ce	-0.55801094
198	0xbdcb2d1a	-0.09920712
199	0x3dc95250	0.09830153
200	0xbe2e5eb1	-0.1702831
201	0xbed06e05	-0.40708938
202	0xbf0513f5	-0.51983577
203	0xbd8d0a47	-0.06886726
204	0xbed8e3e2	-0.4236136
205	0xbda0a20d	-0.07843409
206	0xbe49c242	-0.1970301
207	0xbdd40914	-0.10353294
208	0x3d24a81f	0.040199395
209	0xbecf1188	-0.40443063
210	0xbe29a312	-0.16566113
211	0xbd543e40	-0.05181718
212	0x3d5c41d0	0.0537737
213	0xbe1dee0e	-0.15422842
214	0xbe0e6638	-0.13906181
215	0x3ddd8ad4	0.10817495
216	0xbdc9dfeb	-0.09857162
217	0xbdc0682f	-0.093948714
218	0xbf27e9a2	-0.6559087
219	0x3d426967	0.0474638
220	0xbdf2f6d8	-0.11863488
221	0xbe3eea5b	-0.18644087
222	0xbefa71e0	-0.48915005
223	0x3cf5e33a	0.030015577
224	0xbe9692bf	-0.29408833
225	0xbd76e795	-0.060279448
226	0x3e67ef86	0.22649965
227	0xbe2e232a	-0.17005602
228	0x3e367cda	0.17821065
229	0xbe38b506	-0.18037805
230	0xbdd4b750	-0.103865266
231	0xbe49a6d8	-0.19692552
232	0xbebdcccd	-0.37070313
233	0xbde8ff40	-0.1137681
234	0xbe074a2e	-0.13211891
235	0xbe8b546a	-0.2721284
236	0xbf059544	-0.52180886
237	0xbf14de35	-0.5815156
238	0xbcc5afe4	-0.024131723
239	0xbe3a27b8	-0.18179214
240	0xbd627410	-0.055286467
241	0x3e317ac8	0.17331994
242	0xbd0813a8	-0.03322187
243	0x3dfa06a4	0.12208298
244	0x3c9c23a0	0.019059956
245	0xbe63555a	-0.22200528
246	0xbe5d90ec	-0.21637315
247	0x3dc9f288	0.09860712
248	0xbe669164	-0.225164
249	0xbe19a5c6	-0.15004644
250	0xbe2127a2	-0.15737775
251	0x3e782040	0.24231052
252	0x3e1d816a	0.15381399
253	0x3e6d902e	0.23199531
254	0x3cb84040	0.022491574
255	0xbd711028	-0.0588533

fc1.bias f4 [64]
0	0xbe05c708	-0.13064206
1	0xbd7f8f47	-0.0623925
2	0x3ccd0fe0	0.025031984
3	0xbd74aea8	-0.059736878
4	0xbf01c293	-0.5068752
5	0xbe500414	-0.20314056
6	0xbebb3cc7	-0.36569807
7	0x3c8717f1	0.016490908
8	0xbf126d04	-0.57197595
9	0xbfafd3fe	-1.373657
10	0xbf55f2eb	-0.8357379
11	0x3d589080	0.05287218
12	0xbdeee583	-0.1166487
13	0xbe3f21e5	-0.18665273
14	0xbea79dcd	-0.3273758
15	0x3dd61adc	0.10454342
16	0xbe2d12cd	-0.16901703
17	0xbdd44ec4	-0.10366586
18	0xbe6bb702	-0.2301903
19	0xbe3ee5f6	-0.1864241
20	0xbf4bc87e	-0.796028
21	0xbdbed8f4	-0.09318724
22	0xbf362d74	-0.71163106
23	0xbe6bd31a	-0.23029748
24	0xbe8161da	-0.25269967
25	0xbfa4c149	-1.2871486
26	0xbe7ba3ec	-0.2457425
27	0xbe6c0fb0	-0.2305286
28	0xbe025f8d	-0.12731762
29	0xbddfa294	-0.10919681
30	0xbf37b35a	-0.71758044
31	0xbeaa7e9e	-0.33299726
32	0xbdc80211	-0.09766019
33	0xbf564892	-0.83704484
34	0xbeb3fdd3	-0.3515459
35	0xbeb3b3a7	-0.35098
36	0xbf559ea0	-0.8344517
37	0xbced23b0	-0.028947681
38	0x3c9f8b10	0.01947549
39	0x3e1730fa	0.14764777
40	0x3c87b8b2	0.016567562
41	0xbe22d0f5	-0.15900023
42	0xbec15f23	-0.37767896
43	0x3b2a6343	0.0025999106
44	0xbfa79659	-1.3092757
45	0x3dab18f0	0.08354366
46	0xbeff8b6f	-0.49911067
47	0xbf4607dd	-0.7735575
48	0xbebb3d3c	-0.36570156
49	0xbe9c7385	-0.30556884
50	0xbe6fb75b	-0.23409788
51	0xbee8652a	-0.45389682
52	0xbfbdf6ed	-1.4840981
53	0xbe162a70	-0.14664626
54	0x3e23607a	0.15954772
55	0x3ebe3c27	0.37155268
56	0xbff818e1	-1.9382592
57	0xbed34126	-0.41260642
58	0xbe0a91ab	-0.1353213
59	0xbe93d5be	-0.2887401
60	0xbe8e2f2e	-0.2777037
61	0xbe71d310	-0.2361567
62	0xbe175a7a	-0.14780608
63	0xbe386f08	-0.18011105

fc2.weight f4 [64, 64]
0	0xbdcb22d8	-0.09918755
1	0xbe8df648	-0.2772696
2	0xbda97df6	-0.08275978
3	0x3d9ec7a4	0.07752922
4	0x3e87f1e8	0.26551747
5	0xbe9be2f1	-0.3044658
6	0xbd23d59c	-0.039998636
7	0xbe16199b	-0.14658205
8	0xbfe75df3	-1.8075546
9	0xbfa893c2	-1.3170092
10	0x3f193c77	0.5985789
11	0xbba568c0	-0.0050478876
12	0x3e3f210f	0.18664955
13	0x3e34967b	0.17635529
14	0xbed7fc15	-0.4218451
15	0x3d8ef0ca	0.069795206
16	0x3e52e2d5	0.20594342
17	0x3d22269d	0.039587606
18	0xbd7e8d60	-0.062146544
19	0xbeba9494	-0.3644148
20	0xbfee8845	-1.8635336
21	0x3c1e18f0	0.0096495
22	0xbed100e7	-0.40821
23	0x3eb548bf	0.35407063
24	0x3db1c532	0.0868019
25	0xbdfeac9e	-0.12435268
26	0xbd84d922	-0.06486727
27	0x3daf6201	0.08563615
28	0xbeae8d2c	-0.3409208
29	0xbdfe3598	-0.12412566
30	0xc04e8c82	-3.227326
31	0x3e879ce6	0.26486892
32	0x3eaa8c38	0.33310103
33	0xbf6fa9da	-0.9361855
34	0x3eb6d5fa	0.35710126
35	0xbd8102b2	-0.06299342
36	0x3f664e3c	0.89963126
37	0xbd7771d0	-0.060411274
38	0x3d67a3fc	0.056552872
39	0x3d5939a8	0.0530335
40	0xbdc2cc2a	-0.095115975
41	0xbef5c622	-0.48002726
42	0xbe6a1d90	-0.2286284
43	0xbd0626b4	-0.032751754
44	0xbfb2cb80	-1.3968353
45	0x3dba20bc	0.09088275
46	0xbf322878	-0.69593
47	0xc038ad8b	-2.8855922
48	0xbe8f80f5	-0.28028074
49	0xbec5b719	-0.38616255
50	0xbe6a22e0	-0.22864866
51	0xbe3db689	-0.18526663
52	0xc022920f	-2.5401647
53	0x3dd13582	0.10215284
54	0x3d87d2c4	0.06631997
55	0xbfb24fb0	-1.3930569
56	0xbeba3ad3	-0.36373004
57	0x3ec1e900	0.37873077
58	0xbea773ed	-0.32705632
59	0xbc28674d	-0.010278535
60	0x3e92f14b	0.28699717
61	0xbd0dc524	-0.034611836
62	0xbddff8be	-0.10936116
63	0x3daaca2b	0.08339342
64	0xbe411433	-0.18855362
65	0xbe845d38	-0.2585237
66	0x3ddb70a4	0.10714844
67	0xbdc91c2a	-0.09819825
68	0xbeb93189	-0.36170605
69	0xbe49b5b6	-0.19698223
70	0xbeba29fe	-0.36360162
71	0xbebb0ab1	-0.36531594
72	0xbe9028db	-0.2815617
73	0xbe9ec27e	-0.3100776
74	0xbea4c9db	-0.32185254
75	0x3dbc5f56	0.091978714
76	0xbecb86c9	-0.3975127
77	0xbea10a8a	-0.31453353
78	0xbe5eed01	-0.21770097
79	0xbd8741ea	-0.06604369
80	0xbeaf8c26	-0.34286612
81	0xbe5bdb97	-0.21470486
82	0xbd6c49a0	-0.0576874
83	0xbe8dd4a1	-0.27701285
84	0xbec396a1	-0.38200858
85	0xbd85bc2a	-0.0653003
86	0xbeaa7845	-0.33294883
87	0xbecc40df	-0.39893243
88	0xbeba7c38	-0.36422896
89	0xbdad0df6	-0.084499285
90	0x3d3bfaa4	0.045893326
91	0xbe3eb485	-0.1862355
92	0xbe9ca1d2	-0.3059221
93	0x3d63de0c	0.055631682
94	0xbec3662c	-0.38163888
95	0xbe5be97a	-0.21475783
96	0xbe36c63a	-0.17849055
97	0xbe556368	-0.20838702
98	0xbed4b0ef	-0.4154124
99	0xbe517638	-0.20455253
100	0x3c588fa0	0.013217837
101	0x3ddd1282	0.10794546
102	0xbda48f92	-0.08035196
103	0x3c996248	0.018723622
104	0xbec8f56c	-0.39249742
105	0xbe5e7fc6	-0.21728429
106	0xbe5d6adf	-0.216228
107	0xbe7936ab	-0.2433726
108	0xb6de8000	-6.6310167e-06
109	0xbd9260e2	-0.07147385
110	0xbe39418b	-0.18091409
111	0xbeb4d4f9	-0.35318735
112	0xbec4d255	-0.3844172
113	0xbeb548cc	-0.35407102
114	0xbebf4116	-0.37354344
115	0xbe709d61	-0.23497535
116	0xbe50d0db	-0.20392172
117	0x3cb9f878	0.022701487
118	0xbc8f0190	-0.0174568
119	0xbeab0291	-0.33400396
120	0xbed2b280	-0.4115181
121	0xbe4998de	-0.1968722
122	0xbe7c32dd	-0.24628778
123	0xbea5482f	-0.32281634
124	0xbe9aa27d	-0.30202094
125	0x3dbc3cd2	0.09191288
126	0xbdc81af6	-0.097707674
127	0xbe8182a9	-0.25294998
128	0xbe4d4437	-0.20045553
129	0xbec4b16c	-0.38416612
130	0x3d054f60	0.0325464
131	0x3c25c720	0.010118276
132	0xbea09367	-0.3136246
133	0xbea713c9	-0.32632282
134	0xbeaaacdb	-0.33335003
135	0xbe4e7fa5	-0.2016588
136	0xbe539b96	-0.2066482
137	0xbe95dc30	-0.29269552
138	0xbeb41fe7	-0.3518059
139	0x3dc700ea	0.09716971
140	0xbe70a4af	-0.23500322
141	0xbec7de25	-0.3903667
142	0xbeb49664	-0.3527099
143	0xbd670f58	-0.056411117
144	0xbe7d8209	-0.24756636
145	0xbec138de	-0.377387
146	0x3c94cbf8	0.018163666
147	0xbe8e413d	-0.27784148
148	0xbe3ae7b4	-0.1825245
149	0xbdbde4e4	-0.09272173
150	0xbe9e1c2c	-0.30880868
151	0xbe69d545	-0.22835262
152	0xbe4abed5	-0.19799359
153	0xbd8a6212	-0.06756987
154	0x3940a000	0.00018370152
155	0xbea89dd9	-0.32932928
156	0xbeaa24cf	-0.33231208
157	0x3c51d7d0	0.012807801
158	0xbeacba45	-0.33735862
159	0xbecf077a	-0.40435392
160	0xbea071fb	-0.3133696
161	0xbe989dcb	-0.29807886
162	0xbe6c2445	-0.2306071
163	0xbe7f0fdb	-0.24908392
164	0xbdaad6d8	-0.083417594
165	0x3d42cd3c	0.047559008
166	0x3c357740	0.011075795
167	0xbd94beb0	-0.07262933
168	0xbe9a814f	-0.3017678
169	0xbe77c67a	-0.24196807
170	0xbe535352	-0.20637253
171	0xbe8fa150	-0.2805276
172	0xbdcc3e30	-0.09972799
173	0x3dcb6bb0	0.09932649
174	0xbeb7671b	-0.3582085
175	0xbe598020	-0.21240282
176	0xbe89f41b	-0.2694405
177	0xbe816400	-0.25271606
178	0xbe4024dd	-0.18764062
179	0xbea57177	-0.3231313
180	0xbe8c58a3	-0.27411374
181	0xbd05a3a4	-0.032626763
182	0x3caaa920	0.020832598
183	0xbe7055ba	-0.23470202
184	0xbed87600	-0.42277527
185	0xbed5cc4f	-0.41757438
186	0xbe98817c	-0.2978629
187	0xbe700313	-0.23438673
188	0xbed6ecee	-0.41977638
189	0x3be40000	0.006958008
190	0x3de82dee	0.113368854
191	0xbe984db4	-0.29746783
192	0xbd5de38c	-0.054172084
193	0x3ebd1c85	0.3693582
194	0x3ddef850	0.108872056
195	0x3ddabe8c	0.10680875
196	0xbe64d900	-0.22348404
197	0x3e8c69a8	0.2742436
198	0xbd92de5f	-0.0717132
199	0xbe022117	-0.12707935
200	0xbb6d4b74	-0.0036208304
201	0xbc15545d	-0.009114352
202	0xbe7ed32a	-0.2488524
203	0x3d87f700	0.066389084
204	0xbee78e2d	-0.4522566
205	0xbdf66099	-0.12030143
206	0xbe31d385	-0.17365845
207	0x3dfd061c	0.12354681
208	0xbe58f6ae	-0.21187851
209	0xbe8f2201	-0.2795563
210	0xbd629e4c	-0.055326745
211	0x3ec8f17d	0.3924674
212	0x3c936efe	0.017997261
213	0xbd7ae9d4	-0.061258152
214	0xbdb8cfd8	-0.09024018
215	0x3ed990a8	0.42493176
216	0x3e0bda9e	0.13657615
217	0x3fd7ed63	1.686932
218	0x3dffb604	0.124858886
219	0xbe2d222e	-0.1690757
220	0x3ea3dbc0	0.32003593
221	0x3d96b9a8	0.0735963
222	0xbc532757	-0.012887797
223	0xbec62c44	-0.38705647
224	0xbe575049	-0.2102672
225	0xbd5f34f3	-0.054493856
226	0xbe980f72	-0.29699284
227	0xbeab0f9d	-0.3341035
228	0xbc09a840	-0.00840193
229	0xbd177280	-0.03697443
230	0xbd6aee48	-0.05735615
231	0xbc54c310	-0.01298596
232	0xbcfd3c65	-0.030912587
233	0xbe87074d	-0.26372758
234	0x3e69318b	0.22772805
235	0xbdc54ce0	-0.09633803
236	0xbdd2e184	-0.1029692
237	0x3d8d306c	0.06894001
238	0xbd14b7c6	-0.036308073
239	0xbd6f08b1	-0.0583579
240	0x3e8efe40	0.27928352
241	0xbe8a49e0	-0.27009487
242	0x3cfd5430	0.030923933
243	0x3e722f41	0.23650838
244	0xbe35a436	-0.17738423
245	0xbda56380	-0.08075619
246	0x3c87fba8	0.016599491
247	0xbe1c5e86	-0.15270433
248	0xbda13d37	-0.07873004
249	0x3e869236	0.26283425
250	0xbe8a0814	-0.26959288
251	0xbe464106	-0.19360742
252	0xbe39c9ce	-0.18143389
253	0x3de47ece	0.111569986
254	0x3dc51b3e	0.09624337
255	0xbeecd0c4	-0.46253026

fc2.bias f4 [64]
0	0xbdd5714f	-0.104220025
1	0xbe9f3e43	-0.3110219
2	0xbe5106b6	-0.20412716
3	0xbefa8a11	-0.4893346
4	0xbe6acc57	-0.22929512
5	0xbf92c16c	-1.1465278
6	0xbf28ea8d	-0.65982896
7	0xbfe8adac	-1.8178
8	0xbe983906	-0.29731005
9	0xbff8cc8b	-1.9437422
10	0xbec73258	-0.38905597
11	0xbfe79639	-1.8092719
12	0xbec43ae2	-0.38326174
13	0xbf0a95c5	-0.5413478
14	0xbfd3a170	-1.6533642
15	0xc0072bbb	-2.112044
16	0xc017e6b2	-2.3734555
17	0xbf616c88	-0.8805623
18	0xbfe64768	-1.7990541
19	0xbda1f0c5	-0.07907251
20	0xbea2a1a3	-0.31763944
21	0xbf22a82b	-0.63537854
22	0xbfe8921b	-1.8169588
23	0xbed227b1	-0.41045907
24	0xbe476500	-0.19472122
25	0x3f64a76b	0.8931796
26	0xbfe21db5	-1.7665316
27	0xbfe455fa	-1.7838738
28	0xbcdd4ad5	-0.027013222
29	0xbfeba632	-1.8410094
30	0xbf49ca5d	-0.78824407
31	0xbfb97691	-1.4489309
32	0xbe54161f	-0.20711564
33	0xbec6f638	-0.38859725
34	0xbfe6053d	-1.7970349
35	0xc01c11f2	-2.4385953
36	0xbe99a1d8	-0.3000629
37	0xbf11cc74	-0.56952596
38	0xbe85cb1c	-0.26131523
39	0xbfa027d8	-1.2512159
40	0xbff55ca4	-1.9168897
41	0xbfb383a5	-1.402455
42	0xbf2f5bfa	-0.6849972
43	0xbfe3c1b2	-1.7793486
44	0xbeef8cc6	-0.4678709
45	0xbe334c40	-0.17509556
46	0xbe594d61	-0.21220924
47	0xbf658eab	-0.8967082
48	0xbebae0d1	-0.36499646
49	0xbfa844eb	-1.3146032
50	0xc00460cd	-2.0684083
51	0xbfe3a69f	-1.7785224
52	0xbe84f78a	-0.25970107
53	0xc085f8f8	-4.1866417
54	0xbfe503be	-1.7891767
55	0xbfa8f59f	-1.3199958
56	0xc01bda67	-2.4352052
57	0xbd7bfb13	-0.06151874
58	0xbecc4a03	-0.39900216
59	0xbf8f0907	-1.117463
60	0xbf4329ea	-0.7623583
61	0xbfceb487	-1.6148843
62	0xbecbfba8	-0.39840436
63	0xbf4fa26b	-0.81107205

fc3.weight f4 [6, 64]
0	0x3f2b177b	0.66832703
1	0xbe82a821	-0.25518897
2	0xbeb22e58	-0.34800982
3	0xbf8644bc	-1.0489726
4	0xbece5dda	-0.40305978
5	0x3fd41eba	1.6571877
6	0xbed637a3	-0.41839322
7	0xbfbbf0e5	-1.468289
8	0xbe917b15	-0.28414217
9	0xbe81739d	-0.25283518
10	0xbe728f00	-0.23687363
11	0xbe5c2021	-0.21496631
12	0xbd924bb4	-0.071433455
13	0x401661a5	2.3497097
14	0xbfbce364	-1.4756894
15	0x3f563629	0.8367639
16	0x3e8ac471	0.27102998
17	0x3e0604ea	0.13087812
18	0x3e394422	0.18092397
19	0xbd24af8f	-0.04020649
20	0xbbb0f61d	-0.0054004327
21	0xbe44eeae	-0.19231674
22	0xbe7385dc	-0.23781532
23	0xbeaef6e2	-0.34172732
24	0xbddc4eab	-0.10757192
25	0x3e77790c	0.2416727
26	0xbe7c9e53	-0.24669771
27	0xbfa4b40e	-1.2867448
28	0x3d91a88e	0.071122274
29	0xbe844641	-0.2583485
30	0xbeadd86f	-0.33954188
31	0x3f745e7a	0.9545666
32	0x3f1e81f6	0.61917055
33	0xbea7fdc2	-0.3281079
34	0x3d2a69fc	0.04160498
35	0xbd5057b0	-0.050864875
36	0xbe8a30e6	-0.26990432
37	0x3f4d2281	0.80130774
38	0x3d3914ac	0.04518573
39	0x3f2ffffc	0.68749976
40	0xbe8a4a81	-0.27009967
41	0xbf770a60	-0.96500206
42	0xbf8ee9bf	-1.1165084
43	0xbee1844c	-0.44046247
44	0xbf434fc7	-0.76293606
45	0x3d1918c0	0.03737712
46	0xbebcc2ac	-0.36867273
47	0xbe2a007d	-0.16601749
48	0xbe71cd1f	-0.23613404
49	0x3dcb4124	0.09924534
50	0xbc1aad80	-0.00944078
51	0xbec8d12e	-0.3922209
52	0xbe8ecbfd	-0.27890006
53	0x3d610a30	0.054941356
54	0xbf80894b	-1.0041898
55	0x3eea4eff	0.45763394
56	0xbec094c3	-0.37613496
57	0xbe446235	-0.19178088
58	0x3ebcfcbb	0.36911568
59	0xbd3bbe62	-0.04583586
60	0xbf8bf46c	-1.0933967
61	0x3fb11757	1.3835248
62	0x3fae5a8a	1.362138
63	0x3fe57e3a	1.7929146
64	0x3f235909	0.6380773
65	0xbecd2868	-0.4006989
66	0xbea6de69	-0.3259156
67	0x3f95e9e4	1.1712003
68	0xbed5cc56	-0.41757458
69	0xbe226aa5	-0.15860994
70	0xbebba25e	-0.36647314
71	0x3feb5676	1.8385761
72	0xbe918863	-0.28424367
73	0x3fa9155c	1.3209643
74	0xbe9e7916	-0.30951756
75	0x3fb00f0f	1.3754596
76	0xbe8d0625	-0.2754375
77	0xbea95d67	-0.33079073
78	0x3fc2e781	1.5226899
79	0x3f20e26c	0.6284549
80	0xbd49eeb5	-0.049299914
81	0xbf23bcef	-0.63960165
82	0x3fa0f6bb	1.2575296
83	0x3f38a3e0	0.72125053
84	0xbddeb7cf	-0.108749025
85	0x3e726383	0.23670773
86	0x3fa4ddb1	1.2880155
87	0xbed0d589	-0.40787914
88	0x3e3d9c7e	0.18516728
89	0x3eb2cf7d	0.34923926
90	0x3f994ade	1.1975973
91	0x3fdb6497	1.7140073
92	0x3d3a3953	0.045464825
93	0x3fb444cb	1.4083494
94	0xbe4fa6a0	-0.20278406
95	0xbf611a9e	-0.8793124
96	0x3dcd2186	0.1001616
97	0x3e0e39e6	0.13889274
98	0x3fb2136c	1.3912177
99	0x3f366979	0.7125469
100	0xbeba15f5	-0.36344877
101	0xbecaa98a	-0.39582473
102	0x3e38ccc8	0.18046868
103	0xbea020e1	-0.31275085
104	0x3fa8524f	1.3150119
105	0x3f415fdd	0.755369
106	0x3f62b3bd	0.8855551
107	0x3f0f55fc	0.55990577
108	0x3d80db0c	0.0629178
109	0x3e9e35cd	0.30900422
110	0xbea296d5	-0.317557
111	0x3fa53b9a	1.2908814
112	0xbe89bf07	-0.26903555
113	0xbfa00584	-1.2501683
114	0x3b7b10f7	0.0038309672
115	0x3fa46d71	1.2845899
116	0xbed5ee75	-0.4178349
117	0x3df12892	0.11775316
118	0x3f64bf8f	0.89354795
119	0xbfaef0e3	-1.3667263
120	0x3f9577a2	1.1677134
121	0x3f03b8a8	0.5145364
122	0xbe968a9e	-0.29402632
123	0x3e29405a	0.16528454
124	0xbe85c428	-0.26126218
125	0xbeb78549	-0.35843876
126	0xbf982367	-1.1885804
127	0xbf04128a	-0.5159079
128	0x3e0ec1a6	0.13941059
129	0xbe61d9d6	-0.22055754
130	0xbe501523	-0.20320563
131	0x3fac06c2	1.3439562
132	0xbeadc9b1	-0.3394294
133	0x3f07afca	0.5300261
134	0xbe86fca8	-0.26364636
135	0x3fe313d8	1.7740431
136	0xbeb691fd	-0.35658255
137	0xbeb07a9e	-0.3446855
138	0xbeabf4b8	-0.33585143
139	0xbec59f9f	-0.38598344
140	0x3cc51940	0.024059892
141	0xbf42a268	-0.7602906
142	0x3fd27963	1.6443294
143	0x3e6a1372	0.2285898
144	0xbe74cf7c	-0.23907274
145	0xbce5ac3b	-0.028036227
146	0x3dbc3699	0.09190101
147	0xba7153f6	-0.00092059316
148	0xbc89942c	-0.016794287
149	0x3e7e3879	0.2482623
150	0xbe8f6f0f	-0.28014418
151	0xbe3a27ee	-0.18179294
152	0x3cf8bae1	0.030362548
153	0x3e8932a1	0.2679644
154	0xbed755d4	-0.4205767
155	0x3fe32c47	1.7747887
156	0x3bbd94fd	0.005785583
157	0xbe837ddc	-0.2568196
158	0xbedbc906	-0.42926806
159	0x3fb34a9b	1.4007143
160	0xbd908734	-0.07057038
161	0xbedc8b49	-0.43075016
162	0x3ea9d4ab	0.33170065
163	0xbfbacc4f	-1.45936
164	0xbead5597	-0.33854362
165	0xbcbde8f5	-0.023182372
166	0x3c93f2c8	0.018060103
167	0xbe1e9357	-0.15485893
168	0xbe9d4885	-0.3071939
169	0x3f8ea9b2	1.1145537
170	0x3f3ff8be	0.74988925
171	0x3e815ee7	0.25267717
172	0x3e7504b4	0.23927575
173	0x3d580739	0.052741263
174	0xbed25bbb	-0.4108561
175	0xbe2b076c	-0.1670205
176	0xbec88906	-0.3916704
177	0x3e0e95b8	0.139243
178	0xbfe5eb59	-1.7962447
179	0xbebc8e4b	-0.3682731
180	0xbe759686	-0.23983201
181	0xbb2904f4	-0.0025790306
182	0xbe58f156	-0.21185812
183	0x3de549a5	0.11195687
184	0xbf403ea1	-0.75095564
185	0xbe1cbb54	-0.15305835
186	0x3e8b45d0	0.272017
187	0xbdf74c0c	-0.12075052
188	0x3ec0284c	0.37530744
189	0xbdc42a75	-0.095784105
190	0xbef88564	-0.4853927
191	0xbea78619	-0.32719496
192	0x3f18f988	0.59755754
193	0x3eb324e6	0.3498909
194	0x3e9a513a	0.30140096
195	0x3fabd1ff	1.3423461
196	0x3ea3bc6d	0.31979695
197	0xbfc31840	-1.5241776
198	0x3e856c81	0.26059344
199	0x3d89f56f	0.06736266
200	0xbe00a295	-0.1256202
201	0x3e7f5449	0.24934496
202	0x3e9507bb	0.2910746
203	0x3ed8f647	0.42375395
204	0xbebe43b2	-0.37161022
205	0x3eae874f	0.34087607
206	0x3fa2932b	1.2701162
207	0x3fb7d9f3	1.4363388
208	0xbf473865	-0.77820426
209	0xbd71a1ae	-0.05899208
210	0xbe1931da	-0.14960423
211	0x3e948ba8	0.290128
212	0xbe099d1e	-0.13438842
213	0x3ed18db2	0.40928417
214	0xbeb1ac3b	-0.34701714
215	0x3e94011d	0.289071
216	0x3e595203	0.21222691
217	0x40b4d852	5.6514063
218	0x3f4431ab	0.7663829
219	0x3fd6773a	1.6755135
220	0x3e300b90	0.1719191
221	0x3e727b24	0.23679787
222	0xbeac0297	-0.33595726
223	0x3fcf8e05	1.6215216
224	0xbd044212	-0.032289572
225	0xbf1b304d	-0.60620576
226	0xbe3d21ee	-0.18469974
227	0xbddb4acc	-0.10707626
228	0x3eb9e8df	0.3631048
229	0x3fc4467b	1.5334009
230	0x3ea72040	0.32641792
231	0xbfdbe1b6	-1.7178257
232	0x3ecdb253	0.40175113
233	0x3fc118fa	1.5085747
234	0x3fe0efad	1.7573143
235	0x3e2759fd	0.16342922
236	0x3f9c18f2	1.2195113
237	0x3dddb158	0.10824841
238	0x3ea6ab54	0.32552588
239	0x3f12a164	0.5727751
240	0x3e6f9742	0.23397544
241	0x3ef0728a	0.46962386
242	0x3e88c22a	0.26710635
243	0x3ec99225	0.39369312
244	0x3e849216	0.25892705
245	0x3ed60e65	0.41807857
246	0x3f3f5f58	0.7475486
247	0x3e1a34fe	0.15059277
248	0xbeb215db	-0.347823
249	0x3e4c83bb	0.19972126
250	0xbe76c482	-0.240984
251	0xbb819082	-0.0039539943
252	0x3fbfa7c8	1.4973078
253	0xbebe3396	-0.37148732
254	0x3ffe98b9	1.9890357
255	0xbfaec3cd	-1.3653504

fc3.bias f4 [6]
0	0xbf37ab9d	-0.71746236
1	0xbeaba177	-0.33521625
2	0x3df2c677	0.118542604
3	0xc0979c80	-4.737854
4	0xc114ce5f	-9.300384
5	0xc11f758a	-9.966196
