model.pth (torch, 24820 bytes, 6 tensors)

fc1.weight f4 [64, 16]
-0.016733259 -0.090761095 0.03183666 0.21414441 -0.0020972788 -0.018491387 -0.08210206 0.017953336
-0.16479844 0.12190011 0.03886637 -0.1033628 -0.10641307 -0.12967283 0.124857605 -0.060281157
-0.0048544705 0.04226914 -0.21597028 -0.23167202 -0.051174253 -0.19059387 -0.06400359 -0.14537442
-0.096366346 0.13916796 0.13924292 0.06363389 0.0037186742 0.08279446 -0.18093556 0.1758093
-8.934332 -0.524834 0.14493504 0.16079047 -0.13149688 -1.1566842 -1.5349306 -0.18781304
-1.2900271 -1.2725506 6.6363053 1.9426968 0.6739826 4.8911777 7.293765 -1.2938026
0.12972619 -0.019689737 0.11610022 0.105023324 -0.1478476 -0.32433942 -0.2941319 -0.03783658
-0.10593608 0.11765243 0.010254034 -0.2994552 -0.011531797 0.15247825 0.14475912 -0.19165945
0.009775668 0.19242403 0.07220802 -0.20572093 0.050573826 -0.20237717 -0.15129167 -0.22634566
-0.20262796 -0.020322472 -0.23495045 0.15205634 0.0859983 -0.11520341 0.009984136 0.036188543
0.024951458 -0.20520529 0.19292924 -0.12922964 0.13337666 0.20427614 -0.20815673 0.21115786
-0.08049819 -0.22543553 -0.022960573 0.016760737 0.21491465 0.11525008 0.23063844 0.050355792
-0.4255275 -0.3393512 -0.1962975 -0.22439465 0.07651654 -0.053333532 -0.4914911 0.0028169453
-0.36744472 -0.12131484 -0.48496068 -0.20468837 -0.4188718 -0.17047718 0.2744254 0.11708057
-0.19164917 -0.21776521 0.1859181 -0.14512035 0.21183929 -0.14890742 -0.2218275 -0.07981381
0.20044562 -0.08112702 -0.116334915 0.2334933 0.036006868 0.16275454 0.083797574 -0.048455864
-0.1476802 -0.19649738 -0.17901969 -0.042500943 0.019780338 -0.17317802 -0.0989767 0.2179698
0.12936315 0.017225623 -0.0016248226 -0.027421266 0.24811623 -0.10346839 -0.03901729 0.02489844
-0.3850472 -0.20837279 0.042170912 -0.035160094 -0.11898556 -0.2259343 -0.08214144 0.098079205
-0.49509376 -0.4217341 -0.29805058 -0.2444736 -0.18432784 -0.11565757 -0.017160177 0.16308549
-0.3051795 -0.17732674 0.1754607 -0.24281955 0.23634139 -0.401318 -0.1432726 0.08607894
-0.46304518 -0.2394116 -0.20625442 -0.32638445 0.0836066 -0.30695722 -0.20923063 0.089438766
-0.47303507 -0.18280284 0.2291412 0.23963061 0.21311736 -0.2280289 -0.05609322 0.024382323
-0.29285136 -0.54939497 -0.13617271 -0.20680276 -0.47557247 0.20570065 -0.14091855 -0.07753128
-0.10548362 -0.0963899 0.057062685 0.21523714 0.020261765 -0.18530244 -0.41368625 0.13157803
-0.49117994 -0.39298105 -0.2865935 -0.07309899 -0.31611153 -0.0009009838 -0.1740548 -0.07423556
-0.13158733 -0.17439225 0.14429593 -0.12952676 -0.07515627 -0.47764346 -0.41909108 0.22917211
-0.39771307 -0.12768173 -0.20560545 0.14363739 -0.2820243 0.13824165 0.0057663918 -0.12834954
-0.2705379 -0.3073657 -0.21631402 -0.1318922 0.03298208 -0.26732084 -0.47585437 -0.0472472
-0.1640667 -0.08009775 0.6048827 -0.48322296 -0.35854816 -0.49764457 -0.24743438 -0.21162835
-0.11805796 -0.33048537 0.083334565 0.11960766 0.1917733 -0.07603239 -0.052262027 0.01924318
-0.4117377 -0.33034408 -0.6058578 -0.07242231 -0.29255912 -0.31933573 -0.27251834 -0.20578367
00000000: 3014 89bc f4e0 b9bd 2867 023d ac48 5b3e
00000010: 8072 09bb 407b 97bc 2025 a8bd e012 933c
00000020: ecc0 28be c4a6 f93d 5832 1f3d e0af d3bd
00000030: 18ef d9bd f4c8 04be 58b5 ff3d 60e9 76bd
00000040: 4012 9fbb 6822 2d3d 5027 5dbe 6e3b 6dbe
00000050: 189c 51bd 0a2b 43be 5014 83bd 08dd 14be
00000060: b85b c5bd 0c82 0e3e b295 0e3e 7c52 823d
00000070: 00b5 733b 2490 a93d 2c47 39be 5a07 343e
00000080: 06f3 0ec1 855b 06bf da69 143e 42a6 243e
00000090: 1ea7 06be 3a0e 94bf 9b78 c4bf 1052 40be
000000a0: 9c1f a5bf f0e2 a2bf 9d5c d440 4aaa f83f
000000b0: 208a 2c3f 8784 9c40 8666 e940 539b a5bf
000000c0: f1d6 043e 5f4c a1bc f4c5 ed3d 7816 d73d
000000d0: 5c65 17be d10f a6be 7598 96be 88fa 1abd
000000e0: 04f5 d8bd c2f3 f03d 8900 283c 3152 99be
000000f0: ddef 3cbc 4223 1c3e bc3b 143e 6042 44be
00000100: 202a 203c ce0a 453e cce1 933d 82a8 52be
00000110: 8026 4f3d f63b 4fbe 34ec 1abe 28c7 67be
00000120: b47d 4fbe 507b a6bc da96 70be a8b4 1b3e
00000130: e01f b03d c4ef ebbd 8094 233c 703a 143d
00000140: 0067 cc3c 5621 52be 3e8f 453e c654 04be
00000150: e493 083e c42d 513e 0a27 55be c439 583e
00000160: 3cdc a4bd 92d8 66be d017 bcbc d04d 893c
00000170: 9612 5c3e 3c08 ec3d 7c2c 6c3e e041 4e3d
00000180: bede d9be 71bf adbe 3602 49be b6c7 65be
00000190: b4b4 9c3d 4374 5abd b9a4 fbbe 809c 383b
000001a0: b721 bcbe ea73 f8bd c44c f8be d499 51be
000001b0: 5d76 d6be 9291 2ebe 7c81 8c3e f0c7 ef3d
000001c0: ae3f 44be d8fd 5ebe 5061 3e3e 6e9a 14be
000001d0: 66ec 583e 307b 18be c026 63be 6c75 a3bd
000001e0: 9e41 4d3e ec25 a6bd 0041 eebd de18 6f3e
000001f0: f07b 133d 20a9 263e 109e ab3d a879 46bd
00000200: 7a39 17be 9c36 49be f050 37be 7815 2ebd
00000210: 600a a23c 9455 31be 4cb4 cabd 7a33 5f3e
00000220: c677 043e c01c 8d3c 00f8 d4ba 90a2 e0bc
00000230: 2e12 7e3e 3ce7 d3bd 98d0 1fbd d0f7 cb3c
00000240: e824 c5be ad5f 55be 68bb 2c3d 0804 10bd
00000250: b4ae f3bd 525b 67be c539 a8bd c0dd c83d
00000260: ee7c fdbe 88ed d7be 169a 98be 4a57 7abe
00000270: 70c0 3cbe e0dd ecbd 8093 8cbc e2ff 263e
00000280: 7d40 9cbe 2495 35be f8ab 333e b0a5 78be
00000290: 7a03 723e 8e79 cdbe 0db6 12be 284a b03d
000002a0: 4214 edbe 5128 75be 5c34 53be dd1b a7be
000002b0: f039 ab3d 7f29 9dbe 8e40 56be ac2b b73d
000002c0: a731 f2be ab30 3bbe fea3 6a3e ba61 753e
000002d0: 703b 5a3e 6880 69be 01c2 65bd 70bd c73c
000002e0: 9df0 95be 26a5 0cbf dc70 0bbe 1ac4 53be
000002f0: 3c7e f3be 31a3 523e f44c 10be b8c8 9ebd
00000300: cc07 d8bd 1168 c5bd 90ba 693d 2067 5c3e
00000310: 00fc a53c ecbf 3dbe afce d3be 64bc 063e
00000320: f07b fbbe d034 c9be 62bc 92be ecb4 95bd
00000330: 5fd9 a1be 0030 6cba 6c3b 32be d008 98bd
00000340: d4be 06be e293 32be 50c2 133e aaa2 04be
00000350: 88eb 99bd af8d f4be 1b93 d6be 18ac 6a3e
00000360: 0ca1 cbbe 00bf 02be 3c8a 52be ae15 133e
00000370: 7d65 90be 388f 0d3e 00f4 bc3b 106e 03be
00000380: f283 8abe 095f 9dbe 6c81 5dbe c00e 07be
00000390: 3818 073d 47de 88be 2fa3 f3be 4886 41bd
000003a0: 1a01 28be 4a0a a4bd 98d9 1a3f 0069 f7be
000003b0: a093 b7be 45cb febe 705f 7dbe 1ab5 58be
000003c0: 5fc8 f1bd 6135 a9be 50ab aa3d dcf4 f43d
000003d0: 3860 443e dfb6 9bbd b510 56bd e0a3 9d3c
000003e0: 49cf d2be dc22 a9be 7f19 1bbf 2652 94bd
000003f0: 4fca 95be f97f a3be 8687 8bbe f4b8 52be

fc1.bias f4 [64]
0.03657183 -0.22096893 -1.5558771 -0.11673072 0.16243619 0.045504123 -0.093696125 -0.11257523
0.13856494 -0.3950192 -0.15111639 -0.21187386 -0.16923404 -0.36763206 -0.36940715 -0.3842202
-0.8702874 -0.50119466 0.020841837 -0.42714414 -2.1249886 -1.2563508 -0.7322553 -0.15347245
-0.62241405 -0.19837686 -0.01684003 -1.3580853 -0.5919599 -0.38990358 -0.17030592 -0.61055696
0.056655765 0.07415435 -0.16941558 -0.1593227 -0.14347625 -0.41963366 -0.19245774 0.08607754
0.083655745 -0.31730548 -0.09292614 -0.08274111 -0.1952244 -0.061190605 0.23776814 -1.7485205
-0.09054929 0.11311594 -0.49881577 -0.31617892 -0.17981482 -0.08092877 -0.17255032 -0.37047255
-0.81540954 -0.07363042 -0.46010602 -0.24047409 -0.02845822 0.038122594 -0.048052132 -0.04192105
00000000: 58cc 153d ae45 62be fb26 c7bf 8410 efbd
00000010: ac55 263e 8862 3a3d c1e3 bfbd d88d e6bd
00000020: f8e3 0d3e f53f cabe 41be 1abe 76f5 58be
00000030: b04b 2dbe 453a bcbe ef22 bdbe 83b8 c4be
00000040: 28cb 5ebf 4b4e 00bf 80bc aa3c a3b2 dabe
00000050: d0ff 07c0 1ad0 a0bf 1575 3bbf e227 1dbe
00000060: 8756 1fbf 4e23 4bbe 1af4 89bc bdd5 adbf
00000070: af8a 17bf 71a1 c7be ad64 2ebe 764d 1cbf
00000080: e00f 683d 3cde 973d 477b 2dbe 7d25 23be
00000090: 70eb 12be 39da d6be a413 45be 6c49 b03d
000000a0: b453 ab3d dd75 a2be 0f50 bebd 2c74 a9bd
000000b0: e8e8 47be 00a3 7abd 7e79 733e 85cf dfbf
000000c0: e871 b9bd 54a9 e73d c864 ffbe 34e2 a1be
000000d0: 6021 38be fcbd a5bd 08b1 30be 94ae bdbe
000000e0: aebe 50bf 8ccb 96bd 0493 ebbe d73e 76be
000000f0: 3721 e9bc 7026 1c3d 50d2 44bd 68b5 2bbd

fc2.weight f4 [64, 64]
-0.07255389 0.11156897 -5.00792 -0.007956353 -0.07377343 -0.046578825 0.19535686 -0.008170307
-0.009567022 0.2027895 0.32504913 0.23910148 -0.25191343 0.33637753 0.39092964 0.007702627
-3.0525565 0.19418865 -0.014534444 0.1256887 -6.890393 -0.8432553 -0.185433 0.3015502
-0.40378934 -0.09778085 -0.27792418 -3.319998 0.0759442 0.3069481 0.2824094 -0.1312455
0.06019856 -0.07251836 0.36148897 0.2968363 -0.0052227154 0.180696 -0.12486781 -0.0547169
-0.058122873 -0.051247768 -0.013043158 0.27472645 -0.046810552 -0.047373503 -0.00343889 0.8047125
0.26976675 0.05785778 0.36394826 -0.07241622 -0.07397859 -0.120312646 -0.102427155 -1.4444963
-0.16385928 -0.046536252 0.2409336 0.3593941 -0.13284582 -0.09763922 -0.06617895 0.021095887
-0.020380348 -0.02877158 -1.1565533 0.038340762 -0.020374954 0.07639286 0.109515294 0.04768607
-0.12212409 0.10336541 0.01922299 0.11868435 0.03198974 0.040098473 0.0019127429 0.062172294
-0.4375224 0.085351795 0.0216178 0.028546512 -0.51445645 -1.2563837 -1.3220896 0.11156878
-0.02011402 -0.029233143 0.00048062205 -2.260488 -0.844385 0.11968696 -0.002325669 -0.439379
0.091985434 0.1199304 -0.040496767 0.007814124 -0.014104113 0.005442828 0.09057668 0.0742746
-0.10891099 0.09867218 -0.040648058 -0.0025757253 -0.022809297 -0.09264965 0.02503331 -1.0254444
-0.06850296 0.123102084 -0.0027494282 -0.07069814 -0.033000052 -0.052239105 0.031853557 -0.8004797
-0.59124005 -0.009879038 -0.10481964 -0.016821861 0.06466143 0.01720135 0.051467523 0.073283985
0.09439571 0.037341982 -0.666856 -0.006920621 -0.10907164 -0.00534904 -0.09935944 -0.11880234
0.09840195 0.019892782 -0.053632393 0.108637795 0.073939025 -0.100568846 -0.058827028 -0.11019461
-0.0999157 0.0894137 -0.06408906 0.032293335 -0.7319991 -0.6385895 -1.227669 0.121736124
-0.04123749 -0.10285331 0.09882642 -1.3345324 -0.7027432 -0.083967924 -0.052473992 -0.5622693
-0.09260115 -0.09423438 0.014722437 0.014572352 -0.056104347 0.10899414 -0.10197732 -0.0072868317
0.1056076 -0.0636867 0.117133856 -0.046055183 -0.062319115 -0.11980346 0.08810221 -0.09905643
-0.034492537 -0.019986346 0.09596793 -0.34599176 0.0889914 0.09926948 -0.09069726 -0.6245513
0.14937004 -0.068381 0.014642805 -0.060148686 0.013967127 0.019388154 0.070982054 0.023861378
0.053179458 0.0047835857 -9.092361 0.0010498554 0.033111915 -0.11690883 0.26526198 -0.02489163
0.108974814 -0.36577007 0.34908962 0.32960078 -0.28632292 0.30529565 0.2780804 0.010953571
-3.3295217 0.32312822 -0.105243385 -0.055532333 -0.14175615 0.39999193 -1.1158097 0.38100833
-0.546391 -0.0014709085 -0.25271904 -0.25785115 -1.1280829 0.19076863 0.33107874 0.66174686
0.116361976 0.09512925 0.15955627 0.36452502 -0.1461576 0.33958507 0.064791024 0.088988155
-0.0011424273 0.022936936 -0.010912339 0.2227218 -0.092412874 0.11796431 -0.083372205 -0.9742772
0.39124832 -0.005316779 0.17745061 0.08873533 0.10163371 -0.09653491 -0.10675195 -1.0354121
0.047368966 -0.050176486 0.3198251 0.23057613 -0.13098821 0.10997124 -0.06886789 -0.11680366
00000000: 2297 94bd 467e e43d e140 a0c0 5d5b 02bc
00000010: 8616 97bd 70c9 3ebd a10b 483e c0dc 05bc
00000020: 00bf 1cbc 0da8 4f3e d76c a63e 05d7 743e
00000030: ccfa 80be ad39 ac3e ee27 c83e 5266 fc3b
00000040: 165d 43c0 64d9 463e e021 6ebc 8ab4 003e
00000050: 197e dcc0 94df 57bf 26e2 3dbe ca64 9a3e
00000060: 7abd cebe 5441 c8bd 144c 8ebe d97a 54c0
00000070: a288 9b3d 4d28 9d3e f797 903e 3865 06be
00000080: c492 763d 8284 94bd 1515 b93e edfa 973e
00000090: 5023 abbb 5f08 393e b2ba ffbd d41e 60bd
000000a0: 4012 6ebd 2ee9 51bd f8b2 55bc f2a8 8c3e
000000b0: 6cbc 3fbd b80a 42bd 005f 61bb a301 4e3f
000000c0: de1e 8a3e 48fc 6c3d 6d57 ba3e f54e 94bd
000000d0: 1682 97bd 7a66 f6bd 54c5 d1bd 41e5 b8bf
000000e0: baca 27be cc9c 3ebd 4cb7 763e 8102 b83e
000000f0: bc08 08be 12f7 c7bd d488 87bd 48d1 ac3c
00000100: b0f4 a6bc 60b2 ebbc f009 94bf 340b 1d3d
00000110: 60e9 a6bc dc73 9c3d 8e49 e03d 7852 433d
00000120: 321c fabd 3eb1 d33d 8879 9d3c c810 f33d
00000130: ac07 033d 4c3e 243d 00b5 fa3a 60a8 7e3d
00000140: f002 e0be eccc ae3d d017 b13c 60da e93c
00000150: 6bb3 03bf 2ed1 a0bf 3b3a a9bf 2c7e e43d
00000160: 28c6 a4bc 587a efbc 00fc fb39 d6ab 10c0
00000170: 9e29 58bf 701e f53d 406a 18bb 49f6 e0be
00000180: dc62 bc3d 129e f53d f0df 25bd d006 003c
00000190: f014 67bc c059 b23b 4480 b93d 481d 983d
000001a0: ba0c dfbd a414 ca3d 947e 26bd 80cd 28bb
000001b0: 90da babc 1abf bdbd a812 cd3c c341 83bf
000001c0: 484b 8cbd f21c fc3d c02f 34bb 30ca 90bd
000001d0: 102b 07bd acf8 55bd e078 023d 3dec 4cbf
000001e0: 825b 17bf b0db 21bc aeab d6bd 00ce 89bc
000001f0: 366d 843d d8e9 8c3c 9ccf 523d ea15 963d
00000200: 8a52 c13d e8f3 183d 13b7 2abf 60c6 e2bb
00000210: f460 dfbd 0047 afbb f67c cbbd a44e f3bd
00000220: f686 c93d 30f6 a23c a4ad 5bbd 7e7d de3d
00000230: 586d 973d 0af7 cdbd 9cf4 70bd b6ad e1bd
00000240: 9aa0 ccbd 881e b73d 2041 83bd 0446 043d
00000250: 4b64 3bbf 9a7a 23bf 4224 9dbf ca50 f93d
00000260: a4e8 28bd c2a4 d2bd 8265 ca3d f5d1 aabf
00000270: fae6 33bf 60f7 abbd f8ee 56bd e1f0 0fbf
00000280: aca5 bdbd f4fd c0bd 6036 713c e0c0 6e3c
00000290: accd 65bd 5238 df3d 7cd9 d0bd 60c6 eebb
000002a0: cc48 d83d 2c6e 82bd e0e3 ef3d 5ca4 3cbd
000002b0: 5442 7fbd 845b f5bd ee6e b43d 19de cabd
000002c0: 0c48 0dbd 68ba a3bc d68a c43d d525 b1be
000002d0: 2041 b63d cc4d cb3d 7cbf b9bd 98e2 1fbf
000002e0: 76f4 183e 560b 8cbd 60e8 6f3c 785e 76bd
000002f0: 60d6 643c e8d3 9e3c 0a5f 913d f078 c33c
00000300: b4d2 593d a0bf 9c3b 507a 11c1 4d9b 893a
00000310: 5ca0 073d e66d efbd 6bd0 873e 88e9 cbbc
00000320: 302e df3d 3746 bbbe e0bb b23e 6fc1 a83e
00000330: eb98 92be b64f 9c3e 8e60 8e3e 9b76 333c
00000340: e216 55c0 1071 a53e d889 d7bd df75 63bd
00000350: 8628 11be becb cc3e dad2 8ebf 8613 c33e
00000360: 48e0 0bbf 80cb c0ba 6464 81be 1105 84be
00000370: 0565 90bf da58 433e 2783 a93e 3e68 293f
00000380: 304f ee3d 20d3 c23d b862 233e 06a3 ba3e
00000390: 57aa 15be 18de ad3e 28b1 843d 6c3f b63d
000003a0: 80bd 95ba 3ee6 bb3c abc9 32bc 2f11 643e
000003b0: f642 bdbd 4697 f13d 0cbf aabd 3b6a 79bf
000003c0: b351 c83e 6038 aebb 9db5 353e deba b53d
000003d0: 5625 d03d 18b4 c5bd c4a0 dabd 6288 84bf
000003e0: f605 423d dc85 4dbd 1ec0 a33e 261c 6c3e
000003f0: c621 06be 9a38 e13d 9c0a 8dbd c236 efbd

fc2.bias f4 [64]
1.4119978 -1.9343432 -1.243643 -8.0120125 -0.26938924 -0.6598921 -0.23469955 -0.28452137
-3.6983674 -0.25568008 -0.2081652 -0.49055487 -1.3339562 -1.4497669 -0.96559435 -0.29713058
-0.29057074 -0.24412353 -0.116224006 -0.35696587 -1.4590164 -0.38490602 -0.42177838 -1.8156824
-0.29414466 -1.0644741 -1.6710916 -0.075860284 -0.1507003 -0.29224095 -0.54389155 -0.5789854
-0.21963423 -0.9599738 -0.1616638 -0.29623073 -0.10914339 -0.19227454 -0.28002566 -0.06352792
-0.20331882 -7.4027433 -0.8111029 -0.41389808 -0.54799396 -0.3563776 -0.3676169 -0.93739027
-0.36255553 -0.2935712 -1.1112555 -0.4185131 -0.26923293 -0.24601361 -0.09619336 -1.6827574
-0.22875956 -2.3529074 -1.4368986 -0.17559321 -0.18241814 -0.18684398 -0.21137936 -0.23519841
00000000: 58bc b43f 8f98 f7bf b22f 9fbf 3431 00c1
00000010: 63ed 89be b0ee 28bf 1455 70be c9ac 91be
00000020: 0db2 6cc0 80e8 82be 4229 55be 022a fbbe
00000030: 14bf aabf f691 b9bf 3131 77bf 8021 98be
00000040: b0c5 94be 85fb 79be da06 eebd 3bc4 b6be
00000050: 0dc1 babf 6712 c5be 56f3 d7be 4868 e8bf
00000060: 219a 96be b040 88bf 54e6 d5bf a35c 9bbd
00000070: 2e51 1abe 9ba0 95be 7a3c 0bbf 6338 14bf
00000080: cce7 60be d8c0 75bf 328b 25be 8eab 97be
00000090: 9286 dfbd 9ee3 44be 865f 8fbe ed1a 82bd
000000a0: cf32 50be 46e3 ecc0 71a4 4fbf 73ea d3be
000000b0: 5549 0cbf 2077 b6be 4838 bcbe cff8 6fbf
000000c0: e1a0 b9be f74e 96be 9f3d 8ebf 5947 d6be
000000d0: e6d8 89be feea 7bbe 0601 c5bd 9864 d7bf
000000e0: f23f 6abe 0996 16c0 4bec b7bf b5ce 33be
000000f0: d2cb 3abe 0754 3fbe d573 58be dad7 70be

fc3.weight f4 [6, 64]
3.3682117 0.13824083 0.5753368 -0.7419695 0.20874123 0.37326828 -0.37854975 -0.31236315
0.78067434 0.34587982 0.054767314 -0.4071522 1.8670924 0.98863333 1.5233319 -0.17876327
-0.07885823 -0.28380054 -0.07563204 0.21469514 1.5547112 0.21935079 -0.59186214 -0.43551293
-0.31797877 -0.9054249 1.916978 -0.75440335 -0.11550672 -0.3106702 -0.45485353 -0.007258389
-0.41372353 -0.20844227 -0.082190655 -0.2664061 1.2448586 -0.32802427 -0.30503199 -0.1888738
0.21168904 0.019539015 0.25207934 -0.41186315 -0.52078 0.19393192 -0.30628034 0.8468637
-0.21026914 -0.26641944 1.7747582 -0.3650979 -0.35815874 -0.07870124 -0.20295851 0.27539214
-0.18717805 -0.19041981 0.03860138 -0.23911078 -0.06698317 0.26030698 -0.35060608 -0.328886
-0.19928983 -0.78167474 0.5913505 0.07708199 -0.2858467 0.24656768 -0.3972083 -0.26837268
-0.19809927 0.24809211 0.41090325 -0.18583283 0.25668716 -1.5919034 0.9609558 -0.32729718
-0.14350498 1.4499213 -0.025643988 -0.34036523 0.7875117 0.30567804 0.043290555 -0.08559316
-0.24643092 -0.26446348 1.0223391 -0.12849301 -0.038137168 -0.302553 0.5547669 0.6760185
0.20744888 -0.91400766 -0.07198906 -0.3047473 0.47906274 -0.19997503 0.23755075 0.67123044
0.37198573 0.025318896 -0.29903245 -0.39723754 -0.3305329 0.21861544 0.13847852 -0.029327556
-0.36342227 -0.40567893 1.2957815 -0.27911067 -0.41496906 0.059949372 0.02408401 -0.2923545
-0.33844692 0.42773822 0.15498623 -0.22550307 0.015534071 -0.22571383 -0.22809927 -0.21718141
-0.5351316 0.8431571 -1.0467861 0.14169934 -0.3471234 -0.45790917 -0.2482638 -0.35522786
-0.71637404 0.15552512 -0.38145894 -0.033218287 -1.2415475 0.91766465 -1.1473483 -0.22570395
-0.12235589 -0.3508907 -0.020766575 -0.2728986 -0.93910384 0.308053 -0.019997016 -0.37496984
-0.22644474 -0.727318 -1.2194294 -0.091518015 -0.04116231 -0.26899028 -0.44046795 -0.37630877
-0.23907688 0.10367504 0.099386625 -0.2911951 0.54030484 -0.19818448 -0.21506588 -0.27446908
0.16422804 0.06629854 -0.4134638 -0.26277193 0.48007825 -0.06027385 -0.06309679 -0.015770271
-0.2915624 0.051099002 -2.207407 -0.18306805 -0.35572845 -0.09752312 -0.06212649 0.10550982
-0.41168407 -2.0095599 -0.2226724 -0.35698634 0.13392438 -0.26840773 -0.22876266 -0.28809232
-0.12135454 -0.6356482 1.2062628 -0.038450427 -0.20644744 0.33113864 -0.29483664 -0.2639491
-0.30953413 -0.3338564 -0.22853404 0.40174937 -1.6108702 1.4569924 -2.5077808 -0.2559224
0.15002055 0.79365855 -0.09201925 -0.18837138 -2.5770407 0.1869263 0.09757675 0.6543498
-0.1785282 -0.75326544 -1.4507625 0.09830746 0.052480686 -0.1978596 -0.025260597 -0.1639472
-0.25910804 0.8937682 -0.007920375 -0.19779243 0.3107209 -0.36796215 -0.3801438 0.06280067
0.17449598 0.2873709 0.018879613 -0.29524714 0.10308811 -0.10761788 -0.33779833 0.04136172
-0.21818744 -0.4074139 -1.4568492 -0.28424948 -0.23543665 -0.03911863 0.023261795 -0.10537084
-0.32295117 -1.0282435 0.37393302 -0.2030022 -0.0863175 -0.245325 -0.2455744 -0.24163201
00000000: c890 5740 018f 0d3e 4649 133f b7f1 3dbf
00000010: 43c0 553e 051d bf3e 46d1 c1be 10ee 9fbe
00000020: 46da 473f 2917 b13e b153 603d 4176 d0be
00000030: e2fc ee3f 1317 7d3f 8afc c23f b80d 37be
00000040: 6c80 a1bd 4e4e 91be f9e4 9abd 0bd9 5b3e
00000050: c700 c73f 7e9d 603e 4784 17bf 8dfb debe
00000060: 1dce a2be edc9 67bf 895f f53f 9420 41bf
00000070: ca8e ecbd 2a10 9fbe 90e2 e8be c8d7 edbb
00000080: 92d3 d3be e471 55be 9353 a8bd 6166 88be
00000090: 8757 9f3f ccf2 a7be 272d 9cbe 2268 41be
000000a0: 03c5 583e 4910 a03c 8b10 813e badf d2be
000000b0: d751 05bf 1796 463e c7d0 9cbe 0fcc 583f
000000c0: cb50 57be 2168 88be 472b e33f 1dee babe
000000d0: 9560 b7be 1e2e a1bd 5bd4 4fbe 3300 8d3e
000000e0: 9aab 3fbe 69fd 42be 7b1c 1e3d 75d9 74be
000000f0: 792e 89bd f546 853e a482 b3be bf63 a8be
00000100: a212 4cbe d61b 48bf bf62 173f 2add 9d3d
00000110: 805a 92be 3d7c 7c3e e35e cbbe 2568 89be
00000120: 89da 4abe dc0b 7e3e e961 d23e f64a 3ebe
00000130: 806c 833e 7ec3 cbbf 3301 763f 7f93 a7be
00000140: f8f2 12be 0597 b93f 5713 d2bc 5a44 aebe
00000150: 5e9a 493f d581 9c3e 7051 313d 774b afbd
00000160: 6358 7cbe c267 87be 02dc 823f ac93 03be
00000170: b835 1cbd 3ae8 9abe 3405 0e3f 8c0f 2d3f
00000180: 7b6d 543e 68fc 69bf 006f 93bd d707 9cbe
00000190: b647 f53e 41c6 4cbe 8140 733e c2d5 2b3f
000001a0: ea74 be3e 9369 cf3c c81a 99be b862 cbbe
000001b0: 9c3b a9be badc 5f3e 50cd 0d3e 5840 f0bc
000001c0: 7c12 babe 26b5 cfbe 2bdc a53f 98e7 8ebe
000001d0: d376 d4be 798d 753d d44b c53c 7daf 95be
000001e0: ea48 adbe 8100 db3e b6b4 1e3e 47ea 66be
000001f0: 9e82 7e3c 8721 67be db92 69be ce64 5ebe
00000200: 62fe 08bf 25d9 573f 16fd 85bf a219 113e
00000210: 29ba b1be 1273 eabe de38 7ebe 6de0 b5be
00000220: 4a64 37bf fa41 1f3e 964e c3be e60f 08bd
00000230: 07eb 9ebf 12ec 6a3f 4fdc 92bf f01e 67be
00000240: ba95 fabd f2a7 b3be aa1e aabc 5eb9 8bbe
00000250: 1c69 70bf 1fb9 9d3e c8d0 a3bc 0cfc bfbe
00000260: 21e1 67be 8331 3abf 4316 9cbf cc6d bbbd
00000270: cf99 28bd 18b9 89be 0485 e1be 8bab c0be
00000280: 92d0 74be 9453 d43d 378b cb3d 8617 95be
00000290: 6b51 0a3f dff0 4abe 3b3a 5cbe 3687 8cbe
000002a0: 652b 283e 87c7 873d 87b1 d3be 0b8a 86be
000002b0: d1cc f53e b6e1 76bd e438 81bd a830 81bc
000002c0: ab47 95be 304d 513d 2846 0dc0 3176 3bbe
000002d0: 0a22 b6be 34ba c7bd 5978 7ebd 8815 d83d
000002e0: 41c8 d2be a19c 00c0 3c04 64be eac6 b6be
000002f0: 7923 093e bd6c 89be c240 6abe d680 93be
00000300: bb88 f8bd d7b9 22bf d266 9a3f 327e 1dbd
00000310: f566 53be 018b a93e d4f4 96be 5624 87be
00000320: 427b 9ebe 3aef aabe d404 6abe 18b2 cd3e
00000330: ff30 cebf ba7e ba3f 7b7f 20c0 4308 83be
00000340: fd9e 193e 352d 4b3f 9774 bcbd 6de4 40be
00000350: 3cee 24c0 9c69 3f3e 52d6 c73d 7883 273f
00000360: 19d0 36be 01d6 40bf 96b2 b9bf 6c55 c93d
00000370: fdf5 563d b59b 4abe 50ef cebc c6e1 27be
00000380: cfa9 84be fecd 643f 76c4 01bc 198a 4abe
00000390: cf16 9f3e 8965 bcbe 35a2 c2be a39d 803d
000003a0: 13af 323e 4722 933e 6ba9 9a3c a22a 97be
000003b0: dc1f d33d c366 dcbd e7f3 acbe e86a 293d
000003c0: 876c 5fbe 8e98 d0be 097a babf 2689 91be
000003d0: 4e16 71be db3a 20bd 858f be3c abcc d7bd
000003e0: db59 a5be 7c9d 83bf 2674 bf3e cfdf 4fbe
000003f0: 3bc7 b0bd 7a36 7bbe db77 7bbe 626e 77be

fc3.bias f4 [6]
-4.8520617 -0.13051511 -0.5944879 -0.7718139 -8.659868 -10.143741
00000000: 1744 9bc0 c1a5 05be 5c30 18bf 9995 45bf
00000010: d28e 0ac1 c34c 22c1
