checkpoints/model_0.3_250.pth (torch, 25220 bytes, 6 tensors)

fc1.weight f4 [64, 16]
0	0xbc76cee0	-0.015063971
1	0x3d27fcb0	0.041012466
2	0x3c10a980	0.008829474
3	0xbcf3aaf0	-0.029744595
4	0xbe5bd304	-0.21467215
5	0x3d83cebc	0.06435916
6	0x3dc7dd30	0.09758985
7	0xbc6a1d60	-0.01428923
8	0x3e7e0a3c	0.24808592
9	0x3e6573b6	0.22407421
10	0x3e2cee58	0.16887796
11	0x3e35feaa	0.17772928
12	0x3d912c1c	0.07088491
13	0xbe5b3100	-0.21405411
14	0x3e14a980	0.14517784
15	0x3e2bab0c	0.16764468
16	0x3b708500	0.0036700368
17	0xbd636118	-0.055512518
18	0x3d8a017c	0.06738564
19	0x3e593c5e	0.21214435
20	0xbe3245ae	-0.17409393
21	0x3e424ffc	0.18975824
22	0xbc2fd080	-0.010730863
23	0x3e0c82e4	0.13721806
24	0xbdc48924	-0.0959647
25	0x3daac6a0	0.08338666
26	0xbe21c740	-0.15798664
27	0xbd81ae64	-0.063320905
28	0xbc3d3400	-0.011548042
29	0x3d831854	0.064011246
30	0xbe2d3792	-0.1691573
31	0xbd4a4898	-0.049385637
32	0xbe147886	-0.14499101
33	0x3e181c00	0.14854431
34	0xbcb84640	-0.022494435
35	0xbe042d72	-0.12907961
36	0x3d85ef50	0.06539786
37	0x3df44cfc	0.11928746
38	0xbdecddd8	-0.11565751
39	0x3b160000	0.0022888184
40	0xbda4d42c	-0.08048281
41	0xbe2e5676	-0.1702517
42	0x3dd7ecf4	0.10543242
43	0x3da08558	0.07837933
44	0x3dcc4610	0.09974301
45	0xbe12a424	-0.14320427
46	0xbd4546e8	-0.048163325
47	0xbe7fea60	-0.2499175
48	0xbe62761c	-0.22115368
49	0x3e3fbe7e	0.18725011
50	0x3ddff09c	0.109345645
51	0xbe286072	-0.16443041
52	0x3dbee6e4	0.09321383
53	0xbd77b2b0	-0.060473144
54	0xbdff01b4	-0.12451497
55	0x3e45a47a	0.19301024
56	0x3b811d00	0.0039402246
57	0x3d372b28	0.04471889
58	0xbdfd5fac	-0.123717636
59	0xbddd0180	-0.10791302
60	0xbe237b82	-0.15965083
61	0x3d9f4900	0.077775955
62	0xbe658c38	-0.2241677
63	0x3de6771c	0.11253187
64	0x3e5dad86	0.21648225
65	0x3e630e16	0.22173342
66	0xbcb96430	-0.022630781
67	0x3dedc16c	0.11609158
68	0x3e529aa6	0.20566806
69	0x3e210374	0.15723974
70	0xbe06e77a	-0.13174239
71	0x3e5f39e2	0.21799424
72	0x3e74c9d6	0.2390512
73	0x3da9373c	0.08262488
74	0xbe006fb6	-0.12542614
75	0xbe0ed496	-0.13948283
76	0x3cd962e0	0.026536405
77	0xbe6679b2	-0.2250736
78	0xbdb3d564	-0.087809354
79	0x3e0909ba	0.13382617
80	0x3d1d49a8	0.038400322
81	0x3d939114	0.07205406
82	0x3e3bfd20	0.18358278
83	0x3e0eb4a0	0.1393609
84	0x3e6c310a	0.23065582
85	0xbdf03618	-0.117290676
86	0xbe01d83c	-0.12680143
87	0x3e5a52fe	0.21320722
88	0xbc395360	-0.011311382
89	0xbe2ce922	-0.16885808
90	0xbdb2f56c	-0.08738217
91	0xbd3bf4f8	-0.045887917
92	0xbdbc1fd0	-0.09185755
93	0x3e08807c	0.13330263
94	0x3e18af32	0.14910582
95	0xbd328e88	-0.04359296
96	0xbe4937e2	-0.19650224
97	0xbe2b5f16	-0.16735491
98	0xbe78fdd8	-0.24315584
99	0x3e152636	0.14565358
100	0x3dc50b18	0.096212566
101	0x3d4673a8	0.048450142
102	0xbe4c04ea	-0.1992375
103	0xbe505e80	-0.20348549
104	0x3c44c5e0	0.012010068
105	0xbe22e212	-0.15906551
106	0xbd6f8600	-0.0584774
107	0x3e02224a	0.12708393
108	0xbe148998	-0.14505613
109	0x3c91ce40	0.017798543
110	0x3ddcc958	0.10780591
111	0xbe42f8ce	-0.19040224
112	0xbd7a0898	-0.061043352
113	0xbe7128fc	-0.2355079
114	0x3e1b75fe	0.15181729
115	0xbda3a944	-0.07991269
116	0xbdcfc480	-0.10144901
117	0xbd332a18	-0.043741316
118	0x3e0ee6b4	0.13955194
119	0x3dac1b54	0.0840365
120	0xbd1023e0	-0.035190463
121	0x3e1686cc	0.14699858
122	0xbbc55380	-0.006021917
123	0xbe265fe2	-0.16247514
124	0x3e0f8c84	0.14018446
125	0x3dea6108	0.114442885
126	0xbe516b4c	-0.20451087
127	0xbab5c600	-0.0013868213
128	0xbe32d96c	-0.17465752
129	0x3e784ba0	0.24247599
130	0x3e5455c4	0.20735842
131	0xbe4ec7d4	-0.20193416
132	0x3e096432	0.13417128
133	0xbe5aebb6	-0.21378979
134	0xbdbd721c	-0.0925028
135	0x3e597ce6	0.21239051
136	0x3dabee2c	0.08395037
137	0x3e45aad2	0.19303444
138	0x3d17a920	0.037026525
139	0xbd06a1b8	-0.03286907
140	0x3ceb8320	0.028749049
141	0x3bb4c100	0.0055161715
142	0x3e06940a	0.1314241
143	0xbd83d804	-0.06437686
144	0x3d9c56f8	0.076337755
145	0xbe68da5a	-0.22739545
146	0x3e125294	0.14289314
147	0x3e68c7a4	0.22732407
148	0x3e55850a	0.20851532
149	0x3deb0710	0.114759564
150	0x3e1bb9e2	0.15207627
151	0xbc8a5e30	-0.016890615
152	0x3db61664	0.088909894
153	0xbdcbc604	-0.09949878
154	0x3daa6200	0.08319473
155	0x3e74cbb4	0.23905832
156	0xbe5f7236	-0.21820912
157	0x3bc22340	0.0059246123
158	0xbdd0bc1c	-0.10192129
159	0xbc94dd00	-0.018171787
160	0xbe35088e	-0.17679045
161	0xbdc8bcac	-0.09801611
162	0xbdef632c	-0.116888374
163	0xbe20e87e	-0.15713689
164	0xbe22fc98	-0.1591667
165	0xbe55253c	-0.20814985
166	0x3e731966	0.23740157
167	0xbe37d5fc	-0.17952722
168	0xbd652790	-0.055945933
169	0x3e62e41e	0.22157332
170	0xbd8a3e5c	-0.06750175
171	0xbe2dde12	-0.16979244
172	0x3dd48014	0.103759915
173	0xbd41f450	-0.047352135
174	0x3e38f53e	0.18062302
175	0x3d698bd8	0.05701813
176	0xbd9745a4	-0.0738633
177	0xbe79836a	-0.24366537
178	0xbe414e98	-0.18877637
179	0x3d653e60	0.05596769
180	0xbdec7f9c	-0.11547777
181	0x3e4f3042	0.20233253
182	0x3d9b8b4c	0.07594928
183	0x3e137620	0.1440053
184	0xbd36c4c8	-0.04462126
185	0xbe51fe02	-0.20507053
186	0xbd09dcf0	-0.033657968
187	0xbe3b0182	-0.18262294
188	0xbe6e9e3e	-0.23302552
189	0xbe1f3338	-0.15546882
190	0xbe7df2ec	-0.24799699
191	0xbdc49d64	-0.096003324
192	0xbe4f9254	-0.20270663
193	0xbc38f700	-0.011289358
194	0xbdf58d08	-0.1198979
195	0x3cf93ea0	0.03042537
196	0xbe1c1b90	-0.1524489
197	0x3e323e74	0.17406636
198	0x3c202cc0	0.009776294
199	0xbd976a00	-0.07393265
200	0xbda2e694	-0.079541355
201	0x3e7856e8	0.24251902
202	0xbcdc0880	-0.026859522
203	0x3e678050	0.22607541
204	0xbe2d6036	-0.16931233
205	0x3cf56320	0.029954493
206	0x3d8f2528	0.06989509
207	0xbd5d6da8	-0.054059654
208	0xbe3454be	-0.17610452
209	0xbe36bc70	-0.1784532
210	0xbd5337d0	-0.0515669
211	0xbdcb68c8	-0.09932095
212	0x3e628e94	0.22124702
213	0x3d8896ac	0.066693634
214	0x3cac4e00	0.021033287
215	0xbe19099c	-0.14945072
216	0xbe105900	-0.14096451
217	0xbe7a8544	-0.244649
218	0x3cea0010	0.028564483
219	0xbe47402e	-0.19458076
220	0x3c520000	0.012817383
221	0x3e349d96	0.1763824
222	0x3dd99f2c	0.10626063
223	0x3e262fe0	0.162292
224	0xbd2fa378	-0.042880505
225	0x3e1e0666	0.15432128
226	0xbd12f4f8	-0.03587815
227	0xbd478fd8	-0.048721164
228	0xbbd885c0	-0.006607741
229	0x3cccee30	0.02501592
230	0xbc4e9460	-0.012608618
231	0x3e49a406	0.19691476
232	0xbe4c68be	-0.19961831
233	0x3c607920	0.013700753
234	0xbcbe2a00	-0.023213387
235	0xbe665640	-0.2249384
236	0x3e5e0092	0.21679905
237	0xbe2ed5f8	-0.1707381
238	0x3dd1e834	0.10249367
239	0x3d8ce5d4	0.06879774
240	0x3e36d210	0.1785357
241	0xbd8ada08	-0.067798674
242	0x3e189322	0.14899877
243	0x3df2d6b0	0.11857355
244	0x3bbc2e00	0.0057427883
245	0xbe65d18a	-0.22443214
246	0xbe275022	-0.16339162
247	0x3d43fcf8	0.04784867
248	0xbe0fec08	-0.14054883
249	0x3e268d76	0.162649
250	0x3e7100f2	0.23535517
251	0xbd88a2f4	-0.06671706
252	0x3dc202cc	0.0947319
253	0xbe4ca812	-0.19985989
254	0xbd8dc504	-0.069223434
255	0xbca44c00	-0.02005577

fc1.bias f4 [64]
0	0xbe717810	-0.23580956
1	0x3dad1e50	0.08453047
2	0xbe6884f6	-0.2270697
3	0xbd2c7810	-0.042106688
4	0xbe7122a4	-0.2354837
5	0x3e6a5032	0.22882155
6	0x3d9c73d8	0.07639283
7	0xbe35744a	-0.17720142
8	0x3d2d8208	0.042360336
9	0xbe7bfcb8	-0.24608123
10	0xbe730c72	-0.23735216
11	0xbe3319c8	-0.17490304
12	0x3e2f2448	0.17103684
13	0xbbe0c980	-0.006859958
14	0x3e3880ce	0.18017885
15	0xbdd3f938	-0.10350269
16	0xbd468d00	-0.04847431
17	0xbe21b158	-0.15790308
18	0x3e50fa6c	0.20408028
19	0x3e5960fe	0.21228406
20	0xbda342a4	-0.07971695
21	0xbd99f408	-0.075172484
22	0xbe58bbb2	-0.2116535
23	0x3e2cc37c	0.16871446
24	0xbe2b4cce	-0.16728517
25	0x3e4434e8	0.19160807
26	0xbe5c73f2	-0.21528605
27	0x3d3775f0	0.04479021
28	0xbdabc868	-0.08387834
29	0x3e1c8b46	0.15287504
30	0xbcaa4120	-0.020783007
31	0xbe7657cc	-0.2405693
32	0xbdd1054c	-0.102060884
33	0x3e0a48d0	0.13504338
34	0x3e3cd042	0.18438819
35	0xbe056d36	-0.13029942
36	0x3e55cc82	0.20878795
37	0xbd41c660	-0.047308326
38	0x3e06034a	0.13087192
39	0xbca756d0	-0.020427138
40	0xbca1ab20	-0.01973492
41	0x3e219bd6	0.15782103
42	0xbe3872ee	-0.18012592
43	0x3d86ce58	0.06582326
44	0x3dbc1b0c	0.09184846
45	0xbde920b8	-0.11383194
46	0xbe58710c	-0.21136874
47	0x3dd5b1ac	0.10434279
48	0xbe7e3e16	-0.24828371
49	0x3cdfc580	0.027315855
50	0x3c3b9c40	0.011450827
51	0xbd5612f8	-0.052264184
52	0x3e26fcca	0.16307369
53	0x3db57238	0.08859676
54	0x3db11df0	0.08648288
55	0x3e388828	0.1802069
56	0x3df5f01c	0.12008688
57	0xbd0fd350	-0.035113633
58	0xb8c21000	-9.253621e-05
59	0xbcaa5a40	-0.020794988
60	0xbde22878	-0.11042875
61	0x3d8c0810	0.06837475
62	0xbe1afea4	-0.151362
63	0x3e0fd010	0.14044213

fc2.weight f4 [64, 64]
0	0x3dc1ebea	0.09468825
1	0x3ddd26b2	0.10798396
2	0xbb86b240	-0.0041106045
3	0x3d0bc3c4	0.034122244
4	0xbdd3b0e8	-0.103364766
5	0xbda341ec	-0.07971558
6	0xbdfd4442	-0.12366535
7	0x3cb22fb8	0.02175127
8	0x3d1157bc	0.03548406
9	0xbdf7ea3a	-0.12105222
10	0x3d946974	0.07246676
11	0x3d4f055c	0.05054222
12	0x3bfb1d20	0.007663384
13	0x3dc9ff48	0.09863144
14	0x3cc242c0	0.02371347
15	0xbd233910	-0.03984934
16	0xbdec7a88	-0.115468085
17	0x3d5efe1c	0.054441556
18	0x3de8da20	0.11369729
19	0x3dd9a452	0.10627045
20	0xbc096af0	-0.008387312
21	0xbdc2abc2	-0.095054165
22	0x3b1d7340	0.0024024993
23	0xbc8a8908	-0.016911045
24	0x3d818a90	0.06325257
25	0x3b1abec0	0.002361223
26	0x3dc50c86	0.09621529
27	0x3de6bbd4	0.11266294
28	0x3d9d546e	0.07682119
29	0x3c39c900	0.011339426
30	0x3d2e5f48	0.042571336
31	0xbd8b153a	-0.06791158
32	0xbcda0f78	-0.026618704
33	0xbd8612c0	-0.06546545
34	0xbb942880	-0.0045214295
35	0xbcfe4c60	-0.031042278
36	0x3df0a72c	0.117506355
37	0x3d5aabac	0.053386375
38	0x3d4de550	0.050267518
39	0x3ddeefaa	0.10885556
40	0x3ce7db10	0.0283027
41	0x3d86c858	0.06581181
42	0xbd6e1858	-0.058128685
43	0xbaa80f80	-0.0012822002
44	0xbdfd4e96	-0.12368505
45	0x3d8c897a	0.06862159
46	0xbd6ce334	-0.057833865
47	0xbda33f6e	-0.07971083
48	0x3db01cc8	0.085992396
49	0x3c4d9a20	0.012548953
50	0x3c950758	0.018191978
51	0x3d1ee460	0.038792014
52	0x3cf911c0	0.030403972
53	0x3df12c90	0.11776078
54	0xbd9011b0	-0.070346236
55	0x3dfa463a	0.12220426
56	0xbdbc6078	-0.091980875
57	0x3d3723fc	0.04471205
58	0x3de7844e	0.11304532
59	0xbd0cb588	-0.03435281
60	0x3de9df7e	0.11419581
61	0x3d7ecf60	0.062209487
62	0xbde345ea	-0.110973194
63	0x3d9c0960	0.07618976
64	0xbdca62bc	-0.09882113
65	0x3d32b7f4	0.043632463
66	0xbddda0e4	-0.10821703
67	0x3c8854e0	0.016642034
68	0x3dc4d022	0.09610011
69	0x3d24b944	0.040215746
70	0x3d759940	0.059960604
71	0x3d6ba1a4	0.0575272
72	0x3dfb2230	0.1226238
73	0x3cc83968	0.024441436
74	0x3da02f7e	0.078215584
75	0x3d4aef84	0.049544826
76	0x3d3a35f8	0.045461625
77	0x3dce5b86	0.100760505
78	0x3d589924	0.05288042
79	0x3dee9a96	0.11650579
80	0x3d8eea68	0.06978303
81	0xbdf808a4	-0.12111023
82	0x3abfa400	0.0014621019
83	0x3b513680	0.0031923354
84	0x3d633528	0.055470616
85	0x3d4ec4d4	0.05048068
86	0xbd8ea8d0	-0.06965792
87	0xbd46356c	-0.04839079
88	0x3b9b77a0	0.004744485
89	0xbdea3ba8	-0.1143716
90	0x3d949ae8	0.072561085
91	0x3d879a84	0.066212684
92	0xbddb1a3e	-0.10698365
93	0xbdb84cd0	-0.08999026
94	0x3d9d603c	0.07684371
95	0xbbd547e0	-0.0065088123
96	0xbd9964b4	-0.07489911
97	0xbc0afc10	-0.008482948
98	0x3af1df80	0.0018453449
99	0x3def3eac	0.116818756
100	0x3b015700	0.0019735694
101	0xbcd511b0	-0.02600941
102	0x3975bc00	0.00023435056
103	0xbd8a6a10	-0.06758511
104	0x3db26394	0.08710399
105	0xba91ff80	-0.0011138767
106	0xbd9c43b8	-0.07630104
107	0xbd56fd40	-0.05248761
108	0x3d2ccf30	0.042189777
109	0xbdc708aa	-0.097184494
110	0x3c2f2b90	0.010691538
111	0xbdf6952a	-0.120401695
112	0xbd6e0514	-0.05811031
113	0x3d9aaf04	0.07552913
114	0xbd9b1d26	-0.07573919
115	0x3dafadaa	0.08578046
116	0xbdd93080	-0.10604954
117	0xbb59d6c0	-0.0033239573
118	0xbdccdcb0	-0.1000303
119	0xbd9f8b42	-0.07790233
120	0xbc409d10	-0.011756197
121	0x3df21946	0.11821227
122	0x3a9dde80	0.001204446
123	0x3dad4eb6	0.084622785
124	0x3da230f4	0.07919493
125	0xbdde5a24	-0.10857037
126	0x3dbf17da	0.09330721
127	0x3da03ed2	0.07824482
128	0xbc926bd8	-0.01787369
129	0xbd91ae88	-0.07113367
130	0x3dd94f78	0.106108606
131	0x3caf6d98	0.021414563
132	0x3dee9ee0	0.11651397
133	0x3d37f390	0.044910014
134	0x3d16851c	0.036748037
135	0x3d997326	0.07492666
136	0xbd1d6cb0	-0.03843373
137	0x3db97f8c	0.09057531
138	0xbdced062	-0.100983396
139	0x3dbdc012	0.0926515
140	0x3d993a94	0.07481876
141	0x3d7d35f0	0.061819017
142	0xbda96a8e	-0.08272277
143	0xbb1bbd00	-0.0023763776
144	0xbce42e58	-0.02785413
145	0x3da1712e	0.078829154
146	0x3daa504a	0.08316095
147	0xbd34e4a4	-0.04416336
148	0xbd83f616	-0.064434215
149	0xbd0f729c	-0.03502141
150	0xbbd5c3e0	-0.0065235943
151	0xbdd184c2	-0.102304
152	0xbdf67400	-0.12033844
153	0x3de3046a	0.11084826
154	0xbb061040	-0.0020456463
155	0x3c821a18	0.015881583
156	0xbcb089a0	-0.02155
157	0xbd463e2c	-0.048399135
158	0x3d8d48f8	0.06898683
159	0x3dec9f9c	0.115538806
160	0x3d8d5ab4	0.06902066
161	0xbd731bb0	-0.059352577
162	0xbd809eb8	-0.06280273
163	0x3978b800	0.00023719668
164	0xbd8d010c	-0.06884965
165	0xbd5408e0	-0.051766276
166	0xbdf3d4f4	-0.11905852
167	0xbccc4950	-0.024937302
168	0x3da5ace6	0.080896184
169	0x3d9490c4	0.07254174
170	0x3df37c96	0.11888997
171	0xbdbef38a	-0.09323795
172	0xbdf8fbf4	-0.12157431
173	0x3d0216e4	0.03176011
174	0x3de5cfb8	0.1122126
175	0x3d960f9e	0.073271975
176	0x3dc9586c	0.09831318
177	0xbd90ff78	-0.07079977
178	0x3df89e70	0.121395946
179	0x3d81e132	0.06341781
180	0xbc75ac70	-0.014994726
181	0xbd24a318	-0.0401946
182	0x3d97826a	0.073979214
183	0xbd9b85f6	-0.075939104
184	0xbcf32f28	-0.029685572
185	0xbd891652	-0.066937104
186	0xbb265400	-0.0025379658
187	0xbde442a0	-0.1114552
188	0xbdb90cbe	-0.090356335
189	0xbca3fc88	-0.020017877
190	0xb9d25400	-0.00040116906
191	0x3c7cbfe0	0.015426606
192	0x3d503b70	0.050837934
193	0xbdb1b3d2	-0.08676876
194	0x3dc919e8	0.09819394
195	0x3d4e911c	0.050431356
196	0x3d86be02	0.0657921
197	0x3dc50ea4	0.09621933
198	0x3d274778	0.040839642
199	0x3dc3dfc4	0.09564164
200	0xbd7c470c	-0.061591193
201	0xbd9beb98	-0.07613295
202	0x3d4e0a9c	0.050303087
203	0x3d2bab2c	0.04191129
204	0xbd14fb8c	-0.036372706
205	0xbd845de6	-0.06463222
206	0x3dd4da42	0.10393192
207	0x3dd6d25c	0.104893416
208	0xbd106a30	-0.03525752
209	0xbd36b108	-0.044602424
210	0xbd150720	-0.036383748
211	0xbd1ad280	-0.037798405
212	0x3dba25d6	0.09089248
213	0xbdc899dc	-0.09794971
214	0xbdcbe124	-0.099550515
215	0xbd0f6900	-0.035012245
216	0x38d99000	0.000103741884
217	0x3d9954fe	0.07486914
218	0xbd9797e8	-0.07402021
219	0x3d97358a	0.07383259
220	0xbd902c0a	-0.0703965
221	0x3dd10552	0.10206093
222	0x3caefaf0	0.02135989
223	0x3de8165e	0.11332391
224	0x3ca648f0	0.020298451
225	0xbdaf494c	-0.08558902
226	0xbc037a10	-0.008024707
227	0x3d67d9e8	0.056604296
228	0xbdfca5e2	-0.12336327
229	0x3d916a24	0.07100323
230	0x3dabc412	0.08387007
231	0xbd8f5c3e	-0.07000016
232	0x3c3b3530	0.011426255
233	0xbd954ea2	-0.07290389
234	0xbd233ef0	-0.039854944
235	0x3d9e87f8	0.07740778
236	0xbda4d674	-0.08048716
237	0xbd39a3e4	-0.045322314
238	0x3d1b2e78	0.037886113
239	0xbd136574	-0.035985425
240	0x3dde7afa	0.108633
241	0xbdf7f296	-0.121068165
242	0x3d7969d8	0.060891956
243	0xbd038854	-0.032112435
244	0x3d91b06c	0.07113728
245	0x3c808208	0.015687004
246	0xbd1b6380	-0.037936687
247	0xbd9a8de2	-0.07546593
248	0xbd2a0c80	-0.041515827
249	0x3ba2db60	0.004969999
250	0xbd4bad64	-0.049725905
251	0x3c85c8e8	0.016331151
252	0x3dcb4838	0.09925884
253	0x3da69cca	0.08135374
254	0xbdff6b34	-0.12471619
255	0x3d79721c	0.06089984

fc2.bias f4 [64]
0	0xbdd23db2	-0.10265674
1	0x3db3371e	0.08750747
2	0xbdd649ae	-0.10463272
3	0x3da60b7a	0.08107658
4	0xbda13e66	-0.0787323
5	0xbd7f75c8	-0.062368184
6	0x3cec54a0	0.028848946
7	0x3d77e028	0.060516506
8	0xbcee3f50	-0.029082924
9	0xbde1ef7e	-0.11032008
10	0xbd9afa84	-0.07567313
11	0xbc26c2f0	-0.010178313
12	0xbdcb7ea4	-0.09936264
13	0x3deab4c0	0.114602566
14	0xbded3cf0	-0.115838885
15	0x3d1032dc	0.035204753
16	0x3d8668e8	0.06562978
17	0x3db019da	0.08598681
18	0x3d4257b8	0.047446936
19	0x3df0f12e	0.117647514
20	0x3b939ba0	0.004504636
21	0xbd7b18f4	-0.061303094
22	0x3d5e1114	0.054215506
23	0x3d053114	0.032517508
24	0xbdd3746c	-0.1032494
25	0xbd96f62c	-0.07371172
26	0xbc5648e0	-0.013078898
27	0xbde853b8	-0.11344093
28	0x3cb7b978	0.022427306
29	0xbd9d9cc4	-0.07695916
30	0xbdd813e2	-0.10550667
31	0x3d08c9f0	0.033395708
32	0x3bc7b9a0	0.0060951263
33	0xbd6c8798	-0.0577465
34	0xbcbf31b0	-0.023339123
35	0x3d098044	0.03356959
36	0x3d489e88	0.048979312
37	0xbd1b11a8	-0.037858635
38	0x3d80a0b2	0.0628065
39	0x3ca9c790	0.020725042
40	0xbc8824a8	-0.016619042
41	0xbc9f08b0	-0.019413322
42	0xbd833f2e	-0.06408535
43	0xbd4966e0	-0.049170375
44	0x3a478400	0.0007610917
45	0x3df30c0a	0.11867531
46	0xbb648040	-0.0034866482
47	0xbde21c66	-0.11040573
48	0xbc8174b8	-0.015802726
49	0xbd9c6042	-0.07635547
50	0xbd4c5158	-0.049882263
51	0x3baf5fc0	0.0053519905
52	0x3d6c65c4	0.05771424
53	0x3d59a7d8	0.053138584
54	0xbcd5e1f8	-0.026108727
55	0x3dae3092	0.08505358
56	0x3bce51c0	0.0062963665
57	0x3c900190	0.01757887
58	0xbd2d110c	-0.042252585
59	0x3d551724	0.05202402
60	0x3dd4beec	0.10387978
61	0xbd011930	-0.03151816
62	0xbdf47d4c	-0.11937961
63	0x3db3073c	0.08741614

fc3.weight f4 [6, 64]
0	0xbcc166a0	-0.023608506
1	0x3c9e6950	0.019337326
2	0xbd23a14c	-0.039948747
3	0xbdefa586	-0.11701493
4	0x3bc5e520	0.0060392767
5	0xbdac05da	-0.083995536
6	0x3d9ae9a2	0.07564093
7	0xbc69a730	-0.014261052
8	0x3b9072a0	0.0044081956
9	0x3cd224d0	0.02565232
10	0xbd8e1cb8	-0.069390714
11	0xbdcbdff2	-0.099548236
12	0x3c6e1f10	0.014533773
13	0xbd9978ee	-0.07493769
14	0xbdff0d9e	-0.12453769
15	0x3c85a808	0.016315475
16	0x3dd283fe	0.10279082
17	0x3c7a67d0	0.01528354
18	0x3c828db0	0.015936702
19	0xbdddfa70	-0.10838783
20	0x3da70576	0.081553385
21	0x3d4de584	0.05026771
22	0xbd9105a0	-0.07081151
23	0x3d9eedde	0.07760213
24	0x3de1d29e	0.110265
25	0x3dc4d960	0.096117735
26	0x3dd284d6	0.10279243
27	0x3d299b1c	0.04140769
28	0x3d7a3c50	0.061092675
29	0xbd1ef0ac	-0.03880374
30	0x3d453f04	0.0481558
31	0x3df3c930	0.11903608
32	0xbc345640	-0.011006892
33	0xbce03780	-0.027370214
34	0xbcaf0258	-0.021363422
35	0x3d5af058	0.053451866
36	0x3daa16d4	0.08305135
37	0x3cbc2560	0.02296704
38	0xbd9f6a6a	-0.07783969
39	0x3dc7450c	0.097299665
40	0x3df20328	0.11817008
41	0x3d48d5dc	0.049032077
42	0xbdf7afac	-0.120940536
43	0x3cbb6040	0.022873044
44	0x3d6fd56c	0.058553144
45	0x3d174a00	0.036935806
46	0xbd525904	-0.051354423
47	0x3d796648	0.06088856
48	0x3d69bf0c	0.057066962
49	0x3ca26640	0.019824147
50	0xbd6b37c8	-0.057426244
51	0xbde34b64	-0.11098364
52	0xbcc49b68	-0.023999885
53	0x3d182bbc	0.037151083
54	0x3d020a2c	0.031747982
55	0xbd57d338	-0.05269167
56	0xbd749cd8	-0.05971989
57	0x3c4be360	0.012444347
58	0xbd2810e4	-0.041031733
59	0x3d6a5344	0.057208315
60	0xbc923810	-0.017848998
61	0x3c667ed0	0.01406832
62	0xbce2a8f8	-0.027668461
63	0xbcc4d908	-0.02402927
64	0x3a500300	0.00079350173
65	0x3d9f89d4	0.077899605
66	0xbda91f26	-0.08257894
67	0x3c326e20	0.010890514
68	0x3dec9298	0.11551398
69	0xbda9fc08	-0.08300024
70	0x3d2654fc	0.04060839
71	0xbd4d07a8	-0.05005613
72	0x3de74b64	0.112936765
73	0xbdc14898	-0.09437674
74	0x3d040164	0.03222789
75	0xbdccef78	-0.100066125
76	0x3da22c5c	0.07918617
77	0x3d0695f4	0.03285785
78	0x3c4b0830	0.012392089
79	0xbdfe2812	-0.124099866
80	0xbd2d8780	-0.04236555
81	0x3ddfb588	0.10923296
82	0x3d8d2c76	0.06893246
83	0x3d5e3740	0.05425191
84	0xbdec94fe	-0.115518555
85	0xbcfe5850	-0.03104797
86	0x3d99c912	0.07509054
87	0xbd993806	-0.07481389
88	0xbde4b8f4	-0.111680895
89	0x3cdbc3b0	0.02682671
90	0x3d0c67d4	0.034278706
91	0xbd820802	-0.063491836
92	0x3cdd32f0	0.027001828
93	0xbdc4eed2	-0.09615864
94	0xbd97d130	-0.07412946
95	0x3dc9dd9a	0.0985672
96	0xbdbb5ab6	-0.09148161
97	0x3df19d84	0.11797622
98	0xbdfebe82	-0.1243868
99	0xbdc0fbac	-0.094230026
100	0xbd34e5ac	-0.044164345
101	0x3d2ed368	0.04268208
102	0xbdfd45b8	-0.123668134
103	0xbbf953a0	-0.007608846
104	0xbd13a0f0	-0.036042154
105	0x3dd03aa4	0.10167435
106	0x3ce890e8	0.02838941
107	0xbd4f1940	-0.05056119
108	0x3cbd0110	0.023071796
109	0x3d895afe	0.067068085
110	0x3caa3b78	0.02078031
111	0xbdb4218c	-0.08795461
112	0xbb294dc0	-0.0025833696
113	0x3db46e24	0.0881007
114	0xbc0e5ca0	-0.008689076
115	0x3d9702b2	0.07373561
116	0x3ce611b0	0.028084606
117	0x3d736b94	0.059428766
118	0xbd01ca4c	-0.031687066
119	0xbd9fb758	-0.07798642
120	0xbdec174e	-0.115278825
121	0x3dd42f7a	0.10360618
122	0xbd6971bc	-0.05699323
123	0xbdd8b45a	-0.10581274
124	0xbcef1b28	-0.029187754
125	0xbdd2fa52	-0.10301651
126	0x3d1536e8	0.036429316
127	0x3d976e18	0.073940456
128	0x3c864718	0.016391322
129	0xbd96cf4c	-0.073637575
130	0xbc8c7008	-0.017143264
131	0x3d84ea2a	0.06489976
132	0xbd4dfc08	-0.050289184
133	0x3df93b52	0.121695176
134	0xbd272bdc	-0.040813312
135	0x3b3479c0	0.002753839
136	0xbda98494	-0.082772404
137	0xbd193b2c	-0.037409946
138	0xbac75780	-0.0015208572
139	0xbdd56a68	-0.10420686
140	0xbc95b0d0	-0.018272787
141	0x3ce094e0	0.02741474
142	0xbdd2d08e	-0.10293685
143	0x3d975c50	0.07390654
144	0xbdc7a51a	-0.097482875
145	0x3d6bb1c0	0.057542562
146	0xbdb8a246	-0.09015326
147	0xbdb9abb6	-0.090659544
148	0x3d345fd0	0.044036686
149	0x3dfd62e4	0.123723775
150	0xbdcfc548	-0.1014505
151	0xbdb40c3c	-0.08791396
152	0x3d3ec35c	0.046573028
153	0xbbc14e40	-0.0058992207
154	0xbdd9c392	-0.10633005
155	0x3ca22d80	0.019797087
156	0x3cd74a38	0.026280507
157	0xbde169dc	-0.11006519
158	0x3d507ec4	0.050902143
159	0x3dd934e2	0.1060579
160	0xbc1a95a0	-0.009435087
161	0xbdf0b198	-0.11752623
162	0xbda34062	-0.079712644
163	0xbd250670	-0.040289342
164	0xbd37db30	-0.044886768
165	0x3bba4fe0	0.0056857914
166	0xbd631c58	-0.055446953
167	0x3db385ec	0.08765778
168	0x3dbe69ce	0.092975244
169	0xbd98e476	-0.074654505
170	0x3c8a5268	0.016884997
171	0x3d22d95c	0.03975807
172	0x3db36fd4	0.08761564
173	0xbd4f8ce4	-0.050671473
174	0x3d1562bc	0.036471114
175	0x3d123318	0.035693258
176	0x3ddebffe	0.10876463
177	0x3d59f274	0.053209737
178	0xbd323a40	-0.043512583
179	0xbdca1886	-0.09867959
180	0x3dee4b80	0.11635494
181	0xbd600eac	-0.054701492
182	0xbdecf4dc	-0.11570141
183	0x3d410e74	0.047132924
184	0x3cea6980	0.02861476
185	0xb8388000	-4.3988228e-05
186	0x3de7de56	0.11321704
187	0x3d9b068a	0.075696066
188	0xbb86d6e0	-0.0041149706
189	0x3d9cff78	0.07665914
190	0xbdba18a6	-0.090867326
191	0xbd0d047c	-0.034428105
192	0xbdac678c	-0.084181875
193	0xbd2797f0	-0.040916383
194	0xbd24bfcc	-0.040221974
195	0xbcaeb0d0	-0.021324545
196	0x3a126000	0.0005583763
197	0x3d8c2f8c	0.06845006
198	0xbc5b2710	-0.013376012
199	0x3d578480	0.052616596
200	0xbb450940	-0.0030065328
201	0x3d8535b4	0.06504384
202	0x3bbb9340	0.0057243407
203	0xbc7302a0	-0.014832169
204	0xbcb7c480	-0.022432566
205	0xbd689178	-0.056779355
206	0x3dee50d2	0.11636509
207	0xbd83a526	-0.06427984
208	0xbd851b08	-0.064992964
209	0xbd7b2c70	-0.061321676
210	0x3dbfbbc2	0.09361984
211	0x3de07bb0	0.109610915
212	0x3d5311fc	0.051530823
213	0xbd1825c4	-0.03714539
214	0xbdd7f11a	-0.10544033
215	0xbd0bdfd8	-0.03414902
216	0x3c6a8140	0.014313042
217	0xbb95dd00	-0.0045734644
218	0xbd13b178	-0.03605792
219	0x3c00bf50	0.007858112
220	0x3c941f20	0.018081248
221	0xbb9b8c60	-0.0047469586
222	0x3c668140	0.014068902
223	0x3d4b2d00	0.049603462
224	0x3c02ee20	0.007991344
225	0xbcef3208	-0.029198661
226	0xbdb0d5f0	-0.08634555
227	0x3d8d9d20	0.06914735
228	0xbda25780	-0.079268456
229	0x3bbdfba0	0.0057978183
230	0xbd9cf8bc	-0.0766463
231	0x3d19e30c	0.037570044
232	0x3d315ddc	0.043302402
233	0xbd7b81d4	-0.06140311
234	0x3ccdf528	0.025141314
235	0xbdc0b3d2	-0.09409298
236	0x3cd17e28	0.025572851
237	0xbd68bb54	-0.056819275
238	0xbc0df860	-0.008665174
239	0xbc5e0970	-0.013552055
240	0xbcf01030	-0.029304594
241	0xbdda9db6	-0.10674612
242	0xbc50ef10	-0.012752309
243	0xbce83228	-0.028344229
244	0x3d0de508	0.03464225
245	0x3da15e6e	0.07879339
246	0xbd172aec	-0.036906168
247	0xbcff7c00	-0.031187057
248	0x3d993844	0.07481435
249	0xbc2e57d0	-0.010641053
250	0x3dee3c5c	0.116326064
251	0xbd6baa00	-0.05753517
252	0x3d4c3888	0.0498586
253	0xbd25e10c	-0.040497825
254	0x3db009f0	0.085956454
255	0xbc93b540	-0.018030763

fc3.bias f4 [6]
0	0x3bc6cbc0	0.0060667694
1	0x3dd2dfc4	0.10296586
2	0xbc1abb20	-0.009444028
3	0x3d1e2348	0.038607866
4	0x3df2cd0c	0.11855516
5	0x3d84d166	0.06485252
