checkpoints/model_0.5_200.pth (torch, 25220 bytes, 6 tensors)

fc1.weight f4 [64, 16]
00000000: c0e5 bfbb a4f3 63be 98ef 09be 8038 383d
00000010: ec74 983d da15 5bbe 96e3 21be 0469 843d
00000020: 4a13 21be 323d 2fbe c033 813b 9606 113e
00000030: 4068 c6bb 6677 4c3e 9e5b 633e 8014 b5bc
00000040: d051 01bf 6bab 5abe f01f 4b3d 60c2 2c3c
00000050: cc23 343e 1f71 47be aba6 89be 787b fcbd
00000060: d623 c3be 7743 3ebe 18ed 96be 53e8 84be
00000070: 5859 01be 761c 04be d109 d1bd 60f1 b8bc
00000080: bc9b e1be faa0 cdbd 3a34 13be 6243 14be
00000090: e222 79be 0226 27be 8d52 c7bd 9862 84bd
000000a0: 0c26 59bc feec 8fbe 0685 2dbe d659 aabe
000000b0: f429 84bd 7385 09bf ffc6 80be 808e 99bb
000000c0: fcd9 fcbe d5e7 05be 1cbe 543e eea2 6dbe
000000d0: 44e5 9a3d b3fa 56be 540b afbe a053 313c
000000e0: aa32 e5bd a8be babe 77a7 d2be be04 e2be
000000f0: 5a22 78be 3b03 62be c6d1 c2bd 3a0f 463e
00000100: 062f 28be 2c01 4bbe 44b7 653e 1077 723d
00000110: b2f6 603e 80ce 94bf c858 91bf 0607 34be
00000120: 6922 9abf 52ec 86bf c4f5 62bf 4809 12be
00000130: 9001 32be 0824 87bf 8438 f9bd 5278 65bf
00000140: 7860 87bd 5cde e9bd 0683 523e 8044 b0bc
00000150: 9021 483e a8f4 17bd 3847 1d3d 6806 60bd
00000160: f0d6 b8bc 42f1 00be 2885 723e 48ff 95bd
00000170: 6c60 45be 5ee8 3c3e 6c64 653e 269d 0fbe
00000180: af12 11bf d92d 7cbd 70f9 a7bc ea7c 29be
00000190: c091 763e 713c 59bd ef7a babd eea4 4fbe
000001a0: 61f6 4fbe d35f ebbd 9b66 3ac0 193e 853f
000001b0: 6bda 27c0 db9f 333f 3d9c e03f e476 4cbd
000001c0: 61ff 11bd ecd6 9bbe 7ef7 74be 009a d73b
000001d0: 80e2 683d d674 c4be f686 c3bd 8cef 58be
000001e0: 51e5 82bd 5587 ebbe 4d37 0f3e 69ee 31be
000001f0: f279 743e 13c8 b7bd 4dc1 e5bd 96f3 0f3e
00000200: 5405 843d 5e52 1abe b284 733e d483 69be
00000210: e67c 413e 2c03 2a3e 60e9 d5bd 80a5 163c
00000220: ac5a 95bd d0c0 f9bc 609a bfbd 642b 75be
00000230: 6013 023c 7eaa 44be 0e91 74be 6e2e 19be
00000240: 2bf8 dfbd 6001 8ebc 4018 0ebd 7603 523e
00000250: 98ef 583e d402 88bd 6547 90bd a0c3 2bbc
00000260: 32ab 8dbe 6188 96be 5c01 6dbe 8e2c a5be
00000270: ba80 17be d4f3 80be 49cb c6be 20f0 ab3c
00000280: b06f 97bd f470 92be 548c 7dbe 4875 d0bd
00000290: 000d b03c 4880 973d eef3 a7bd 18e9 5c3e
000002a0: c734 adbe e58f c93d 22ce 93be 57bb 94be
000002b0: 68da 7abe 6223 7dbe 31a9 f2be 68a0 26be
000002c0: b539 473d 6778 16be 1648 4dbe 38e0 46be
000002d0: 7469 f8bd 3b0a ce3d 8ea3 88bc 40bc 313e
000002e0: 6a46 b5bd 9358 febd b21b 90be 3c27 073e
000002f0: 887e 7fbe c5b4 c6bd 8074 e6be 4040 00bc
00000300: b74a dabd 097e e2bd c2e6 3b3e 3077 093e
00000310: de45 4e3e 524e b4be b37b debe c899 893d
00000320: a669 f6be 1b34 01be 52c6 013f ba6b 84be
00000330: dc2d 663e f13a b2be a1f4 8cbd 2eaf 3dbe
00000340: 0091 903b 24d3 4c3e 28f4 c63d 60a2 483c
00000350: 987c 933d 78ce 71be c8da 213e c6bc 0a3e
00000360: 7035 13be 88e0 e0bd 5c81 6abe 744e 053e
00000370: 7022 b33d ea70 78be bc7c be3d 808a 253d
00000380: ac47 633e 2491 803d e471 b3bd 8434 8c3d
00000390: bc91 e7bd 5424 68be 061b 5ebe bc18 203e
000003a0: 1082 b0bd 2094 07bd a8d1 023d 3065 d43d
000003b0: d804 3b3e 2206 393e e02a 593e 7e74 553e
000003c0: a1dd 6cbe 3ca1 97c1 00e5 6abe bcac ac3d
000003d0: 1062 2dbe 9eb3 013e 2b57 b63e 8016 b6bb
000003e0: f512 df3e 13f3 bf3e 2a6c ea3d 4544 11c0
000003f0: 62ca 963f c909 2541 5db2 ffbe 47c5 443f
-0.0058562458 -0.2226091 -0.13470304 0.044975758 0.07444176 -0.21395054 -0.15809473 0.06465343
-0.15730014 -0.17113188 0.0039429367 0.14162669 -0.006054908 0.19967422 0.22202918 -0.022104502
-0.5051546 -0.21354453 0.049591005 0.0105443895 0.1759178 -0.19476746 -0.2688497 -0.12328237
-0.38113278 -0.18580423 -0.29477763 -0.259585 -0.12631738 -0.12901482 -0.102069505 -0.022576034
-0.44064128 -0.100404695 -0.14375392 -0.1447883 -0.24329713 -0.16323093 -0.09732542 -0.06464118
-0.0132537 -0.28110498 -0.16945276 -0.33271664 -0.064533144 -0.5371925 -0.25151822 -0.004686177
-0.4938506 -0.13076718 0.20775646 -0.23206684 0.0756326 -0.20994072 -0.3418833 0.01082316
-0.11191304 -0.36473584 -0.4114339 -0.44144243 -0.24231854 -0.22071545 -0.09512667 0.19341746
-0.16424188 -0.19824666 0.22433192 0.059195578 0.21969107 -1.1625519 -1.1355219 -0.17580804
-1.2041751 -1.0540869 -0.8865626 -0.14261353 -0.17383409 -1.0557871 -0.121689826 -0.8963672
-0.06610197 -0.11419365 0.20557794 -0.021517038 0.19544053 -0.037098557 0.038397998 -0.05469361
-0.022563428 -0.12592033 0.23683608 -0.07324082 -0.19275063 0.18448016 0.22401589 -0.14024791
-0.56669134 -0.06156716 -0.020504683 -0.16551557 0.24079037 -0.053036157 -0.09105479 -0.2027776
-0.2030883 -0.114928864 -2.9125125 1.0409576 -2.6227062 0.70165795 1.754768 -0.04991807
-0.03564394 -0.3043741 -0.23922536 0.0065796375 0.056856632 -0.3837039 -0.09547226 -0.2118513
-0.06391395 -0.46001688 0.1398594 -0.17376103 0.23874643 -0.08973708 -0.1121851 0.14057764
0.06446329 -0.15070483 0.23781088 -0.22804195 0.18895301 0.16602772 -0.104449034 0.009194732
-0.07292685 -0.030487448 -0.093556166 -0.23942333 0.00793919 -0.19205663 -0.23883459 -0.14959118
-0.10936006 -0.01733464 -0.034691095 0.20509133 0.21185148 -0.066411644 -0.070448674 -0.010483652
-0.27669674 -0.29400924 -0.2314505 -0.32260555 -0.14795199 -0.25186026 -0.3882697 0.020988524
-0.073943496 -0.286018 -0.24760562 -0.101786196 0.021490574 0.073975146 -0.08200823 0.21573293
-0.33829328 0.09841899 -0.28868204 -0.2904918 -0.24497378 -0.24720529 -0.47394708 -0.16272128
0.048639018 -0.14694367 -0.2004703 -0.1942147 -0.121294886 0.10060545 -0.016679551 0.17356968
-0.08851321 -0.12419238 -0.2814613 0.1319856 -0.24950612 -0.09702448 -0.45010757 -0.007827818
-0.10658782 -0.110591955 0.18349746 0.13424373 0.2014384 -0.35216004 -0.4345375 0.067187846
-0.48127478 -0.12617533 0.5069324 -0.2586344 0.22478431 -0.34810594 -0.06882597 -0.18523857
0.0044118166 0.20002419 0.09714538 0.0122457445 0.07201499 -0.23613918 0.15806115 0.13548574
-0.14375854 -0.10980326 -0.22900909 0.13018209 0.08746803 -0.24261823 0.09301135 0.040415287
0.2219531 0.062776834 -0.08761957 0.06845954 -0.113070935 -0.22670108 -0.21689996 0.15634435
-0.086185575 -0.033100247 0.031938225 0.103708625 0.18263566 0.18068746 0.21207762 0.2084522
-0.2313142 -18.953728 -0.22938919 0.08431384 -0.16931939 0.12666175 0.3561338 -0.0055568814
0.4356915 0.37490138 0.11446412 -2.2697918 1.1780512 10.314889 -0.49940768 0.7686352

fc1.bias f4 [64]
00000000: 7eb7 55be 955d 76be dc6d ecbd f370 d4be
00000010: 7d46 91bf 641a 11be 30bd c5bd bc9b 84be
00000020: 3428 65be 0d59 02be 3dbb 0c3c 11bf 11bd
00000030: b044 1cbe cce7 75be 6c94 f83d 093e c63d
00000040: a4b3 7dbe 1ca3 34be 5cbb 30be 56fa 21be
00000050: a2f8 16be d095 d9bc 308b 27be f24c 463e
00000060: 08cf 8f3d 1fc9 d8bd e439 303e cc9b bf3d
00000070: 68fd 4d3d 3106 3fbf 049d 0e3e 793c 2a3e
00000080: 60cb 64be b3e8 98be 2487 ba3d b887 bbbd
00000090: dfab e9bd 70a5 95bc a118 0dbf 0686 10bf
000000a0: 9646 4e3e ae82 e4be fba8 bdbe 51e8 22be
000000b0: a0fe 903d 3b7e abbe f8e1 45be 7dc5 c2be
000000c0: 3288 d2bd 0786 a6bf 597a 99be ce78 bbbd
000000d0: 4657 7dbe 03ef 403c e8e3 6ebf c079 30bd
000000e0: 2c5b 34be c66e 9cbf 87c3 9abf 499d 2cbf
000000f0: fb40 b3be f30a 04be 9090 f0bd be18 03bf
-0.20870778 -0.24059136 -0.115443915 -0.41492423 -1.1349636 -0.14170223 -0.09655225 -0.25900066
-0.22378618 -0.12729283 0.008589563 -0.035582606 -0.15260577 -0.24014205 0.12137684 0.09679801
-0.24775559 -0.17640346 -0.17258972 -0.15818152 -0.14743283 -0.026560694 -0.1636169 0.1936529
0.0702191 -0.10585236 0.17209584 0.09355888 0.050290495 -0.7461882 0.13927084 0.16624631
-0.22343206 -0.29865035 0.09107807 -0.09156746 -0.11409735 -0.018267363 -0.55115706 -0.56454504
0.20144114 -0.4463095 -0.37042984 -0.15908934 0.07079816 -0.33494744 -0.19324481 -0.38041297
-0.102798834 -1.3009652 -0.29976156 -0.09153901 -0.24740323 0.011775735 -0.9331651 -0.04308486
-0.17612904 -1.2221305 -1.209092 -0.674275 -0.35010514 -0.12894802 -0.11746323 -0.5120963

fc2.weight f4 [64, 64]
00000000: 9c72 7dbd 9f12 a63e 3497 773c cd62 093e
00000010: 8a67 a43d a8d7 943d 3623 9bbd 5c9c 40bd
00000020: d276 a9bd 8fc9 5d3e 6149 0bbd af57 433e
00000030: 0e82 bf3e bcfe 643d 2a5b b9bd 8d65 a4be
00000040: e83d af3c 8f86 42bc a170 8ebe 5576 1fbd
00000050: e089 f6bc 6c0c c0bd a234 e2bd 4038 1ebc
00000060: ac07 82bd 8e30 66c0 1800 853c 20da f1bb
00000070: e22a b0bd 6ae6 713f 6a5c afbd 6372 373d
00000080: 6ea7 913d ef6f 7a3c e0e9 4abd dc69 ad3d
00000090: 7851 0abd 4c5c 873d 2f9a 1e3e aaaf 5a3e
000000a0: ea0a d7bd 9c34 833e 4e15 8e3d a1e1 8ebe
000000b0: 6458 0d3d 8fd6 9a3e c810 ce3c 49ec 983e
000000c0: 692f 9dbd d7b7 6abf 1ac3 973d d953 223e
000000d0: 4e96 673e de3f f63c 2376 08bf a022 d0bb
000000e0: bcbc 4ebd 2ca3 ccbd 6323 8fbf a6b7 19bf
000000f0: f8db 9d3e 52e0 8b3e 5c55 4abd ae90 523e
00000100: 8091 32bc 882f c1bd 7003 41bc bab3 c7bd
00000110: a6f9 fa3d d226 c2bd 596a 8d3e 36d4 8d3d
00000120: fef4 fb3d 0008 cbbc 2c79 ae3d bb61 9a3e
00000130: 8086 65bc 988f babd b026 b2bd f44b 85bf
00000140: a8d4 fdbc 5a5f fd3d f889 c23d cf6c 9bbe
00000150: 0004 c73d 30d3 ea3c 98bf 5ebd 10d8 7c3d
00000160: 2840 ddbc 12b2 0cc1 4e03 c0bd f8e4 913d
00000170: 803e 96ba e068 d63c 98ee 5bbd 6116 943d
00000180: 6606 aa3d 8a18 a0bd 00c6 e2bb f424 26bd
00000190: 348a a3bd 1401 94bd 61c5 3bbe 1d18 59be
000001a0: dc34 cbbd 90b8 523d 5eb1 a1bf 3ccf 8cbf
000001b0: 4810 27bd 58db b73c 4cf2 1f3d 4874 2f3d
000001c0: 9f74 0c3d 5fef 3ebf 1cc1 8f3d ec70 63bd
000001d0: 9c40 823d 9c25 c6bd 3874 05be f856 f83c
000001e0: 5252 fbbd ae83 eabd 2490 fcbf 93fb 63c0
000001f0: 780d 423d c4f5 533d 943d b73d 4011 123c
00000200: d2d7 fd3d 12fc c1be 3d2c 9ebe e931 c2be
00000210: e089 dbbc 1aab e83d 7972 88be f8e4 aabe
00000220: f022 c8bc 8e18 61be 87e4 6bbe 0d30 91be
00000230: 873d 94be 1426 dcbd a880 44bd d232 a2be
00000240: d8cb 623d c91c 75be 58a1 b3be 57ad 4bbe
00000250: c0f6 a5bc 76c6 c0bd bec0 833d 1077 f73d
00000260: fc11 ffbd 369e 36be 544e 543d d408 fdbd
00000270: d829 44bd 643f a63d e864 053d 006a 59be
00000280: 3ebf bebd 3b4a 9ebe e63f 83bd ec47 28bd
00000290: 6ae4 c3be b072 603c 54a6 babe 2311 a7be
000002a0: 54ac c63d 70b9 5cbe 1223 9cbe 304a acbe
000002b0: f81c c63d 8b75 a6be 50db 583d aa96 5cbe
000002c0: f264 3fbe 6b92 81be d755 b0be 43f1 c7be
000002d0: 17a7 bcbe e6df c7be c210 9abd 80ca 3a3d
000002e0: d867 333d 107c edbc caf9 69be c5b0 90be
000002f0: 91cd c3be 9af5 b0be 00e2 97ba b671 92be
00000300: 5a45 93bd c224 8fbe 2a39 61be c2e1 c6be
00000310: 96aa b03d 4003 213d 64cf c0be 7b3a 9abe
00000320: f868 16bd 4b9b 7cbe 0caf b7be 76cf a63d
00000330: 187c eabd 9e92 a63d 38b0 46bd 830a 94be
00000340: 2456 bebd 9780 cabe 0025 87be 5850 5cbe
00000350: f6c4 c3bd 6029 e5bc 0afe d63d b44e 31bd
00000360: 6025 2dbc 8e0d a0be 2061 143d 3872 cf3c
00000370: b06c 4cbd 9c92 a6bd c28b 9b3d 51a3 8cbe
00000380: 0491 06bd 1929 37be 0af4 9b3d 0ed2 f6bd
00000390: aa5b 80be ca3f fc3d f4c5 cdbe 33e1 abbe
000003a0: da85 96bd d8b5 b4be e911 c2be 72b6 85be
000003b0: 8c23 a33d b5f5 70be b429 253d 3f92 a2be
000003c0: b6a2 48be fcba d3be c509 b0be 1dd5 99be
000003d0: 3893 2d3d d9fc 5dbe c490 3ebd 8021 e03c
000003e0: 181b c23d 545c 99bd be0d 98be 9f26 81be
000003f0: 5266 b8be b6bc c6be e01f 423c 2b03 8ebe
-0.06187688 0.32436082 0.015111733 0.13416596 0.08027561 0.07267696 -0.07575075 -0.047024116
-0.08274616 0.2165892 -0.034005526 0.19076417 0.3740391 0.055906996 -0.09050591 -0.32108727
0.021391824 -0.011872902 -0.27820304 -0.03893121 -0.03009504 -0.09377369 -0.11045195 -0.009656966
-0.063491195 -3.5967135 0.016235396 -0.007380739 -0.08601929 0.9449221 -0.085625485 0.044786822
0.07112013 0.015285476 -0.049539447 0.08467457 -0.0337691 0.06609401 0.15488504 0.21356073
-0.105001286 0.25626075 0.06937657 -0.27906516 0.034508124 0.3024182 0.025154486 0.2986777
-0.076750584 -0.9168677 0.074102595 0.15852298 0.2261593 0.030059751 -0.5330526 -0.006351784
-0.05047296 -0.0999206 -1.1182674 -0.6004585 0.30831885 0.2731958 -0.04939781 0.20563003
-0.010898948 -0.09432894 -0.011780605 -0.09751077 0.12254648 -0.09480061 0.276202 0.06925242
0.12302588 -0.024784088 0.085192055 0.30152687 -0.014009118 -0.091094196 -0.08698785 -1.0413804
-0.030985191 0.123717025 0.09498972 -0.30356452 0.0971756 0.028665155 -0.054381937 0.06172949
-0.027008131 -8.793474 -0.0937563 0.071237504 -0.0011462718 0.026173055 -0.053694338 0.07230831
0.08302002 -0.078171805 -0.006920576 -0.040562585 -0.079853445 -0.07226768 -0.18337013 -0.21200605
-0.099221915 0.051445544 -1.2632253 -1.1000743 -0.04078701 0.022443458 0.03904943 0.042835504
0.034290906 -0.74584 0.070192546 -0.055527613 0.063599795 -0.09675142 -0.13032615 0.030314907
-0.12271561 -0.11450897 -1.9731488 -3.5622299 0.047376126 0.051748052 0.08947292 0.0089152455
0.1239468 -0.37887627 -0.30893126 -0.37928703 -0.026799142 0.1136076 -0.26649836 -0.33377814
-0.024430722 -0.21982023 -0.23036395 -0.28356972 -0.28953192 -0.1074945 -0.04797426 -0.31679398
0.05537018 -0.23936762 -0.35084033 -0.19890343 -0.020259261 -0.094128534 0.06433247 0.12083256
-0.12454602 -0.1783379 0.051832512 -0.123551995 -0.047891468 0.081175596 0.032566935 -0.21231842
-0.0931382 -0.30916008 -0.06408672 -0.041084215 -0.38260204 0.013699219 -0.36455023 -0.32630262
0.09700838 -0.21555114 -0.30495507 -0.3365035 0.09673494 -0.32511553 0.052943528 -0.21541849
-0.18690851 -0.2530702 -0.3444049 -0.39051256 -0.3684623 -0.39038008 -0.075227275 0.045603275
0.043800205 -0.028989822 -0.22849193 -0.28259864 -0.38242772 -0.3456238 -0.0011587739 -0.2860238
-0.07190962 -0.2795773 -0.21994463 -0.38844115 0.08626287 0.03930974 -0.37658226 -0.30122742
-0.0367212 -0.24668615 -0.35875738 0.08145039 -0.1144945 0.08133434 -0.0485079 -0.2891427
-0.09293774 -0.3955123 -0.26395416 -0.21515024 -0.09559052 -0.02797383 0.10497673 -0.043287948
-0.010567993 -0.3126034 0.036225438 0.025323018 -0.04990834 -0.08133432 0.07595016 -0.2746835
-0.03285314 -0.17886771 0.07614906 -0.120517835 -0.25069934 0.12316854 -0.4019009 -0.3357025
-0.07349749 -0.35294986 -0.3790429 -0.26115757 0.079657644 -0.2353123 0.040322974 -0.31752202
-0.1959332 -0.41353595 -0.34382454 -0.30045405 0.042376727 -0.21678485 -0.046524778 0.027359724
0.09477824 -0.07488313 -0.29697984 -0.25224778 -0.36015564 -0.3881585 0.01184842 -0.27736792

fc2.bias f4 [64]
00000000: 0c4a b6bd b82f 10bf 3854 6fbe da65 bdbe
00000010: 5f2c 56c0 cbf9 85bd b773 52bf ffda a1be
00000020: 61f8 56bf 4f61 43be 311e a0be 851b 86bf
00000030: d9c8 6fbe 85cd bcbe eea2 9ebe 8a29 40bf
00000040: 03bb e0bf 6928 73bd 8e10 0dbe 5388 06bc
00000050: 8449 91bf 0f6c ffbf e20b a4be 694d 9dbe
00000060: 225f 83bd d2f3 edbf ded5 dbbe 9d7b d9be
00000070: f8fd f6bf b309 2cbd ffe1 25bf 3d00 88be
00000080: 93b0 ccbf 21a2 91be 24d7 25bc 7191 b2be
00000090: 0704 dfbf 11a4 28be d0a1 b5bf fc25 bbbd
000000a0: 27a9 b9be c5e5 5dbd 6db6 19bf fa1f d1be
000000b0: 7d62 b43f 7954 65be 80ef 82bf 9aa9 90be
000000c0: b086 ddbe 813e b8be d615 debf a06b 5bbe
000000d0: 6e0d 42bd 38a7 cdbf 7072 4bbf 9337 0dc0
000000e0: 230a d4bc 1ffe 41bf 0520 bbbf 37ee bebe
000000f0: 89bb 57bf 4eab 51bf 42fe aabe b313 bdbe
-0.08900842 -0.56322813 -0.2337197 -0.3699177 -3.3464582 -0.06541785 -0.82207817 -0.31612393
-0.83972746 -0.19080089 -0.31273034 -1.0477148 -0.23416461 -0.3687555 -0.3098368 -0.75063384
-1.7557071 -0.05936471 -0.13775846 -0.008211213 -1.135056 -1.9954852 -0.32040316 -0.30723122
-0.064146295 -1.8590033 -0.42936605 -0.42477122 -1.9296255 -0.042001437 -0.6479797 -0.26562682
-1.5991386 -0.28444007 -0.010122094 -0.34876588 -1.7423104 -0.16468836 -1.4190006 -0.09138104
-0.36261865 -0.054174203 -0.60043985 -0.4084471 1.4092556 -0.22395505 -1.022934 -0.28254396
-0.4326682 -0.35985187 -1.7350414 -0.21427774 -0.04737609 -1.6066656 -0.7947149 -2.206517
-0.02588374 -0.75778383 -1.4619147 -0.37291119 -0.8427053 -0.81902015 -0.33397108 -0.36929092

fc3.weight f4 [6, 64]
00000000: ae63 15bf 68f9 3ebf b8b6 a2be 2dfa 933e
00000010: 44cd 0bbe 838b 27be f4ff 703d 9435 a5be
00000020: cad9 d4bf d79f b2be df16 7b3e d587 80bf
00000030: a282 c43e aeda 40be 761d 82be cf60 46bf
00000040: 54b3 b13f 3da6 e43e 42f8 b13d 0e10 bd3d
00000050: 6e28 763f 5770 a33f ff83 6ebe b846 bdbe
00000060: a902 01bf 207b f33f 947f 2bbd 9c0c 3cbe
00000070: ae8a 47bf cca5 a6bf 4dca 83bf 5d43 0f3e
00000080: 6ca9 a13f 2366 d33e 8fd4 83be b7bd 5e3f
00000090: c5a4 e53f 1776 cc3e edcf fe3f 0196 9d3e
000000a0: 1e8d bbbe 2fd2 88c0 fb29 ce3e 6be3 f9be
000000b0: cc55 10be 9f49 aa3e bc54 8c3f 2c96 c6be
000000c0: 78c4 c53e dc42 bb3e 673a eb3e 62ec 6fbe
000000d0: bb00 323f a6a5 c1bf 0cc4 3bbf 0f03 cfbe
000000e0: 395c 003d d292 893d a4b3 06be 1a26 bb3e
000000f0: 346a 5dbe d542 a5bd 4e86 9dbe ac65 5f3e
00000100: bf46 da3d 0c40 8b3f 4879 b03e aac1 97be
00000110: 05a5 0bc0 4380 153e fc1a 9fbd 341c 5b3e
00000120: 3dc7 e23f 02c5 5a3e 4bd9 aebd 9b14 8e3f
00000130: d2a7 01bf 9174 623e a557 833e 560d 2ebf
00000140: 7f5f a83e 6bd3 933d 77ed d43d 5792 43bc
00000150: 1340 86bc d5fb 653e 9592 b93e 5031 be3e
00000160: 4644 ae3f 43cc bebf 674c 64be 73b1 593e
00000170: d2dd 16bf 600f 2dbf d6d1 dd3d 3668 90be
00000180: b812 e9bc 2921 5dbe 6b58 8ebd 3dc1 ac3f
00000190: df13 fdbf 8994 a4be 4c67 e7bf 4aa1 e73d
000001a0: e54d d9be 378d 5e40 de87 9c3d 5cae 243e
000001b0: ae8b 1cbe 7f06 24be a05c 0dbc a365 b53e
000001c0: e616 f8be b2bc cdbe 1d08 88bf d79e a63e
000001d0: 5cd4 14be 93da b63f 5dc3 6a3e f88a a1be
000001e0: 5c59 9abc 0cde 703d 5494 8ebf 3688 7ebe
000001f0: 36be 79be 9317 e43e d7d1 383e f45d 113e
00000200: ae7b 05be 79ec 023f 095a a13e 4a92 d03e
00000210: 78cd 0abe c334 90bd 00ef bebb 1a85 b53e
00000220: 94e2 0fbe 4600 5c3e 88ba 7dbe def7 e03e
00000230: 5705 513c 76c5 373e ad19 373e 9611 fcbd
00000240: d25e f3bd ef51 a4bd 35b2 423d 9389 54bc
00000250: dd39 c6be f73f 553e 3a7e 3c3e f1a6 b33e
00000260: f20f 4dbf 5359 c53f b6a3 f0bc 2e05 d73e
00000270: b280 d4bf 11cb 25be c8eb 0a3e f1af a23e
00000280: 28c4 13be 3a5c 843e ecaf 883c 8623 af3e
00000290: b64f 9a3f ebd8 a33d 93b9 a1bf bcf4 02be
000002a0: 808b a33e 0281 d6bd f0be 253d 53b3 f7bd
000002b0: 3fc6 bdbe 54cb 4abe 0032 20bd 919a c33e
000002c0: 0810 593e a1e8 993e 8e58 9ebf f74b 6d3e
000002d0: 31f0 74be 9e27 d03f 45c2 6bbf 27d2 b93e
000002e0: e6b5 2e3e 28b6 b5bd 9e6b 9fbf 8b2d a33e
000002f0: 442c 69bc c693 a2bd 8123 bd3e 3522 4abe
00000300: f825 ba3e d884 233f 5f08 38be be9a f5bd
00000310: 7ea2 0e3e e51a 303d 3c79 dc3d 4d1b a4be
00000320: 17c3 4dbe 3e97 49be 4aac c73e 44a1 eabe
00000330: cc16 b63d f111 d1be d8a9 cb3d 4dd0 283f
00000340: 9fa0 9dbf 6123 dabd 2848 513e e8b5 6a3c
00000350: b787 a3be 0239 f2bf 9e75 99be 6d79 9bbe
00000360: c604 833e 7ae1 b7bf 467e 963c 072a 72be
00000370: 64dc e43f 1d6c d0be 71c2 b8bd b73c 6a3f
00000380: a71e 03bf 655a 84be 2aec f33c 470f b03e
00000390: 5bbb a2bf ef47 b63d 3f33 153f 1d4d 9f3e
000003a0: 3dcd 92be ea05 bdbe d0cd 88bc 265a 8c3d
000003b0: 2b13 5a40 cddd cb3e 6091 febd 07e4 44be
000003c0: 3cbc 7abe e2ba febd c7b8 c33f ed27 ccbe
000003d0: 4211 683e 0f4e ccbf 30c4 2fbf 85a6 fabe
000003e0: c881 293e 36e0 1abf 89a3 9f3f 14da 5cbe
000003f0: 15ca a1be f879 233e 9b84 b6be 0815 9a3e
-0.58355224 -0.74599314 -0.31780028 0.28901806 -0.13652521 -0.16361813 0.058837846 -0.3226744
-1.6628964 -0.34887573 0.24520443 -1.0041453 0.38380915 -0.1883342 -0.25413102 -0.7749147
1.3882852 0.4465808 0.086899295 0.09231578 0.9615544 1.2768658 -0.2329254 -0.36968017
-0.50394684 1.902195 -0.041869715 -0.18364185 -0.77945983 -1.3019347 -1.0296112 0.13990541
1.2629828 0.41288862 -0.25748107 0.8700823 1.7940909 0.39933845 1.9907204 0.30778506
-0.366311 -4.275657 0.40266404 -0.4880632 -0.14095229 0.33259293 1.0963359 -0.38786447
0.38626456 0.36574447 0.45942995 -0.23430017 0.69532365 -1.5128677 -0.7334602 -0.4043202
0.03133795 0.06717457 -0.13154465 0.36552507 -0.21622545 -0.08069388 -0.3076653 0.21816128
0.10658025 1.087892 0.3446753 -0.2963994 -2.181947 0.14599709 -0.07768819 0.21397477
1.7717053 0.21364215 -0.08537539 1.1100038 -0.506467 0.22114779 0.25652805 -0.679891
0.32885358 0.07218059 0.10396855 -0.011936746 -0.016387975 0.22459348 0.36244646 0.37146997
1.3614585 -1.4906086 -0.2229477 0.21259098 -0.5893222 -0.67601585 0.10831039 -0.28204507
-0.028451309 -0.21594681 -0.06950458 1.3496472 -1.9771689 -0.32144573 -1.8078399 0.1131006
-0.4244224 3.477369 0.07643102 0.16082138 -0.15287659 -0.16018103 -0.008628041 0.35429105
-0.4845497 -0.40183026 -1.0627476 0.3254306 -0.14534134 1.4285454 0.22926088 -0.31551337
-0.018841438 0.05880551 -1.1139016 -0.24856648 -0.24388966 0.44549236 0.18048798 0.14195997
-0.13035461 0.5114208 0.31514004 0.4073661 -0.13554943 -0.070413135 -0.005826831 0.3545311
-0.14051276 0.2148448 -0.24778187 0.43939108 0.012757621 0.17946419 0.17880888 -0.12308042
-0.1188332 -0.0802344 0.047533233 -0.012972253 -0.3871602 0.20825182 0.18407527 0.35088304
-0.80102456 1.5417885 -0.029374938 0.4199614 -1.6601775 -0.16190745 0.13566506 0.31774858
-0.14430296 0.25851613 0.016685449 0.3420679 1.2055576 0.08000358 -1.2634758 -0.12788671
0.31942368 -0.10473825 0.040465295 -0.1209475 -0.37065312 -0.19804126 -0.039110184 0.38203862
0.21197522 0.30060294 -1.2370775 0.2317351 -0.23919751 1.626209 -0.92093307 0.36293146
0.17061576 -0.08872634 -1.2454717 0.31870684 -0.014231745 -0.07938342 0.3694115 -0.19739611
0.36357093 0.6387458 -0.17971943 -0.11992405 0.13929173 0.0429944 0.10765311 -0.3205208
-0.20093952 -0.196866 0.38998634 -0.4582616 0.08891067 -0.40834 0.099445045 0.6594284
-1.2314643 -0.10651279 0.20437682 0.014325596 -0.3193948 -1.8923647 -0.29972547 -0.30366078
0.2558958 -1.4365685 0.018370759 -0.23648845 1.7879758 -0.40707484 -0.09021462 0.91498893
-0.51218647 -0.25850216 0.029775698 0.34386656 -1.2713426 0.08900439 0.5828132 0.3111352
-0.2867221 -0.36918575 -0.016699702 0.06853132 3.40742 0.39817658 -0.12430072 -0.1922761
-0.24485868 -0.12437989 1.5290765 -0.3987421 0.22662833 -1.5961322 -0.68658733 -0.4895517
0.16553414 -0.6049837 1.2471782 -0.21567565 -0.3159949 0.15964496 -0.35648045 0.3009417

fc3.bias f4 [6]
00000000: f1cc 85bf ade9 9fbf b2ac 813d a403 9ac0
00000010: 1eac 1dc1 d71b 1fc1
-1.0453168 -1.2493187 0.06331767 -4.8129444 -9.854521 -9.944297
