checkpoints/model_0.3_500.pth (torch, 25220 bytes, 6 tensors)

fc1.weight f4 [64, 16]
000000 76 bd 65 c0 fe 66 a9 3e fe ba 71 3e 66 8e 7d 3e
       -3.5896888 0.3308639 0.23606488 0.24761352
000010 60 f0 84 3c df 09 ab be bd 03 2b bf 98 71 2b 3e
       0.016227901 -0.3340597 -0.6680258 0.16742551
000020 1d a4 ac be e0 23 0c bf 76 68 c0 3f 9e 46 05 bf
       -0.33718958 -0.5474224 1.5031879 -0.5206088
000030 62 bb f3 3f a3 c0 f8 bf 33 49 30 40 01 15 2d 3f
       1.904156 -1.9433788 2.7544677 0.67610174
000040 08 47 49 3d 36 4f 1f bd 1c 2f 70 be a0 de 2c 3e
       0.049140006 -0.0388939 -0.23455471 0.168818
000050 c0 d4 f7 bb 0c 7e 37 be a2 1c 87 be e0 af 6b be
       -0.0075632036 -0.17919177 -0.26389033 -0.2301631
000060 ed c4 8e be 49 49 ba be b3 8e fc be df 01 d2 bd
       -0.27884617 -0.36384037 -0.4932762 -0.10254263
000070 ff 75 30 be 7f d1 83 3d f3 1f b5 bd 46 3e a7 3d
       -0.17232512 0.064364426 -0.088439845 0.081661746
000080 8c 17 09 be 84 90 90 be 48 bd 48 3d 46 1c 3e be
       -0.13387889 -0.28235257 0.049008638 -0.18565473
000090 c8 12 72 3d 6a 21 d1 be 77 46 bd be 4e eb 48 3e
       0.059099942 -0.40845805 -0.36967823 0.19621012
0000a0 d1 da 83 be 93 ff d5 be 58 b2 29 3d 29 0a c0 bd
       -0.2575288 -0.4179655 0.041429847 -0.09376938
0000b0 72 83 3e be 8c 0f 14 3e 64 8e 23 be 0c b2 e5 3d
       -0.1860483 0.14459056 -0.15972286 0.112156
0000c0 d1 48 f1 be 0b 13 45 3e 40 90 79 bd b4 58 f4 3d
       -0.47125867 0.19245546 -0.060928583 0.11930981
0000d0 98 7c 2f 3e 62 49 89 3d 2d 00 c3 3c 62 23 76 be
       0.17137372 0.0670345 0.023803795 -0.24036935
0000e0 ee 90 2e be fa ed 63 be 30 c9 92 be 84 e1 94 bf
       -0.17047474 -0.2225875 -0.2866912 -1.1631322
0000f0 3d 50 85 3e 3e 80 34 3f f8 5b bb bf af dd 08 bf
       0.2603778 0.7050818 -1.4637442 -0.5346326
000100 44 6c 6d be 00 9a bf 3d d0 9e 82 bc c0 fe 39 be
       -0.23185831 0.09355545 -0.015944868 -0.18163586
000110 06 d2 58 3e 82 22 7c be e8 4b 77 be 60 4f ae 3d
       0.21173868 -0.24622539 -0.2415005 0.08511233
000120 60 89 6e 3d f6 87 71 be 78 f2 19 bd d0 e9 15 3e
       0.05823648 -0.23587021 -0.03758475 0.14639974
000130 64 f2 84 3d 4e 54 36 3e f0 35 0c bd a4 1a 11 be
       0.06491545 0.17805597 -0.034231126 -0.14170319
000140 2a 80 84 bf f2 41 53 be 04 62 56 be d0 ce 13 bd
       -1.0351613 -0.20630625 -0.20935827 -0.036085904
000150 14 30 a3 3d 30 be ef be de b7 d0 be 34 23 96 bd
       0.079681545 -0.4682479 -0.4076528 -0.07330933
000160 de 95 85 be ab 76 40 be de 76 9b 3f 1f a7 f1 be
       -0.26090902 -0.18795268 1.214565 -0.47197816
000170 b5 d3 8a 3e de 7c 15 40 c0 da b2 3f 3c ec 98 3e
       0.27114645 2.3357463 1.3973007 0.29867733
000180 f1 8f ab bf c0 a7 a1 3c 90 8e bb bd 6c b7 f6 3d
       -1.3403302 0.01973331 -0.09158051 0.12046704
000190 1c 3f 13 3e 3c 25 d8 bf 8c 53 b3 bf 70 9f 42 be
       0.14379543 -1.6886363 -1.4009871 -0.19006133
0001a0 92 a4 b4 bf 43 4c b5 bf c0 35 fb bc 71 5a e7 bf
       -1.4112723 -1.4163898 -0.030665278 -1.8074476
0001b0 2c 62 cc bd 7d 2e a9 bf 4b c2 ae bf 35 34 f2 3f
       -0.09979662 -1.3217312 -1.3653044 1.8922182
0001c0 04 09 35 3f 2b ea 93 bf e0 d6 0d 3c a0 c1 49 3e
       0.7071688 -1.1555837 0.008657187 0.19702768
0001d0 72 b7 02 3e c5 cf 4c be 41 71 35 be 02 88 3c be
       0.12765291 -0.20001133 -0.17718984 -0.18411258
0001e0 39 92 f2 bd 7a cc 8b be fe 15 a6 3f 6d ab 1a 3f
       -0.11844296 -0.2730444 1.2975461 0.60417825
0001f0 b0 0b 0a 40 ac 8a af be 34 e2 5b c0 63 15 88 c0
       2.1569633 -0.34285486 -3.4356813 -4.2526107
000200 00 b5 7c bb 74 bd b7 3d ba 73 39 be 08 c7 08 be
       -0.0038560033 0.08971682 -0.18110552 -0.13357174
000210 cc 2f 95 bd e0 dc 86 3d 2e ac 4c 3e 80 b4 eb bb
       -0.07284507 0.06585097 0.19987556 -0.007193148
000220 b0 2d 7f be 20 9f 63 be f8 bf 15 3e 28 0b 1a be
       -0.24919772 -0.2222867 0.14624012 -0.15043318
000230 e0 d2 f2 3c 04 cf 1f be 00 5b e3 3b 74 ad a1 3d
       0.029641569 -0.15606314 0.0069383383 0.07894412
000240 11 6b 23 bf b0 65 32 3e e0 dd 60 3e c0 f5 05 3d
       -0.63835245 0.17421603 0.21959639 0.03270507
000250 dc 7a 58 be d0 3f c6 be a9 d8 af be ae 91 21 be
       -0.21140617 -0.3872056 -0.34344986 -0.15778229
000260 61 5f 4b be 92 39 07 bf e8 26 95 3f eb 56 7c 3d
       -0.19860603 -0.5282222 1.1652498 0.06160633
000270 1e a6 6d c0 00 7b 06 c0 88 9b 92 3f 44 fb 36 40
       -3.713264 -2.1012573 1.1453714 2.859086
000280 ff ec ab be d6 1e 66 be d0 84 c1 bc 38 75 7a 3e
       -0.3357925 -0.224727 -0.0236229 0.24458778
000290 22 95 7d be c6 4f 7a be 9e e2 b2 be 00 81 c4 bb
       -0.24763921 -0.24444494 -0.3493852 -0.0059968233
0002a0 fb 6f f1 be 24 86 83 bd dc 4a f1 be 51 f0 18 be
       -0.47155747 -0.0642207 -0.47127426 -0.14935423
0002b0 54 c6 c1 be 5d 80 df be fc 83 d2 be d5 2d f6 bd
       -0.37846625 -0.4365262 -0.4111632 -0.120204605
0002c0 4e 87 13 be 80 4c c1 bc 40 e5 52 bd 30 ea bd bd
       -0.14407083 -0.023596048 -0.05148816 -0.09273183
0002d0 ce e0 5b 3e 80 32 96 bd e8 8b 5f 3e d8 54 e0 3d
       0.21472475 -0.07333851 0.21830714 0.10953683
0002e0 a4 6c 43 be d0 64 5a be f8 b4 28 3d 90 4e ba bd
       -0.19084412 -0.2132752 0.04118821 -0.09097016
0002f0 a8 3d ef bd 80 80 c6 3b 08 09 05 3d 5e 0b 49 be
       -0.11681682 0.006057799 0.032479316 -0.19633242
000300 26 7c dc be 0c 9b 95 be 60 f5 a5 3d 66 41 63 be
       -0.43063468 -0.29219854 0.08103442 -0.22192916
000310 8c c4 ea 3d db 95 8b bf 41 ba 63 bf f2 65 7c be
       0.114632696 -1.0905107 -0.88956076 -0.24648264
000320 78 01 9c bf d9 24 61 bf 2b 4e 33 c1 e7 8e 47 c1
       -1.2187948 -0.8794685 -11.206584 -12.472388
000330 e8 f5 a1 3f e8 1a 11 40 07 88 89 bd 65 1f b5 bf
       1.265317 2.2672672 -0.06715398 -1.4150206
000340 94 48 cb bd 14 fa d0 3d b2 1e 75 be 10 17 41 3d
       -0.099259526 0.102039486 -0.2393749 0.047141135
000350 ca c6 0b 3e 00 e3 fa 3a f8 2d ca 3d d0 c0 17 3d
       0.13650051 0.0019141138 0.09872049 0.037049115
000360 32 c6 7e be c4 0e 65 be 56 e9 39 be 92 89 03 3e
       -0.24880293 -0.22368914 -0.18155417 0.12845448
000370 76 5a 5e be 24 a6 8a bd 00 ef 30 3d b0 b3 f3 bc
       -0.21714196 -0.0676997 0.04319668 -0.029748768
000380 49 cb e4 bb d9 b2 36 be 16 c6 32 be 2c 72 7f 3e
       -0.0069822413 -0.17841662 -0.17458376 0.24945897
000390 fc 4a f5 bd 90 5f 27 3d 44 d8 66 be 32 c5 26 3e
       -0.11977193 0.04086262 -0.22543436 0.16286162
0003a0 aa 54 19 3e 6d 81 25 be 2f b9 9c be de c7 34 bf
       0.14973703 -0.16162653 -0.30610034 -0.70617473
0003b0 dd e2 71 be ca 95 63 3e f0 cf 0c bf ac bf 02 bf
       -0.23621698 0.22225109 -0.5500479 -0.5107372
0003c0 8a 4c 40 bd 2f 23 02 bf 18 d8 80 bd 1c 6d 60 3e
       -0.046947993 -0.50834936 -0.062912166 0.21916622
0003d0 de fe 37 3e 09 9e 59 be 17 51 64 be a0 08 06 be
       0.17968318 -0.21251692 -0.22296558 -0.13089228
0003e0 54 7d 3f be ec 38 b6 bd bc d1 d1 be 20 11 c4 be
       -0.18700153 -0.08897576 -0.40980327 -0.38294315
0003f0 15 fc 09 be 62 14 c6 bd 85 82 65 be 5c d2 93 bd
       -0.13475068 -0.096718565 -0.2241307 -0.07217857

fc1.bias f4 [64]
000000 73 72 40 bf e4 f4 ee be cd 5b ba be ac 46 47 bd
       -0.75174636 -0.46671212 -0.36398163 -0.048651382
000010 00 c8 38 bd 24 90 a1 be a8 18 dc bf 3b e9 da be
       -0.04511261 -0.31555283 -1.7195024 -0.42756066
000020 08 07 a4 3d ab d0 0e bf 3b 69 90 be e6 06 47 3e
       0.080091536 -0.5578715 -0.28205284 0.19436225
000030 57 2a 64 bf 76 a1 52 3e 19 ab 04 be 36 1c e4 be
       -0.89127105 0.20569405 -0.12955894 -0.44552773
000040 86 bd 8b bf 5d 9a 84 3e ed ba 45 3e 70 12 21 3d
       -1.0917213 0.2589902 0.19309588 0.039324224
000050 36 7f 8e be 22 31 b9 be d4 44 0c be b7 b8 fd be
       -0.2783143 -0.36170298 -0.13698131 -0.4955499
000060 d7 38 6d be 74 46 23 be 3a c2 60 be d8 4f 4a 3e
       -0.23166214 -0.15944844 -0.21949092 0.1975702
000070 f0 d8 3f bf 27 0d 0b be e6 77 c9 be 9a 01 06 be
       -0.74940395 -0.13579236 -0.39349288 -0.13086548
000080 ec d6 fe bf 30 6b 40 be 94 2e 0b bf ae 51 f0 be
       -1.9909339 -0.18790889 -0.5436795 -0.46937317
000090 7d 36 e5 bd 2f d4 c7 bd 56 f5 67 be b6 7c 6d be
       -0.111920334 -0.09757268 -0.22652182 -0.23192105
0000a0 14 f3 0e c0 b3 2f 8d be 7c 30 53 be 41 0b 09 be
       -2.2335863 -0.27575454 -0.20623964 -0.133832
0000b0 cf fe 45 be 67 0c 86 be 4f 88 35 be 38 9f bd be
       -0.19335483 -0.26181337 -0.17727779 -0.37035537
0000c0 2c 8b 3c be 4c 14 cc 3d 50 91 2d bf cc b4 35 be
       -0.18412465 0.09964809 -0.67799854 -0.1774475
0000d0 8c f5 7d be e8 88 f5 be 48 7f 37 be 14 60 03 bf
       -0.248007 -0.47956014 -0.17919648 -0.5131848
0000e0 55 d1 96 be ec 89 ab bd 50 de 81 bd 0c af 39 3d
       -0.29456583 -0.08375916 -0.06341231 0.045332953
0000f0 04 16 9b bf 6c 61 15 3e ac bd 2c be 60 5c 79 3c
       -1.2116094 0.14587945 -0.16869229 0.015219778

fc2.weight f4 [64, 64]
000000 70 66 33 bf 1a 16 c3 bd 78 37 cd 3d 20 f8 60 bf
       -0.7007818 -0.095257 0.100203454 -0.8787861
000010 14 e5 a3 bd f5 11 5f bf 0a a3 d2 3d 18 0c b5 bc
       -0.080026776 -0.87136775 0.102850035 -0.022100493
000020 9a 75 cb 3d c6 0a f6 bd d0 00 9b 3d 8e 53 93 3d
       0.0993454 -0.120137736 0.07568514 0.07193671
000030 ca 5d 45 bf 3a 4e c0 bd 2c 91 fb 3d 90 3f bc 3c
       -0.77096236 -0.093899205 0.12283549 0.022979528
000040 d6 ed 37 bf ed 45 4a bf 80 7b 1a bb c8 2d ec bc
       -0.71847284 -0.7901295 -0.0023572147 -0.028830424
000050 d0 0b fd bc d6 a5 82 3d c2 27 db bd 46 17 d1 bd
       -0.030889422 0.06379287 -0.107009426 -0.10209517
000060 3f a6 3c bf 20 43 b2 3c 90 9d 3b 3c 60 71 19 3c
       -0.7369117 0.021760523 0.01145114 0.00936541
000070 2b 46 6d bf 78 66 9b 3c 7c 9f 22 bd a0 f7 84 bb
       -0.9268519 0.01896976 -0.039702877 -0.0040578395
000080 ae fb 4e bf 4c da 73 3d 6c 65 42 bd 2e a8 86 bd
       -0.8085278 0.059534356 -0.047460005 -0.065750465
000090 50 dc b6 bd 90 0f 26 3c 7c 0d 8d 3d 66 6c a5 bd
       -0.0892874 0.010135546 0.068873376 -0.08077316
0000a0 d0 91 68 bf c7 cd 6c bf 40 fb b1 bc 80 dc f8 3d
       -0.9084749 -0.9250149 -0.02172625 0.12151432
0000b0 d8 4f d0 bd 1f d9 41 bf 6a d6 70 bf 10 94 35 3d
       -0.10171479 -0.75721925 -0.9407717 0.044330657
0000c0 a8 40 9a bc c0 cc dc bb de 0c af bd fc 23 bf bd
       -0.018829659 -0.0067382753 -0.08547376 -0.09333035
0000d0 50 e4 e6 bd e8 24 bf 3c 24 e0 85 3d a6 9d bf bd
       -0.11274016 0.023333028 0.06536892 -0.09356241
0000e0 24 4d ef bd a4 79 e0 bd 38 8c b1 3d 90 1a 85 3c
       -0.11684635 -0.10960701 0.08669323 0.016248018
0000f0 f0 cd 66 bf 14 d1 62 bd 90 f7 61 bc e8 33 1e bd
       -0.90157986 -0.055375174 -0.013791934 -0.03862372
000100 5b a9 37 be ad e0 c3 be 08 c5 c2 bd 01 ee c4 be
       -0.17935698 -0.38257352 -0.09510237 -0.38462833
000110 16 f6 c9 bd 50 ea 6d be 08 7d c0 bd a4 f1 68 be
       -0.0986139 -0.23233914 -0.09398848 -0.22748429
000120 6c 97 72 bd 33 3e 97 be bf 6b b1 be 7a eb c6 bd
       -0.05922644 -0.29539642 -0.34652516 -0.09712882
000130 23 9d d8 be b8 d8 ba bd 21 1e 85 be 73 25 c9 be
       -0.42307386 -0.09123367 -0.2599955 -0.39286384
000140 53 71 c6 be 96 d6 85 be 1f 6b ad be c0 e3 df 3b
       -0.38758335 -0.2614028 -0.3387079 0.00683257
000150 3b 3b a6 be dd a5 b7 be 15 ce a8 be 47 d9 d1 3e
       -0.32467064 -0.3586873 -0.32969728 0.40986082
000160 e0 88 9e be 9c 26 92 be 7c e2 bd bd c0 1b d1 bb
       -0.30963802 -0.28545082 -0.09271714 -0.006381482
000170 94 7f c4 be 9a 76 83 be be df 33 be cf 89 61 be
       -0.38378584 -0.25676423 -0.1756582 -0.22025226
000180 30 c1 b8 be 42 2c 82 be 35 20 98 be b8 d9 45 be
       -0.3608489 -0.2542439 -0.29712072 -0.19321334
000190 3f e8 46 be 81 99 96 be 68 d6 42 be c6 62 e4 bd
       -0.19424532 -0.2941399 -0.19027102 -0.11151652
0001a0 5b de 91 be b5 53 66 be 5c 17 ec bd 5e f0 d6 be
       -0.28489956 -0.22492869 -0.11527893 -0.4198026
0001b0 4b 57 8d be 40 63 b1 be 8b c8 58 be 03 15 b1 be
       -0.27605662 -0.34646034 -0.21170251 -0.34586343
0001c0 e4 16 9e be c0 85 0b 3c 96 9c d1 3d 59 df d0 be
       -0.3087684 0.008515775 0.102349445 -0.407954
0001d0 58 56 be bc 2c c6 ab be 1f 59 8e be 9e 88 b4 be
       -0.023234531 -0.3354963 -0.2780237 -0.3526048
0001e0 6d 34 94 be 88 94 07 3d 7c 28 fa bd c9 0f a4 be
       -0.28946248 0.033100635 -0.12214753 -0.32043293
0001f0 b1 6c ce be 46 9a b0 3d 00 5e 86 3a b0 fe 19 3d
       -0.403173 0.08623175 0.0010251403 0.037596405
000200 e3 82 74 3f e4 2d 27 be 6f 46 a1 be bd 73 80 be
       0.9551222 -0.163261 -0.3149905 -0.250883
000210 14 0c 0a bd 9c ad 0f bd 40 8a 53 3b 3b b2 4b 3d
       -0.033702925 -0.035077676 0.0032278448 0.04973052
000220 ea 69 83 3d c7 50 61 3e 20 5f ad 3e 04 d5 cd 3d
       0.06416686 0.2200347 0.33861637 0.10050395
000230 e9 3e 03 bf d0 ad 33 3c a0 2e 4f bc fa 90 90 3e
       -0.5126787 0.010966733 -0.012645394 0.28235608
000240 0b 37 7b c0 2e 1c 86 bf 52 97 8d 3d a6 15 92 bd
       -3.9252346 -1.047735 0.06913628 -0.07133035
000250 07 5d 72 be a7 3e ab 3c 54 08 82 3e 1b 6e 4c be
       -0.236683 0.020903898 0.2539698 -0.19963877
000260 1b c2 52 bf b1 50 9e 3e fc a7 38 bd cc 25 33 bd
       -0.8232743 0.30920938 -0.045082077 -0.043737218
000270 1b ed 79 bf bc 94 b7 3e ef 68 88 be 37 00 ec 3d
       -0.9762742 0.35855663 -0.26642558 0.115234785
000280 8e 2e 1d bf 50 81 48 3e a2 44 b8 3e 3b 7d b5 3e
       -0.6139916 0.19580579 0.35989863 0.35447106
000290 5f aa db 3e ca f1 ba 3e 12 83 37 3e 5c 4c 55 bd
       0.4290342 0.36512595 0.17921093 -0.052074775
0002a0 94 36 94 be 51 ef 24 3f 60 fa 85 bb f3 cf 88 be
       -0.2894789 0.6442767 -0.004088685 -0.26721153
0002b0 26 ff 5e 3e fe 89 ed be b9 e4 6f be 53 43 7c 3e
       0.21777019 -0.46394342 -0.23427095 0.24635057
0002c0 7b c3 7e 3e 28 e2 db bd e4 a4 25 3f 8b 7e bb 3e
       0.24879257 -0.10736495 0.6470473 0.36619982
0002d0 f0 b3 11 3c bc 39 76 3e ba d5 c7 3e 07 4c 86 be
       0.008892998 0.24045461 0.39030248 -0.2622988
0002e0 0c 6c 2a be ec 7a 8f 3d 3a 56 8d bd 05 34 ce 3d
       -0.16642779 0.07005867 -0.06901212 0.10068516
0002f0 27 bf 17 3f 9a 09 c7 bd 30 a4 a3 bc 64 85 4f bd
       0.5927605 -0.09718628 -0.019975752 -0.05066432
000300 d5 b2 b0 be 21 89 a2 be 20 35 4d bc e4 49 b8 be
       -0.34511438 -0.31745246 -0.012524873 -0.35993874
000310 2e e9 e1 bd b4 d4 6b be 90 b1 c0 bc 60 0c 80 be
       -0.110308036 -0.23030359 -0.023522168 -0.2500944
000320 08 65 fe 3d df 58 cf be 93 46 5c be 68 18 a0 bd
       0.12421614 -0.4049749 -0.21511297 -0.07817155
000330 04 41 64 be ea 52 a7 3d a3 9b c2 be 3f c6 ae be
       -0.22290426 0.081701115 -0.38009366 -0.34135625
000340 ef bd 9e be ae 91 8a be e1 98 39 be b6 59 b3 3d
       -0.31004283 -0.2706427 -0.18124725 0.087573454
000350 23 c4 77 be 30 2b 99 be de 6e 89 be 8e 6e 79 be
       -0.24195914 -0.29915762 -0.26842397 -0.2435858
000360 f2 b0 c5 be c7 f9 ca be 00 8f 3e 3c 40 aa 0a bc
       -0.3861156 -0.3964369 0.011630774 -0.008463442
000370 9e 89 5d be 9f 58 b1 be a0 c4 5a be 7f 1b 95 be
       -0.21634528 -0.34637925 -0.21364069 -0.2912254
000380 40 20 cb be d6 bb 9c be 74 e2 8d be 48 22 44 be
       -0.39673042 -0.30612057 -0.27711833 -0.19153702
000390 84 84 56 be 2b 16 a9 be 6d 4c d0 be 1e b8 e9 bd
       -0.20948988 -0.33024725 -0.40683308 -0.11412071
0003a0 8d d7 73 be 46 f7 bf be 5c aa cf 3d 6d 63 c7 be
       -0.23812695 -0.37493342 0.10139915 -0.38943043
0003b0 0d 5b 50 be 36 2f ad be 88 7b 9e be 02 ce 7b be
       -0.20347233 -0.33825082 -0.30953622 -0.24590304
0003c0 cf e0 36 be e4 8a 82 bd d8 5e ae bc 85 aa a7 be
       -0.17859195 -0.063741475 -0.02128546 -0.32747284
0003d0 14 32 d6 3d ee 66 c3 be 1c 1f 91 be a0 84 d4 be
       0.104587704 -0.38164467 -0.28344047 -0.41507435
0003e0 44 8d 96 be 00 aa 8e 3b 80 ff b5 ba 68 5f 9d be
       -0.29404652 0.0043537617 -0.0013885349 -0.30736852
0003f0 fd e9 8d be 46 18 9a 3d a8 c0 9e bc 90 22 50 bc
       -0.2771758 0.07524161 -0.019378975 -0.012703553

fc2.bias f4 [64]
000000 d5 f1 53 bf c6 5b 9f be ea 8d 07 be 55 56 80 be
       -0.8279088 -0.31124705 -0.1323773 -0.25065866
000010 3c 14 3c bf ca 1f 4e bd 14 74 7a be 6d 25 c2 be
       -0.73468375 -0.050323285 -0.24458343 -0.3791918
000020 e7 e7 82 be 58 d3 6f be ea f7 99 bf 18 95 c3 bd
       -0.25567552 -0.23420465 -1.2028782 -0.09549922
000030 88 9b ae be 25 85 24 c0 58 e2 cf bf 70 7c de be
       -0.34103036 -2.5706265 -1.624095 -0.43454313
000040 a2 bb 71 bf e5 35 91 be 5a 69 16 bf 0b e0 d5 bd
       -0.9442693 -0.2836143 -0.58754504 -0.104431234
000050 74 29 86 bd a6 17 b0 be ff 51 a9 be df 16 3a bf
       -0.06550875 -0.34393042 -0.3307037 -0.7269115
000060 d2 a6 de bd d2 25 36 bf 7e 31 4c bf b4 fc c8 be
       -0.10871662 -0.7115146 -0.7976302 -0.39255297
000070 f9 cb 5c bf 1d f3 18 bf 39 41 e7 bf 3c db 55 bf
       -0.8624874 -0.5974596 -1.8066779 -0.8353765
000080 38 01 18 3f dc 21 fe be 10 dd 08 be fd 20 bf be
       0.5937686 -0.49635208 -0.13365579 -0.37329856
000090 f7 eb aa be 98 48 51 be 11 1b 78 bf 08 91 14 bf
       -0.33383152 -0.20437849 -0.969163 -0.580338
0000a0 ce 69 c0 be 45 1a 7e bf 49 5d 91 be 64 5f 25 be
       -0.37580723 -0.99258834 -0.28391483 -0.1614967
0000b0 69 74 7e be 8c f6 2f bf 87 91 b5 be 7d 0f b5 be
       -0.24849094 -0.68735576 -0.3546259 -0.3536338
0000c0 47 93 a2 be 4b 3f ae be 5f 6a d8 bf c6 85 95 bf
       -0.3175299 -0.34032664 -1.6907462 -1.168145
0000d0 5a 80 92 be 24 a2 81 be bf 8a dc bd ca ad 88 be
       -0.2861355 -0.25319016 -0.10768651 -0.2669509
0000e0 4f d3 8b be 5f 9f 04 bf 6f b2 69 be 3a ab 8c be
       -0.27309653 -0.5180568 -0.22821973 -0.27474385
0000f0 f1 a6 6e be 5e 70 0a bf b7 be 12 c0 41 71 01 be
       -0.2330587 -0.5407771 -2.2928903 -0.12640859

fc3.weight f4 [6, 64]
000000 dd 22 35 3f 0f 38 a0 3e 10 59 b2 be bd 49 75 3e
       0.7075632 0.3129277 -0.34833574 0.2395391
000010 e4 23 4e bd 9a 4d 0e bd 2f 24 97 be ee 94 f6 3e
       -0.050327197 -0.034741975 -0.29519793 0.481605
000020 62 67 aa be 76 2a 89 be ea f5 1a 40 5d 1b 04 be
       -0.33282 -0.26790208 2.4212594 -0.12901063
000030 4b 8f 59 be 7e 09 a0 3d 49 2d fa 3d 90 fc 32 bc
       -0.21246068 0.078143105 0.12215669 -0.010924473
000040 c0 da 01 3c 63 b6 ce be 57 0e 0c 3f 11 43 46 be
       0.007925689 -0.40373525 0.5470938 -0.19361521
000050 06 f0 22 be 0f fd d6 be 52 4c a4 3d f5 23 58 bf
       -0.15911874 -0.41989943 0.080223694 -0.84429866
000060 66 7e 9e be de ef 2f 3f 37 6c 0e 3e de 1c d3 3e
       -0.3095581 0.68725383 0.13908468 0.4123296
000070 a4 cd cd 3d d4 16 a9 bf a5 ed d3 3e 86 8c 35 3f
       0.100489885 -1.3210092 0.41392246 0.70917547
000080 b2 16 21 bf 40 87 44 3d 8a 23 9d bc 00 bb 6a bf
       -0.62925255 0.047980547 -0.019181985 -0.9169159
000090 93 66 b3 bc 17 09 bc be 54 43 e7 3e 5f 50 78 3e
       -0.021899497 -0.36725685 0.45168555 0.24249409
0000a0 b0 43 d6 be 81 df ac 3f 22 80 0e be 6e 22 d0 bc
       -0.41848516 1.3505708 -0.13916066 -0.025407042
0000b0 98 21 e9 3c a3 12 b8 be de 75 82 be cb 60 87 3e
       0.028458402 -0.3595172 -0.2548055 0.26441035
0000c0 4c da 75 be 8c 40 ad 3e 22 29 71 3d 8c c1 65 3d
       -0.24009055 0.33838308 0.058877118 0.056092784
0000d0 a0 12 93 3e 06 e5 b0 bd 4c b3 ae bd 1d ed c6 be
       0.28725147 -0.08637433 -0.08530292 -0.38852778
0000e0 9e 9c 5c 3e fc 54 13 bf c0 db 48 bc c7 8f 7a be
       0.2154412 -0.5755155 -0.012259424 -0.24468909
0000f0 78 ad af 3c cd 1c c8 3f 9c 63 03 be 8e 7e 96 bd
       0.021445021 1.5633789 -0.12830967 -0.07348357
000100 0d 50 45 3f f7 69 7a be 5f ad 0f 3c 79 6d 76 be
       0.7707527 -0.24454485 0.008769362 -0.24065198
000110 f2 53 a2 bd 18 61 23 3b 05 24 8f be 60 bd c3 3c
       -0.079261675 0.0024929699 -0.27957168 0.023894012
000120 6d 64 a2 be 7d 0e 62 be ca 45 58 c0 1a 44 65 bc
       -0.31717244 -0.2207584 -3.3792596 -0.013993287
000130 5e 10 4f be 42 54 1b 38 d8 74 d9 be 04 bc 80 3d
       -0.20221087 3.703335e-05 -0.42471957 0.06285861
000140 d0 bd e9 3c 36 7c cd be dc 49 02 3f 68 34 76 bc
       0.028532892 -0.40133828 0.5089395 -0.015027143
000150 a8 58 36 be fd df 36 be c7 3b 0d 3b 3d e9 62 bf
       -0.17807257 -0.17858882 0.0021550523 -0.88637143
000160 51 f7 65 3e fb 1c 2c be 65 77 5b be 71 4a 6c be
       0.22457625 -0.1680793 -0.21432264 -0.23075272
000170 5c a4 e9 3d 79 cc 8c be 01 48 d6 be 10 82 9c 3d
       0.11408302 -0.2749975 -0.4185181 0.07641995
000180 72 a6 2d 3f 40 e3 d8 bb 6b ac 5b be 31 71 1a 3d
       0.678321 -0.006618887 -0.21452491 0.037705604
000190 ac 63 68 bd 15 37 3c be 3c 2d 47 be fa 36 bd be
       -0.05673568 -0.18380387 -0.1945085 -0.36956006
0001a0 41 d1 74 be 0a 44 c8 3e 0b 25 1d 3e c8 3a ba be
       -0.23907949 0.3911441 0.15346162 -0.36372972
0001b0 18 23 f1 3c d7 20 27 3f 3b 84 3e be cd 0d 44 be
       0.02943568 0.65284485 -0.1860513 -0.1914589
0001c0 a8 0e b9 bf 71 fb 81 be 9e af 83 3a c9 cd 42 bb
       -1.4457598 -0.25387147 0.0010046845 -0.0029724708
0001d0 27 9e 8e be a6 1f a9 bd ef 5f 1a 3e fd 79 83 be
       -0.27855036 -0.082579896 0.15075658 -0.25679007
0001e0 b8 91 2f be 48 74 23 3d b0 a6 5e 3c 7d f6 9f be
       -0.17145431 0.039905816 0.013589546 -0.31242743
0001f0 97 f1 8e 3e 8b 8d a3 be 43 6f 3a 3d 50 1d 2c 3f
       0.27918693 -0.31943926 0.045516264 0.6723223
000200 c9 33 3d bf 2c 79 d2 be 30 e9 cd 3c 60 19 be be
       -0.7390714 -0.41108072 0.025135607 -0.37128735
000210 78 c9 20 bd 49 f9 6e bd 62 e2 36 be f8 05 9d be
       -0.039254636 -0.058343206 -0.17859796 -0.30668616
000220 25 c6 91 be 24 03 38 be a6 5c 09 3f a8 21 bb 3d
       -0.28471485 -0.17969948 0.53656995 0.09137279
000230 d5 c9 5d be 99 e3 84 3e 3b bb f0 3e 0e 63 fe 3e
       -0.21659024 0.25954893 0.47017846 0.49684948
000240 50 3b 69 3d ca cb 5f be a6 92 09 3f 83 e2 86 bd
       0.05694133 -0.21855083 0.5373939 -0.065861724
000250 ec ec 83 3e cf ea ca be e9 2c 16 be d3 30 69 3f
       0.25766695 -0.3963227 -0.1466557 0.91090125
000260 28 b7 09 3d e8 b3 f6 be 08 21 fc 3d b1 50 e8 3c
       0.033621937 -0.48184133 0.12310988 0.02835879
000270 b3 e0 45 3f 08 a6 de bb 05 d3 e1 be 16 45 8d bd
       0.7729599 -0.006794695 -0.44106308 -0.06897943
000280 60 93 2a 3f 70 b1 39 bc ed 20 39 bf 38 cf a7 3e
       0.66631126 -0.011333808 -0.72315866 0.32775283
000290 b0 a2 bd 3d 63 fc d6 be 83 74 bd be 4a ce 95 be
       0.09259546 -0.4198943 -0.37002954 -0.2925895
0002a0 c3 7b 84 be 5d 4f 3b be e9 fe d3 bd 87 c1 49 3f
       -0.25875673 -0.18291993 -0.10351355 0.78810924
0002b0 7a de 9a 3e 0a fa 47 c0 b8 3c c0 be e1 95 b8 3e
       0.3024786 -3.1246362 -0.37546325 0.3605185
0002c0 1e 7f 40 be 83 60 be be dd 44 00 3f 55 e4 fe 3b
       -0.18798491 -0.37183008 0.5010508 0.007778684
0002d0 f2 19 c0 be d2 2c 18 3e b8 58 cb bd 71 d4 36 be
       -0.37519795 0.14860848 -0.09929031 -0.17854477
0002e0 6b b1 0e be 18 cd f7 bd 1c 15 66 be 44 fd 6e be
       -0.13934867 -0.120996654 -0.2246899 -0.233388
0002f0 f6 6f 8d be 56 10 c7 be 3f d7 c9 3f 8f ed 86 bc
       -0.27624482 -0.3887965 1.5768813 -0.016470699
000300 3e df 6a 3f ef 23 b5 be 58 b4 ab 3d b1 32 53 be
       0.9174689 -0.35378978 0.08384007 -0.20624806
000310 2c c1 13 bd 37 ac c1 bf 79 ed ab be 12 ce b0 be
       -0.036072895 -1.5130681 -0.33579615 -0.3453222
000320 05 1d aa be 03 e5 b2 be 22 0e a7 bf 5b a9 33 be
       -0.33225265 -0.34940347 -1.3051188 -0.17545073
000330 a9 cb 7a 3e 28 fa ef bd 37 3d 83 3f f6 3b e1 3e
       0.24491753 -0.117176354 1.0253056 0.4399106
000340 11 90 6d 3f db 9a 90 be 1c 32 18 3f ca 38 33 3f
       0.9279795 -0.28243145 0.5945146 0.7000853
000350 6e 61 94 bf 6b 66 57 3e 03 cd 91 3d b0 2c 79 bf
       -1.1592233 0.21035163 0.07119181 -0.9733381
000360 2c f3 c3 be a8 e3 11 3f 15 43 46 3e 9e 04 96 3f
       -0.38271463 0.56988 0.19361527 1.1720159
000370 8c f4 a1 bd ad 3b 1a 3f 80 c4 24 3d 5c f4 44 bf
       -0.07907972 0.6024731 0.04022646 -0.7693536
000380 2c dc 02 c1 33 cb c3 3e 98 aa dc 3e d1 61 7c 3b
       -8.178753 0.38240966 0.43098903 0.0038510452
000390 87 15 e4 3a 54 5a 7e be 6b 16 db bd b7 dd b7 be
       0.0017401435 -0.24839145 -0.10697635 -0.35911343
0003a0 b0 7a 9a be 26 97 43 3f 5d d4 47 be 33 86 43 40
       -0.30171728 0.7640251 -0.19514604 3.0550659
0003b0 97 4d c3 be 63 e2 06 40 e4 27 ca 3e 35 0b d6 be
       -0.38145134 2.1075675 0.3948356 -0.41805425
0003c0 c6 ad a5 3e 20 10 5b be 4d 0d 93 3c f5 a1 12 be
       0.3235914 -0.2139287 0.017950678 -0.14319594
0003d0 87 ab c1 be 11 b2 e6 3e 21 0f 1a 3e 65 46 7b be
       -0.37826177 0.4505773 0.15044834 -0.24538572
0003e0 92 0d 94 3e a5 0f a3 3e fb 92 76 be 48 68 c9 3e
       0.28916603 0.31847873 -0.24079506 0.39337373
0003f0 d5 7d 50 3e 27 07 91 be d9 3d 2b 3f bf 70 df be
       0.20360501 -0.2832577 0.6689125 -0.43640706

fc3.bias f4 [6]
000000 29 ec 77 bf 33 bf cb bf 2e c4 db be a4 83 8c bd
       -0.96844727 -1.5917724 -0.4292311 -0.06861046
000010 55 91 22 c1 59 31 22 c1
       -10.160481 -10.137048
