checkpoints/model_0.5_100.pth (torch, 25220 bytes, 6 tensors)

fc1.weight f4 [64, 16]
000000 c6 be b7 be 5b bd c7 be 5a 36 1d be 50 bc 01 3d
       -0.35887736 -0.39011654 -0.15352765 0.03167373
000010 48 3d 2c 3d b7 55 10 be 1a 29 f9 bd 20 57 92 3d
       0.04205063 -0.14095198 -0.121660426 0.07145524
000020 36 71 b1 be b2 67 03 bf 54 1e 89 3e 30 fc c5 3e
       -0.34656686 -0.513301 0.2678095 0.38668966
000030 f6 c3 6e be 22 5e d6 bd bc 05 2d be e0 bf 0e 3d
       -0.2331694 -0.10467173 -0.16896719 0.034850955
000040 d0 0b 70 be b4 6a 70 be 20 82 44 bd ec b7 2b be
       -0.23442006 -0.23478204 -0.04797566 -0.1676938
000050 a8 34 30 bd 40 bd f5 3b 30 19 6a 3d 96 be 21 3e
       -0.043018967 0.007499367 0.057152927 0.15795359
000060 e0 11 37 3d 42 8b 01 be 90 d0 12 3d 30 47 b2 3c
       0.04469478 -0.12650779 0.035843432 0.02176246
000070 00 cc d0 bc aa 46 61 be c0 c0 a7 3b 78 eb ce bd
       -0.0254879 -0.21999612 0.005119413 -0.10103506
000080 fa 34 c5 3d 43 97 41 bd b8 a2 18 be 2e 56 75 be
       0.09629245 -0.047263395 -0.14905822 -0.23958656
000090 e8 f7 35 be 01 59 bb 3d 67 5d 36 be 6c ab 89 bd
       -0.1777035 0.091478355 -0.17809068 -0.06722149
0000a0 ee bf bb be 91 f5 d2 bd f1 9a 7d be 13 ce 77 be
       -0.36669868 -0.10300744 -0.24766137 -0.24199705
0000b0 35 06 c7 be aa 96 a0 be e2 61 25 be 7c 57 c2 be
       -0.38871923 -0.31364948 -0.1615062 -0.3795737
0000c0 10 67 f2 3c 00 f1 2c bb f0 5c d3 3c 62 04 28 be
       0.02959016 -0.0026388764 0.025801152 -0.16407922
0000d0 08 fa fc bd 20 f9 81 3c f8 df 37 3e c8 e5 46 3d
       -0.12352377 0.015865862 0.17956531 0.04855898
0000e0 d8 53 5d be c8 09 bc bd 14 a5 e9 bd 70 34 72 be
       -0.21614015 -0.09181553 -0.11408439 -0.23652816
0000f0 80 1d c5 3b d8 2a 18 bd 44 9b 3e be 88 9d 51 3d
       0.0060154796 -0.037150234 -0.18613917 0.051175624
000100 64 ae 43 3e 62 77 73 be 90 a0 60 3d 06 07 47 3e
       0.19109493 -0.2377601 0.054840624 0.19436273
000110 fe b9 14 be 73 d2 0e be 8f 8a eb be 38 5a 43 be
       -0.14524075 -0.13947468 -0.4600415 -0.19077384
000120 cf 5e c0 be 05 f2 29 be eb bb 80 be 42 f9 a0 3e
       -0.37572333 -0.1659623 -0.2514337 0.3144017
000130 5f 6b c8 3e 90 63 33 3d 1a df f7 3d c2 6f cd 3e
       0.39144418 0.043796122 0.121031 0.40124327
000140 78 a9 52 be 22 79 2a be a8 c7 0c 3d f0 71 82 3c
       -0.2057246 -0.16647771 0.034370095 0.01592347
000150 4c b8 a2 3d a6 79 54 be 30 ac 38 be 80 a8 bd bc
       0.07945308 -0.2074953 -0.18034434 -0.023151636
000160 a8 f8 6b 3e 80 42 49 3b e8 35 16 bd 00 1f d3 ba
       0.23044074 0.0030709803 -0.036672503 -0.0016107261
000170 80 bb fa bd da 77 72 3e f8 42 30 3e ac b3 a2 bd
       -0.12242794 0.23678532 0.17213047 -0.07944426
000180 c0 fb 20 bc 8a da 78 3e 16 b1 5b 3e dc 50 f6 bd
       -0.009825647 0.24302116 0.21454272 -0.120271415
000190 b2 b7 5a 3e d4 19 e3 bd 70 01 c2 bc 4a 08 53 be
       0.21359137 -0.11088911 -0.023682326 -0.20608631
0001a0 34 7c 37 be ea 71 45 be be df 23 3e da a2 41 3e
       -0.17918473 -0.19281736 0.1600332 0.18909779
0001b0 fc f4 45 3e 1e bc 27 3e 74 4d 59 be 7e a9 07 3e
       0.19331735 0.16380355 -0.21220952 0.1324825
0001c0 a7 32 c7 be 07 af 09 3e 68 47 7d 3d b8 2f 63 be
       -0.38905832 0.13445674 0.061835676 -0.22186172
0001d0 ec f4 9e 3d 16 75 48 bd e8 d1 83 3c 24 fa 96 bd
       0.07761559 -0.048939787 0.016091302 -0.07371929
0001e0 52 8e 39 be 76 14 5a bd c6 43 50 bf 93 49 70 3e
       -0.18120697 -0.05324217 -0.81353414 0.23465566
0001f0 c1 55 82 3d 1c 48 c3 bf e6 f7 05 c0 42 de 15 3f
       0.063640125 -1.5256381 -2.0932555 0.58542264
000200 7a 34 bf c0 09 42 ff bd 80 95 e4 3d 04 43 1b 3e
       -5.975156 -0.12463767 0.11161327 0.15162283
000210 50 3a 44 3e 8f 5a 2a bf 39 01 51 bf 62 5e 7d 3e
       0.1916287 -0.6654443 -0.8164249 0.24743035
000220 5a 66 87 bf a9 d6 5e bf 23 1a a1 40 a5 71 56 bd
       -1.057811 -0.87046295 5.0344405 -0.052354474
000230 d8 3a 9e bf 1d c6 4b c0 1c 66 89 bf 7c 65 59 bc
       -1.2361708 -3.1839669 -1.0734286 -0.013268825
000240 d0 c0 f2 3c 5c 32 fe bd 6a dc 34 3e fe c1 17 be
       0.029632956 -0.12411949 0.17662206 -0.14820096
000250 60 34 d8 bc 18 37 08 3e 88 4d 68 bd 80 5c 87 bb
       -0.026392162 0.13302267 -0.056714565 -0.0041309
000260 84 58 54 be 60 a5 04 be 92 5a 4a be a2 41 76 be
       -0.20736891 -0.1295371 -0.19761112 -0.24048474
000270 44 82 87 bd 26 2f 0a be ba cb 01 3e 40 ed 53 bd
       -0.06616643 -0.13494548 0.12675372 -0.05173993
000280 66 d6 db 3c 8b d4 91 bc e0 d9 4d 3e 24 b4 31 3e
       0.026835632 -0.017801544 0.20102644 0.17353874
000290 3e c5 48 be 31 e3 aa 3d 50 5d 93 be 7c 10 9c 3d
       -0.19606492 0.083441146 -0.2878213 0.07620332
0002a0 d9 07 d7 bd 40 a8 10 be f2 e8 41 3d c9 37 1f 3e
       -0.10499544 -0.14126682 0.047341295 0.15548624
0002b0 47 c3 23 bd e4 f2 ee be ca bb 5a bd d0 6c a4 be
       -0.039981153 -0.46669686 -0.053401746 -0.32114267
0002c0 50 af b9 3c 76 88 0a be 34 5a c3 3d 10 e4 82 bc
       0.022666603 -0.13528618 0.09538689 -0.01597789
0002d0 24 d9 4c be 80 ac 85 3b 9a b8 18 be 60 b4 ec bc
       -0.20004708 0.0040794015 -0.1491417 -0.028894603
0002e0 80 26 c5 3b e8 71 3a be 1c f2 17 3e 5a a1 63 3e
       0.0060165524 -0.18207514 0.14838451 0.2222952
0002f0 b8 0f 92 bd f0 48 13 bd 14 c7 8a bd f0 92 32 3d
       -0.07131904 -0.03595823 -0.067762524 0.04359716
000300 d0 6a 77 be 6a 02 99 be e8 0f 09 3d 70 c4 43 3d
       -0.2416184 -0.29884654 0.033462435 0.04779476
000310 14 e0 ed bd b4 a3 90 be 12 be cc be 04 96 eb 3d
       -0.11615005 -0.28249896 -0.39988762 0.115032226
000320 02 d8 96 be aa 9e 58 be e5 73 d5 3e a9 81 19 be
       -0.29461676 -0.21154276 0.41689983 -0.14990868
000330 eb 9e 52 bd da 2b d6 3e 83 3d 81 bd 24 0a 76 be
       -0.051421087 0.4183033 -0.063105606 -0.24027306
000340 7e 95 22 be 12 a7 74 be 20 a8 72 bd 98 4f 15 be
       -0.15877339 -0.23891857 -0.059242368 -0.14581144
000350 10 b5 4d bd e2 40 63 be 94 ce 9d bd d0 72 5a 3e
       -0.050221503 -0.2219272 -0.07705417 0.2133286
000360 38 6b be 3d f4 1b 90 3d 04 bc 41 be 00 e8 6c 3a
       0.09297794 0.07036582 -0.18919379 0.0009037256
000370 1c 58 2d be 40 56 4b bd 70 aa 45 3e 24 49 68 3e
       -0.16928142 -0.0496428 0.19303298 0.22684151
000380 1c d8 09 c0 22 17 e0 3c 4c 96 9f 3d e8 53 53 3e
       -2.1538153 0.02735478 0.07792339 0.20637476
000390 9c 89 05 be ac cf 1a bf 76 92 3d bf 78 0d 2f bd
       -0.13040775 -0.6047313 -0.74051607 -0.042737454
0003a0 56 0b 24 bf 77 8b 05 bf 43 22 99 41 ba c4 46 c0
       -0.640798 -0.5216593 19.14173 -3.1057572
0003b0 c2 bd 0f be 51 59 49 c1 70 20 38 bd 48 d8 9c bb
       -0.1403723 -12.584306 -0.04495281 -0.004786525
0003c0 4c dc 97 bd 20 56 a3 3c 28 87 c7 3d 00 5a be 3a
       -0.07415065 0.019938529 0.09742576 0.0014522672
0003d0 c8 e4 bb bd 10 4e ef 3c 48 3e 75 be 3c 49 98 3d
       -0.09174496 0.029212028 -0.2394954 0.07435843
0003e0 98 c9 c0 bd fa c3 5e 3e 10 74 9f 3c 40 60 ae 3c
       -0.09413451 0.21754447 0.019464523 0.02128613
0003f0 c0 d3 2e 3c 00 73 b6 3c 4c e8 f2 3d 50 2b f5 bc
       0.010670602 0.022271633 0.11860713 -0.02992788

fc1.bias f4 [64]
000000 7f 79 bf be 60 c0 2f be a5 eb fc bd 84 35 da bd
       -0.37397382 -0.17163229 -0.12349633 -0.106547385
000010 3a d1 07 bf 48 57 3b 3e d0 c9 94 3d 6c 3a ca be
       -0.5305363 0.18295014 0.07265055 -0.39497697
000020 8b cf 39 bf 70 24 3b be a4 97 ce bc 00 92 b2 bd
       -0.7258231 -0.18275619 -0.025218792 -0.087192535
000030 89 5c 03 bf 2c fd a4 bd 56 bd 35 bf e6 6e 2f be
       -0.5131307 -0.08056101 -0.7099203 -0.17132148
000040 d0 3e e0 be a2 70 38 bd da 6b 30 be b0 28 a6 3d
       -0.43797922 -0.04502929 -0.17228642 0.08113229
000050 a0 e1 1b 3c d0 f7 7f bd b0 5e 97 bc db d8 b5 be
       0.009514242 -0.06249219 -0.018477768 -0.3551701
000060 15 b4 d4 be 0f e1 c4 be b0 74 77 bd ac 4f 9b 3d
       -0.41543642 -0.38452956 -0.060414016 0.075835556
000070 20 a9 74 be 90 63 16 bf 2b 9c fc be 2c 0a e7 be
       -0.23892641 -0.5874567 -0.49337897 -0.45124948
000080 d8 ce bc bd 43 41 9c be b1 40 f5 be 91 98 05 bd
       -0.0921914 -0.3051854 -0.47900918 -0.0326162
000090 b3 fe 01 bf c9 da 8a be 1f b9 07 bf 78 5d 33 bd
       -0.50779265 -0.27120045 -0.5301685 -0.04379031
0000a0 68 b0 03 be 81 8c 74 bd c9 be fc be ec 94 66 be
       -0.12860262 -0.059704307 -0.49364308 -0.22517747
0000b0 a2 7d ad be da 11 db bd 5e 6c 39 3e 5e 81 ad be
       -0.33884913 -0.10696764 0.18107745 -0.33887762
0000c0 10 bd 08 bf 48 09 6b bd 97 e5 e0 bd a4 7a 76 bf
       -0.53413486 -0.0573819 -0.10981291 -0.96280885
0000d0 40 2b 09 bf 86 c7 55 bd 17 43 19 be 24 5d 9e 3d
       -0.5358162 -0.052192234 -0.14966999 0.07732609
0000e0 bf 8f d3 bf 24 e7 39 bf b0 78 ac bd 80 18 72 be
       -1.6528243 -0.7261832 -0.08421457 -0.23642159
0000f0 34 78 ba 3d e8 d0 a3 bd 8e d5 47 3e 85 58 ae be
       0.09104958 -0.0799883 0.19515058 -0.3405191

fc2.weight f4 [64, 64]
000000 8d 8a 3c be b4 a6 cc 3d c2 44 84 be b0 05 05 3c
       -0.18412228 0.099927336 -0.25833708 0.008119032
000010 10 a3 99 be 30 c7 d2 3c 90 37 39 bd cc 5b 82 be
       -0.3000722 0.025729746 -0.045219004 -0.2546066
000020 be 68 67 be 80 8c a7 bc 6b 4b 8f be 38 fd 65 3d
       -0.2259855 -0.020452738 -0.27987227 0.05614969
000030 b5 cc c8 be c8 1b 35 3d e3 4b aa be 64 ef ae 3d
       -0.3921868 0.044215947 -0.33261022 0.08541754
000040 67 15 d9 be 3c 29 b5 be ec dd f5 3d b0 1f 9d 3c
       -0.4239914 -0.35383022 0.12005219 0.019180149
000050 d8 86 1f 3d 52 ec e5 bd 70 8f 54 3c 63 ac d7 be
       0.038946956 -0.11226715 0.012973651 -0.42123708
000060 d5 ec 94 be 04 52 8e be 18 bc c8 3c 38 1a f1 3d
       -0.29086939 -0.27796948 0.024503753 0.11772579
000070 1c 30 0f 3d fe 45 93 be 7a cd 84 be 91 1a 93 be
       0.03495799 -0.28764337 -0.25938016 -0.28731206
000080 10 d4 97 3c 8e b4 40 be 06 6b 4c be 82 df a1 be
       0.018533736 -0.18818876 -0.19962701 -0.31615835
000090 d9 dd 90 be 51 45 9a be 70 38 12 3c f0 9a 5c 3d
       -0.28294256 -0.3013101 0.008924589 0.053858697
0000a0 3e 20 9d 3d c4 87 54 be 84 d3 c6 be 64 ad d6 3d
       0.07672165 -0.20754915 -0.3883325 0.104822904
0000b0 7a c5 d0 be bb aa bd be 08 8a 8e bd 7e fc 6d be
       -0.40775663 -0.3704432 -0.06959921 -0.2324085
0000c0 33 88 59 be ac a2 14 3d 0d 67 99 be 49 67 60 be
       -0.21243362 0.03628795 -0.29961434 -0.219144
0000d0 33 eb 82 be ea bd 7e be a0 5b 99 be c0 ca cf 3d
       -0.25570068 -0.24877134 -0.29952717 0.10146093
0000e0 00 20 80 be 8e 15 76 be ca 23 d6 3d 60 39 ec bc
       -0.25024414 -0.2403166 0.10456045 -0.028835952
0000f0 10 ae 6d bd 6c 64 89 bd 56 75 d4 3d 3a 9d c5 be
       -0.058027327 -0.06708607 0.103739426 -0.38596517
000100 d8 9d 9c bc 02 73 ee bd a8 1c a0 bd ac 29 0d 3d
       -0.019118235 -0.1164303 -0.07817966 0.03446357
000110 80 34 6c bb 58 1a 85 3d f6 a7 8d 3d c6 f4 22 be
       -0.0036042035 0.06499165 0.06916802 -0.15913686
000120 1b d0 9f be 70 e3 f9 3c bd a5 92 be 40 71 a1 3b
       -0.3121346 0.030503958 -0.28642073 0.0049268305
000130 f8 36 c2 bd 08 d2 4e bd 88 68 54 be 60 07 c5 bd
       -0.09483141 -0.05049327 -0.20743 -0.09620547
000140 7a 69 59 be 5c 43 34 be 44 0c f6 3d b0 4f d9 3c
       -0.21231642 -0.1760382 0.12014058 0.026527256
000150 88 35 18 bd 30 1b 24 3c 90 20 76 3c 16 88 c1 bd
       -0.037160426 0.010016248 0.015022412 -0.094497845
000160 2c 3f 0c bd 90 39 50 bd a4 ec a9 bd ce 94 9b 3d
       -0.034239933 -0.050836146 -0.08297089 0.075967416
000170 e8 4a ea bc 0e 98 c6 bd f5 67 c0 bd 63 d0 a8 3d
       -0.028600171 -0.09696971 -0.09394828 0.082428716
000180 e8 04 9d 3c 8f de 98 be 80 ad 82 bc 23 7b a4 be
       0.019167379 -0.298573 -0.015951872 -0.32125196
000190 01 2c 91 be 6e 62 82 be f8 16 8c bd 60 c5 87 bb
       -0.28353885 -0.2546572 -0.068403184 -0.004143402
0001a0 8c c2 86 3d fa c6 54 be a1 23 a5 be a8 7f b0 3c
       0.065800756 -0.20779029 -0.32253745 0.021545246
0001b0 20 e1 6d bd 76 e5 8f be 26 99 d1 3d 24 53 06 be
       -0.058076024 -0.28104752 0.10234289 -0.13117653
0001c0 94 6c 9e bd f4 60 1f 3d 29 35 87 bd f3 28 9a be
       -0.077355534 0.03891082 -0.06601936 -0.30109367
0001d0 2d e9 ef bd ed fb 94 be d2 eb f0 bd 88 0b 7a 3d
       -0.117143966 -0.29098454 -0.11763729 0.061046153
0001e0 4a de 92 bd 1a 54 81 be 68 3e ce 3d 94 b3 24 bd
       -0.071713045 -0.25259477 0.10070497 -0.04021032
0001f0 0c 30 d5 3d 78 75 d9 bc 30 f1 72 bd 8c d8 7f be
       0.10409555 -0.026545271 -0.059312046 -0.2498495
000200 d4 c7 27 3d f6 c0 f4 3d 32 c8 c9 bd 16 bb b1 bd
       0.040962055 0.11950867 -0.09852637 -0.08678262
000210 ba 48 93 3d 10 d1 bf 3d ac b5 82 bd a0 a1 bb bd
       0.07191606 0.093660474 -0.063823074 -0.09161687
000220 45 56 04 bf f8 e2 d2 3c 54 6a b9 3d 6c 74 73 3d
       -0.51694137 0.025742993 0.090534836 0.0594372
000230 98 2b b7 3c 14 d9 de 3d 9a cf a9 bf f8 e4 c5 3c
       0.022359654 0.10881248 -1.326648 0.024157032
000240 a8 e2 a7 3c d8 e8 e5 3c ec e9 5e 3d 26 49 df 3d
       0.02049382 0.02806513 0.054422304 0.10902624
000250 4e f1 e5 3d e0 d2 39 bc 80 40 1b 3b fa 24 da be
       0.11227666 -0.01134178 0.0023689568 -0.42606336
000260 ae a7 f9 3d 88 d8 d3 bd 80 4f df bd b6 f5 9a bd
       0.121901855 -0.103440344 -0.10903835 -0.07566397
000270 42 74 b3 bd 9f c9 20 bf 1e c3 e1 3d 64 76 80 bd
       -0.08762409 -0.6280765 0.11023544 -0.06272581
000280 70 1c 0c bc 16 0a 14 bf 38 9e 4f 3d 00 19 35 ba
       -0.008551702 -0.5782789 0.050688 -0.00069083273
000290 03 48 a4 be 80 ef c7 bc 50 b4 6f 3c b0 9a 14 bc
       -0.3208619 -0.024406195 0.014630392 -0.0090700835
0002a0 de 61 ff 3d f8 61 d1 be 3c db fd bd 94 75 3f 3d
       0.124698386 -0.40895057 -0.12395331 0.04674299
0002b0 6c 63 cd bd c0 ee 4a bc ac 5f 3d bd 2c e2 c9 bd
       -0.10028729 -0.012386024 -0.046233818 -0.09857592
0002c0 58 3a d9 3c 10 6a 41 bc 23 65 03 3f 23 05 6a be
       0.026517078 -0.011805072 0.513262 -0.22853522
0002d0 c7 65 3c bf ec e1 87 bd ae 57 a7 3d 08 df d5 3c
       -0.735928 -0.06634888 0.081710204 0.026107326
0002e0 07 58 1b bf e5 bd 95 bf f0 7e a8 3c 98 26 8d bc
       -0.60681194 -1.1698576 0.020568341 -0.017230317
0002f0 50 16 ae 3d d0 39 2c 3c 94 97 56 3d 78 f1 4a 3d
       0.085003495 0.01051183 0.05239065 0.04954669
000300 74 31 8f bd 3c 44 ea 3d 4a 31 77 be 80 76 b0 3a
       -0.06991854 0.11438796 -0.24139896 0.001346305
000310 80 cd ab 3a 34 1a ed 3d 56 84 ac bd fb 07 ab be
       0.0013107508 0.115772635 -0.084236786 -0.33404526
000320 26 b9 87 be e8 7a eb 3c f0 1f ae bc c6 72 a2 3d
       -0.26508445 0.02874513 -0.021255463 0.079320475
000330 33 26 d9 be 08 81 e6 bc 9c 5d ab be 9c 51 9d bd
       -0.42411956 -0.028137699 -0.33469856 -0.076815814
000340 92 b6 d8 be 1b 91 8a be 70 26 89 bd d8 4a 83 bd
       -0.4232679 -0.27063832 -0.066967845 -0.0641076
000350 70 c7 6c bd 48 4c d3 3d 9e ac e6 bd db f7 d1 be
       -0.057807386 0.10317284 -0.11263393 -0.4100941
000360 fc 43 c3 be 66 fc c2 3d 1e 41 f9 bd b0 41 5b 3c
       -0.38137805 0.095207974 -0.12170623 0.01338236
000370 00 57 84 3a e1 8d 72 be 3b b8 7b be b8 fa e3 3d
       0.0010096729 -0.23686935 -0.24581997 0.11131805
000380 9e 1a 86 3d 9b 48 b8 bf 10 9b 6a bd 14 18 a5 be
       0.065480456 -1.4397157 -0.057276785 -0.32244933
000390 b1 ae 8f be 0b dd ba be 28 86 89 bd b0 67 c8 bd
       -0.28062966 -0.36496767 -0.067150414 -0.09785402
0003a0 ec da 50 bd 07 87 52 be 29 03 96 be 80 c6 bd bb
       -0.05099003 -0.20559321 -0.29299286 -0.0057914853
0003b0 a2 22 90 be 4b 40 82 be 00 4f ef bd af e3 c0 be
       -0.28151423 -0.25439677 -0.1168499 -0.3767371
0003c0 0c 25 15 3d 00 4e af 3d 57 01 57 be c6 c4 47 be
       0.036412284 0.08559799 -0.20996605 -0.19508657
0003d0 1b 6c 8f be 98 9c b5 be b9 0a 4b be 08 75 52 3d
       -0.28012165 -0.35471034 -0.19828309 0.05138114
0003e0 26 70 52 be 0f 63 c3 be f8 c8 4d 3d 70 95 55 3c
       -0.20550594 -0.38161513 0.050240487 0.013036117
0003f0 80 bd 05 3d 38 1e f4 bc f0 00 77 bd 2a 5e c8 be
       0.032651424 -0.029799566 -0.06030363 -0.3913434

fc2.bias f4 [64]
000000 fe e4 3c be 50 82 ed bd 54 a0 ef bf 4f 4a 9b bf
       -0.18446729 -0.11597121 -1.8720803 -1.2132052
000010 97 b9 e1 be 05 ee 66 be e3 ee c6 be 69 89 66 be
       -0.44086906 -0.22551735 -0.3885413 -0.22513355
000020 3c 66 da be 8d c3 46 be 89 95 8d be 78 a7 e0 be
       -0.42656124 -0.19410534 -0.2765315 -0.4387777
000030 b5 1e 8a be 08 0d 35 be d4 d6 51 bf 0b 6c b8 be
       -0.26976553 -0.17680752 -0.81968427 -0.3601993
000040 90 b0 bc be 95 88 05 c0 d9 17 82 bf 56 e3 b6 bf
       -0.36853456 -2.0864613 -1.0163528 -1.4288127
000050 b2 f9 50 be e4 0b 19 bf d0 27 42 be b0 d1 85 be
       -0.20407751 -0.5978377 -0.189605 -0.2613654
000060 36 79 9d be c1 7e 90 be cc e1 03 bd 10 22 9b bf
       -0.3075654 -0.28221706 -0.03219776 -1.211977
000070 e5 54 ef be 8d 04 20 be c4 3c 2b be 4d 71 83 be
       -0.46744457 -0.15626736 -0.16722399 -0.2567238
000080 e5 8d 29 be aa 9b 3e be 5e be a1 bf 81 f5 5d be
       -0.16558035 -0.18614069 -1.263622 -0.21675684
000090 da 95 6a be 3a 64 7c bc ca 4c be be c3 56 a4 be
       -0.22908726 -0.015404755 -0.3716796 -0.32097444
0000a0 e9 8e 2d bf 9b 56 5c bd 54 69 3a c0 db 25 96 bf
       -0.6779619 -0.05379353 -2.9126787 -1.1730303
0000b0 9d 09 59 bd 04 d5 cf bd 75 63 32 bf 40 6c 6c be
       -0.052987684 -0.101480514 -0.6968301 -0.23088169
0000c0 53 91 9f be 1c 16 54 bf 2e 04 c6 bd f1 9f 96 bf
       -0.3116556 -0.82846236 -0.09668766 -1.176756
0000d0 06 69 30 be 3c a1 79 bf 36 4e d1 be 99 5e 96 be
       -0.17227563 -0.9751165 -0.40879983 -0.29369047
0000e0 1a 4c 4f be ac 7c 85 be d3 03 b9 c0 73 6b 29 c0
       -0.20243874 -0.2607168 -5.781717 -2.6471832
0000f0 5d 65 63 be 26 4a 53 be 89 d4 49 be 04 c6 0a bf
       -0.22206636 -0.20633754 -0.19709982 -0.542084

fc3.weight f4 [6, 64]
000000 1c 8a a1 3e ac db d4 be b0 b4 97 3f 94 c7 c6 3e
       0.31550682 -0.41573846 1.1852016 0.3882414
000010 6b a8 cf bd 7d 1b 77 3c 11 21 33 bf ac 66 90 3e
       -0.10139545 0.015082237 -0.6997233 0.28203332
000020 4b 6f b6 3d 5d 04 7f be 91 81 d5 be 62 7c 19 3f
       0.08907946 -0.24904008 -0.41700414 0.5995542
000030 78 8c 47 be ff 98 5a 3e 78 a5 2d bf 74 3f 8e 3e
       -0.19487178 0.21347426 -0.6783061 0.27782786
000040 2c 0c c8 3e df 37 e4 3f ac 4c 63 bd 63 62 e5 be
       0.39071786 1.782955 -0.055493042 -0.44801626
000050 03 d6 85 3f 00 32 0e 3a 48 e9 63 3e fc 79 c0 3e
       1.0455936 0.00054243207 0.22256958 0.37593067
000060 7c 91 ba 3e 20 45 f4 3d 52 29 9c 3d 51 81 c0 3e
       0.3643912 0.11927247 0.07625069 0.3759866
000070 b4 15 85 be d9 06 93 3e c6 47 7f be c8 81 67 3e
       -0.2599312 0.28716162 -0.24929723 0.22608101
000080 1a 46 10 3f 67 6b 75 3f d4 2d 8d 3e a6 ad 62 be
       0.56356966 0.9586701 0.27574027 -0.22136554
000090 ea 84 42 be c7 e4 17 3e 9c ca c5 3e 66 22 4f 3e
       -0.18996015 0.14833365 0.3863114 0.20227966
0000a0 f3 e2 ea 3e 63 8a 87 3d da 38 9c 3f 93 c8 58 be
       0.45876274 0.06618192 1.220485 -0.21170263
0000b0 33 64 fa bd c8 4c 77 3d cb b3 07 3d 38 34 c0 3e
       -0.12226143 0.06037596 0.03313045 0.3753984
0000c0 72 64 e2 be ab eb 78 be 10 8c a6 be 7b d0 49 3c
       -0.4421726 -0.2430865 -0.32528734 0.012317772
0000d0 ca 09 04 be 7c 1c 9d be a1 02 a9 3e 68 9f 7b 3e
       -0.12894359 -0.30685794 0.33009818 0.24572527
0000e0 2c ed f8 3f 11 95 6a be 2d ef cc be ff 83 9e 3e
       1.9447379 -0.22908427 -0.40026227 0.3096008
0000f0 71 46 50 be 52 cf bd be 53 3d 65 3f 6c 4f 89 3d
       -0.20339371 -0.37072235 0.895467 0.06704602
000100 6d 2b c5 3e 4a d3 29 be 38 10 89 3f 06 08 c3 bf
       0.38509694 -0.16584507 1.0708075 -1.5236824
000110 4f fd 6d 3e 2d 3c 39 3e bf 6f 6a 3e 04 47 a5 be
       0.23241161 0.18089361 0.2289419 -0.32280743
000120 2b f9 63 be 03 90 57 be e5 49 8a be 2c 6e db 3e
       -0.22263019 -0.2105103 -0.27009502 0.42857492
000130 13 31 88 be 4e 45 51 be 53 29 2a 3f 5f 6e a9 be
       -0.2659994 -0.20436594 0.66469306 -0.3309202
000140 7d 84 8a be 1c 4e 14 3e 5c 1b 6f bf 11 4c f0 be
       -0.27054206 0.14482921 -0.9340112 -0.46933034
000150 ee 12 d0 be d8 ed 3d 3d 79 48 ae be e1 2c b2 be
       -0.40639442 0.046369404 -0.34039667 -0.34799865
000160 d3 08 bf be 64 39 88 3d 58 67 69 bb f6 08 da 3d
       -0.3731142 0.066515714 -0.0035614576 0.106462404
000170 57 0c 99 3e 5d 5e 7b 3e c9 80 72 be 14 31 9e be
       0.29892227 0.24547715 -0.2368194 -0.3089682
000180 e5 49 a6 3d 3d dd 8b 3e 0c e4 2a 3d cc 05 1e 3d
       0.08119563 0.2731723 0.04172139 0.038579747
000190 2b f8 89 3e c5 1f 66 be 00 85 85 3a 24 56 83 be
       0.2694715 -0.22473057 0.0010186732 -0.25651658
0001a0 33 0e f9 be 06 7f 13 3d d2 8d a0 3f a0 bb ee bd
       -0.48643646 0.03600981 1.254328 -0.116568804
0001b0 9f 15 1f bd 0f e1 e1 3d dc 86 8f 3c d0 fc 9e be
       -0.03883898 0.11029255 0.01752036 -0.31052256
0001c0 b4 06 b9 be 21 6d ef bd 62 92 e4 bd 6b 16 67 3e
       -0.36137927 -0.116907366 -0.11160733 0.22567146
0001d0 0e b1 af bd 96 7b 90 be ee 5a bb bd 8c 9a b1 be
       -0.085786924 -0.2821929 -0.09148203 -0.34688222
0001e0 f9 2e 28 be f9 ee 88 3e 64 7b 95 be 88 4b b6 be
       -0.16424169 0.26744822 -0.29195702 -0.356045
0001f0 2d dd 87 be 70 76 b0 3d b7 63 0d 3e f0 2b 66 bc
       -0.2653593 0.0861634 0.1380757 -0.014048561
000200 29 f4 89 be 05 46 f6 be 5e 76 26 be ef ba 8a be
       -0.26944092 -0.48100296 -0.16256091 -0.27095744
000210 cd 2d 02 3e 14 fd 6d be 1e a8 28 bf d6 3d 69 be
       0.12712784 -0.23241073 -0.65881526 -0.22777495
000220 5c d7 5e 3f 2c 34 02 be 74 c1 95 be c4 5a 0f bd
       0.8704736 -0.12715214 -0.29249156 -0.03499867
000230 88 c6 71 be 0b 52 83 be ed 4e 4f bf af 7d b1 be
       -0.2361089 -0.2564853 -0.80979806 -0.346662
000240 98 e4 c1 be ed 75 e4 bf 1e f6 a9 3d c6 a2 95 3e
       -0.37869716 -1.7848488 0.08298896 0.2922575
000250 84 28 2c 3f f0 4e c9 3d 52 ef 42 be 3b 25 7a be
       0.6724932 0.09829509 -0.19036606 -0.24428265
000260 08 c1 8b 3e 90 cc 9a 3f 2f 64 89 be 37 21 39 3d
       0.2729571 1.2093678 -0.26834247 0.04519769
000270 83 df 6d be b1 9d 57 3e fe 52 68 bd 30 fa a5 be
       -0.23229794 0.21056248 -0.056719773 -0.3241744
000280 25 e9 0e bf e0 0e f6 be 67 fc c1 bf ed ff 46 be
       -0.558245 -0.48058224 -1.5155152 -0.19433565
000290 28 7b 8e be fd 42 3f be dd 5a 56 be 15 33 a9 be
       -0.27828336 -0.18677898 -0.20933099 -0.33046785
0002a0 3c 58 4d be 04 35 11 3f 11 3d 24 3f ee 20 a9 3e
       -0.2005319 0.5672152 0.6415568 0.33032936
0002b0 3c af ed bc 35 65 a9 be f1 73 83 be 1d 76 87 be
       -0.029014222 -0.33085027 -0.25674394 -0.264573
0002c0 e0 48 94 be ed 62 41 bf 1b 65 ba bd 17 67 56 3e
       -0.2896185 -0.75541574 -0.091013156 0.20937763
0002d0 0b 13 6b be f6 bd ee bd 1f 3a 66 be 8d 7b 69 be
       -0.22956483 -0.11657326 -0.22483109 -0.22801037
0002e0 cf 31 da 3e 9c ce 37 be c1 14 e0 be f8 cd 16 be
       0.42616126 -0.17949909 -0.43765834 -0.14727008
0002f0 c9 b0 95 be 9b 8d 79 3c 78 d0 05 bf 46 d9 e4 bd
       -0.2923644 0.015231515 -0.52271223 -0.11174254
000300 45 03 57 3e 10 c1 8f be 70 98 38 bf 38 35 f9 3d
       0.20997341 -0.28076982 -0.721076 0.12168354
000310 e6 14 83 be fb 03 0e bf ad b0 0c bf 03 af b2 3e
       -0.25601882 -0.55474824 -0.54957086 0.34899148
000320 3f 01 80 3e f0 c3 9a be 8f 90 d6 3e a4 b9 f0 3e
       0.2500095 -0.30227613 0.41907164 0.47016633
000330 b6 73 4e be 7e 16 47 3e 8f 24 6c bf e5 4d 3b 3e
       -0.20161328 0.19442174 -0.92243284 0.18291433
000340 b9 aa 8e 3e 41 ce a9 be 28 91 87 bf 00 25 90 bf
       0.27864626 -0.33165172 -1.0591173 -1.1261292
000350 37 95 9b 3f b3 7c 08 3f 20 76 d0 3e 29 a7 c2 3e
       1.2154912 0.53315276 0.40715122 0.38018158
000360 b3 b6 a2 3e ba 71 c5 3c 03 50 5b bf cb ae 52 3f
       0.31780013 0.02410208 -0.85668963 0.8229796
000370 d3 49 2e bd 76 99 19 be 72 68 0a be 02 a9 b1 3e
       -0.042550873 -0.14999947 -0.13516405 0.34699255
000380 b6 d8 1d bf a7 93 92 3d 2e 36 ea 3e 01 08 36 be
       -0.616588 0.07157069 0.4574446 -0.17776491
000390 f5 76 80 3e fb 06 65 bd 90 d1 b8 3e 3d 30 bb 3e
       0.25090757 -0.05591486 0.36097383 0.3656024
0003a0 7b e8 14 3f 66 07 f0 3e 63 93 9d 3d 4b ba 20 bf
       0.5816724 0.46880645 0.076941274 -0.6278426
0003b0 e2 d8 4d be bc 5a f7 bc d1 2f 91 3d 77 b5 d2 3e
       -0.20102265 -0.030194633 0.070891984 0.41154072
0003c0 ee a6 99 bd 64 1e d4 bd 91 ff 85 be 8f d1 8e 3e
       -0.075025424 -0.10357359 -0.26171544 0.27894256
0003d0 1b 54 30 be b4 e4 a4 bf 86 bf ef 3d dc 11 cb 3e
       -0.17219584 -1.2882295 0.11706452 0.39662063
0003e0 f0 47 d7 be 31 d0 84 3e dc a5 cf bd 13 5e 4a 3e
       -0.4204707 0.25940087 -0.10139057 0.19762449
0003f0 3f 30 8c 3e 9c 47 60 be 33 26 f7 3d 49 4b 05 3f
       0.2738056 -0.21902317 0.12067833 0.52068

fc3.bias f4 [6]
000000 4f 2c 5d c0 6e f9 52 c0 59 b8 50 c0 12 f1 6f c0
       -3.4558294 -3.296474 -3.2612517 -3.7490888
000010 e9 c6 12 c1 d3 de 1a c1
       -9.173562 -9.6794
