checkpoints/model_0.9_100.pth (torch, 25220 bytes, 6 tensors)

fc1.weight f4 [64, 16]
0	0xbe499606	-0.19686136
1	0xbdaf8b23	-0.0857146
2	0x3e7c98c4	0.2466765
3	0xbe1c38ca	-0.15256038
4	0x3e5f26b8	0.21792114
5	0xbed67c0c	-0.41891515
6	0xbdd8a7d4	-0.10578886
7	0xbe2bda08	-0.16782391
8	0xbe3e075d	-0.18557496
9	0xbed4bfae	-0.4155249
10	0xbe01a83c	-0.12661833
11	0xbedddd0d	-0.4333271
12	0xbcc54789	-0.024081962
13	0xbe8a465d	-0.27006808
14	0x3e4729c4	0.19449526
15	0xbef5dda6	-0.48020667
16	0xbf54d98d	-0.83144456
17	0xbe109fd9	-0.14123477
18	0x3cde6f40	0.027152658
19	0xbd357b58	-0.044307083
20	0xbc44b720	-0.012006551
21	0xbe7f4632	-0.24929121
22	0xbe909b7d	-0.28243628
23	0x3dd55740	0.10417032
24	0xbeca7d1d	-0.3954858
25	0xbf0b2f9b	-0.54369515
26	0x3f096c17	0.53680557
27	0xc0bb6df6	-5.857173
28	0x40826a61	4.0754857
29	0x3fed5cdb	1.8543962
30	0x3fb80a70	1.4378185
31	0x3e2fe764	0.17178112
32	0xbf026af7	-0.50944465
33	0xbe504fb8	-0.2034291
34	0x3a7aae00	0.0009562671
35	0xbe3f0812	-0.18655422
36	0xbc10f800	-0.00884819
37	0xbdaf2fa9	-0.08554012
38	0xbdfd48a9	-0.123673744
39	0xbdf80be4	-0.12111643
40	0xbe70a800	-0.23501587
41	0xbee493a5	-0.44643894
42	0xbe95b032	-0.2923599
43	0xbeadbf04	-0.33934796
44	0xbf043c83	-0.51654834
45	0xbe57cfe6	-0.210754
46	0xbc75d4a0	-0.015004307
47	0x3edb0bf5	0.4278256
48	0xbe41c68a	-0.18923393
49	0xbe3a6796	-0.18203577
50	0x3dc0da54	0.09416643
51	0x3e1c7566	0.15279159
52	0x3dff3884	0.124619514
53	0xbf090a2f	-0.53531164
54	0xbec6528d	-0.38734856
55	0x3df10bd0	0.11769831
56	0xbe8d7e49	-0.2763541
57	0xbda251de	-0.07925771
58	0xbe62576a	-0.22103658
59	0xbde5b65c	-0.11216423
60	0x3c206ca0	0.009791523
61	0xbec10f42	-0.37706953
62	0xbe10efe6	-0.14154014
63	0xbe7e584e	-0.24838373
64	0xbd1d8731	-0.038459007
65	0x3e8deab5	0.2771813
66	0xbe5dd85e	-0.21664569
67	0xbdaf4fd4	-0.08560148
68	0xbe2bf074	-0.16790944
69	0xbe628446	-0.22120771
70	0xbeb96bab	-0.36214957
71	0x3db08ca0	0.08620572
72	0xbe9aedd0	-0.30259562
73	0xbe63de72	-0.22252825
74	0xbfbbbf7e	-1.4667814
75	0xc069a587	-3.650728
76	0xc00992fe	-2.1495967
77	0x3faae567	1.3351258
78	0xc037cd85	-2.871919
79	0x401dc834	2.4653444
80	0xbe34299e	-0.17594
81	0xbe5dfcc8	-0.2167846
82	0x3d14e428	0.0363504
83	0xba5c8800	-0.00084125996
84	0xbe570900	-0.20999527
85	0xbd80efc4	-0.06295732
86	0xbdfed120	-0.12442231
87	0xbe2ba95c	-0.16763824
88	0xbe5c54f0	-0.21516776
89	0xbe3d10ae	-0.18463394
90	0xbe76a960	-0.24088049
91	0xbe355a46	-0.17710218
92	0xbe1da2e6	-0.15394172
93	0x3e30528c	0.17218989
94	0xbe21a4a2	-0.15785459
95	0xbe5a58ee	-0.21322986
96	0x3e3fc270	0.18726516
97	0xbc67f3c0	-0.014157236
98	0xbe1b8712	-0.15188244
99	0xbe2c7ad8	-0.16843736
100	0x3e145258	0.14484537
101	0xbd979504	-0.07401469
102	0xbe7edf7c	-0.2488994
103	0x3d8d1a38	0.068897665
104	0x3e430af8	0.19047153
105	0xbe44865c	-0.19191879
106	0xbd0ed198	-0.034867853
107	0xbcb3c3b0	-0.021943897
108	0xbdbd6344	-0.09247449
109	0x3e3c6a2a	0.18399873
110	0xbdd90720	-0.10597062
111	0x3e724eec	0.23662919
112	0xbf81dda9	-1.014577
113	0xc097e0db	-4.746198
114	0xbc8d1c20	-0.017225325
115	0x3afeef00	0.001944989
116	0xbe0412e2	-0.12897828
117	0xbfab1199	-1.3364745
118	0xbf870c40	-1.0550613
119	0xbe43e152	-0.19128922
120	0xbf7cd3ce	-0.9876069
121	0xbf87067b	-1.0548853
122	0xbf320e66	-0.6955322
123	0xbfaeaae1	-1.3645898
124	0xbe1db63c	-0.15401548
125	0x4047a762	3.1195912
126	0x40893470	4.287651
127	0xbf36a9b1	-0.7135268
128	0xbd0dffb8	-0.0346677
129	0x3e712ff0	0.23553443
130	0xbe05a606	-0.13051614
131	0xbe4fd380	-0.20295525
132	0xbc4bf9e0	-0.012449712
133	0xbe6d2038	-0.23156822
134	0xbe4ed282	-0.2019749
135	0xbe602036	-0.21887287
136	0x3d1903e8	0.03735724
137	0xbd1d4d58	-0.03840384
138	0xbe043230	-0.1290977
139	0x3e2864b0	0.16444659
140	0x3e3b73b2	0.18305853
141	0xbe07e0a8	-0.13269293
142	0x3e4cdd84	0.20006377
143	0xbe18d958	-0.1492666
144	0xbe9ff3db	-0.31240734
145	0xbff96d36	-1.9486454
146	0xbd91f944	-0.07127622
147	0xbbe0f840	-0.006865531
148	0xbe7a8056	-0.24463019
149	0xbf3fad18	-0.74873495
150	0xbf501b13	-0.8129131
151	0xbe441660	-0.1914916
152	0xbf41310b	-0.7546546
153	0xbf523bef	-0.821227
154	0xc18f67cf	-17.925688
155	0xc1a40420	-20.502014
156	0xc0069e7a	-2.1034226
157	0xbf28af92	-0.658929
158	0x407ea2b9	3.9786818
159	0xbf84ec34	-1.0384583
160	0xbc262355	-0.01014026
161	0xbeca7c14	-0.3954779
162	0xbda7637c	-0.08173272
163	0xbe3c1664	-0.18367916
164	0x3d77a2e8	0.060458094
165	0xbe932447	-0.28738615
166	0x3d417a3c	0.047235712
167	0x3e4e14b8	0.20125091
168	0x3dc09684	0.094037086
169	0xbd63ac1c	-0.05558406
170	0x3eaa002b	0.33203253
171	0x3de83f45	0.11340193
172	0x3a72470d	0.0009242155
173	0x3dd6b52a	0.10483773
174	0xbe5e38c8	-0.21701348
175	0xbe11e921	-0.14249088
176	0xbe55a272	-0.20862749
177	0xbe55dbf1	-0.20884682
178	0xbe3f2772	-0.18667391
179	0x3dc3acc8	0.0955444
180	0x3e3f459a	0.18678895
181	0xbf06cf4d	-0.52660066
182	0xbda3c1f0	-0.07995975
183	0x3e1ed24c	0.1550991
184	0xbe5cda29	-0.21567596
185	0xbeb72f9d	-0.35778514
186	0xbeba4439	-0.36380175
187	0x3d4570e8	0.04820338
188	0xbdcd5334	-0.10025635
189	0x3cbc18a0	0.02296096
190	0x3cdbbff0	0.026824921
191	0xbdc3bc88	-0.09557444
192	0x3ca39a10	0.019970924
193	0x3bff2a80	0.007787049
194	0x3d7bf530	0.061513126
195	0x3d949a50	0.07255995
196	0xbdc67c4c	-0.096916765
197	0xbe028a8c	-0.12748164
198	0xbe2b4e7c	-0.16729158
199	0x3e4e4f46	0.20147428
200	0x3d5af418	0.053455442
201	0x3d56f100	0.05247593
202	0xbd8c8b3c	-0.06862494
203	0x3d4aac90	0.049480975
204	0x3cf8e8c0	0.030384421
205	0xbdfac6c4	-0.12244943
206	0x3caf6fc0	0.021415591
207	0x3e1253b2	0.1428974
208	0x3e3a06ca	0.18166652
209	0xbc163c00	-0.009169579
210	0x3de4fbc4	0.11180833
211	0xbdd0eba4	-0.10201195
212	0x3e599e62	0.21251824
213	0xbe382c0e	-0.17985556
214	0xbe615be4	-0.2200771
215	0x3dfdf138	0.123995245
216	0xbd933168	-0.07187158
217	0x3e2d08da	0.16897908
218	0x3e76ab8c	0.24088877
219	0x3a51c000	0.00080013275
220	0xbe282cbc	-0.16423315
221	0xbe6604de	-0.22462794
222	0x3ac41c00	0.0014961958
223	0x3e2e7162	0.1703544
224	0xc14dc908	-12.86158
225	0xbee0ec82	-0.4393044
226	0xbe6c741a	-0.23091164
227	0x3e2cdc08	0.1688081
228	0xbe1bdef6	-0.15221772
229	0xbec42df8	-0.3831632
230	0xbed8c0ad	-0.423345
231	0x3e595c48	0.21226609
232	0xbec88231	-0.39161828
233	0xbeefc37f	-0.4682884
234	0x408c58aa	4.3858232
235	0xc0c45768	-6.1356697
236	0x3f08e863	0.53479594
237	0x3ffa0bb9	1.9534827
238	0x40003612	2.0033002
239	0xbfcc9b24	-1.5984845
240	0xbe3f2ba0	-0.18668985
241	0xbe7c08d2	-0.2461274
242	0x3ca6e3b0	0.020372242
243	0xbc6085a0	-0.013703734
244	0x3de2e030	0.110779166
245	0xbc4836e0	-0.0122201145
246	0x3d78eae8	0.0607709
247	0xbdf78674	-0.12086192
248	0xbd4ea1e8	-0.050447375
249	0xbe5107be	-0.2041311
250	0x3e2f4b66	0.17118606
251	0xbe2ce480	-0.16884041
252	0xbe0ce892	-0.13760594
253	0x3e721efe	0.23644635
254	0xbda45f60	-0.08026004
255	0xbddf33d4	-0.10898557

fc1.bias f4 [64]
0	0xbf0763b1	-0.5288649
1	0xbe8ef316	-0.27919835
2	0xbe9783b4	-0.2959267
3	0xbe45ff27	-0.19335614
4	0xbe58ab7b	-0.21159165
5	0xbdb39628	-0.087688744
6	0xbd92d278	-0.0716905
7	0xbf96bc31	-1.1776181
8	0xbe5ac280	-0.21363258
9	0xbf5b9fd4	-0.85790753
10	0xbec574bb	-0.3856562
11	0xbeccd2b6	-0.4000451
12	0xbe45bcae	-0.19310257
13	0xbdc30ffc	-0.09524533
14	0xbf1ca215	-0.6118482
15	0x3d67fc48	0.05663708
16	0x3de88888	0.11354166
17	0xbef6830d	-0.4814686
18	0xbe9d4ae5	-0.30721202
19	0xbe826c53	-0.2547327
20	0xbe43944f	-0.19099544
21	0xbe5df63a	-0.21675959
22	0xbe8b86e7	-0.2725136
23	0xbe9f5686	-0.311207
24	0xbe81a3f1	-0.2532039
25	0xbe7f361c	-0.24922985
26	0xbf55caff	-0.8351287
27	0xbf069984	-0.52577996
28	0xbe7d01a6	-0.2470766
29	0xbeb92f76	-0.36169022
30	0xbe225b9a	-0.15855256
31	0xbe651450	-0.2237103
32	0xbf68331f	-0.90703005
33	0xbcd73875	-0.026272038
34	0x3e0004c0	0.12501812
35	0xbe0a8a88	-0.13529408
36	0xbf4b8e92	-0.7951442
37	0xbee50f26	-0.4473812
38	0xbe9773e1	-0.29580596
39	0x3dfe3608	0.124126494
40	0xbe50ccf0	-0.20390677
41	0xbc9639a4	-0.018338032
42	0x3da68f54	0.081328064
43	0xbe1f764e	-0.15572473
44	0xbd458380	-0.04822111
45	0xbee846e8	-0.45366597
46	0x3d72c968	0.059274107
47	0xbe5591b2	-0.2085636
48	0xbf8ccd56	-1.1000164
49	0xbea4da7b	-0.32197937
50	0xbe989492	-0.2980085
51	0xbf10c1e2	-0.5654584
52	0x3c34e04c	0.011039805
53	0xbcc7a5a0	-0.024370968
54	0x3ddd9910	0.1082021
55	0xbe7e510c	-0.24835604
56	0xbda9d716	-0.082929775
57	0xbe554412	-0.20826748
58	0x3dd9fa48	0.106434405
59	0xbe39b53f	-0.18135546
60	0xbd96cf65	-0.07363776
61	0xbe36d6c3	-0.17855363
62	0xbe45ce00	-0.19316864
63	0xbe07af7e	-0.13250539

fc2.weight f4 [64, 64]
0	0x3e8181de	0.25294393
1	0xbf0034d8	-0.50080633
2	0x3e7261fe	0.23670194
3	0xbe9d681f	-0.307435
4	0xbf76d811	-0.9642344
5	0xbdcb8eae	-0.09939323
6	0x3df039a6	0.117297456
7	0x3d497148	0.0491803
8	0xbc9d0810	-0.019168884
9	0xc05261d7	-3.2872217
10	0xbe2bfbb1	-0.16795231
11	0x3ea480ce	0.3212952
12	0x3d791680	0.060812473
13	0xbd45c190	-0.0482803
14	0xbfdfa1e3	-1.7471279
15	0xbc27dcd0	-0.010245517
16	0x3debf8b2	0.11522044
17	0xbd1d9a02	-0.03847695
18	0x3deb960e	0.1150323
19	0xbc43841a	-0.011933351
20	0x3e99c3f8	0.30032325
21	0xbd5fcbc0	-0.05463767
22	0x3ed85b65	0.42257228
23	0xbe46cd05	-0.19414146
24	0xbf3df3e9	-0.742003
25	0xbc8d3a08	-0.017239586
26	0xbf79e513	-0.97615165
27	0x3d1c4d50	0.03815967
28	0xbcd2bbc0	-0.025724292
29	0x3e9edb9d	0.31026927
30	0xbdf337ae	-0.118758544
31	0xbe328065	-0.17431791
32	0xbe84ade2	-0.25913912
33	0xbdc3d7bd	-0.09562633
34	0xbc842e00	-0.016135216
35	0x3d17d43c	0.037067637
36	0xc09835f1	-4.7565846
37	0x3e1a798e	0.15085432
38	0xbe930c7a	-0.28720456
39	0x3ce17ca8	0.027525261
40	0xbdce25a2	-0.10065772
41	0xbb95b45f	-0.004568621
42	0x3dd44d70	0.103663325
43	0x3ed087d2	0.40728623
44	0x3c3f7970	0.011686668
45	0x3e43cfbc	0.19122213
46	0x3d14c41c	0.036319837
47	0x3df94922	0.12172152
48	0xbdf517d6	-0.11967437
49	0x3e3c4e94	0.1838935
50	0xbf00753e	-0.501789
51	0xbec750b5	-0.38928762
52	0xbe2ebc03	-0.17063908
53	0xbd948154	-0.0725123
54	0xbdfa0028	-0.12207061
55	0x3d9850d0	0.07437289
56	0xbd97d2f1	-0.07413281
57	0x3de7d19e	0.11319278
58	0xbda89c26	-0.08232908
59	0x3ec72781	0.38897327
60	0x3e83382a	0.25628787
61	0xbdc168c2	-0.09443809
62	0xbd7ea6d0	-0.062170804
63	0xbe1fed32	-0.15617827
64	0xbd5572d8	-0.052111477
65	0xbf2600b5	-0.6484483
66	0x3d91e950	0.07124579
67	0x3d999bd4	0.07500425
68	0xbf707e39	-0.939426
69	0xbce336a0	-0.027736008
70	0x3d4be694	0.049780443
71	0xbec3d153	-0.3824564
72	0x3c88da60	0.016705692
73	0xbf282cfb	-0.65693635
74	0x3da3520e	0.07974635
75	0x3dc18d76	0.0945081
76	0xbd557e0c	-0.05212216
77	0xbdf0242c	-0.11725649
78	0xbf7a8c9a	-0.9787079
79	0x3de1e432	0.11029853
80	0x3d0b7a48	0.034052163
81	0x3ddc97b8	0.107711256
82	0xbd717524	-0.058949605
83	0x3de6ca56	0.11269061
84	0x3cd971a0	0.026543438
85	0xbdcd898c	-0.100360006
86	0xbc9a7d80	-0.018858671
87	0x3dbc2a02	0.091877
88	0xbf51dea2	-0.81980336
89	0x3d2e4b64	0.042552367
90	0xbf51a1e6	-0.8188766
91	0x3d2957e8	0.0413436
92	0xbdf15d94	-0.11785427
93	0x3d9d670c	0.0768567
94	0x3dc972e4	0.09836367
95	0xbd6e0224	-0.05810751
96	0xbe7c4809	-0.24636854
97	0x3d222b94	0.03959234
98	0xbdd96346	-0.10614638
99	0x3c72d3d0	0.014821008
100	0xbf4bd7bf	-0.7962608
101	0xbf6c74d9	-0.92365795
102	0xbf678b68	-0.9044709
103	0x3d67585c	0.05648075
104	0xbc84ba88	-0.016202226
105	0x3dbbba30	0.09166372
106	0xbda38e2a	-0.079861
107	0x3d13db7c	0.03609799
108	0xbdb19106	-0.08670239
109	0x3d26baf4	0.040705636
110	0x3d5beab0	0.053690612
111	0xbdea8ade	-0.11452268
112	0xbf5926d1	-0.84824854
113	0x3d84dbf2	0.06487264
114	0xbf51e02c	-0.81982684
115	0xbf202d58	-0.6256919
116	0xbdabece2	-0.08394791
117	0x3dc213da	0.09476443
118	0x3d98128a	0.07425411
119	0x3bad9f20	0.00529851
120	0x3ddfc2dc	0.10925838
121	0x3d9219b4	0.07133809
122	0xbc32f2c0	-0.010922134
123	0x3ddd7e74	0.10815135
124	0xbd7f0170	-0.06225723
125	0xbc85cc68	-0.01633282
126	0x3d114e74	0.03547521
127	0x3bb7f240	0.0056135952
128	0xbed4fd9e	-0.41599745
129	0xbec369c2	-0.38166624
130	0xbec47fe5	-0.38378826
131	0xbd97216a	-0.0737942
132	0xbe828007	-0.25488302
133	0xbd239910	-0.039940894
134	0xbd75414c	-0.059876725
135	0xbeb2ada0	-0.3489809
136	0xbdfec392	-0.12439646
137	0xbe84b613	-0.25920162
138	0xbe9558d4	-0.29169333
139	0xbecf6854	-0.40509284
140	0xbdd30d5a	-0.10305281
141	0xbd7b0f64	-0.061293975
142	0xbea54f3c	-0.32287014
143	0xbd9fdd92	-0.07805933
144	0x3dfe6150	0.12420905
145	0xbe80b4be	-0.25137895
146	0xbea4d607	-0.3219454
147	0xbec40821	-0.38287452
148	0xbed0d050	-0.4078393
149	0xbdb42fb4	-0.08798161
150	0xbeb89fa9	-0.3605931
151	0xbe9e5cc4	-0.3093015
152	0xbe7b0c31	-0.2451637
153	0xbdbb1ee6	-0.09136753
154	0xbe4df81d	-0.20114179
155	0xbe49c628	-0.19704497
156	0xbc2f2330	-0.010689542
157	0xbeaa32cc	-0.3324188
158	0x3c9e8560	0.019350708
159	0xbec462f2	-0.3835674
160	0xbe59b623	-0.21260886
161	0xbe4e1134	-0.2012375
162	0xbdc664dc	-0.09687206
163	0xbdf470e2	-0.11935593
164	0xbe76cf57	-0.24102531
165	0xbe89dad0	-0.26924753
166	0xbe5c7f3d	-0.21532913
167	0x3c7071b0	0.014675543
168	0x3df64bac	0.12026152
169	0xbe94dfa9	-0.2907689
170	0x3d154818	0.036445707
171	0xbe70f1f0	-0.23529792
172	0xbd34efe4	-0.04417409
173	0xbe7d136a	-0.24714437
174	0xbce3a0e0	-0.027786672
175	0xbdd4f852	-0.10398926
176	0xbe38a5cc	-0.18031996
177	0xbecca40f	-0.39968917
178	0xbeaf1037	-0.34192058
179	0xbe9ee54c	-0.31034315
180	0xbed78eb7	-0.4210107
181	0xbcd116b0	-0.025523514
182	0xbea5da1c	-0.32392967
183	0x3cc18650	0.023623616
184	0xbe380443	-0.17970376
185	0x3c702250	0.014656618
186	0x3d73c304	0.059512153
187	0xbe73bcd0	-0.23802495
188	0xbe74866c	-0.23879403
189	0xbe96613f	-0.29371068
190	0x3dac567c	0.08414933
191	0xbeb71ced	-0.35764256
192	0x3bba0ee0	0.005678043
193	0xbdec4901	-0.11537362
194	0xbc2eb560	-0.01066336
195	0xbddd7550	-0.10813391
196	0xbe84e73c	-0.25957668
197	0xbdb42e8c	-0.087979406
198	0xbdc11b3a	-0.09429021
199	0xbeac200d	-0.33618203
200	0x3db7299e	0.08943485
201	0xbe0343d8	-0.12818849
202	0x3da7a58a	0.08185871
203	0xbbf6e460	-0.0075345486
204	0x3de41c2a	0.11138184
205	0x3be05160	0.006845638
206	0xbe487840	-0.19577122
207	0xbda53168	-0.08066064
208	0xbd7a2bd4	-0.061076954
209	0x3eb6646d	0.35623494
210	0xbe3a158e	-0.18172285
211	0xbda546c9	-0.08070142
212	0x3c82ee98	0.015982911
213	0x3dc06a74	0.09395304
214	0xbdc7fc5e	-0.09764932
215	0xbddcd9c0	-0.1078372
216	0xbe198b38	-0.14994514
217	0xbd46138c	-0.048358485
218	0x3c01e797	0.0079287505
219	0x3e2c7149	0.1684009
220	0x3d817d8e	0.06322776
221	0xbd857d8c	-0.06518087
222	0x3d1d8050	0.038452446
223	0xbbfa58db	-0.007639987
224	0xbe767ef8	-0.24071872
225	0x3d93c000	0.072143555
226	0xbdec90b4	-0.115510374
227	0xbd2e2cfc	-0.04252337
228	0xbe83529b	-0.2564896
229	0xbde30bbe	-0.11086224
230	0xbe60e658	-0.21962869
231	0x3cc1f480	0.023676157
232	0xbda03580	-0.07822704
233	0x3d00fa21	0.03148854
234	0x3d0b874c	0.034064576
235	0xbdfb93d8	-0.12284058
236	0x3da79ec8	0.08184582
237	0xbdaf1928	-0.0854972
238	0x3d77e8cc	0.060524747
239	0x3d1c7490	0.0381971
240	0xbc0d0bfd	-0.008608815
241	0xbcbb37a8	-0.022853687
242	0xbd407809	-0.046989474
243	0xbdd8907f	-0.105744354
244	0x3b5564ff	0.003256142
245	0xbdf1fe6a	-0.11816104
246	0x3cd6facd	0.026242638
247	0xbd8c33c4	-0.06845811
248	0xbba39308	-0.0049918927
249	0xbb9e7220	-0.004835382
250	0x3aa0dc80	0.0012272745
251	0x3dd945a4	0.10608986
252	0x3e2750a8	0.16339362
253	0x3eb4cfb6	0.3531472
254	0xbc3eafb0	-0.011638567
255	0xbbd88dbe	-0.006608694

fc2.bias f4 [64]
0	0xbf21688d	-0.63050157
1	0xbf733141	-0.9499703
2	0xbe37c543	-0.17946343
3	0xbe728826	-0.23684749
4	0xbe6e2ea7	-0.23259984
5	0xbf83eb4e	-1.0306184
6	0xbecb721e	-0.39735502
7	0xbe852adf	-0.2600927
8	0xbe374bb3	-0.1789997
9	0xbe96245a	-0.2932461
10	0xbf3ad947	-0.7298779
11	0xbef3ac40	-0.47592354
12	0xbf99ceca	-1.2016232
13	0xbe9c3da6	-0.30515784
14	0xbec18653	-0.37797794
15	0xbe32ad3c	-0.17448896
16	0xbe86107c	-0.26184452
17	0xbf9069e3	-1.1282314
18	0xbf3d17be	-0.7386435
19	0xbe20f557	-0.1571859
20	0xbf4f2753	-0.8091938
21	0xbcdadfd3	-0.026718056
22	0xbd82f2b4	-0.06393948
23	0xbec15658	-0.37761188
24	0xbe4f0a60	-0.20218801
25	0xbfa8262f	-1.3136653
26	0xbd76906a	-0.060196318
27	0xbe8a1d91	-0.26975682
28	0xbec85a40	-0.39131355
29	0xbe846d05	-0.25864425
30	0xbfd1f0f7	-1.6401662
31	0xbeb03883	-0.34418115
32	0xbf3bf632	-0.7342254
33	0xbea65030	-0.32483053
34	0xbf03fec0	-0.5156059
35	0xbf899bbf	-1.0750655
36	0xbfbac4ff	-1.4591368
37	0xbec39c66	-0.3820526
38	0xbe95515d	-0.29163638
39	0xbf5ec868	-0.87024546
40	0xbe31933d	-0.17341323
41	0xbf8ccb78	-1.0999594
42	0xbea12044	-0.3146993
43	0xbecf7b3a	-0.40523702
44	0xbd04ecc1	-0.03245235
45	0xbe604c73	-0.21904163
46	0xbf48ec0a	-0.7848517
47	0xbd62607f	-0.055267807
48	0xbef30e9f	-0.47472093
49	0xbed00846	-0.40631312
50	0xbde32a2f	-0.1109203
51	0xbec4c6e4	-0.38432992
52	0xbf49ce20	-0.78830147
53	0xbe17c60a	-0.1482164
54	0xbed00263	-0.4062682
55	0xbf25953b	-0.6468083
56	0xbe72cc8d	-0.23710842
57	0xbe6fa5fe	-0.23403165
58	0xbec65324	-0.38735306
59	0xbe8c9dee	-0.2746424
60	0xbeb5d477	-0.3551366
61	0xbef7a2c0	-0.48366356
62	0xbe195c27	-0.1497656
63	0xbe7b50d7	-0.24542557

fc3.weight f4 [6, 64]
0	0x3e728c71	0.23686387
1	0xbe57add4	-0.21062404
2	0xbeaf0f62	-0.34191424
3	0xbf01772d	-0.5057247
4	0xbec341d1	-0.3813615
5	0x3ced9888	0.029003397
6	0x3ef2ef69	0.4744828
7	0x3a186a6d	0.00058141985
8	0xbe977e1c	-0.295884
9	0xbdb46804	-0.08808902
10	0x3f3ac4b5	0.729564
11	0x3e3ead82	0.18620875
12	0x3e90a807	0.28253195
13	0x3e48f544	0.19624811
14	0x3eda781a	0.42669755
15	0xbdc255f1	-0.09489048
16	0x3e87b000	0.26501465
17	0xbf0f2e71	-0.5593024
18	0xbdbd10a1	-0.09231687
19	0xbda555c3	-0.080729984
20	0xbe4c3dd6	-0.19945464
21	0xbbf6aad2	-0.0075276876
22	0xbe0d9ce6	-0.13829383
23	0x3eb406fa	0.35161573
24	0x3e944a86	0.28963107
25	0x3f5570f6	0.8337549
26	0xbe327210	-0.17426324
27	0x3e4a9bc6	0.19785985
28	0xbe22723c	-0.1586389
29	0x3eb76e16	0.35826176
30	0x3d467a4a	0.048456468
31	0x3ed7eb1f	0.4217157
32	0xbf2fd07e	-0.6867751
33	0xbe7ce0d1	-0.24695136
34	0x3e8cd9d7	0.2750995
35	0xbece14ee	-0.40250343
36	0xbfbd5eb6	-1.4794528
37	0xbe971e9a	-0.29515535
38	0x3e78a41a	0.2428135
39	0xc01a51b9	-2.411238
40	0x3e3822a9	0.17981972
41	0xbcc10500	-0.023561954
42	0x3ea4cd8f	0.3218808
43	0x3e46dab5	0.19419368
44	0xbede3ba6	-0.43404883
45	0xbed182ce	-0.4092011
46	0xc03831d9	-2.8780425
47	0x3ec43dc0	0.38328362
48	0xbcd7cc38	-0.026342496
49	0xbed89de9	-0.42307976
50	0x3cb12404	0.021623619
51	0xbec5e77c	-0.3865317
52	0xbfaf9275	-1.371657
53	0x3d44204e	0.04788237
54	0x3ee8b6f4	0.45452082
55	0x3f1d7d24	0.61519074
56	0xbe384541	-0.17995168
57	0xbe6e9bea	-0.23301664
58	0xbefd05a1	-0.49418357
59	0xbeb10791	-0.34576085
60	0xbe6f332f	-0.23359369
61	0x3dd936ec	0.10606179
62	0x3e8a7fe3	0.27050695
63	0xbe404c2b	-0.18779056
64	0x3f3c8bc4	0.73650765
65	0x3f1c5aba	0.6107594
66	0xbeb394b0	-0.35074377
67	0xbd8f2ef3	-0.06991377
68	0xbea47ffe	-0.321289
69	0xbcc8ec38	-0.0245267
70	0xbeb694f4	-0.35660517
71	0xbfc2eb7b	-1.5228113
72	0xbe868f1d	-0.26281062
73	0xbefc69db	-0.4929951
74	0x3bd55bcb	0.0065111867
75	0xbe75309e	-0.23944327
76	0x3fbcb84d	1.4743744
77	0xbe600df9	-0.2188033
78	0xbdf6e8c3	-0.120561145
79	0x3d2af7cb	0.04174022
80	0x3dfefa3d	0.12450073
81	0x3f7fc2a7	0.9990639
82	0xbe0d43a5	-0.13795336
83	0x3e378fe4	0.17925984
84	0xbd0d220e	-0.034456305
85	0x3e386415	0.18006928
86	0xbca6f430	-0.02038011
87	0xbea8b149	-0.32947758
88	0x3e70ce76	0.23516259
89	0xbf150b98	-0.58220816
90	0x3d8128a3	0.06306579
91	0x3e31f5cb	0.17378919
92	0x3e47a561	0.19496681
93	0x3e040665	0.12893064
94	0xbeabad9e	-0.33530897
95	0xbefb2dc2	-0.49058348
96	0xbda75cea	-0.08172019
97	0xbd26fe88	-0.040770084
98	0x3bce9a20	0.006304994
99	0x3db81754	0.089888245
100	0x3fbd1246	1.4771202
101	0xbebad78e	-0.3649258
102	0x3d99f4b5	0.07517377
103	0x3d8ab932	0.067736045
104	0x3e6d2590	0.2315886
105	0xbc8e44d0	-0.017366797
106	0x3e2ec170	0.17065978
107	0xbf4675b6	-0.7752336
108	0xbd236169	-0.03988782
109	0xbe95488a	-0.29156905
110	0x3c3f9790	0.01169385
111	0xbf045651	-0.5169421
112	0x3eedc518	0.46439433
113	0xbe416d62	-0.18889382
114	0x3e3fcd5f	0.18730687
115	0xbea7889b	-0.3272141
116	0xbf4af9e4	-0.7928755
117	0x3d8ef360	0.06980014
118	0x3d32c27b	0.043642502
119	0xbf2b58aa	-0.66932166
120	0xbe8ad409	-0.27114895
121	0xbebc8759	-0.36822012
122	0xbea291e9	-0.31751946
123	0xbecbf038	-0.3983171
124	0xbe9939f9	-0.29927042
125	0x3d1480a0	0.03625548
126	0x3ed6096b	0.4180406
127	0xbe713d79	-0.23558606
128	0x3e7a43e3	0.24439959
129	0xbf819d45	-1.012612
130	0xbe42ed2b	-0.19035785
131	0xbebba1cb	-0.36646876
132	0xbe4b5f8c	-0.19860667
133	0x3f5fa31c	0.8735826
134	0x3e9f23bb	0.31081948
135	0xbdb5060b	-0.08839043
136	0xbe81484f	-0.2525048
137	0xbd932dfa	-0.07186504
138	0xbe33fb87	-0.17576419
139	0xbfac376d	-1.3454415
140	0x3f9066a0	1.1281319
141	0xbe45072c	-0.19241017
142	0xbea5c46f	-0.3237643
143	0x3db87eae	0.09008537
144	0xbc749f0e	-0.0149305
145	0xbf1808a9	-0.59388214
146	0xbf22b89f	-0.6356296
147	0xbe7f72c0	-0.24946117
148	0xbd04c144	-0.032410875
149	0x3e45b67b	0.19307892
150	0x3d847bee	0.0646895
151	0xbe44f606	-0.19234475
152	0x3d8039a3	0.06260993
153	0x3e9c4ea8	0.3052876
154	0x3df25444	0.11832479
155	0xbdb6c251	-0.08923782
156	0xbe953711	-0.29143575
157	0xbd930c20	-0.07180047
158	0xbd0eb526	-0.034840725
159	0xbebc344a	-0.36758643
160	0x3ddd2790	0.107985616
161	0xbd7bc520	-0.06146729
162	0xbd8b940c	-0.06815347
163	0x3cfbcc6e	0.030737128
164	0xbeca58d7	-0.39520904
165	0xbe81914d	-0.25306168
166	0xbeac419e	-0.33643812
167	0x3e886d15	0.26645723
168	0x3dfefa0e	0.12450038
169	0xbf643c7c	-0.8915479
170	0x3c65bb5e	0.014021723
171	0xbe983799	-0.29729918
172	0x3d1bcd60	0.038037658
173	0xbe98056e	-0.29691643
174	0x3eb87ff8	0.36035132
175	0x3cc008b8	0.023441657
176	0x3c37af20	0.011211187
177	0xbe8354c5	-0.25650612
178	0xbe299c8a	-0.16563621
179	0xbe7fbb1f	-0.24973725
180	0xbf562b7e	-0.83660114
181	0x3c980629	0.018557625
182	0x3d79a3aa	0.060947098
183	0x3ecb589b	0.39716038
184	0xbe9df64c	-0.30851972
185	0xbe94c43d	-0.29055968
186	0x3ef3f8ee	0.47650856
187	0xbe3cd031	-0.18438794
188	0xbec19d03	-0.37815103
189	0xbd366d98	-0.04453811
190	0xbecf516e	-0.40491813
191	0xbe762524	-0.24037606
192	0xbe65124e	-0.22370264
193	0x3f054ab5	0.5206712
194	0xbe7cffdd	-0.24706979
195	0x3ee581b4	0.44825518
196	0xbe855d28	-0.26047635
197	0xbc5e8f10	-0.013583913
198	0xbec315e2	-0.38102633
199	0xbedf3223	-0.4359294
200	0xbe9467f1	-0.2898555
201	0x3eabb04c	0.3353294
202	0xbf947aad	-1.1599938
203	0xbe7ef14a	-0.24896732
204	0xbeec3cb0	-0.4614005
205	0xbe855f30	-0.26049185
206	0xbe21b12d	-0.15790243
207	0xbe4cb371	-0.19990326
208	0xbe92f7a8	-0.28704572
209	0x3fa67c84	1.3006749
210	0xbf92a3b7	-1.1456212
211	0x3ef89c3b	0.48556694
212	0x3ebe535b	0.3717297
213	0x3caeee8d	0.021353984
214	0x3fae6056	1.3623149
215	0xbe8079e0	-0.25092983
216	0xbeac3273	-0.3363224
217	0x40128744	2.289506
218	0xbcb322f1	-0.021867247
219	0xbe7fc311	-0.24976756
220	0x3ea955cc	0.3307327
221	0xbe4162f5	-0.18885405
222	0x3d6fa2b2	0.058504768
223	0xbeaaa4be	-0.33328813
224	0x3dddc638	0.10828823
225	0x3d21cb08	0.039500266
226	0x3d85a532	0.06525649
227	0xbe65002f	-0.22363351
228	0x3fcd469e	1.6037176
229	0x3ead3e4f	0.338366
230	0xbeadd9c4	-0.33955204
231	0x3ce4bca5	0.027921984
232	0xbe88d17c	-0.26722324
233	0x3c4e9770	0.012609348
234	0xbe3e4ccd	-0.18583985
235	0xbf1ef6d1	-0.6209536
236	0xbc8b95fc	-0.017039292
237	0xbe92b6de	-0.28655142
238	0x3c4aeba0	0.012385279
239	0x3e706699	0.23476638
240	0x3c829370	0.015939444
241	0x3ec96cf3	0.39340934
242	0x3d89efb1	0.06735171
243	0xbe51aca5	-0.20476015
244	0x3ee524b8	0.44754577
245	0x3e8af23f	0.27137944
246	0x3eca0370	0.39455748
247	0x3faca876	1.348891
248	0x3e97ba3a	0.29634267
249	0xbea38696	-0.31938618
250	0xbedb2d1d	-0.42807856
251	0xbe761e3e	-0.24034974
252	0xbe809db1	-0.2512031
253	0x3e9f34d0	0.3109498
254	0x3e7bf8e2	0.2460666
255	0xbe807dab	-0.25095877

fc3.bias f4 [6]
0	0xc0701b02	-3.7516484
1	0xc073b51a	-3.8079286
2	0xc0754cb7	-3.8328073
3	0xc07c9f87	-3.9472368
4	0xc10cc16f	-8.797225
5	0xc12388e0	-10.220917
