checkpoints/model_0.3_20.pth (torch, 25210 bytes, 6 tensors)

fc1.weight f4 [64, 16]
000000 e4 61 07 3e c4 bd 82 3d 60 1b 33 3c 68 d3 32 3d
       0.13220936 0.06383851 0.01093182 0.043658644
000010 40 9d 1b 3e 30 8b 01 bd 78 cd 75 be 42 12 00 be
       0.15196705 -0.03162688 -0.24004161 -0.12506965
000020 38 9f 06 be 88 f8 4a bd 6a 12 2d be 3c 0f 93 3d
       -0.13146675 -0.049553424 -0.16901556 0.0718064
000030 f8 00 45 be 9c 85 67 3e 1c 57 26 3e 38 75 cb 3d
       -0.19238651 0.22609562 0.16244167 0.09934467
000040 44 2a c4 3e 3c c5 4f 3f 00 2e 99 ba e8 bf f5 3d
       0.38313496 0.8116033 -0.0011686683 0.11999494
000050 54 38 1a 3e 13 59 21 3f 34 90 14 3f 28 ac 54 bd
       0.1506055 0.6302654 0.58032537 -0.051921993
000060 ad fc 15 3f 65 e4 2a 3e b8 07 9c c1 22 01 87 c1
       0.5858868 0.16688688 -19.503769 -16.875553
000070 84 6d a6 bf 67 4b e0 bf 2c 4e 17 3f 4f d7 c5 3d
       -1.3002172 -1.7523011 0.59103656 0.096602075
000080 c0 f8 a0 bb 74 5c cf bd 40 fc b3 bd 54 c2 ca bd
       -0.004912466 -0.10125056 -0.08788347 -0.099003464
000090 70 6e c2 bd 00 3c 39 be 08 37 49 3d 9c 83 2a 3e
       -0.094937205 -0.18089294 0.049124748 0.16651767
0000a0 76 5a 1f be ca ff 46 be 78 ee 2e 3e 50 8d 29 3d
       -0.15561852 -0.19433513 0.17083156 0.04139453
0000b0 24 32 69 be 20 0a 6e bc e0 b3 21 3d 0e e7 64 3e
       -0.22773033 -0.014528781 0.039478183 0.22353765
0000c0 f5 77 4d 3c 69 70 cc 3d 60 0f 41 bd 00 8f 3e 3c
       0.012540807 0.09982378 -0.047133803 0.011630774
0000d0 0c d0 92 3d 9d 2d 9b bc 1a 8b 72 be 52 c0 04 3e
       0.07168588 -0.018942649 -0.23685876 0.1296399
0000e0 d1 21 2f bd 60 54 7e be cc c3 aa be 6b 98 75 be
       -0.04275686 -0.24836874 -0.33352506 -0.23983924
0000f0 b0 8e 51 3e a9 9a 90 be 68 03 94 bd 26 47 f4 be
       0.20464587 -0.28242996 -0.07227212 -0.47710532
000100 f8 12 63 3d 30 4a a8 3d c0 91 d7 bd 88 0e 49 bd
       0.055438012 0.08217275 -0.105258465 -0.049086124
000110 d0 2a 81 3d b0 0c 1c bd e0 40 12 bd 5c af 05 be
       0.06306994 -0.038098037 -0.0357064 -0.13055176
000120 f0 c2 25 bd 78 09 f9 bd 12 a5 4f be ec a8 61 3e
       -0.04046911 -0.12160009 -0.20277813 0.22037095
000130 9c 0d 26 be 10 da f5 3c e0 3b f4 bc b8 08 5e be
       -0.16216129 0.030011207 -0.029813707 -0.21683013
000140 7b da 70 be da ab 8f be fc 56 4b 3e 82 52 5b 3e
       -0.23520844 -0.280608 0.198574 0.21418193
000150 60 c4 52 be be b8 8e 3c 0a ee e9 3d e2 2b 40 be
       -0.20582724 0.017422076 0.114223555 -0.1876674
000160 fd ac a3 bd a2 03 c0 be ef 00 4f 3d 44 e2 30 be
       -0.07991979 -0.37502772 0.050538 -0.17273813
000170 9d 8d 86 be 71 58 05 bf 06 5e 15 bf 05 bc be be
       -0.26279917 -0.52088076 -0.58346593 -0.37252823
000180 39 6f e9 be c7 93 a4 bd 46 a1 1c be 00 d4 63 3d
       -0.4559267 -0.08035999 -0.15295896 0.0556221
000190 a0 e8 a5 bd a1 4b b5 be 75 4c 4b be 4a d0 65 be
       -0.0810101 -0.35409263 -0.19853385 -0.22442737
0001a0 39 42 34 be 46 59 0c bf 5c 77 6d bd a8 5b 9d bd
       -0.17603387 -0.5482372 -0.057975158 -0.07683498
0001b0 4f c6 b1 be b0 13 5b be bd 2b 33 be 7a 63 5c be
       -0.3472161 -0.21394229 -0.17497154 -0.21522322
0001c0 a2 c9 03 be b0 c6 cf 3c 96 79 57 3e 70 89 81 bc
       -0.12869886 0.025363296 0.21042475 -0.015812606
0001d0 d2 05 74 be f8 b7 4f be 50 88 90 bc e0 1e 64 be
       -0.23830345 -0.20285022 -0.017643124 -0.22277403
0001e0 00 40 62 3e 66 9e 39 be 14 cd 08 be 08 80 1c 3d
       0.22094727 -0.1812683 -0.13359481 0.038208038
0001f0 70 4f cd 3c 1c 86 49 3e 80 e4 7a 3b a4 3e f8 3d
       0.025062293 0.19680065 0.003828317 0.12121323
000200 9e 13 74 be a1 62 0a bf 20 32 52 bc b0 64 1f bd
       -0.23835608 -0.54056746 -0.012829334 -0.038914382
000210 9c 69 69 3e 62 50 3c be f5 45 2d be 3c 66 72 3e
       0.22794193 -0.18390039 -0.16921218 0.23671812
000220 0d e7 6f be 4a 82 ce bd 46 db da bd 74 e6 ca be
       -0.23427983 -0.100834444 -0.10686354 -0.39628947
000230 a2 62 5e be 4e e2 a4 be 6c 88 bc be 32 e9 e9 3d
       -0.21717313 -0.32203907 -0.36822832 0.114214316
000240 a1 e9 9a be 4f 89 90 be 14 6b 6f 3e 80 ff 9d bd
       -0.3025637 -0.28229758 0.23380691 -0.077147484
000250 dc e6 2d be 7b 17 6f bd 74 75 fd be 40 80 9c bb
       -0.16982597 -0.058372002 -0.49503672 -0.004776031
000260 22 c1 88 bd ce 59 0b be a6 ed 3c 3e 16 66 a3 be
       -0.06677462 -0.13608477 0.1845003 -0.31913823
000270 b0 4e 4d be fd 10 a0 be 58 0a 38 be 9d 14 20 3e
       -0.20049548 -0.3126296 -0.17972696 0.15632863
000280 b2 2b 75 bd f1 3e 54 be c8 57 d3 3d 90 37 71 bd
       -0.059856124 -0.20727135 0.10319477 -0.05889088
000290 0c 53 7c 3e 8f 6c 06 be f0 12 90 bd 88 a5 6c 3e
       0.24641055 -0.1312735 -0.07034862 0.2311002
0002a0 19 02 3a be 6a a1 32 be 47 38 90 be c1 70 5a be
       -0.18164863 -0.17444387 -0.28167936 -0.21332075
0002b0 f9 fc b0 be 61 38 b7 be cd 3f c1 be 65 25 f7 be
       -0.34568003 -0.357852 -0.3774399 -0.48270717
0002c0 5a 1b c0 be f5 ae d5 be 4e d6 53 3e 38 15 1b 3d
       -0.37520868 -0.41735044 0.2068722 0.037862033
0002d0 aa e3 43 be 6f 26 96 3d f1 06 ed bd b2 63 65 be
       -0.19129816 0.073315494 -0.115735896 -0.22401312
0002e0 47 11 7f 3a 78 fe 70 be 41 72 d8 bd d2 56 ed be
       0.00097300526 -0.23534572 -0.10568667 -0.463553
0002f0 b8 f5 b6 be 8e 1f 94 3e 74 7e 8c be 3f 98 83 be
       -0.35734344 0.28930324 -0.27440226 -0.25702092
000300 e4 62 d6 bd c6 64 7d be 26 86 42 be 3c 1e 7a 3e
       -0.10468081 -0.24745473 -0.18996486 0.24425596
000310 94 b0 a9 3d 84 0f 50 be 48 4c 51 3d 58 74 18 be
       0.08285633 -0.20318419 0.051098138 -0.14888132
000320 70 31 17 be a8 10 22 3e d4 a9 15 3e 10 27 f7 bc
       -0.14764953 0.15826666 0.14615566 -0.030169994
000330 38 28 34 bd ea 3e 1c be 50 dd aa bd ea b2 38 be
       -0.043983668 -0.15258375 -0.08342993 -0.18037
000340 13 3b 23 bf 21 3f 1c be f0 db b5 3c 7a 40 4b be
       -0.63762015 -0.15258457 0.022199601 -0.19848815
000350 18 33 4e 3d 75 95 5b be 9c 50 9e be b0 fb f5 3d
       0.050341696 -0.21443732 -0.30920875 0.12010896
000360 ef 3d 41 be f4 3e 92 be fa aa 00 bf d9 cb e3 3e
       -0.18871282 -0.28563654 -0.5026089 0.4449146
000370 6e 10 5b 3d ee 31 98 be 61 5f 2a 3e 67 40 c5 3b
       0.053482465 -0.29725593 0.16637947 0.0060196402
000380 40 5a e3 3c 90 04 d9 3d 58 4f d2 3d 30 62 34 3e
       0.027752995 0.10596573 0.1026904 0.1761558
000390 3c 8e a7 3d c2 ad 02 be fc c5 e2 bd d4 3f 06 3e
       0.08181426 -0.12761596 -0.11072919 0.13110286
0003a0 90 1c dd bd a8 54 5a be b0 06 85 bd e8 ae aa bd
       -0.107964635 -0.21321356 -0.06495416 -0.08334142
0003b0 46 de 0b 3e a0 ed 80 3d 18 62 47 bd a0 f8 a0 bd
       0.1365901 0.06295323 -0.048677534 -0.078599215
0003c0 06 86 aa be c3 35 36 be a6 cf 76 3e 24 1f 2f 3e
       -0.33305377 -0.17793946 0.24102649 0.17101723
0003d0 f0 f5 d2 3d 18 83 df bb c0 80 83 be d2 19 1f 3e
       0.10300815 -0.0068210475 -0.25684166 0.15537193
0003e0 44 05 e1 3d e5 32 94 be f1 af 49 bd d3 b5 a7 be
       0.109873325 -0.2894508 -0.049240056 -0.32755908
0003f0 da 9b d6 be 79 d8 b3 be 01 92 1b be 30 37 ef be
       -0.4191578 -0.35126093 -0.15192415 -0.46721792

fc1.bias f4 [64]
000000 e8 50 1b be 13 03 27 3e 54 e7 7e 3e 5b 28 99 be
       -0.15167582 0.16309766 0.24892932 -0.299136
000010 5e 77 35 be 90 21 ed 3c 7b 23 87 be 6a 6f 23 3e
       -0.17721316 0.028946668 -0.26394257 0.1596047
000020 18 99 92 be 9f a6 d7 be 06 1b bf be 25 ce d3 3d
       -0.28632426 -0.4211931 -0.37325305 0.10342053
000030 84 60 f8 3d 55 9e aa be 94 f7 ac 3d 6d af b6 bc
       0.12127784 -0.33323923 0.08445659 -0.022300446
000040 4f 38 0f be 5d c3 96 be 91 5f 11 be 08 01 55 bf
       -0.13986324 -0.29445925 -0.14196612 -0.832047
000050 e1 98 9b be 4b 7f b4 be 12 e7 f2 bf d8 cb 05 be
       -0.30390075 -0.35253367 -1.8976767 -0.13066041
000060 51 93 0b be 30 cf 60 bd f2 68 0d bf 23 c5 8e bd
       -0.13630415 -0.05488509 -0.5523826 -0.069711946
000070 68 ea e2 be 05 4e e0 bd 00 48 73 3c bc 1e 9d 3d
       -0.44319463 -0.10952381 0.014848709 0.07671878
000080 60 be 86 be ef 65 5d bd 6d 91 c5 be fc b3 5e be
       -0.2631712 -0.05405229 -0.38587514 -0.21748346
000090 a6 18 0f bf e9 59 1c 3d 1d 7c a8 be d0 20 13 3e
       -0.55896986 0.038171683 -0.3290719 0.14367986
0000a0 e0 46 4f bc cc 30 5c bf d8 7d 36 be 90 c0 34 be
       -0.012651175 -0.8601196 -0.17821443 -0.17651582
0000b0 79 85 05 be 6f 3d 87 be 50 aa 89 bd 76 a0 3f bd
       -0.13039197 -0.26414058 -0.06721938 -0.046783887
0000c0 e8 93 bc be 8f b2 fc be e8 ca 0c bf d8 13 fc be
       -0.36831594 -0.4935498 -0.5499711 -0.4923389
0000d0 b1 ce 14 bf aa 69 7f 3e 19 25 d3 be 44 20 9e 3d
       -0.58127886 0.24942651 -0.4123924 0.07720998
0000e0 3d f0 b2 bd c8 83 fd be 10 0c 43 3f f3 c2 74 be
       -0.08737228 -0.49514604 0.7619028 -0.23902492
0000f0 dc 9e b4 be 4a c6 43 be c6 a2 82 be ce 07 0f bf
       -0.3527745 -0.1911861 -0.2551481 -0.55871284

fc2.weight f4 [64, 64]
000000 b0 95 f3 bc 18 bb 2d bf 00 eb 2a bb 75 08 c0 be
       -0.029734462 -0.6786361 -0.0026080012 -0.37506452
000010 38 3a 9b 3d da 48 7d 3e 5d af ac be 58 fb 8d 3d
       0.07579464 0.24734822 -0.33727542 0.06932706
000020 60 7f bd be 13 3a 59 be 3f da ca be 3c a5 89 3e
       -0.37011242 -0.2121356 -0.39619634 0.26883876
000030 b8 bf b8 bc 09 21 6e be 58 80 df 3c 51 52 74 be
       -0.022552356 -0.2325479 0.027282879 -0.23859526
000040 f9 cf 55 be e8 5b d2 be 07 72 b5 3e e8 20 46 bf
       -0.20880117 -0.41085744 0.35438558 -0.7739396
000050 42 44 d1 be 24 28 a5 be 93 7e 0d bf c0 b7 a9 bb
       -0.4087239 -0.32257187 -0.5527126 -0.0051793754
000060 69 09 a2 be 6e ae a0 bd 15 c9 d6 bf ce a2 49 be
       -0.31647804 -0.0784577 -1.6780115 -0.19691011
000070 81 9e 94 be c5 6d b1 be f0 60 41 3d de ea 82 bd
       -0.2902718 -0.3465406 0.047211587 -0.063924536
000080 d5 39 ca be c4 b0 6e 3e c4 81 d2 be cd a4 5a 3e
       -0.39497247 0.23309618 -0.41114628 0.21351929
000090 70 0f 27 bf c5 05 9a be d8 57 c4 be b4 aa 60 bd
       -0.6525793 -0.30082527 -0.3834827 -0.054850295
0000a0 68 76 ce bc e4 f5 da be a9 c7 ba be ea 2c d8 be
       -0.025202945 -0.42765725 -0.36480454 -0.42221767
0000b0 5d c8 99 be e9 47 c5 be 78 59 45 bd ef b2 9e be
       -0.30035678 -0.38531426 -0.048181027 -0.3099589
0000c0 77 17 c5 be 3e b9 4a be 9e 1a bb be e3 4e 90 be
       -0.38494465 -0.19797227 -0.36543745 -0.28185186
0000d0 68 cd 1d bf 28 c2 9a bd 77 1f 3c be c8 e0 9e 3d
       -0.6164155 -0.075565636 -0.18371378 0.07757717
0000e0 75 0e 89 be c1 80 bd be 9d 56 e5 bf 65 4b a4 3e
       -0.26768842 -0.37012294 -1.7917057 0.3208877
0000f0 3e 90 97 be a9 de 2a bf 2e ce 36 3e bf 49 c0 bd
       -0.29602236 -0.66746 0.17852089 -0.09389066
000100 40 9c ec bb 40 a6 4c be e4 12 d0 bd d0 68 ce be
       -0.007220775 -0.19985294 -0.10159853 -0.4031434
000110 b8 97 d3 3c 65 99 4d be 74 bc 84 be 44 e2 66 3d
       0.025829181 -0.20078047 -0.25925028 0.056368127
000120 b2 e4 9b be 5c 89 44 be 26 e5 3c be 8a cd a6 be
       -0.30447918 -0.19193023 -0.18446788 -0.3257869
000130 80 46 e1 bd f2 c3 ad be a0 d4 ac bb 4e 97 a1 be
       -0.10999775 -0.33938557 -0.0052743703 -0.3156075
000140 9b 5a a1 be 1d 8f a6 be 0c 2e b3 be 3d ee c1 be
       -0.3151444 -0.32531062 -0.34996068 -0.37877074
000150 d5 be 46 3e 0a a6 9f be 02 05 d6 be b2 1e da bd
       0.19408734 -0.31181365 -0.41800696 -0.10650386
000160 7c b4 d8 be d0 90 5c bc fd 96 74 be 91 8a 4f be
       -0.423252 -0.01346226 -0.23885722 -0.20267703
000170 49 72 7a be 0f 74 90 be 00 e2 fd 39 90 8d f8 bc
       -0.24457659 -0.28213546 0.00048424304 -0.03034094
000180 7f cc d8 be 3a 98 d0 3e ac 05 52 be dd d2 72 be
       -0.42343518 0.4074114 -0.20509976 -0.2371325
000190 28 ee 9b be 3a bb c1 be 12 3c ad be 3c d5 8a 3d
       -0.30455136 -0.37838155 -0.33834893 0.067789525
0001a0 48 f6 ee bc b9 53 79 be e4 70 89 be 5a 51 4b be
       -0.02917017 -0.24348344 -0.2684394 -0.19855252
0001b0 3a 7c 5e be 33 97 c9 be 9c dc 86 3d d9 42 8d be
       -0.21727076 -0.39373168 0.06585047 -0.27590063
0001c0 a6 2e 8e be f1 62 8c be 53 e0 b5 be 0d 71 5c be
       -0.27769965 -0.27419236 -0.35522708 -0.215275
0001d0 f6 6d 5a be bc 89 fc 3d ac 0b 8a be 90 75 9a 3c
       -0.2133101 0.12330958 -0.2696203 0.018854886
0001e0 89 f3 43 be e6 d3 6b be 3d f3 d4 be ca af 95 be
       -0.1913587 -0.23030052 -0.41591826 -0.2923568
0001f0 10 93 98 be 13 9d bc be d6 49 ca be b3 68 a1 be
       -0.297997 -0.36838588 -0.39509457 -0.31525192
000200 06 90 af 3d 92 da bd be 50 03 09 3d ca bc 3c 3e
       0.08572392 -0.37080818 0.033450425 0.18431392
000210 6e 82 9f 3d 9f 0d 54 be 18 57 bb be bc bf ba 3d
       0.07788549 -0.20708321 -0.36589885 0.09118602
000220 c6 79 5e be 59 f3 4d be 58 14 83 be a7 b2 8d be
       -0.2172614 -0.20112361 -0.2560146 -0.27675363
000230 ba ce c1 3d 08 cd 3c be 74 dc be 3d be 52 aa be
       0.09463258 -0.18437588 0.09319392 -0.33266252
000240 b9 2a c3 be 77 ce 7d be 38 54 a7 be 83 ce d2 be
       -0.38118532 -0.24785791 -0.3268144 -0.4117318
000250 b9 61 a0 be d5 c4 38 be 0d 49 b7 be 24 64 74 bd
       -0.31324556 -0.18043835 -0.3579792 -0.059665814
000260 cc f3 b1 be 5e 16 ef bd ba 3f 4d be a2 bf 3f be
       -0.34756315 -0.11674188 -0.20043841 -0.18725446
000270 8d f9 62 3e 92 8f 95 be 0c d9 66 bd 56 c9 fb bd
       0.22165509 -0.29211098 -0.056359336 -0.12294261
000280 03 ce 8f be 1c 43 83 be 49 ed d3 be d0 92 b3 be
       -0.28086862 -0.25637138 -0.41391972 -0.35072947
000290 1d 63 87 be 95 78 94 be 1e 34 d4 be 7c 67 b6 bd
       -0.26442805 -0.28998247 -0.41446012 -0.08906457
0002a0 06 18 d3 3d 01 a8 b3 be 4d 35 5c be bc 1b a7 3e
       0.103073165 -0.35089114 -0.21504708 0.32638347
0002b0 6e 4b 62 be 6c 6e 9d be 00 07 b7 bd d2 0f ce be
       -0.22099087 -0.30748308 -0.08936882 -0.40246445
0002c0 df 2b 7a be 24 67 a3 be 72 a0 84 be 99 c0 c4 be
       -0.24430798 -0.31914628 -0.2590366 -0.3842819
0002d0 34 04 86 be 84 24 46 3d 50 66 84 be 76 04 ec 3d
       -0.26175082 0.048374668 -0.25859308 0.11524288
0002e0 d0 6f a0 be d0 7a aa be 0c 47 90 be c4 ea 81 be
       -0.31335306 -0.33296824 -0.28179204 -0.25374424
0002f0 70 8f 5d be 91 90 be be 71 92 98 be 6a 08 af be
       -0.21636748 -0.3721967 -0.29799226 -0.34186107
000300 e0 a8 46 bd 1f 12 87 be 96 83 e3 bd f6 98 d6 bd
       -0.048500896 -0.26381013 -0.111090824 -0.10478394
000310 50 48 04 3d 94 0a ff 3d 02 cb 9d 3d 5c dc c8 3d
       0.032295525 0.124531895 0.07704736 0.09807655
000320 0c 4f b7 bd c8 97 6d 3d 32 0f b9 3d 88 3b 68 bd
       -0.08950624 0.058006078 0.090361014 -0.0566974
000330 ca e9 b5 3d 78 1b c5 3c 8a bf fb bd 98 b4 ca 3d
       0.08882482 0.02406095 -0.122923926 0.09897727
000340 c0 3f 34 3c 02 68 9b 3d 98 a9 e8 bd e5 d9 ac be
       0.011001527 0.07588197 -0.113604724 -0.3375999
000350 1c a1 53 3d 6e 7b 98 3d 5d 3a 81 be d4 a2 34 bd
       0.051667318 0.07445417 -0.2523984 -0.044100598
000360 36 7f ff bd 04 a5 6e bd 13 56 b8 be 08 4c a0 bd
       -0.124754354 -0.05826284 -0.3600317 -0.07827002
000370 6e 67 b6 3d a2 6c bd 3d 62 93 c4 3d 68 db a2 bd
       0.089064464 0.09249236 0.095984235 -0.07952005
000380 a1 19 b9 be d0 7e cf 3c 1c 78 b9 bd 02 26 8d bd
       -0.36152366 0.025329024 -0.09056112 -0.06892015
000390 fd 74 8c be c0 f0 af 3d ac 41 c3 be 5c f7 6c 3d
       -0.27433005 0.08590841 -0.3813604 0.057853088
0003a0 78 5f 51 3d ad 88 d1 be 80 d5 94 bd 98 30 e1 3c
       0.051116437 -0.40924588 -0.072672844 0.027488992
0003b0 48 53 c5 bc 89 ef c7 be 90 15 ab bc 50 62 98 3d
       -0.024087563 -0.39049938 -0.020884305 0.074406266
0003c0 84 78 a7 3d 64 65 fa bd da 65 e6 bd 90 59 61 bd
       0.081772834 -0.1222637 -0.112498954 -0.055017054
0003d0 71 60 8a be 08 c2 9e bc 4c 15 2f 3d 78 de f9 bd
       -0.27026704 -0.01937963 0.04274492 -0.12200636
0003e0 a8 49 e9 3d 38 ed 88 bd 25 16 c7 be e8 b8 db 3c
       0.11391002 -0.06685871 -0.38884082 0.026821569
0003f0 1a e8 a4 be 71 0a 8d be 5a 76 81 be 2e ce 8f be
       -0.3220833 -0.2754703 -0.25285608 -0.2808699

fc2.bias f4 [64]
000000 9b ed eb bf 49 6f 56 be 54 52 3e be 18 aa 5e be
       -1.8431886 -0.2094089 -0.18586093 -0.21744573
000010 e7 18 c9 be 23 77 14 be 4a 3e 30 bf 32 89 13 bf
       -0.3927681 -0.14498572 -0.68845046 -0.5763122
000020 93 40 3d be 77 68 4d be 2c 07 8d be 95 74 a8 be
       -0.18481664 -0.20059381 -0.27544534 -0.32901445
000030 65 08 9d bd 97 42 25 bf 6b 57 b6 bd db b6 7d bf
       -0.07667617 -0.64554733 -0.089033924 -0.9910714
000040 99 a4 82 bf d4 ca ec bf 45 08 8c be db 76 d1 be
       -1.0206481 -1.8499398 -0.2735006 -0.40910992
000050 91 11 b6 be 6e 8e 76 be 41 a7 9b be 19 cb 00 bf
       -0.35560277 -0.2407777 -0.30401042 -0.503099
000060 1e 38 93 be 33 d4 ae be 42 a0 5c bf bd 44 41 bf
       -0.28753752 -0.3414627 -0.86182034 -0.7549551
000070 e4 06 1d bf 3e 07 56 be 2b e1 02 bf b4 64 90 be
       -0.6133864 -0.209012 -0.5112483 -0.2820183
000080 e4 77 cd be ac a0 a2 be 14 fd c8 bd 87 2c c0 be
       -0.40130532 -0.31763208 -0.09813896 -0.37533972
000090 52 ab 55 be 5f e0 c5 be 99 92 e3 bd 78 1e ba be
       -0.20866135 -0.38647744 -0.11111946 -0.3635137
0000a0 43 cd 58 bf bb 47 14 be 13 32 b8 be ce bb 2e be
       -0.84688205 -0.14480488 -0.35975704 -0.1706383
0000b0 2c 29 e5 bd bc ee a4 be b2 69 2f bf 5c 95 33 be
       -0.111894935 -0.3221339 -0.68520653 -0.17537445
0000c0 81 75 af bd 15 06 37 3f 36 a1 37 be 35 91 81 c0
       -0.08567334 0.71493655 -0.17932591 -4.0489755
0000d0 7e d1 5a bf da f2 8c bd 71 60 74 bf 22 ab 82 be
       -0.8547591 -0.06882258 -0.9545966 -0.2552119
0000e0 18 25 2c be 58 42 2c bd 0e 3d 84 be 6b 7a c6 bf
       -0.16811025 -0.042055458 -0.2582783 -1.5506109
0000f0 db ac 8f bf 32 9e cb bf 6c 52 07 3f a4 7f 89 be
       -1.1224626 -1.5907652 0.5286014 -0.26855195

fc3.weight f4 [6, 64]
000000 94 6d e3 be 89 de 40 be e1 61 b2 be b7 08 3e be
       -0.4441954 -0.1883489 -0.348403 -0.18558012
000010 fe 2c 9e be fc 7b f5 3e 9b 52 be 3e 4a cb 60 be
       -0.308937 0.47946155 0.37172398 -0.21952549
000020 c7 3b 42 3e a1 53 78 be e2 5a 4d be 6f b1 87 3e
       0.18968116 -0.24250652 -0.200542 0.2650256
000030 0d 95 68 3c 62 4d 04 bf 22 71 a5 bd d3 63 15 3f
       0.014195693 -0.51680577 -0.08078219 0.58355445
000040 b7 ad 1d 3f e7 92 79 3f 3e 69 a8 3d 2c 68 54 be
       0.6159319 0.9748978 0.08223198 -0.20742863
000050 52 7d 34 bd 00 44 f0 3a 21 e7 33 be a0 61 0b 3e
       -0.044064827 0.0018330812 -0.17568637 0.1361146
000060 18 7f 80 be 66 59 4e 3e 97 84 4e bf 64 7f bb bd
       -0.25096965 0.2015129 -0.80671066 -0.09155157
000070 fb e3 f2 3d 88 e0 46 3e 40 91 b6 be 3b a2 fd 3d
       0.1185989 0.1942159 -0.35657692 0.12384459
000080 28 f4 e5 be 62 42 34 3e 05 d8 62 bd 32 5c 41 be
       -0.4491284 0.17603448 -0.055381794 -0.18882826
000090 50 7b 4b be 56 a0 be be 01 a9 75 3f 57 42 59 3e
       -0.19871259 -0.37231702 0.95961004 0.21216713
0000a0 98 4f c2 bb a7 a7 04 be 93 fa cd 3d ad a8 80 3e
       -0.0059298985 -0.1295458 0.10057559 0.2512869
0000b0 90 f1 32 3f 9d db 97 3e cf b2 0e bf 77 85 5b 3e
       0.69899845 0.2965974 -0.5574159 0.21437632
0000c0 02 bc a0 3d e3 25 86 40 cc c3 37 be 6f f3 e9 3d
       0.0784836 4.192125 -0.17945784 0.114233844
0000d0 ed 3b ef 3d 3b 12 06 3f 38 c0 dc 3e e7 b7 b8 be
       0.11681352 0.5237157 0.431154 -0.36077806
0000e0 5c 90 70 3e 69 61 80 3f fe 0a a7 be a7 18 c1 bf
       0.23492569 1.0029727 -0.32625574 -1.5085648
0000f0 68 14 1e 3d f0 46 df be 69 d6 c6 bf 05 97 74 3e
       0.03859368 -0.4360881 -1.5534183 0.23885734
000100 54 6a 46 bf 4a a2 a4 be 4c 9b ae be b4 f9 6b 3d
       -0.77505994 -0.32155067 -0.34102857 0.057611182
000110 b2 b1 9d be bc b7 bb bd 0a 0f 6b 3e 80 4f ac be
       -0.30799633 -0.09165904 0.22954956 -0.33654404
000120 6a 12 7a be ec 0c e4 3d 39 3c b9 be 1a ec ef bd
       -0.24421087 0.11135277 -0.3617876 -0.11714955
000130 21 42 60 be d3 36 bc 3e f1 34 86 be 86 26 78 3f
       -0.21900226 0.36760578 -0.26212266 0.9693378
000140 c2 aa 6e bf 8e 65 37 bf a5 76 ce 3d 6b fb 3a 3e
       -0.93229306 -0.71639335 0.100812234 0.18259971
000150 91 47 bc be ac 92 7c 3d f3 d7 8e 3e 63 16 4e 3f
       -0.3677335 0.061663315 0.2789913 0.8050291
000160 02 42 d4 be f0 a3 f8 3d 48 0d d0 bc 68 17 2d bf
       -0.4145661 0.121406436 -0.025396958 -0.6761384
000170 60 91 7d 3e 27 9c d5 3c 20 ec 4c bc a6 e3 b7 3d
       0.24762487 0.026075436 -0.012507468 0.08978967
000180 26 8d e3 3e db 8e 9b 3e fb 9e 55 be 56 a5 3d be
       0.44443625 0.30382428 -0.20861427 -0.18520102
000190 f6 a0 d5 be f7 f7 58 3e 44 06 59 bf ab 6d c5 3e
       -0.41724366 0.21188341 -0.84775186 0.38560233
0001a0 7d 34 c8 be e2 c2 ab 3b 05 df 3a be b4 60 0f be
       -0.39102545 0.0052417377 -0.18249138 -0.14001733
0001b0 78 de d9 bf 4c 09 66 3d aa bc cf bd 3c 62 c9 3d
       -1.7021017 0.05616121 -0.10143407 0.0983319
0001c0 a6 ee 10 3e 6f af ba c0 f5 0a d0 3e 2e b9 47 3e
       0.14153537 -5.833915 0.4063336 0.19504234
0001d0 11 c4 06 3e 6e 7c 21 bf 21 ff d9 3e 12 f7 86 be
       0.13160731 -0.6308049 0.4257746 -0.26360375
0001e0 04 29 a6 3e 22 98 0b bf 5d 20 6e be 16 f6 d7 3f
       0.32453167 -0.5452901 -0.23254533 1.6871974
0001f0 ea ec 62 3f ab b9 1a 3e 3c a4 8b bf 84 24 b2 3d
       0.8864275 0.15109889 -1.0909495 0.08698371
000200 9e bc 24 be a3 f8 d2 be 24 69 b1 be 2b ab 5f 3e
       -0.16087577 -0.4120532 -0.34650528 0.21842639
000210 51 12 9a be dc 92 b0 3e 34 23 2f bf 4d da a2 be
       -0.300921 0.34487045 -0.6841309 -0.31807175
000220 32 d9 36 3c be d5 14 3e 79 e8 6e be a4 22 9b 3e
       0.011160182 0.14534661 -0.23330869 0.30299866
000230 8a bc 9e 3d 40 aa 34 be 1d 69 a7 3e fd b5 0a 3c
       0.07750805 -0.1764307 0.32697383 0.008466241
000240 83 2a 8a 3f 42 a3 51 bf 2a 81 97 3c a3 65 79 be
       1.0794224 -0.81889737 0.018494207 -0.24355178
000250 6f ff 98 bd 76 b5 33 be af ed 9b be 1e ee a0 3e
       -0.07470595 -0.1754969 -0.30454776 0.3143167
000260 fe 6e d6 be 4e 84 b7 3a a0 c2 16 3d 30 d4 0f 3c
       -0.41881555 0.0014001222 0.036806703 0.008778617
000270 ad da dc bd 20 aa 14 be bd 3a 4d bf 06 7f 16 3d
       -0.107838966 -0.14518023 -0.8016775 0.036742233
000280 a7 09 da be 36 7c 7e 3e 51 e2 25 3e c3 5b 70 be
       -0.4258549 0.2485207 0.16199614 -0.23472504
000290 61 28 d3 be 88 3b 60 be 6b b6 33 be d5 fc 84 3e
       -0.41241744 -0.2189771 -0.17550056 0.25974146
0002a0 b3 a7 ff bd 48 65 bc be 54 d6 63 3d 6a de 9b be
       -0.12483158 -0.3679602 0.05562432 -0.30443126
0002b0 02 4e d1 bd a0 5c db bc 20 e5 1b 3f 15 a1 61 be
       -0.10219957 -0.026777565 0.6089649 -0.22034104
0002c0 90 6b 0b be ff 3c 93 be 8c a8 c7 be 97 73 bd 3e
       -0.1361525 -0.28757474 -0.3899578 0.3700225
0002d0 44 a4 bf bd 05 ee aa bd dd 7e 93 3e 60 f4 d6 3c
       -0.09357503 -0.0834618 0.28807727 0.026239574
0002e0 52 97 5a 3e 51 73 70 3e 38 16 54 3e ec c4 38 3f
       0.21346787 0.2348149 0.20711601 0.7217548
0002f0 6e b0 8c bf 32 36 ab 3d 28 8f 9f 3e 12 95 80 bd
       -1.0991342 0.08359946 0.31163907 -0.06278433
000300 2a c9 23 be 7a 66 c8 be 58 e9 97 be 18 35 ef bc
       -0.15994707 -0.39140683 -0.29670215 -0.029200122
000310 d7 01 d9 be af 07 ee be da 6f 41 bf 85 b1 8f be
       -0.42384216 -0.46490237 -0.75561297 -0.28065124
000320 94 e4 36 3e 04 f0 3a bd 80 0d 5a be bd a2 81 be
       0.17860633 -0.045639053 -0.21294212 -0.25319472
000330 9b 6b 3b bd f8 5d f0 3d 08 57 9c bd 8d 6c cd be
       -0.045756917 0.11736673 -0.076337874 -0.4012188
000340 49 b8 84 3f 18 7d c9 bf 07 bd f2 be 77 1a 94 be
       1.0368739 -1.57413 -0.4740984 -0.2892644
000350 1e 46 e7 bd 06 cb c5 3e 40 cb 6d be 70 ca 8b ba
       -0.11292671 0.38631457 -0.23222065 -0.001066519
000360 3b cf bb be f2 b7 c4 3e 16 be af bd f0 a7 6f 3c
       -0.36681542 0.3842159 -0.08581178 0.014627442
000370 09 b0 8a 3f 27 85 4a bc 8f 83 96 be 37 28 4a 3e
       1.0834972 -0.012360848 -0.29397246 0.19741903
000380 dc 1e 1b bf ed b9 c7 3e b3 dd 2b be c1 d5 48 be
       -0.6059396 0.39009038 -0.1678379 -0.1961279
000390 74 f4 cf 3e 0c 72 50 be 24 c0 e7 3f a9 41 3b 3e
       0.4061619 -0.20356005 1.8105512 0.18286766
0003a0 fd 57 c5 3e 0e 63 ec 3e db 8e ff be d1 88 63 3e
       0.38543692 0.46169323 -0.49913678 0.2222016
0003b0 cb f3 7d 3f 92 e0 89 bd 42 ef ec 3d 50 3f 56 3d
       0.99200124 -0.067322865 0.11569072 0.052306473
0003c0 f0 6d d1 bd 6b 5d 54 3e bf 0e 9b be 52 6a 84 bd
       -0.10226047 0.20738761 -0.30284688 -0.064655915
0003d0 ea 46 88 3e c6 4f 95 3e ad 86 cb be 70 8e de bd
       0.26616603 0.29162425 -0.39751187 -0.108670115
0003e0 fd 53 b1 3e a6 3a 82 bf c5 a6 b2 be 82 22 ea bf
       0.3463439 -1.0174148 -0.3489286 -1.8291781
0003f0 ae c6 f6 3d 7b f8 75 bf 20 e4 ee 3d d0 b7 e7 bc
       0.12049614 -0.96082276 0.11664605 -0.02828589

fc3.bias f4 [6]
000000 bb d0 13 c3 bc 51 13 c3 7a 2c 13 c3 e3 f6 13 c3
       -147.81535 -147.31927 -147.17374 -147.9644
000010 2b 5e 17 c3 fa 3b 17 c3
       -151.36784 -151.23428
