checkpoints/model_1024.pth (torch, 25190 bytes, 6 tensors)

fc1.weight f4 [64, 16]
00000000: a947 3cbe cbf5 7abf bc37 2bbe 7883 1cbe
00000010: 0876 f4bd 72d0 15bf ed6e 0cbf b4d2 04be
00000020: 155c 3bbf 1e6d 1ebf 3fc2 c0bd b740 173f
00000030: 7d1e 1d3f 4a1d d8bf 2d15 2f40 1961 5f40
00000040: 2259 8abd f554 adbe c023 acbd 8c58 5b3e
00000050: e805 903d 07a3 b7be acf4 0bbe 6c94 34be
00000060: 7fba 0ebe 5260 0ebf b468 22be 71af b4bd
00000070: cfdc b4be ce7d 6d3d 19fc 83be 31d6 9ebe
00000080: bc10 5ebe fdb5 01bf 7002 aebc 7472 6bbe
00000090: 00b3 603b 3d3a 0dbd dac5 7fbd 50f6 983c
000000a0: 15f9 2ebe ebef a6bd 0596 74be c416 82bd
000000b0: 56be 473d e1dc a93e cfcd 0fbf a368 e33d
000000c0: 8ce3 c7bd 1b9f 40c0 20b4 e7bd 04da fdbd
000000d0: c801 dcbd 7f80 12bf 752f 23be 7acb 5bbe
000000e0: 5b26 32be ac30 23bf ea41 1240 96b3 e43f
000000f0: 1480 8bbf 1589 4d40 f54d ffc0 fc7b 34bf
00000100: 32da 5dbe cb2c 323d b478 173e 5a8b 7cbe
00000110: 70fc 2e3d fbf6 bfbc d59a 103e 7cca 4ebe
00000120: e1ae d2bd 9d42 13be 7611 3b3e 4513 7c3d
00000130: 3085 3ebe 8cb9 9ebd a7cf b5be b907 80be
00000140: b442 713e d425 80bd c032 8a3c 84a2 78be
00000150: 44d1 c73d 82ec 2abe 38f7 543e e024 3dbe
00000160: baba 7cbe 70c3 f9bd e41a f0bd ded0 3abe
00000170: 42e2 3b3e ce47 2b3e 8c55 1ebe ec0b d9bd
00000180: 489a 06c0 2c71 70c0 043d d0bd 4408 59be
00000190: 7ee9 0abe 3407 f7bf ef76 ecbf 441a 9c3d
000001a0: 111c 03c0 11f7 efbf 94ac 8440 28dd 9040
000001b0: e7f1 28be 8cf2 c63f a4c5 8b40 1bbf aec0
000001c0: de54 a2be 2a89 b8be 5870 093e cce0 f3bd
000001d0: 2468 45be e299 77bd df54 f5be 206c 2e3e
000001e0: 938b 56be f100 a3be 4302 91bd 5491 9dbe
000001f0: a007 8bbe 34ac 33bd 1b32 77be 56ab a2be
00000200: 5fb7 62bf c06f f93c 5039 10bd 50dc 5dbe
00000210: f0bf 0b3d 5714 b9bf ba86 c5bf 427a 2f3e
00000220: d97e a8bf 0b80 d2bf 8a92 bfbf 88c1 893f
00000230: 72f0 0141 73dd 813e db0f 773e 083b c43e
00000240: 6016 4cbe 2913 57be 2cc9 dd3d 0045 df3a
00000250: 3e7e 483e ae61 abbe 8b30 a7be 987d c2bd
00000260: 751a 8cbd 7f34 f0be a9a8 d8be 9e71 c5be
00000270: d2ca 8ebe 3d5d 02bf dff6 d9be 538f 41be
00000280: fbb6 37be 92b2 8dbe ecf6 843d 0033 af3c
00000290: 384f 3cbe 8cf7 09bf 599c a2be 8014 36bc
000002a0: a171 90be 42ca c3bd f899 15be 8729 79be
000002b0: 695e 40be 5743 8fbe c860 e2be 1b53 b7be
000002c0: 9c15 1d3d 7636 46be b087 89bc f439 64be
000002d0: 6a7f 613e 27d2 aabe fb3e 7cbe 0ab7 40be
000002e0: 8060 62bd a584 b6be 33a4 a6bd 456c e5be
000002f0: aa3d 84bd 0d0a 2a3e 39fb a3be e8ca 10be
00000300: 4602 03bf c54c 83bd 00e5 533e 001b 75be
00000310: a80b 463d b379 51be 519d 90bd 5cbb 2a3e
00000320: 046e b8bd 35f8 c0be 3e39 96bd c502 f2be
00000330: 8ddf 3fbe b319 8ebe fdb0 adbe 0483 8cbd
00000340: 3fd7 18c0 231d 953e 9c26 4abe e0cf 74bc
00000350: 4ccb 33be 29df 96be 9dc2 fbbe 4047 a33b
00000360: a99c a2bd 4f1f 41be 29ca bcc0 e2a3 7c3e
00000370: 0e41 7a3e e3c5 acbf 1543 ddbc c04d 8240
00000380: fabe 553e 4e54 37be a602 6ebe 140f 363e
00000390: 7052 0abe 9c29 e13d b86f 5dbe 00ac c43b
000003a0: ccb1 fcbd 0867 14be ee45 78be a612 0dbe
000003b0: 4086 833b 9679 2bbe 601d 343d 4076 e73d
000003c0: 013a b9bf 513a 44bf c0de e5bd ccb9 97bd
000003d0: 7a51 01be 6521 17bf c5f8 b0be 248d 6cbe
000003e0: 028d 33bf e5c8 c0be 7132 80c0 fb8f a43f
000003f0: fd0b 4e3f 1d37 1ec0 8205 5440 32d8 3e40
-0.18386711 -0.980313 -0.1672048 -0.15284526 -0.11936575 -0.5852119 -0.5485676 -0.12971002
-0.7318738 -0.6188525 -0.094120495 0.5908312 0.61374646 -1.6883938 2.7356675 3.4903014
-0.06755282 -0.3385388 -0.08405256 0.21420497 0.070323765 -0.35866567 -0.13667554 -0.17634743
-0.1393833 -0.55615723 -0.15860254 -0.08822525 -0.35324714 0.057981305 -0.25778273 -0.3102279
-0.21686071 -0.5066832 -0.021241397 -0.22992879 0.003428638 -0.03447937 -0.062444545 0.018672138
-0.17087205 -0.081512295 -0.23885353 -0.063519984 0.048765503 0.3317633 -0.56173414 0.11103942
-0.09760198 -3.009711 -0.11313653 -0.12395099 -0.10742527 -0.5722732 -0.15936072 -0.21464339
-0.17397444 -0.6374614 2.285273 1.7867305 -1.0898461 3.2114918 -7.9782662 -0.70501685
-0.21665266 0.04349975 0.14792138 -0.24662533 0.042721212 -0.0234332 0.14121564 -0.20194429
-0.10287262 -0.1438088 0.1826838 0.061541814 -0.18605494 -0.07750234 -0.3550999 -0.25005892
0.23560601 -0.06257215 0.016869903 -0.24280745 0.09756711 -0.16691783 0.20797431 -0.18471098
-0.24680606 -0.1219548 -0.11723879 -0.18243739 0.1834803 0.1672661 -0.15462321 -0.10597977
-2.1031666 -3.7569075 -0.10167888 -0.2119456 -0.13565633 -1.9299073 -1.8473796 0.07622197
-2.048588 -1.8747274 4.1460667 4.5269966 -0.16498528 1.554277 4.367876 -5.4608283
-0.31705374 -0.36042148 0.13421762 -0.11908111 -0.19278008 -0.06044949 -0.47916314 0.17033434
-0.20951681 -0.31836656 -0.070805095 -0.3077494 -0.27154255 -0.043865398 -0.24140207 -0.31771344
-0.8856105 0.030448794 -0.035210907 -0.21666074 0.034118593 -1.4459332 -1.543174 0.17136481
-1.3163711 -1.6445326 -1.4966595 1.0762186 8.121202 0.25364265 0.24127142 0.38326287
-0.1993041 -0.21003403 0.10829386 0.0017034113 0.19579408 -0.3347296 -0.32654223 -0.09496611
-0.06840984 -0.4691505 -0.42316177 -0.38563246 -0.27889115 -0.5092352 -0.4257116 -0.1890233
-0.17940895 -0.276753 0.06492409 0.021386623 -0.18389595 -0.5389335 -0.3175991 -0.011113286
-0.28211692 -0.09560062 -0.14609516 -0.24332248 -0.18786015 -0.27981064 -0.44214463 -0.35805592
0.038350686 -0.19356713 -0.016788334 -0.22287732 0.22021261 -0.3336346 -0.246334 -0.18819824
-0.05526781 -0.35648075 -0.08136787 -0.44809166 -0.06457074 0.16605397 -0.32027605 -0.14139903
-0.51175344 -0.06411127 0.20692825 -0.23936081 0.04835096 -0.20456581 -0.07061256 0.16673034
-0.09005359 -0.37689367 -0.07335137 -0.47267738 -0.18737622 -0.27753982 -0.33924094 -0.06860927
-2.3881376 0.29123792 -0.19741291 -0.014942139 -0.1755802 -0.29467133 -0.49171916 0.004982859
-0.07940037 -0.188596 -5.8996778 0.24671891 0.24438879 -1.349789 -0.027009526 4.071991
0.20873633 -0.17903253 -0.23243198 0.1777919 -0.1350801 0.109942645 -0.21624649 0.0060019493
-0.123385996 -0.14492428 -0.24245426 -0.13776645 0.0040138066 -0.167456 0.043973327 0.11301851
-1.4470826 -0.76651484 -0.11224127 -0.07408485 -0.12628737 -0.5903533 -0.34564796 -0.23100716
-0.70137036 -0.3765327 -4.0061574 1.2856439 0.8048704 -2.4721138 3.3128362 2.9819455

fc1.bias f4 [64]
00000000: 9ce4 3ebf 7b75 09bf 7338 d1be 5962 e1be
00000010: ccf8 bfbc 3e5b 23be bd8b 00c0 e2f7 b7bd
00000020: ab32 ccbf 6ae4 85bd d8c4 c7be ede6 c3bd
00000030: 18d1 6bbe b8ac c1bc d648 4d3e fc15 71be
00000040: 562e 16bf e39e 9dbe 4032 40bd d0a3 90be
00000050: 744d 20be 9370 25bf 1845 26be c8a0 1cbe
00000060: 34df 82be 2e2a 1bbf 29a2 e3be 57c4 22c0
00000070: 44ed 90bd 3024 f4bc ff6b 7bbf 303b 793d
00000080: 1ef0 0a3e a34e 28be 801e 90be 43fb a1bf
00000090: b022 6fbe fcb3 a8be a3c6 d5bd 112d 29be
000000a0: c0e5 bc3b e11a b5be 6812 37bf a21e c0bf
000000b0: 5d5d 29be 7516 cabe 96e6 4e3e 05ec 07bf
000000c0: 0bc7 92be 3db3 b4be 28be 17bf c2f4 02bf
000000d0: 4074 f3bc 1b50 d0be 41b8 44bf bdfa ffbf
000000e0: 56df 47bd c8cd b83d 8eb4 26be 49fd 58be
000000f0: 862f d9be 8e87 25be c275 00c0 5afd 80be
-0.7456758 -0.53694886 -0.4086338 -0.44020346 -0.023434065 -0.15952775 -2.008529 -0.08982827
-1.5952963 -0.06537707 -0.39017367 -0.0956553 -0.23028982 -0.023641929 0.20047316 -0.23543543
-0.58664453 -0.30785283 -0.046922922 -0.2824998 -0.15654546 -0.646249 -0.16237295 -0.15295708
-0.25560915 -0.60611236 -0.44459656 -2.5432336 -0.07076505 -0.029802412 -0.98211664 0.06084746
0.1356816 -0.16436248 -0.2814827 -1.2654804 -0.23353076 -0.32949817 -0.104382776 -0.16521098
0.005764693 -0.3537207 -0.7151246 -1.5009348 -0.16539522 -0.39470258 0.20205149 -0.5309451
-0.28667483 -0.35292998 -0.5927453 -0.5115472 -0.029718518 -0.40686116 -0.7684365 -1.9998394
-0.048796974 0.09023625 -0.16279814 -0.2119037 -0.4241907 -0.16164991 -2.0071874 -0.25193292

fc2.weight f4 [64, 64]
00000000: fae9 d0bf 98d4 d53c e06b 30bd ec82 b3bd
00000010: 6c2f 38bd 9427 ce3d e4fe e03d ec71 273d
00000020: d45f afbd 5e6a c6bd 3096 92bd d8f0 1f3d
00000030: 8004 523d 442e eabd 6e86 92bd 4f47 cfbf
00000040: 57e9 c8bf b401 0cbd 7890 a93d 3eff f4bd
00000050: 3e58 c8bf 3867 37bd 60af 123d ec84 d93d
00000060: 406d b5bb 886d db3c 0818 893d 177f b6bf
00000070: 56ed f0bd 900a 8d3c c423 fabd 9485 c3bd
00000080: 2a9a e33d 1ec6 81bd 8c95 eabd 9ae6 c2bf
00000090: 209d ca3c 0c54 f63d 1841 88bd e359 bdbf
000000a0: 80c1 67bc 587f b13d 35e1 b9bf ec15 d1bf
000000b0: d84e babd 565a d0bf 78ba 69bd e8b8 c23d
000000c0: b417 683d c480 1abd 8892 d13d 4292 89bd
000000d0: 9c40 3b3d 2818 67bd c08a b9bf 28c6 bebf
000000e0: 46d0 c93d 4009 cfbb b0a6 41bd f0bf b93d
000000f0: 70d4 113c 4275 f5bd 9fd4 c9bf 4063 a73b
00000100: 2749 02be 8a62 4e3e d247 84be cb06 c8bd
00000110: efc8 eebd 1819 113d 53d1 b7bd a699 993e
00000120: 000c 7cbe b4f5 913d ee7d a93d 71e7 a33e
00000130: c8de abbe c48a 84be 3eda afbd 60b6 4ebd
00000140: 0662 86be fc64 fabd de35 c7bd 6599 ab3e
00000150: 622c 71be 3359 dbbd 5afb c8bd b44c 753d
00000160: 0639 c33e 9647 25be 4e70 22be 89c5 88be
00000170: 80c0 bb3b 30f9 7c3d 3e97 aebd 747d 50bd
00000180: 24b9 6cbd ef51 5c3d 3166 403d 6b1e 98bd
00000190: 881b 383d 6b6a 24be 2e14 0cbe a4b4 73be
000001a0: 5c97 13bd deeb a63d 461b 49bd 8b4e 36be
000001b0: 9f18 28be 9fb6 6fbe c08e 6ebb 8052 1fbd
000001c0: b024 76bc a660 efbd 2136 1b3e 0027 253b
000001d0: 706f 773d 48ea a1bc 0e80 4abe 1421 d1bd
000001e0: e834 fcbc bc0a a33d f8b2 8cbc 80e4 5dbb
000001f0: 79a7 713e c868 14bd 7ea0 07be 9306 a7be
00000200: 05b4 b5be 207d a6be 11fc 9cbe 4830 d4bf
00000210: 5460 d0be 601f 56bc e65d 38be f080 b0be
00000220: 5148 88bf 5e7b d0be dc80 cb3e efc4 d4be
00000230: 8a37 4ebe bf2c bdbe 0043 0d3a 8b43 72bf
00000240: 9c72 67be 401a 74be 0075 5b3a 1c3c 40bd
00000250: 2307 a1bf b197 b7bf d46c 61bd 5d4a abbe
00000260: e813 8ebe 662b 7cbe 0e18 b6be 1c5f a3bf
00000270: 2427 2cbd 169e 9d3d 5571 b13e 1496 d3bd
00000280: 84a0 0fbd a585 c5be 646b 42be 7c21 f3bf
00000290: 1ed0 4dbe 3764 4dbe f7e7 a1be edd7 e8bf
000002a0: d850 d7bd 68eb 39bd 25cb b8bf aa44 ccbe
000002b0: 7c67 98bf d194 98bf 4007 7e3b 39e9 a5be
000002c0: c3b9 bfbe 0a06 01bf 1b24 afbe 1250 c9be
000002d0: 5896 e9bd b520 84be 29f1 c1be e082 acbf
000002e0: 93de 73be a017 9d3b 4015 e13b 4669 53be
000002f0: 5385 8abe 9424 3cbd 0d31 f5be a01d 4dbe
00000300: 83bf 9cbe bb85 483e 01bf bfbe 92ad 92be
00000310: 455c 2dbe beb8 c6bd df5b 65be 7e8e adbe
00000320: 7924 b8be 204c 983c 484d 5bbd be56 2fbe
00000330: fbfb 95be 51f4 bdbe 5070 afbc 3b61 c5be
00000340: fe4f c7be 80d1 9c3c ac65 893d 548f b5be
00000350: c8fe 9ebe 71a4 3cbe beee 923d 8c57 8dbd
00000360: c18e 3e3e 26ee a3be b9f9 85be da14 89be
00000370: 40d6 223d 903f 0bbd d8f0 80be e804 9bbd
00000380: 2e00 c43d 5c78 c8be 2589 a3bd 77ed b7be
00000390: 40dc ea3b 5439 22be a8bf 1dbe 2541 3dbe
000003a0: 7c84 bbbd f8bb 45bd 93c7 83be 7d89 a8be
000003b0: 4c90 8dbe 93eb d4be 00e7 f5bb a8a0 06bd
000003c0: 982c c8bd 6c6a d4be 06f3 5c3e 3285 b4bd
000003d0: d45d 123d 5a84 f93d 1ba9 afbe 9568 39be
000003e0: 508e 22bc c8a1 cdbd e001 7abd d4d5 763d
000003f0: 0787 353e f00c 47bc 8edd 58be 28c4 10be
-1.6321404 0.02610235 -0.043071628 -0.08765206 -0.0449671 0.10066143 0.109861165 0.04088013
-0.085632 -0.09688257 -0.07157552 0.039048046 0.051273823 -0.11434606 -0.07154547 -1.6193637
-1.569621 -0.03418131 0.08279508 -0.11962746 -1.5651929 -0.04477617 0.035811782 0.10621056
-0.0055367053 0.026785627 0.06694037 -1.4257535 -0.11764018 0.01721695 -0.12213853 -0.095469624
0.11113389 -0.06336616 -0.11454305 -1.5226624 0.024733126 0.120277494 -0.06653041 -1.4793056
-0.014145255 0.08666867 -1.4521853 -1.6334815 -0.090970695 -1.6277568 -0.057062596 0.09507924
0.05666323 -0.037720457 0.10233027 -0.067173496 0.045715913 -0.05641952 -1.4495468 -1.4904222
0.09854178 -0.0063182414 -0.047278106 0.09069812 0.008900747 -0.11985256 -1.5768012 0.005108267
-0.12723218 0.20154777 -0.25836045 -0.09766921 -0.11659419 0.035424322 -0.08975472 0.30000037
-0.24613953 0.07126942 0.08275972 0.32012513 -0.33568406 -0.2588712 -0.08586548 -0.050466895
-0.2624666 -0.122262925 -0.09727071 0.33515468 -0.23552087 -0.10710373 -0.098135665 0.059887603
0.38129443 -0.16140589 -0.15863153 -0.26713207 0.005729735 0.06176108 -0.08524941 -0.05090089
-0.05779375 0.053789075 0.046972457 -0.07427677 0.04494813 -0.1605622 -0.13679573 -0.23799378
-0.03603302 0.08150457 -0.049098276 -0.178034 -0.16415642 -0.23409508 -0.0036401004 -0.038897038
-0.015023395 -0.11688356 0.15157367 0.0025200248 0.06040901 -0.019765034 -0.19775411 -0.10211387
-0.030786946 0.07961032 -0.017175183 -0.003385812 0.23599042 -0.03623274 -0.13244817 -0.32622203
-0.35488907 -0.32517338 -0.3066106 -1.6577234 -0.40698493 -0.013069004 -0.1800457 -0.34473372
-1.0647069 -0.40719122 0.3974675 -0.41556498 -0.20138374 -0.369482 0.0005388707 -0.9463431
-0.22602314 -0.23838139 0.00083716214 -0.046932325 -1.2580303 -1.4343168 -0.055035427 -0.33455172
-0.27749562 -0.2462593 -0.35565227 -1.27634 -0.042029515 0.07696168 0.34656778 -0.103313595
-0.03506519 -0.38578525 -0.18986279 -1.8994594 -0.20098922 -0.2005776 -0.31622288 -1.8190895
-0.105134666 -0.045390517 -1.4436995 -0.39896137 -1.1906581 -1.1920415 0.0038761646 -0.32404497
-0.37446412 -0.5039984 -0.34207234 -0.393189 -0.11405629 -0.25806203 -0.37879303 -1.347744
-0.23815374 0.004794076 0.0068689883 -0.20645627 -0.27054843 -0.04593332 -0.47888985 -0.20030832
-0.30614862 0.19582264 -0.37450412 -0.2864805 -0.1692973 -0.097032055 -0.22398327 -0.33897775
-0.35965326 0.018590987 -0.053540498 -0.17122933 -0.29293808 -0.3710046 -0.02141586 -0.38550743
-0.38928217 0.019142866 0.067088455 -0.35460913 -0.31053758 -0.18422104 0.07174443 -0.06901464
0.18609144 -0.3201763 -0.26167086 -0.2677372 0.039755106 -0.033996165 -0.2518375 -0.07569295
0.09570347 -0.39154327 -0.079851426 -0.3592336 0.007167369 -0.15842181 -0.15405142 -0.18481882
-0.09156129 -0.048274964 -0.257382 -0.32917395 -0.27649152 -0.4158598 -0.007504344 -0.032868057
-0.097741306 -0.41487443 0.21577081 -0.088144675 0.035734013 0.12183447 -0.34308705 -0.18106301
-0.009921625 -0.10040623 -0.061036944 0.060262516 0.1772729 -0.012149081 -0.21178266 -0.14137328

fc2.bias f4 [64]
00000000: a67b c1bf dd9d b0bd ba00 b4bf 9a0d 71be
00000010: 41f2 70bf 35a8 9dbe 5624 9dbe 365d e9bb
00000020: 7cff 12bd 7c25 01be 7060 4ec0 a0d4 83bf
00000030: 7508 acbf b89a 98bf 9e5c 58be e74f a8be
00000040: bc07 4cbd 30d5 7ebe 30e8 69bf e175 55bf
00000050: 1c75 c8bf 104b dabe dcee 91bf ecf6 4ebc
00000060: 56e5 8dbe 3c87 39be 0e80 d2be d152 f4bf
00000070: ca04 d4bf 447f 9dbe 17eb c6bd ac2e 73c0
00000080: 32b4 b1be ac0a 46be 9178 b7bf 9009 f8be
00000090: 5a20 75bf c4bd 6ac0 f9dc 3abe f638 46bf
000000a0: 5c7d ffbf 0603 3cbf 83c6 86bf 89d3 7abf
000000b0: 758e 27bf 86a7 4abc a83e 4fbe f690 96be
000000c0: 0549 babe ca86 54be 1c73 6abf 271a 2cc0
000000d0: 6739 5cbf 8898 c1be 8161 d2bf 0536 6fbe
000000e0: 7702 1cc1 1085 9fbe 81b4 67be 354b c9be
000000f0: bee3 c3bd 6551 16be e9dd c6be c423 f1be
-1.511586 -0.0862386 -1.4062722 -0.23540345 -0.9411965 -0.30792394 -0.30691785 -0.0071217073
-0.03588818 -0.12611955 -3.224636 -1.0299263 -1.3440081 -1.1922216 -0.2112908 -0.3287346
-0.049812064 -0.24886012 -0.91369915 -0.83382994 -1.5660739 -0.42635393 -1.1401019 -0.012632113
-0.27714032 -0.18117994 -0.41113323 -1.9087774 -1.6563962 -0.30761158 -0.097128086 -3.7997236
-0.3470779 -0.19340008 -1.4333669 -0.48444796 -0.9575249 -3.6678324 -0.18248357 -0.77430665
-1.9960132 -0.73442113 -1.0529331 -0.9797903 -0.6545175 -0.012369042 -0.20238745 -0.2940747
-0.36383834 -0.20754543 -0.9158189 -2.6890962 -0.8602509 -0.37811685 -1.6436006 -0.2336045
-9.750602 -0.31156206 -0.2262745 -0.3931519 -0.09564923 -0.14679487 -0.3884118 -0.470976

fc3.weight f4 [6, 64]
00000000: 54cd 6ebd c557 063e 776c 87bf c61f 183e
00000010: a698 863f 4070 273c a3e9 b23e 0199 243c
00000020: cd50 e53c 0324 6f3e f5fd 513e 5aad b83e
00000030: 840f a53f dc0e 88bf eca4 27be 100f 80be
00000040: 007d f1bc ed8c 87be ce7b 5abf 068f 86bf
00000050: fcc2 983e 988b 9e3e c0c3 213b 9afe b13b
00000060: 5a7f 7cbe 5209 d33e 9a6d 9f40 6b32 993f
00000070: 0a27 963f 6df4 42be 78d6 023e d1d5 5f3f
00000080: 4f11 683e 65e5 5fbe e967 a83d c023 80bb
00000090: 7308 3ebf f979 5ebf 98a8 46be 4a67 253e
000000a0: ad54 973e 856a 1c3f 0942 59be 4086 6f3f
000000b0: fb3b 753f 48d4 ad3f 3194 9b3e 60d3 d73d
000000c0: bdd1 c93e a632 5f3e 929d 5ebf ce6c a5bd
000000d0: e898 78bd c392 843e 275c 95bf ecdf 8abe
000000e0: fb08 acbf 074f 80be 6893 2fbe b5e8 92be
000000f0: 04d1 633e 0f5a 1ebd 02aa 4d3e 9c10 9fbe
00000100: ee68 a73f 2788 69be 6a72 7a3f 2ab7 16be
00000110: 9b9d 573f 630d 7abe 707d a4be e047 71bc
00000120: d014 4cbd 6c68 91be 74d7 303e cb75 b6be
00000130: 7ef0 acbf 64ab 98be 1a0f 89be 7faf 463e
00000140: f0bd 07bd 6ca5 88bd 4c7f 4bbf 8d45 4abf
00000150: f652 733f 27da 573d 4c41 223d 1383 5bbd
00000160: 4e36 753d fb93 73be da58 75bf 5b49 8bbf
00000170: af78 aebf 5658 7a3e 942d 89be 6ef8 65be
00000180: 768c a3be a277 1e3c 904f b23c 126e 9f3d
00000190: 3bf1 6fbf 84e5 c2be 8fc1 7b3e 31cd 083e
000001a0: b7f3 7f3e 8e02 583f fc04 9dbd bff0 a8bf
000001b0: 4ee2 68bd 89ad 3b3c 9723 3abe 10d4 eabc
000001c0: 3acb 83be e7b1 50be b000 4bbf 7321 d3bd
000001d0: 807c b53c 175c 4cbe 75ac a13f c692 80be
000001e0: 3765 af3d dca7 553e 29c6 8abc a79a 713e
000001f0: 41eb d83f d361 4fbe cb17 7fbe ca3f de3e
00000200: 212c 983f 08e6 433e f985 8dbf c433 4d3e
00000210: 4327 7c3f 206f 58bd 3153 8d3e 228c 89bd
00000220: 77a3 b63e e172 8cbe 051a f1be 83ad c23e
00000230: 5161 a6bf 2d83 07bf 4c85 29be 38a6 eebd
00000240: a875 7fbd 12f0 12be 6cfc 72bf a349 7fbf
00000250: f74c a7bf 7dc5 163e 4adc bebd 6169 57bd
00000260: fbec 0dbe 2e0a 77be 03df ca40 b78b aebf
00000270: edef ccbf 3045 59bd 235e a53e 08b1 703f
00000280: bce1 f4bc b6b9 963c 4169 6c3e 3671 82be
00000290: d23e 44bf 831e 2b3f 9056 85be 8491 a6be
000002a0: c2b0 1f3e 9248 0a3e eab9 013e f1bb c83d
000002b0: 1fae 013f f56e 5d3e dd51 d53e c1ec 63be
000002c0: 461f 613e c586 543e ac95 563f b342 1a3e
000002d0: 6cd4 653f f40a d63e a868 a7bf a611 c4be
000002e0: e5bd 04be f027 afbe 8ee9 e9bd 40a0 41be
000002f0: adfb 8b3e 160c 083d b5c3 873e 44c7 9bbe
00000300: ee5d e6bd 17fd 6bbe b7bd c73f 7dc1 6cbe
00000310: 796c 543f 8ab0 a63d a3f5 92be 5f57 74bc
00000320: 49fd 523c cd62 eb3d 9582 8bbd d416 99be
00000330: 0eb1 a03f 475b 59bd 1c3d a03e a6ff c9bd
00000340: 26f4 813d 99d0 703d 802a 6e3f 64c6 493f
00000350: 57ef 97bf 5dfb ac3e c86a 083d 4044 393d
00000360: cc88 a43e f204 a8be dcea 0fbe 7599 933f
00000370: b21b b43f 5f46 8d3d fefd 80bd 15c8 f0bd
00000380: 1e1e ce3e 24f3 4bbd 6da0 4a3f dc55 7fbd
00000390: 8be9 5d3f 3076 c3bb e41d c93e 3d26 3fbf
000003a0: 502c 12be 8e4f edbb 247a 253f b335 0140
000003b0: 14bf cf3c 47ab 5abd 8936 6dbe 68e8 bfbd
000003c0: 7814 d6be 89e1 89be 2003 66bf f16a 24be
000003d0: 8c88 eabd 8f96 7bbe 3cba 973f 29b1 c3be
000003e0: 2af4 a43f 8755 9bbe 281d 3b3c 6d5e a33e
000003f0: 70d0 ec3d cc96 6dbc d9fc bdbe d5aa 02bf
-0.058301285 0.13119419 -1.0579976 0.1485587 1.0515335 0.010219634 0.34943876 0.010046245
0.02799263 0.23353581 0.20507033 0.36069757 1.289536 -1.0629535 -0.16371506 -0.25011492
-0.02947855 -0.26474705 -0.8534516 -1.0512397 0.2983626 0.30965877 0.0024683326 0.005431962
-0.24657956 0.41218048 4.982129 1.1968511 1.1730664 -0.19038554 0.12777126 0.8743563
0.22662853 -0.21864851 0.08222944 -0.0039105117 -0.7423164 -0.86904866 -0.19400251 0.16152683
0.2955679 0.61100036 -0.21216597 0.93564224 0.9579465 1.3580408 0.303865 0.105383635
0.3941783 0.21796665 -0.86959183 -0.080773935 -0.060692698 0.2589322 -1.1668748 -0.27123964
-1.3440241 -0.25060293 -0.17146075 -0.28693166 0.22247702 -0.038660105 0.20084384 -0.3106736
1.3078897 -0.22805844 0.9783083 -0.14718309 0.8422486 -0.24419169 -0.3212695 -0.014726609
-0.049824536 -0.2839998 0.17269689 -0.35636744 -1.3510892 -0.2981826 -0.26769334 0.19402884
-0.033140123 -0.06672177 -0.79491115 -0.79012376 0.95048463 0.05269828 0.039613053 -0.0535918
0.059866242 -0.23786919 -0.958387 -1.0881761 -1.363058 0.2444776 -0.26792586 -0.2245805
-0.319431 0.009672077 0.021766454 0.07784666 -0.93727463 -0.38065732 0.24585555 0.13359524
0.24995314 0.843789 -0.07666966 -1.319847 -0.056856446 0.011454948 -0.18177639 -0.028665572
-0.25740987 -0.20380364 -0.79297924 -0.10309114 0.022154093 -0.19957004 1.2630755 -0.2511198
0.08564227 0.20864815 -0.016940193 0.23594151 1.6946794 -0.2025216 -0.2491142 0.43408042
1.1888467 0.19130719 -1.105651 0.20039278 0.9849741 -0.052840352 0.27602533 -0.06716181
0.3567159 -0.27431396 -0.47090164 0.38023004 -1.2998449 -0.52934533 -0.16554755 -0.116527975
-0.062368065 -0.14349392 -0.94916415 -0.99721736 -1.3070363 0.14723773 -0.093193606 -0.05259073
-0.13859932 -0.24124977 6.339723 -1.3636388 -1.601072 -0.053044498 0.32298383 0.9402013
-0.029892795 0.0183991 0.23087026 -0.25476998 -0.76658356 0.6684343 -0.26042604 -0.32532895
0.15594772 0.13504246 0.12668577 0.09801472 0.5065631 0.21624358 0.4166402 -0.22258283
0.21984586 0.20754535 0.8382213 0.15064506 0.89777255 0.41805232 -1.3078814 -0.38294715
-0.12963064 -0.34210157 -0.114215 -0.18908787 0.2734045 0.03321465 0.265165 -0.30425465
-0.112483844 -0.23045765 1.5604771 -0.23120685 0.82978016 0.08139141 -0.2870303 -0.014913409
0.012877771 0.11493454 -0.06812016 -0.2990023 1.2554033 -0.053065564 0.31296623 -0.09863214
0.06345396 0.058792684 0.930336 0.78818345 -1.1869916 0.33785525 0.03330496 0.045231104
0.32135618 -0.32816273 -0.14054435 1.1531206 1.4070952 0.06898188 -0.06298445 -0.117569126
0.40257353 -0.049792424 0.7915104 -0.06233774 0.86684483 -0.005965017 0.39280617 -0.7466772
-0.14274716 -0.0072421497 0.64639497 2.0189025 0.025359668 -0.053386 -0.23165335 -0.093705
-0.4181249 -0.26929882 -0.8984852 -0.1605642 -0.114518255 -0.24569152 1.1853709 -0.382211
1.2887013 -0.3033869 0.011420526 0.3190798 0.11563194 -0.014501285 -0.3710697 -0.5104192

fc3.bias f4 [6]
00000000: cd1e 86c0 3c51 85c0 f121 82c0 9590 82c0
00000010: a3ea 19c1 02ef 1cc1
-4.19126 -4.1661663 -4.066643 -4.080149 -9.619784 -9.8083515
