checkpoints/model_0.9_20.pth (torch, 25210 bytes, 6 tensors)

fc1.weight f4 [64, 16]
00000000: 9666 a5bd bcdb 83be e2b7 143e 7842 113e
00000010: 4095 213d 5f1c ebbe 0a7d f5be 5849 203e
00000020: 285c b4bd 9e8d 1dbe 24b1 c0be 90e6 ebbe
00000030: 8400 9dbd bf82 b9be dcc6 9cbe 592e 16be
00000040: e08b 58bc 2205 153e 4cab 28be 8044 993b
00000050: 4c07 683e f432 62be 8046 a83c 7630 14be
00000060: 5060 853c b0bc 90bd 44c0 a23d e4b8 103e
00000070: bcd5 a4bd 16ae 24be 5a75 6b3e 9e07 01be
00000080: ff9a 733f 76d0 1e3d 120a 7d3e 9659 5e3e
00000090: f00f d83d 22c1 a0be ea42 03bf 7a14 203e
000000a0: 3610 a8be 3243 eabe fa45 c23e 1162 9c3f
000000b0: 6a56 4cc0 1145 0ebf fe8f 60c0 6bf6 bcbf
000000c0: 88d4 223d f085 f9bd 68f9 813d d0d2 a7bd
000000d0: 008e e33b defb 4bbe e4e5 3fbe 983d 853d
000000e0: 04f5 ae3d f0e4 2ebe 54f8 fb3d 027d 4c3e
000000f0: c06c cf3c c894 14bd d8ce 693d f891 223d
00000100: df2f 9abe a5f2 a1be e049 a6bd 985c 073d
00000110: f6b4 06be f515 c6be 66c2 2dbe e65f 663e
00000120: 3b0d aabe 4549 63bd 7d1f b0be 68c6 553e
00000130: 1f21 c7be 079d 823e 523c b7be a25f a3be
00000140: 10f0 cdbd 1e65 553e 5086 313e 401b 033c
00000150: cab1 5b3e d05e e1bd d2de 1bbe 5804 41be
00000160: ec13 3bbe 747d aabd 2a67 77be b0e0 e43d
00000170: 86cf 3f3e 60c3 d43d c68a 3dbe 70a9 61bd
00000180: 94a8 e4be 6839 b6be f0bc cdbc 301e 69be
00000190: b065 d33d 9e03 96be 1af5 82be e6ab 4b3e
000001a0: d037 97be 9837 96be 110a 15be a5d5 acbe
000001b0: 7bd3 5fbe f40d 12bf 964b 953d 7fcd 90be
000001c0: e857 55bd 4619 3cbe 1cae d23d 30ff 1ebe
000001d0: 0ef5 32be be3b 4cbe bcbe e33d 903b e03c
000001e0: 30b1 ddbc 12a8 40be 0aa8 5cbe 9887 81bd
000001f0: 8886 99bd 341c 6fbe 0061 72bd fa3c 0cbe
00000200: 0014 f8ba 403e cb3b e24e 0b3e d086 cebd
00000210: 448d 9bbd 32e7 4abe bcdd 9f3d 4082 08bd
00000220: 204f 9ebd 7415 abbd 5475 35be 5082 92bd
00000230: 1867 713e 7c93 7dbe 286a b7bd 2837 58bd
00000240: 417f 0bbe b764 9bbe b075 cbbc 28af 3a3d
00000250: 4061 bcbb abfa b3bd c046 c2be 06bc 013e
00000260: 0fe1 f3be 9535 d9be 2046 483d 7a67 54be
00000270: 006a 2a3a 0ad8 6abe 1841 c2be 80d8 5bbe
00000280: 3a37 f1bc c11d dabd 1e19 77be dce1 edbd
00000290: d490 59be cf1d a9be a56e 98be e053 aabd
000002a0: d313 b33d 9471 38bd d093 09be 020d ac3c
000002b0: cf98 5ebe bead 14bf 464d e4be 167c 27be
000002c0: cac6 e7be 171e c2be 5ea2 043e 4028 c4bc
000002d0: 48ef 293d 1e50 b1be d90a 76be 7883 2bbd
000002e0: 6456 2fbd 0077 43be cc10 033e 2237 093f
000002f0: 7b88 3abe 90f0 9bbe 8a61 ecbd 690d 85be
00000300: 4158 423e 0d53 043e beef 243e 2477 bf3d
00000310: 9095 f9bc 31bf 0abe 4e17 52be c0ad 603c
00000320: fce4 56be 4fd7 393e 66f9 e0be 1bfd 0ebf
00000330: 9f5b acbe 73f9 d0bd 6006 d8be bc89 fbbe
00000340: 30ac a2bc 54cf f53d d8ea 62be 6ecd 193e
00000350: e0d5 e6bd 224a 48be b416 5bbe 78d4 413d
00000360: 40d2 ee3c a83c a5bd a64d 753e 5000 8b3c
00000370: 90a9 233e 160d 613e a8d5 423e 42d1 1c3e
00000380: 7a20 b5bf 517a 8abe 54c1 af3d a084 753e
00000390: a420 a5bd d200 903d b6b4 36be 8e35 00be
000003a0: 4d7a b83d f534 4bbe 19a6 c1bd e50a 57bf
000003b0: 94fe 96bf 4328 40be 993d 34c0 259d 02bf
000003c0: 9ff5 2dbe 0757 e3bd 7267 30be 34ef 393e
000003d0: b2d6 53be d2a0 ccbe 9829 c1bd 3cb1 f3bd
000003e0: 6d02 0bbf babe a2be 4cb8 debe 500c 04bf
000003f0: b21c 63be bab8 32be b038 fabe efa2 903e
-0.08076207 -0.25753582 0.1452327 0.14185512 0.039448977 -0.45920083 -0.4794696 0.15652978
-0.0880664 -0.15386054 -0.37635148 -0.46074343 -0.07666114 -0.36232564 -0.30620468 -0.14666118
-0.013216943 0.1455274 -0.16471595 0.0046773553 0.22659034 -0.2208975 0.02054143 -0.14471611
0.016281277 -0.07067239 0.07946828 0.1413303 -0.08048579 -0.16082034 0.22993985 -0.12600562
0.9515838 0.038773023 0.24710873 0.21713862 0.10549915 -0.3139735 -0.5127398 0.15632811
-0.32824868 -0.4575439 0.37944013 1.2217427 -3.1927743 -0.55574137 -3.5087886 -1.4762701
0.039753467 -0.1218375 0.063463986 -0.08194506 0.006944418 -0.19920298 -0.1874004 0.06505889
0.08542827 -0.1707952 0.12303224 0.19969562 0.02532041 -0.0362747 0.057082027 0.039689988
-0.30114648 -0.31630436 -0.08119559 0.03304729 -0.13154969 -0.38688627 -0.16968688 0.2249752
-0.3321322 -0.055489797 -0.34399024 0.20876467 -0.38892457 0.25510427 -0.35788208 -0.319089
-0.10055554 0.20839354 0.17336392 0.008002102 0.2145454 -0.11004412 -0.15221718 -0.18849313
-0.18269318 -0.083247095 -0.24160448 0.11175668 0.18731508 0.10388827 -0.18509969 -0.05509323
-0.44659865 -0.35590672 -0.025114506 -0.22765422 0.1032213 -0.29299635 -0.25577623 0.19889793
-0.2953477 -0.2933929 -0.14554621 -0.33756748 -0.21858017 -0.5705254 0.072898075 -0.2828178
-0.052085787 -0.18369016 0.10287115 -0.15527034 -0.17476293 -0.19944665 0.11120364 0.027372152
-0.027062029 -0.18814114 -0.21548477 -0.063246906 -0.07496363 -0.23350602 -0.059174538 -0.13695136
-0.0018926859 0.006202489 0.1360431 -0.10084307 -0.07595304 -0.19814757 0.07805964 -0.03332734
-0.07729936 -0.08353701 -0.17720538 -0.071537614 0.23574483 -0.24763292 -0.089557946 -0.052786976
-0.13622762 -0.30350277 -0.024836391 0.0455772 -0.005748898 -0.087880455 -0.37944603 0.12669381
-0.47632644 -0.42423692 0.048895 -0.20742598 0.00065007806 -0.22933975 -0.37940288 -0.21469307
-0.02944528 -0.10650206 -0.24130675 -0.11615345 -0.21246654 -0.33030555 -0.29771915 -0.08316779
0.087440155 -0.04503019 -0.13435292 0.021002296 -0.2173798 -0.5807761 -0.44590205 -0.16355929
-0.45268852 -0.37913582 0.12952563 -0.023944974 0.041487962 -0.34631437 -0.24027576 -0.041873425
-0.042806998 -0.19088364 0.12799376 0.5359975 -0.18216126 -0.30456972 -0.115420416 -0.25986794
0.18978979 0.12922306 0.1610708 0.09348896 -0.030466825 -0.13549496 -0.20516703 0.0137133
-0.20985788 0.1814854 -0.43940276 -0.5585496 -0.3366365 -0.10203829 -0.42192364 -0.4912852
-0.019857496 0.12002435 -0.22159898 0.15019771 -0.11271262 -0.1955953 -0.2139538 0.047321767
0.02915299 -0.0806821 0.23955402 0.016967922 0.15982652 0.21977648 0.19026816 0.153142
-1.4150536 -0.27046445 0.08581796 0.23976374 -0.08062866 0.070314065 -0.17842373 -0.1252043
0.09007702 -0.1984442 -0.09455509 -0.84001 -1.1796441 -0.18765359 -2.8162596 -0.51021034
-0.16988228 -0.111005835 -0.17226961 0.18157655 -0.20687369 -0.39966446 -0.094317615 -0.11899039
-0.54300576 -0.31786138 -0.43499982 -0.5158129 -0.22178915 -0.1745328 -0.48871374 0.28249308

fc1.bias f4 [64]
00000000: 792b 80be bc88 a9bd 443d 01bf 3077 1cbd
00000010: 8371 f7be b018 713d f41f 80bd 5415 bfbd
00000020: 2862 c23d bb00 96be 3b55 d43d 022d 80bd
00000030: bd1d 293e 2699 34be d095 22be 122f 73be
00000040: ba18 1cbe 2cf6 acbf 6006 fdbc f15d 32bd
00000050: 65b5 9bbe e893 5fbd e057 8d3c e24d cdbe
00000060: 8ad5 f1be 803a 1b3c 3cf6 d7bd 466b 8cbe
00000070: d8f6 51be f86e 5bbe 5421 6fbe 3ebe 17be
00000080: 1674 bebd f253 73be 68f9 c0be 5628 6abe
00000090: 6e6a 1d40 a9b8 a1be 9c6e 4cbe d8bf b8bc
000000a0: 4c91 bbbd bd85 61be 634a 97be 580c 433d
000000b0: e056 0dbe 19e2 18be a8dd ffbd 6740 c4be
000000c0: 63cd 103e 32be 2bbf 7596 a1be 72bc 16be
000000d0: e1e6 06bf 0ce2 b0be 8a94 5a3e fec7 543e
000000e0: e307 62be 7303 163e bf51 b8be 7a35 6ebe
000000f0: 0d03 d8bd e31d a2bd 042f a83d e9b2 fabe
-0.25033167 -0.08278033 -0.5048411 -0.038199604 -0.4832879 0.058861434 -0.062560946 -0.0933024
0.09491378 -0.29297432 0.10367819 -0.062585846 0.1651525 -0.17636546 -0.15877461 -0.23748425
-0.15243807 -1.3512626 -0.030886829 -0.04354662 -0.3041183 -0.054584414 0.017253816 -0.40098482
-0.4723323 0.009474397 -0.10545012 -0.27425593 -0.2050432 -0.2142905 -0.23352557 -0.14818665
-0.092994854 -0.23762491 -0.37690282 -0.2286695 2.459621 -0.31586197 -0.19964069 -0.022552416
-0.091585726 -0.22023673 -0.2954894 0.047619194 -0.13802671 -0.1493 -0.124934494 -0.38330385
0.14140849 -0.6708709 -0.31560102 -0.14720324 -0.52696043 -0.3454746 0.21345726 0.20779416
-0.22073321 0.14649753 -0.35999867 -0.23262587 -0.10547457 -0.07915857 0.082120925 -0.48964623

fc2.weight f4 [64, 64]
00000000: 378a 533e 500a 6c3c 21fc d1be 96ec af3d
00000010: 6d7b 333e 08e6 b4bc 0e03 67bd 3af2 f2bd
00000020: 902b 043d 09f9 a93e bb5b 5ebe 8af6 4f3e
00000030: 159f 17bd cc69 323d 6d02 123c b69f bf3e
00000040: 94ad 603d e4b8 67bf ae47 813c 178c 6a3d
00000050: e0cc 46be 80bb 4a3d 485d 92bd dac6 273d
00000060: 923b bd3e 8a60 f43d 1463 d8bd ac67 403e
00000070: fdb7 603e a88c f1bd 08f8 c43c 275b 463e
00000080: 9ef2 243e 98ad b8bd 2f5a 76bd 82be cb3d
00000090: 76e4 20bf ab25 58be d0e2 883e be52 fb3d
000000a0: 44a6 903d 4d62 6f3e c447 d03c a40f f33d
000000b0: 9cb1 c8bd 0b50 bd3e 99a9 8e3d 86dd 1fbc
000000c0: c035 b9bc e680 72bf ba84 c0bd 886c 9f3c
000000d0: 860a 113c 7768 003e aebd f33d 0ebc b6bd
000000e0: 6573 943e 4490 48be a2d4 bcbe 2d87 bfbd
000000f0: 1ab1 e0be 7d92 87be 0e93 a73d 4b91 babe
00000100: 7c31 883d 68e6 753d 7591 3bbe 4c5b f53d
00000110: c8d9 23bd 866f e6bd 2a10 083e ce98 ca3d
00000120: 849c b53d 1030 d73d c21b 35be b262 bdbe
00000130: 8eb5 cdbd f22c f43d 1a20 23be 001c b2bb
00000140: 0060 a1bb 402d b0bd 9333 70be de7d 87be
00000150: 30d9 8abe 8286 c6bd 0630 ae3d 0476 babd
00000160: b400 073d 8e5e d8bd a69e efbd 54c3 91be
00000170: bc33 d8bd d408 a53d 0898 cdbc 80d1 d6ba
00000180: b48b b8bd bcc2 90be cc97 f7bd 9c8d dbbd
00000190: d7a0 48be 4f5c 0bbe 00c3 943b 8c5b 0dbe
000001a0: 8cc2 5c3d dc06 7a3d d6e5 08be dc2f 3fbd
000001b0: 8c9b bb3d 2cea 0abd 2c34 50be 37b3 67be
000001c0: 668b dfbd 8de8 45be c36f 9cbe 2736 b1bd
000001d0: 16b7 00be 448c 72be f800 723d 8064 8dbd
000001e0: 90df f73c 0f34 97bd 0507 17be ba3c dabd
000001f0: 8293 87be 866d 54be 1a58 debd 9924 58be
00000200: 5f10 833e f43e 203d 5107 633f fc77 98bd
00000210: a8f9 a73e 1cfa 0b3d 3219 593e 10d0 36bc
00000220: 30f5 47bd fcce b2be 45d0 b0bc ce83 833e
00000230: 2ae4 bd3d 80b7 78bd e4c1 81be 29f9 4f3e
00000240: cc7c 113d 3b08 213f b1b8 2d3e db8c f33d
00000250: 651f 16bd 8e56 e0bd 5a97 873d e0f7 4b3e
00000260: 4fc2 953e d8d5 cc3c e08b c3bb d4c8 c43e
00000270: 65fb 9f3e 1201 d63d 404b ed3d bd1c 9e3e
00000280: 8f1c c53d 35d3 45be ecc7 da3d b8c7 5a3d
00000290: fcec e9bf 6863 56be cfcf 393e 8cdb 473e
000002a0: 5437 293d 5112 523e 4f53 1e3d 203d ed3c
000002b0: 88e6 f73c 2fbd 913e 243d 39bc 213d 16bd
000002c0: 8bcf d93d 3c97 b9be ef7a a5bd ffc9 073e
000002d0: 439a dc3d 2755 bdbe f6d2 903d d8ef ecbc
000002e0: 0278 443e 7951 ce3d bdae fcbd dd84 273c
000002f0: 94ca 58be 916e f73e e600 9f3d 35cd 5bbc
00000300: 80d9 83be a241 9d3d 3bd6 3fbe 6002 babc
00000310: 3ebe b0be a064 203c 783e d9be 88e7 03bd
00000320: 2cf6 18bd 5cef ce3e 61d6 9fbe b905 4bbe
00000330: 7e95 67be 30c6 41bd 2f89 3ebe d136 b3be
00000340: c433 b23d 9ede bcbe 2f97 a3be 40b2 d7be
00000350: 8692 9a3e de06 b5bd 9a6c ecbd 71e9 8dbe
00000360: 8d31 773e 9a52 fcbd 5c30 9cbd e339 5dbe
00000370: ffa5 50be 1468 f1bd c061 96bd aac9 a2be
00000380: f9d4 84be f506 9d3e c0db abbe 14a6 5cbd
00000390: 432f 96be 4c95 9ebe 29d8 b2be 6434 68be
000003a0: 1cff 59bd 7b5b d3be b24f 9cbe c0c9 f0bc
000003b0: 38b7 8e3d d4bb b03e 3e02 36be 37ec 80be
000003c0: 3c5e c1be 7eed a1be f9e8 65be a92d d2be
000003d0: 973b aabe 8daf c1be 787b de3d 1454 5ebd
000003e0: a452 a6be 6cdd 9bbe 7304 99be 908d b4be
000003f0: 4238 c9be 18e4 86be 684e a03d c19c 45be
0.20658194 0.014406756 -0.41012672 0.08590047 0.17527552 -0.022082344 -0.056399398 -0.11862607
0.032268107 0.3319781 -0.2171468 0.20308891 -0.037016947 0.043557927 0.008911711 0.37426537
0.054853037 -0.90516496 0.01578125 0.057262506 -0.19414091 0.04949522 -0.07146698 0.040961124
0.3695951 0.11932476 -0.10565773 0.18789548 0.21945186 -0.11794406 0.024044052 0.1937071
0.16108176 -0.090174854 -0.0601446 0.09948446 -0.62848604 -0.21108119 0.26735544 0.12271641
0.07062963 0.23377343 0.025424846 0.118682176 -0.09799501 0.3697513 0.06965942 -0.009757405
-0.022608638 -0.94727933 -0.094003156 0.019460931 0.008852607 0.1253985 0.11901413 -0.08922587
0.2899429 -0.19586283 -0.36880976 -0.093519546 -0.43885118 -0.2647895 0.08182345 -0.36438975
0.066500634 0.060034186 -0.18317206 0.11980304 -0.040002614 -0.1125174 0.13287416 0.098924264
0.088677436 0.10507214 -0.1768637 -0.3698936 -0.100443944 0.11922635 -0.15930215 -0.0054354668
-0.004924774 -0.08602381 -0.23457174 -0.26463217 -0.27118826 -0.09693624 0.085052535 -0.09104541
0.032959655 -0.1056491 -0.11700182 -0.28469336 -0.105567425 0.080583245 -0.025096908 -0.001638934
-0.09011021 -0.2827357 -0.120895 -0.10720369 -0.19592606 -0.13609432 0.0045398474 -0.13804454
0.05389647 0.061041698 -0.13368925 -0.0466765 0.091605276 -0.03391473 -0.20332402 -0.22626959
-0.1091526 -0.19326992 -0.30554017 -0.08652907 -0.12569842 -0.2368632 0.059082955 -0.069039345
0.03025797 -0.07382976 -0.14748771 -0.10656114 -0.26479727 -0.20744905 -0.10856648 -0.21107711
0.25598428 0.039122537 0.8868304 -0.0744476 0.3280766 0.03417407 0.21201017 -0.011158004
-0.048817813 -0.34923542 -0.021583686 0.25686496 0.092720345 -0.060721874 -0.2534324 0.20309891
0.035519406 0.62903184 0.16964985 0.118921004 -0.036651034 -0.10954009 0.06620665 0.19918776
0.29249808 0.025004312 -0.005967602 0.3843447 0.31246486 0.10449423 0.115866184 0.308813
0.09624588 -0.1931885 0.10682663 0.053413123 -1.8275447 -0.20936358 0.18145679 0.19517344
0.04131253 0.205148 0.038653668 0.02895981 0.030261293 0.28464648 -0.011306081 -0.03667939
0.10635289 -0.36248195 -0.08080088 0.13260649 0.107716106 -0.3697903 0.070714876 -0.02892296
0.19186404 0.100741334 -0.12338016 0.010224548 -0.21171027 0.48326543 0.07763843 -0.013415624
-0.25751877 0.07678534 -0.18734066 -0.02270621 -0.34520143 0.009789616 -0.42430472 -0.032203227
-0.037344143 0.40416992 -0.31218246 -0.19826402 -0.2261562 -0.047308147 -0.18607019 -0.3500276
0.0870128 -0.36888593 -0.3195128 -0.4212818 0.30189914 -0.088392004 -0.115441516 -0.27717164
0.24139996 -0.123204425 -0.07626411 -0.21604113 -0.20375822 -0.117874295 -0.07342863 -0.31794482
-0.25943735 0.3066937 -0.33566093 -0.053869322 -0.29332933 -0.3097328 -0.34930542 -0.22676235
-0.053221807 -0.41280732 -0.30529553 -0.029393077 0.0696854 0.345183 -0.17774293 -0.25180218
-0.37767208 -0.31626505 -0.22452153 -0.4105046 -0.33248588 -0.37829247 0.108633935 -0.054279402
-0.32484925 -0.3044237 -0.29886207 -0.35264254 -0.39300734 -0.26345897 0.07827455 -0.19298078

fc2.bias f4 [64]
00000000: 8ede d1bd 26c6 d7bd a50a 5fbf d778 d8be
00000010: 5eb9 3dbf a40c e4be 0c1c c2be 002f 7abe
00000020: 8ea6 7bbf a8cd 61be c148 4fbd 6141 07be
00000030: 575f 8ebe 4488 66bf 94f7 b7be 60c6 c8be
00000040: 6aaf 32bf 36ba a73f ca94 31bf 8e63 f9bd
00000050: 09f9 15bf d921 7ebe c607 93be de07 55bf
00000060: ec9f 09c0 9f26 3abe e6e5 0dbf dc69 d7be
00000070: abe2 b3be a383 71bf f564 9cbe 4f75 cdbe
00000080: 3cf8 d3be 1fa7 6fbe 14b4 9bbf 5896 81bc
00000090: 7018 b7be 8060 64be f66f 93be d42c f0bd
000000a0: 4a1b d3c0 7d84 2fbf feaf 44be 3d6a f5bf
000000b0: a97f 31bf d281 48be c8de 87bf 32f8 9cbf
000000c0: af14 b9be 7270 aabe 892b 01be e607 a1bf
000000d0: b0ce 9cbe 5440 0dbd fadb cebd f437 eabe
000000e0: 4421 77bf 86aa 4fbe 8a1d 87bd f053 b3bd
000000f0: edc7 a7be ae7b 09bc 7c93 c0be 0c4f d2be
-0.10247527 -0.10535841 -0.8712562 -0.42279693 -0.7411097 -0.44540894 -0.37912023 -0.24431992
-0.9830102 -0.22051108 -0.050606493 -0.13208534 -0.27807114 -0.90051675 -0.35931075 -0.39213848
-0.6979891 1.3103702 -0.6936766 -0.12177192 -0.5858312 -0.248176 -0.28716868 -0.8321513
-2.1503859 -0.18178795 -0.5542892 -0.42072952 -0.3513387 -0.94341487 -0.30545774 -0.40128562
-0.41400325 -0.23403595 -1.216433 -0.01581876 -0.35760832 -0.22302437 -0.28796357 -0.117273
-6.597081 -0.68561536 -0.1920776 -1.9173046 -0.6933542 -0.19580773 -1.0614862 -1.2263243
-0.36148593 -0.33288914 -0.12614264 -1.2580535 -0.3062644 -0.034485176 -0.10100551 -0.45745814
-0.96535134 -0.20279893 -0.06597431 -0.08756244 -0.3276972 -0.008391304 -0.37612522 -0.41075933

fc3.weight f4 [6, 64]
00000000: e265 ee3e baf3 8cbe c299 ba3d b923 623e
00000010: 8769 acbf 4215 f7be 9027 40be 30d5 b4be
00000020: d729 72bf faab 43be 06ce 653e acb6 b2be
00000030: 3056 60be 9632 e0be 446b bdbd 2d9a 44be
00000040: 914e f83e 7297 3a40 86e7 023f 965c 2abd
00000050: 4a5a 1cbf 105a 813e d26f 3b3d 3859 8b3e
00000060: 611c e83e ff34 8a3e e160 05bf c03f a9be
00000070: d4ee b73e 1db7 a6bf a913 713e 4eae aebd
00000080: 1a97 6bbe e06e f2bc 244e f0be 18e6 023f
00000090: bcb3 6bbe eb45 94bd 8b73 2abe 7acc b5be
000000a0: 4840 18bf 4fa5 09be f252 ccbe 639a b03f
000000b0: 138d 35bf 99c7 49be 8c53 25bf a972 933e
000000c0: ce1a c3bd ea4f 8ebe ec31 47bd 1032 7fbf
000000d0: 1b72 ae3e dd69 0ebf afd9 2fbf 8845 123f
000000e0: cfd1 7c3f 0325 323f 04df 8ebf c630 8abe
000000f0: f4d4 aabe 5e0c b7be 8658 54be 1889 853e
00000100: 6671 b33e efc4 293e 7e06 4bbf ecf1 573e
00000110: 89db 5bbf 982a f0be 12ae ccbe 3307 a73e
00000120: b6eb 6e3f 4ef8 c1be d237 123d c941 2dbe
00000130: e802 b43e e723 763e 7da2 4c3f a198 543e
00000140: 3f44 443f d080 0640 0c57 babd 2f34 953d
00000150: 973f d0be 302e c5bd a803 db3d b5f2 593e
00000160: 30f1 92bf 4bb7 863e de57 cd3e a54d c93e
00000170: 7d81 473e 001e 993e 5603 5e3e 2a38 f5be
00000180: cf37 443e 781d 25be 0c35 d6be 0bf0 163f
00000190: c44c 603e e6ed 503e 5a64 a43e caa3 8f3e
000001a0: c0ee 873e cf2e 1b3f 4155 bb3e ea73 b7bf
000001b0: 56f2 a23d d85f 7abe 4a98 dc3e 1d1f 8dbe
000001c0: 2d5a 663e ef37 6abe 4536 b7bf 6e0f 48bf
000001d0: 12cd 853e c476 393f f1d5 0240 b9d2 90bf
000001e0: 5eef 893f dd4f f8be dadf 313e 31a8 083e
000001f0: 4387 883e ca6c 4e3e fe1f 08bf 3a48 a43e
00000200: d31b 47be 9d71 a53d 66b6 883e 1536 64be
00000210: 24bb 803f f5e1 293f 9f42 7e3e 5a0f a8be
00000220: 6611 6c3f bb84 89be dbf7 bbbe 0dcc 833e
00000230: b294 89be 8655 903f 5a49 dabf cc59 63be
00000240: 1a84 a4bf b541 5240 1806 f53e d221 a1bc
00000250: 0d4a 49bf 628d 44bf 1dc9 3fbf f5a0 80bd
00000260: beee 0dbe ada1 a6be 5967 f9be 2690 d9be
00000270: 82e3 85be 3e3e 9abe ab2d 82be 11d7 9bbe
00000280: 0a59 31be 966d 603e a946 2b40 be92 1c3f
00000290: 00c3 f43d a765 dfbe bfe7 6d3e c2ed a0bd
000002a0: 4fe1 5d3d ec0f f83e e50b 77be 28b4 8dbf
000002b0: 347d d23d 3c54 9f3e 4e46 9abf 2269 33be
000002c0: dfe4 a23c dc28 3d3d 24ae a23e 24b1 3f3d
000002d0: 97a7 47be 6a80 babe cbbc 31c0 9a4f 28be
000002e0: 5b05 62bf af62 e9be b5a7 f4bd 0647 f7bd
000002f0: 7d4d bbbe 0872 f7bd 8480 d6be a52d 54be
00000300: 6f46 733d 8394 b43e 763c 01bf 3050 98be
00000310: 58ac b6bf e963 09bf c101 863e eb9c 52be
00000320: 0e5b 6ebf 7ea5 c4be e2ee a43c 66cf bdbe
00000330: ae28 bbbe fe08 c9be 52bb 243f 7aab 863e
00000340: 7fb5 83be 300f 5d40 98fc 01bf 03e2 8e3d
00000350: 1cb4 3b3f 4c92 c83d 482f babd 6e2b 2a3e
00000360: 423a b7be 7b08 6cbe bdad cabe 7e0e 79be
00000370: f927 a4be 8a13 bfbe 53be 85be 6ccc 963f
00000380: 6c44 b93e da0f c2bd e8ee 30bf f7c8 6b3d
00000390: b21c a03e 07f1 0dbe eaea 3c3d 6b75 2a3e
000003a0: d209 0bbe 0d83 dcbd dfd7 9fbe 2363 de3e
000003b0: 3470 42bd 0484 9abe f771 513f 54e2 b8be
000003c0: 5cc9 953e 8ba7 67be 4f94 82bf ad8d 1fbf
000003d0: dce5 39be 33dc 9b3f 83d4 04bf d42b 49bf
000003e0: 1a32 90bf 4a95 3ebe 2772 1e3e 8270 c33d
000003f0: cd57 a0be 310b eb3d 690e bfbe 15db c5be
0.46562105 -0.275297 0.09111358 0.2208394 -1.3469704 -0.48258406 -0.18765092 -0.353189
-0.9459509 -0.19108573 0.22441873 -0.34904993 -0.21907878 -0.43788594 -0.09248975 -0.19199438
0.4849744 2.9154935 0.51134527 -0.041592203 -0.6107527 0.25264025 0.045760937 0.27216506
0.4533415 0.26993558 -0.5210095 -0.3305645 0.359244 -1.3024632 0.23542656 -0.0852934
-0.2300686 -0.029593885 -0.46934617 0.51132345 -0.23017782 -0.07239898 -0.16645639 -0.35507566
-0.59473085 -0.13441966 -0.39907032 1.3797115 -0.7091839 -0.19705047 -0.6458061 0.28798416
-0.09526597 -0.27795345 -0.048631594 -0.99685764 0.3407143 -0.55630285 -0.68691534 0.57137346
0.9875764 0.69587725 -1.1161809 -0.26990336 -0.33365595 -0.35751623 -0.20736894 0.26081157
0.35047454 0.1657903 -0.7930678 0.2108838 -0.8588186 -0.46907496 -0.39976555 0.3262268
0.93328416 -0.37884754 0.035697766 -0.16919626 0.35158467 0.24037133 0.7993544 0.20761348
0.76666635 2.101612 -0.09098634 0.07285344 -0.40673515 -0.0962795 0.10694057 0.21283992
-1.1479855 0.26311716 0.401061 0.3931705 0.1948299 0.299057 0.2168096 -0.47894412
0.19161914 -0.16124523 -0.41837347 0.58960027 0.21904284 0.20403251 0.32107812 0.2805465
0.2654934 0.606183 0.3658848 -1.4332249 0.07956378 -0.24450624 0.43084937 -0.275628
0.22495337 -0.228729 -1.4313437 -0.78148544 0.2613302 0.72446847 2.044308 -1.1314307
1.0776174 -0.4849843 0.17370549 0.1334541 0.26665697 0.20158687 -0.53173816 0.32086354
-0.19444208 0.08078311 0.2670166 -0.22286256 1.0057111 0.6636041 0.24830101 -0.32824212
0.9221405 -0.26859078 -0.36712536 0.25741616 -0.26871258 1.12761 -1.7053635 -0.22202224
-1.2852814 3.2852604 0.47856212 -0.019669447 -0.7862862 -0.76778233 -0.7491625 -0.062807
-0.13860604 -0.32545224 -0.4871166 -0.4249279 -0.26150137 -0.30125612 -0.25425467 -0.3043752
-0.17319122 0.21916804 2.6761878 0.6116141 0.11951256 -0.43632242 0.23232935 -0.07857849
0.05416995 0.48449647 -0.24125631 -1.1070604 0.10277787 0.31118953 -1.2052705 -0.17520574
0.019884525 0.046181545 0.31773484 0.046799794 -0.19497524 -0.36426097 -2.777148 -0.16436616
-0.8828942 -0.45583102 -0.1194605 -0.120740935 -0.36582556 -0.120822966 -0.41894925 -0.20720537
0.059393343 0.35269555 -0.5048288 -0.29748678 -1.4271345 -0.53668076 0.26173213 -0.20567672
-0.9310769 -0.3840751 0.02013344 -0.37072295 -0.36554474 -0.39264673 0.6434833 0.263027
-0.25724408 3.454052 -0.5077605 0.06976702 0.733217 0.09793529 -0.090910494 0.1661813
-0.35786635 -0.2305011 -0.39585677 -0.24321935 -0.32061747 -0.37319595 -0.26121768 1.1781135
0.36185014 -0.0947568 -0.6911454 0.057564702 0.31271893 -0.13861476 0.04612247 0.16646354
-0.13577965 -0.107671835 -0.31219384 0.4343501 -0.047470286 -0.30178845 0.8181452 -0.36110175
0.29255188 -0.22622506 -1.020151 -0.62325555 -0.1815409 1.2176574 -0.5188677 -0.785825
-1.126529 -0.18611637 0.15473233 0.095429435 -0.31316987 0.11476744 -0.37315682 -0.3864371

fc3.bias f4 [6]
00000000: 7672 0ec3 67c7 0dc3 25cd 0ec3 cda5 0ec3
00000010: 9bd6 13c3 7fe6 12c3
-142.44711 -141.77892 -142.80135 -142.64766 -147.8383 -146.90038
