checkpoints/model_0.7_50.pth (torch, 25210 bytes, 6 tensors)

fc1.weight f4 [64, 16]
0	0xbe621afe	-0.22080609
1	0xbe0007b4	-0.12502939
2	0x3e1ed00e	0.15509054
3	0xbe02c426	-0.12770137
4	0x3c7ce9c0	0.01543659
5	0x3db8f488	0.09031016
6	0x3d587410	0.05284506
7	0xbdf7773c	-0.12083289
8	0xbdeb45bc	-0.1148791
9	0xbdae598c	-0.085131735
10	0x3e230c12	0.15922573
11	0x3e4ff238	0.20307243
12	0xbe42b498	-0.19014204
13	0x3d5d9870	0.054100454
14	0xbe2423c6	-0.16029271
15	0xbdf23024	-0.11825588
16	0x3ce0ae3d	0.027426833
17	0x3d4110ed	0.047135282
18	0x3dd91298	0.105992496
19	0xbdd9f0e8	-0.10641652
20	0xbd35a5b8	-0.044347495
21	0xbe0e7120	-0.13910341
22	0xbe64f8e7	-0.22360574
23	0xbe70b196	-0.23505244
24	0xbe94b82e	-0.29046768
25	0xbe9f5507	-0.31119558
26	0xbe9ee72b	-0.31035742
27	0xbe21fee4	-0.1581989
28	0x3e330f94	0.17486411
29	0xbf04f24b	-0.5193221
30	0xbdf1af13	-0.11800971
31	0xbe98beea	-0.29833156
32	0xc1819bed	-16.201136
33	0x3e23e916	0.16006884
34	0x3d83ea50	0.06441176
35	0x3e737bda	0.23777714
36	0xbe7daafa	-0.24772254
37	0x3e6f5a7e	0.23374364
38	0x3f271ed9	0.65281445
39	0xbc7fc880	-0.015611768
40	0x3e33ce5e	0.17559192
41	0x3f14bfb4	0.58105016
42	0x40f202dd	7.5628495
43	0xbf60f870	-0.87879086
44	0x406f72c4	3.7413797
45	0xbf83b204	-1.0288701
46	0x3eee7064	0.46570122
47	0xbeb985d2	-0.3623491
48	0xbfa3315f	-1.2749442
49	0xbf9a0c34	-1.2034974
50	0x3db509f4	0.08839789
51	0x3d08c670	0.03339237
52	0xbd5e04d8	-0.054203838
53	0xbfc71233	-1.5552429
54	0xbf8b9942	-1.0906146
55	0xbddf0d44	-0.10891202
56	0xbfc37e21	-1.5272866
57	0xbf998f8e	-1.1996934
58	0xbdab8b58	-0.08376187
59	0xbc83dff0	-0.016097993
60	0xbf9eebdc	-1.2415729
61	0xbd1658a0	-0.036705613
62	0x3d1da8d8	0.0384911
63	0xbf9c7ba3	-1.2225231
64	0xbe32d61e	-0.17464492
65	0xbe3d9c76	-0.18516716
66	0x3e0edf20	0.13952303
67	0xbddc61dc	-0.10760853
68	0x3d1a87e8	0.037727267
69	0xbe438764	-0.19094616
70	0xbe109600	-0.1411972
71	0xbe0cca0c	-0.1374895
72	0x3dabe9f8	0.083942354
73	0xbdaad1d4	-0.08340803
74	0xbcad2380	-0.021135092
75	0x3d787b48	0.060664445
76	0xbe2acebc	-0.16680425
77	0xbe02e05a	-0.12780896
78	0x3e11ea24	0.14249474
79	0x3e1276ce	0.14303133
80	0xbe5f2338	-0.21790779
81	0xbe18af9b	-0.14910738
82	0x3c97ead0	0.018544585
83	0x3b6e6b80	0.0036379993
84	0x3e3bacfa	0.18327704
85	0xbf019871	-0.5062323
86	0xbe2eaf18	-0.1705898
87	0xbddc1194	-0.1074554
88	0xbddd7e63	-0.10815122
89	0xbe87143e	-0.2638263
90	0xbd6d0e59	-0.05787501
91	0xbf0ba89d	-0.5455416
92	0x3d6d9b20	0.058009267
93	0xbf0cc582	-0.54988873
94	0x3f0036d5	0.5008367
95	0xbefe6cbc	-0.49692333
96	0xbd9e67e4	-0.07734659
97	0x3da1120c	0.0786477
98	0xbe5e501e	-0.2171025
99	0x3ddda6e0	0.108228445
100	0x3d249b48	0.04018715
101	0x3dc1c3b4	0.094611555
102	0x3e1e08e6	0.15433082
103	0xbd97a638	-0.074047506
104	0xbe4026b8	-0.1876477
105	0xbe7d661c	-0.24745983
106	0xbd7ac108	-0.061219245
107	0x3e015472	0.1262987
108	0xbe348d8e	-0.17632124
109	0xbcb5db10	-0.022199184
110	0xbe4280f8	-0.1899451
111	0xbd3cd268	-0.046099097
112	0x401f63fc	2.4904776
113	0xbffc3b24	-1.9705548
114	0x3dba2908	0.09089857
115	0x3dd75938	0.10515064
116	0x3e247738	0.16061103
117	0xbfe14503	-1.7599186
118	0xc00a9472	-2.1653104
119	0xbcbe4bc0	-0.02322948
120	0xbfe2fb12	-1.773287
121	0xbffacbe7	-1.9593476
122	0xc0283ea0	-2.6288223
123	0x41780aca	15.502634
124	0xc03b781d	-2.9292061
125	0xc02f6a23	-2.740853
126	0xc0651a87	-3.579744
127	0xbfa4afbf	-1.2866133
128	0xbeedacdd	-0.46420947
129	0xbddbd3b6	-0.1073374
130	0xbd82fb50	-0.0639559
131	0x3e16fc8c	0.14744776
132	0xbe774f7a	-0.24151412
133	0xbe68e0d1	-0.2274201
134	0xbef08c6a	-0.46982127
135	0x3d857a1c	0.06517431
136	0xbe7f946f	-0.24958967
137	0xbe995600	-0.29948425
138	0xbe58d238	-0.21173942
139	0xbdaa5f14	-0.08318916
140	0xbe3b8b76	-0.18314919
141	0x3d39fb18	0.045405477
142	0xbddc4844	-0.10755971
143	0xbe1fd534	-0.15608674
144	0xbe9deaed	-0.30843297
145	0xbdd3a521	-0.1033423
146	0xbd9a4398	-0.07532424
147	0x3db70e34	0.08938256
148	0x3dfec5dc	0.124400824
149	0x3ce2a2fe	0.027665611
150	0xbecdc757	-0.40191147
151	0x3db38ea8	0.08767444
152	0xbcb4f56a	-0.022089679
153	0xbe5c42ef	-0.21509908
154	0x3de90743	0.11378338
155	0xbe87913c	-0.26477993
156	0xbca20ea0	-0.019782364
157	0xbe875b35	-0.26436773
158	0x3e0d2c07	0.13786326
159	0x3d64339a	0.055713274
160	0xbe5e911f	-0.21735047
161	0xc09b5a52	-4.8547754
162	0xbe0595aa	-0.13045374
163	0x3e3ad138	0.18243873
164	0x3c8bd9a0	0.017071545
165	0xbf0ef075	-0.5583566
166	0xbefa27de	-0.4885854
167	0xbd6d8700	-0.057990074
168	0xbf103dcb	-0.5634429
169	0xbf2a3edb	-0.6650216
170	0xbd895ea7	-0.067075066
171	0xbf3f70a9	-0.7478128
172	0x3e49ae79	0.19695462
173	0x403e0926	2.9693084
174	0x4035e6a8	2.8422031
175	0x3e23cc2f	0.15995859
176	0xbe4f5fdc	-0.20251411
177	0x3cae7ff0	0.02130124
178	0x3e6edf74	0.23327428
179	0x3e764744	0.24050623
180	0xbe498332	-0.19678953
181	0x3e2f4d7c	0.17119402
182	0xbe1c1788	-0.15243351
183	0xbdf5d8a4	-0.120042115
184	0xbe2502f4	-0.16114408
185	0xbd87dbd8	-0.06633729
186	0x3da18644	0.07886937
187	0x3e699cec	0.22813767
188	0x3dc227f4	0.09480277
189	0xbe195ec2	-0.14977553
190	0xbe0baf6c	-0.13641137
191	0xbdbc791c	-0.09202787
192	0xbdab99f4	-0.083789736
193	0xbe1fd898	-0.15609968
194	0x3e2ac1b4	0.16675454
195	0xbe1ec990	-0.15506577
196	0xbde0c518	-0.10975093
197	0xbef684dd	-0.48148242
198	0xbf04a4fb	-0.5181424
199	0xbd42ec48	-0.047588617
200	0xbda039c3	-0.07823517
201	0xbe659f0c	-0.22423953
202	0x3d265920	0.04061234
203	0xbee08238	-0.4384935
204	0xbe62a60c	-0.22133654
205	0x3d534cb7	0.051586833
206	0x3e17998f	0.14804672
207	0x3e0fd24e	0.14045069
208	0x3b8b1a51	0.0042450805
209	0xbf0aa855	-0.54163104
210	0x3e1394ce	0.14412233
211	0xbdd9d070	-0.106354594
212	0xbe454d86	-0.19267854
213	0xbd1f30da	-0.038864948
214	0xbde7eef4	-0.113248736
215	0xbe1c56f6	-0.15267548
216	0xbe634b70	-0.22196746
217	0xbea0a8ce	-0.31378788
218	0xbe9fd31f	-0.3121576
219	0x3e4da8a4	0.20083863
220	0x3d8b6194	0.06805721
221	0xbe00800e	-0.12548849
222	0x3d7de308	0.061984092
223	0xbed218aa	-0.41034442
224	0x3d82e708	0.06391722
225	0x3ce3c9a0	0.027806103
226	0x3e2470fa	0.16058722
227	0xbe1c8f8e	-0.15289137
228	0x3e179642	0.14803413
229	0xbdf4d5a8	-0.11954814
230	0xbda02b24	-0.078207284
231	0x3cc4ea40	0.02403748
232	0xbdcf00e0	-0.10107589
233	0xbe2ca16c	-0.16858453
234	0xbe5cf30c	-0.2157709
235	0xbe5e644a	-0.21717945
236	0x3d63c428	0.05560699
237	0xbdecfdb0	-0.115718246
238	0x3e57fe2a	0.2109305
239	0xbe0e20b8	-0.13879669
240	0xbd454c74	-0.048168615
241	0x3da8a8a2	0.08235289
242	0x3d8736e0	0.066022635
243	0xbd595208	-0.053056747
244	0x3d01bf60	0.03167665
245	0x3cd1b5ee	0.025599446
246	0xbea24922	-0.3169642
247	0x3ddda808	0.10823065
248	0x3ab89654	0.0014082887
249	0xbe2878c0	-0.16452312
250	0xbf86aafd	-1.0520931
251	0x3f1bc31a	0.60844576
252	0x3df307d6	0.11866729
253	0xbdf37fd3	-0.11889615
254	0xbf8e6e4d	-1.1127411
255	0x3efe141a	0.4962471

fc1.bias f4 [64]
0	0xbd862504	-0.06550029
1	0xbef9bc75	-0.48776594
2	0x3f05f634	0.523288
3	0xbfb9c20a	-1.4512341
4	0x3d86eff0	0.06588733
5	0xbf06b0f5	-0.52613765
6	0x3e3ee4ec	0.18642014
7	0xc008eb90	-2.1393776
8	0xbefed009	-0.49768093
9	0xbdd41c58	-0.10356969
10	0xbede22c3	-0.43385896
11	0x3e6ce322	0.2313352
12	0xbebfbaba	-0.3744715
13	0xbef39918	-0.4757774
14	0x3c27b940	0.010237038
15	0xbdcd2724	-0.10017231
16	0xbb0774c6	-0.0020668968
17	0xbf58dc82	-0.8471147
18	0xbefa4572	-0.48881108
19	0xbfb8f324	-1.4449201
20	0x3e161bfa	0.1465911
21	0xbf290fc6	-0.66039693
22	0xbf070952	-0.52748597
23	0xbf037efe	-0.5136565
24	0xbd8065d8	-0.06269425
25	0xbe7b4fde	-0.24542186
26	0xbe89dab9	-0.26924685
27	0x3ba44dc0	0.0050141513
28	0xbe6b40c4	-0.22973925
29	0xbe8a6ab3	-0.2703453
30	0xbf56c9e9	-0.8390184
31	0x3e657e50	0.22411466
32	0xbeb65cb6	-0.35617608
33	0x3f82ec83	1.0228428
34	0x3ba50804	0.005036356
35	0xbe87269e	-0.2639665
36	0x3d9f93fc	0.07791898
37	0x3d68ed00	0.056866646
38	0xbe2e80e5	-0.17041357
39	0xbe448e02	-0.19194797
40	0x3d5d5538	0.05403635
41	0xbe41e0f7	-0.18933474
42	0xbbcaa0c0	-0.0061837137
43	0xbeac44ac	-0.33646142
44	0x3e3ab684	0.18233687
45	0x3da5f4e8	0.08103353
46	0xbe1bcd17	-0.15214954
47	0xbe18aba5	-0.14909227
48	0xbec01bba	-0.37521154
49	0x3d161c0b	0.036647838
50	0xbf8b48ca	-1.0881588
51	0xbe4ef216	-0.20209536
52	0xbf498d32	-0.7873107
53	0xbc13b140	-0.009014428
54	0xbe9d0d8c	-0.30674398
55	0x3e632390	0.22181535
56	0xbed9e525	-0.42557636
57	0xbe8af5d8	-0.2714069
58	0xbeb00bec	-0.34384096
59	0xbed5555d	-0.4166669
60	0x3e30c0c2	0.17261031
61	0xbd32c1d8	-0.043641895
62	0xbefa8b68	-0.48934484
63	0xbea4a876	-0.32159775

fc2.weight f4 [64, 64]
0	0x3d0f2284	0.034945026
1	0x3e886e9e	0.26646894
2	0xbcc9afc0	-0.024619937
3	0x3d062ca8	0.03275743
4	0x3d9cb630	0.07651937
5	0x3ea58f9b	0.32336125
6	0xbdbd54a0	-0.092446566
7	0xbf71fab8	-0.9452319
8	0xbbd33ce0	-0.006446466
9	0xbeca6f6d	-0.39538136
10	0xbe4a3c43	-0.1974955
11	0xbce7cb90	-0.028295308
12	0x3e947216	0.2899329
13	0xbe4ca9ba	-0.1998662
14	0xbc72e660	-0.0148254335
15	0x3d3a75c6	0.045522474
16	0xbea30edc	-0.31847274
17	0xbf0461a4	-0.5171149
18	0x3fac535b	1.3462938
19	0xbd78f058	-0.060776085
20	0xbd6cca1c	-0.057809934
21	0x3da4310a	0.08017166
22	0xbe95440e	-0.29153484
23	0x3ec5014d	0.38477555
24	0xbde8c594	-0.1136581
25	0xbdf38b66	-0.118918225
26	0xbe720830	-0.23635936
27	0x3d90ab22	0.07063891
28	0x3c952c4c	0.018209599
29	0x3ec9f728	0.39446378
30	0x3dfd20d6	0.123597786
31	0xbddab8be	-0.10679768
32	0xbebf8fac	-0.374143
33	0xc003b619	-2.0579894
34	0xbebd3e6c	-0.36961687
35	0xbe4c8a56	-0.19974646
36	0xbcb435e8	-0.02199836
37	0xbd4e9070	-0.050430715
38	0xbfe7a866	-1.8098266
39	0xbe8cb14e	-0.27479023
40	0xbd524d88	-0.05134347
41	0xbfb5a306	-1.4190376
42	0xbd238120	-0.039918065
43	0xbd6ca920	-0.057778478
44	0x3c8353d0	0.016031176
45	0xbafb8280	-0.0019188672
46	0x3d2d03b8	0.042239875
47	0xbe36ba80	-0.17844582
48	0x3e59b19e	0.21259162
49	0xbed8c80e	-0.4234013
50	0xbef42cba	-0.47690374
51	0xbebd0b79	-0.36922815
52	0xbdb40b46	-0.08791213
53	0x3cd8ecf0	0.026480168
54	0x3e8e37ba	0.2777689
55	0x3cec2238	0.02882491
56	0x3e66d134	0.22540742
57	0xbe67326c	-0.22577828
58	0x3ccbf5cc	0.024897479
59	0xbe564b80	-0.20927238
60	0x3d408e84	0.047010913
61	0xbc810cc0	-0.01575315
62	0xbebe1873	-0.37128028
63	0xbe9670c7	-0.29382917
64	0xbdd7125e	-0.1050155
65	0xbe7a05f1	-0.24416329
66	0xbe85a528	-0.26102567
67	0x3df0babc	0.11754367
68	0xbdf44de0	-0.11928916
69	0xbe399c38	-0.18125999
70	0x3decfe7c	0.115719765
71	0xbe65ec41	-0.22453405
72	0xbe9d1da4	-0.30686677
73	0xbebc4909	-0.3677447
74	0xbe8e2662	-0.2776366
75	0x3df2c60c	0.11854181
76	0xbe9c7acc	-0.30562437
77	0xbe89b44e	-0.26895374
78	0x3d99c142	0.07507564
79	0xbe51fae3	-0.20505862
80	0xbed2f724	-0.41204178
81	0xbe9408ac	-0.28912866
82	0xbec167f8	-0.37774634
83	0x3daa2706	0.083082244
84	0xbc104c30	-0.008807227
85	0xbcd9f178	-0.0266044
86	0xbec24619	-0.37944105
87	0xbec80821	-0.39068702
88	0x3df89c02	0.12139131
89	0x3d87c26e	0.066288814
90	0xbec07df1	-0.37596086
91	0xbdce809e	-0.100831255
92	0xbe4cf8a0	-0.20016718
93	0xbe8ad025	-0.27111927
94	0xbd5acd00	-0.05341816
95	0x3d50c21c	0.050966367
96	0xbeac0b11	-0.33602193
97	0xbe78dbf3	-0.24302654
98	0xbe9940f3	-0.29932365
99	0xbe5d2ae5	-0.21598394
100	0xbd74d6b4	-0.05977507
101	0xbdfa5f5a	-0.12225218
102	0xbeb830b5	-0.3597466
103	0xbe4a3b41	-0.19749166
104	0x3c434f40	0.01192075
105	0xbe9e29dc	-0.3089131
106	0xbdb61cf6	-0.088922426
107	0xbe934ddd	-0.28770342
108	0x3d689620	0.056783795
109	0x3dbfb6a2	0.09361006
110	0xbed3ccb7	-0.41367123
111	0xbe43bb45	-0.19114406
112	0xbe80961d	-0.25114527
113	0xbe9c4800	-0.30523682
114	0xbe68c98b	-0.22733133
115	0xbe8a5140	-0.27015114
116	0x3dab0352	0.08350243
117	0x3ddd6f14	0.10812202
118	0xbe7d4a4c	-0.24735373
119	0x3d8acd72	0.06777467
120	0xbe5869cf	-0.21134113
121	0xbe875977	-0.26435444
122	0xbeab76a3	-0.3348895
123	0xbed5dbae	-0.41769165
124	0xbd8c2284	-0.06842521
125	0x3df9c6d8	0.121961296
126	0xbe600079	-0.2187518
127	0xbe5971c2	-0.21234801
128	0x3d8e860a	0.0695916
129	0xbeb38eb0	-0.350698
130	0xbed70849	-0.4199851
131	0x3dd89dcc	0.10576972
132	0xbdc2294c	-0.09480533
133	0xbe6d694e	-0.23184702
134	0xbb988dc0	-0.00465557
135	0xbe504793	-0.20339803
136	0xbe971d19	-0.29514387
137	0xbe4d5c7d	-0.20054813
138	0xbe9fd740	-0.3121891
139	0x3daeced0	0.0853554
140	0x3ea5d02c	0.32385385
141	0xbe89d878	-0.26922965
142	0x3d0ba20c	0.034090087
143	0xbe520bac	-0.20512265
144	0xbecdc47a	-0.40188962
145	0xbeb44c06	-0.3521425
146	0xbe8e0379	-0.27737024
147	0x3da3f0ca	0.08004911
148	0xbde7c282	-0.11316396
149	0xbc58e3a0	-0.013237864
150	0xbeb75e49	-0.3581412
151	0x3e4c5fe7	0.19958459
152	0x3dfcf108	0.123506606
153	0x3dc1367c	0.0943422
154	0xbe52c417	-0.20582615
155	0xbd17f5ac	-0.037099525
156	0xbeb31717	-0.34978554
157	0x3ed37a6d	0.4130434
158	0x3dc86120	0.0978415
159	0xbc14e610	-0.009088054
160	0xbe8ede1a	-0.27903825
161	0xbe6a639b	-0.22889559
162	0xbea94928	-0.33063626
163	0xbed9933c	-0.42495143
164	0x3dbb9ed0	0.091611505
165	0xbd444544	-0.04791762
166	0xbe9c3846	-0.30511683
167	0xbe7c2579	-0.2462367
168	0xbda92c2e	-0.0826038
169	0xbe89fdd6	-0.26951474
170	0x3d65c2dc	0.056094036
171	0xbeb4bcde	-0.35300344
172	0xbd0ac4f4	-0.033879235
173	0xbbfe5b80	-0.0077623725
174	0xbe93e326	-0.28884238
175	0xbe9f83b9	-0.31155184
176	0xbeb32517	-0.34989235
177	0xbe41bbbf	-0.18919276
178	0xbeba8ad6	-0.36434048
179	0xbe99f95d	-0.30073062
180	0xbcbf5d90	-0.023360044
181	0x3dbc4340	0.091925144
182	0xbeb455bf	-0.3522167
183	0x3ca1d700	0.01975584
184	0xbe684007	-0.22680674
185	0xbe89e480	-0.26932144
186	0xbec265c6	-0.37968272
187	0xbe599f14	-0.2125209
188	0xbc9b7b80	-0.018979788
189	0xbd1a4728	-0.037665516
190	0xbe37cdc3	-0.17949586
191	0xbeb467ef	-0.35235545
192	0xbdcf2f90	-0.10116494
193	0xbdf09786	-0.11747651
194	0xbe9320dc	-0.28736007
195	0x3d6c5534	0.057698444
196	0x3dc83d30	0.097772956
197	0x3df58d64	0.11989859
198	0x3d399034	0.04530354
199	0xbe062acb	-0.13102262
200	0x3c8274a8	0.015924767
201	0xbda7c45e	-0.08191751
202	0xbe9bee3a	-0.3045519
203	0xbb8d8720	-0.0043190867
204	0xbcee7558	-0.029108688
205	0xbcfeec00	-0.031118393
206	0x3dffc6aa	0.12489064
207	0xbe6fdde4	-0.23424488
208	0xbebc7be3	-0.36813268
209	0xbea32030	-0.31860495
210	0xbe6a991d	-0.2290997
211	0x3d0cfb50	0.034419358
212	0xbd8ae904	-0.067827255
213	0x3dc2ed8c	0.09517965
214	0x3d6f0360	0.058352828
215	0x3d0673f8	0.03282544
216	0xbd2a943c	-0.041645274
217	0xbc9fc150	-0.019501358
218	0xbd8250a4	-0.06363037
219	0x3d56a090	0.052399218
220	0xbe8ccc11	-0.2749944
221	0xbeb19b12	-0.34688622
222	0xbd994dfe	-0.07485579
223	0x3c880a58	0.016606495
224	0xbde6a948	-0.112627566
225	0xbea2afec	-0.31774843
226	0xbd427dec	-0.04748337
227	0x3c5f3150	0.013622597
228	0xbd3cdc34	-0.04610844
229	0x3d98c4da	0.074594215
230	0xbeae83e0	-0.34084988
231	0xbe1ad3c2	-0.15119842
232	0xbbdee600	-0.0068023205
233	0xbe9d5c01	-0.30734256
234	0x3d53a3f0	0.051670015
235	0xbd4b387c	-0.049614415
236	0xbdff3914	-0.12462059
237	0xbda09a50	-0.07841933
238	0x3df5f5e2	0.12009789
239	0xbec1df93	-0.37865886
240	0xbd3174b8	-0.043324202
241	0xbe1ad7b4	-0.15121347
242	0xbe67cbd8	-0.22636354
243	0x3d6a55c4	0.0572107
244	0x3ce32678	0.027728304
245	0xbb582dc0	-0.0032986253
246	0x3d8be8d4	0.06831518
247	0x3ddbf4c8	0.10740048
248	0xbddc82b2	-0.10767116
249	0xbe50a9d5	-0.20377286
250	0xbe74a7a3	-0.23892073
251	0xbe571fe4	-0.21008259
252	0x3dc3c4de	0.09559034
253	0xbd585b18	-0.05282125
254	0xbc5bdca0	-0.0134193
255	0xbe798cdd	-0.24370141

fc2.bias f4 [64]
0	0xbfe406cb	-1.7814573
1	0xbe9069a7	-0.28205606
2	0xbe5dadad	-0.21648283
3	0xbe6a549e	-0.22883841
4	0xbec3cdbc	-0.382429
5	0xbed091a9	-0.4073613
6	0xbf652be2	-0.89520085
7	0xbf06afb7	-0.5261187
8	0xbe7d7506	-0.24751672
9	0xbeb8bed5	-0.36083093
10	0xbecfb381	-0.40566638
11	0xbe7c7768	-0.24654925
12	0xbe096a41	-0.13419439
13	0xbfa1d443	-1.2642902
14	0xbd965ca2	-0.07341887
15	0xbe865985	-0.26240173
16	0xbe85a3df	-0.26101586
17	0xbea3d8ef	-0.32001445
18	0xc00f9243	-2.243302
19	0xbecdd286	-0.4019968
20	0xbe416d0b	-0.18889253
21	0xbe788f82	-0.24273494
22	0xbd805fc5	-0.062682666
23	0xc012698d	-2.2876923
24	0xbeb764de	-0.35819143
25	0xbe7eff08	-0.24901974
26	0xc01892f6	-2.3839698
27	0xbdd4bff3	-0.10388174
28	0xbe548b95	-0.20756371
29	0xbe388c7e	-0.18022344
30	0xbf689002	-0.9084474
31	0xbfcc3a75	-1.595534
32	0xbef56779	-0.47930506
33	0xbf4a81db	-0.79104394
34	0xbe43f51e	-0.19136474
35	0xbe347981	-0.17624475
36	0xbe7dabca	-0.24772564
37	0xbebe473e	-0.37163728
38	0xbe0b2022	-0.13586476
39	0xbf71f5ef	-0.9451589
40	0xbec15ea1	-0.3776751
41	0xbf1a75c3	-0.6033594
42	0xbea31d94	-0.31858504
43	0xbf10740c	-0.56427073
44	0x3f1d383b	0.61413926
45	0xbe9cadf7	-0.30601475
46	0xbea1d71b	-0.31609425
47	0xbfcdff1e	-1.609348
48	0xbf67b20e	-0.90506065
49	0xc08aecde	-4.3414145
50	0xbf4ed832	-0.8079864
51	0xbea095e3	-0.31364354
52	0xbe36edfd	-0.17864223
53	0xbebca23e	-0.3684253
54	0xbf5aa90f	-0.8541421
55	0xbd867e80	-0.06567097
56	0xbe57c3c5	-0.21070774
57	0xbe9ce52f	-0.30643603
58	0xc0ae2e1a	-5.4431276
59	0xbf25c842	-0.64758694
60	0xbe780d62	-0.24223855
61	0xbe67ad66	-0.2262474
62	0xbe8b5ef3	-0.27220878
63	0xbe0d97fe	-0.13827512

fc3.weight f4 [6, 64]
0	0x3e259a3b	0.16172116
1	0xbe8f4cfb	-0.2798842
2	0xbecc01de	-0.39845175
3	0xbc8eb5e8	-0.017420724
4	0xbea07968	-0.31342626
5	0xbe701a18	-0.23447454
6	0xbeb321b5	-0.34986654
7	0x3f305053	0.68872565
8	0x3c93116b	0.017952641
9	0xbed40920	-0.41413212
10	0x3e4fdb35	0.20298465
11	0xbe56e172	-0.20984438
12	0x3d995aae	0.07487999
13	0xbeeb8c3f	-0.46005437
14	0xbe4fb72d	-0.2028472
15	0x3d1e587e	0.03865861
16	0x3e5f0245	0.2177821
17	0xbe9b5dd1	-0.30345014
18	0x3db42fe1	0.08798195
19	0xbe8d1a9a	-0.27559358
20	0xbe8d3901	-0.27582553
21	0xbda16008	-0.07879645
22	0xbf2a9f6a	-0.66649497
23	0x3dedf8a5	0.11619691
24	0xbea24cb0	-0.31699133
25	0x3e6910a9	0.22760262
26	0x3f164430	0.58697796
27	0x3e4d0558	0.2002157
28	0x3e4f11fd	0.20221706
29	0x3e6a10d5	0.22857983
30	0xbdde0d60	-0.10842395
31	0x3e694740	0.22781086
32	0xbdbb4b32	-0.09145202
33	0xbdd4ea4c	-0.10396251
34	0x3db8097c	0.08986184
35	0xbf83807b	-1.0273584
36	0xbe9e5175	-0.30921522
37	0xbe58a691	-0.2115729
38	0xbdde2ff1	-0.10848988
39	0x3d77cc64	0.060497656
40	0xbf0d327b	-0.5515515
41	0xbebfbe47	-0.37449858
42	0xbe359731	-0.17733456
43	0x3ebd8ed4	0.37023032
44	0x3e0c8b37	0.13724981
45	0x3e5430aa	0.20721689
46	0xbecd3444	-0.40078938
47	0xbd5bc7cd	-0.05365734
48	0x3e9ad653	0.3024164
49	0xbfb11a92	-1.3836234
50	0x3e619729	0.2203032
51	0x3dd06830	0.10176122
52	0x3ea3ef74	0.32018626
53	0x3cf58e48	0.029975072
54	0x3fa1deb0	1.2646084
55	0x3f54122e	0.8284024
56	0xbed92039	-0.42407396
57	0xbe10be10	-0.14135003
58	0xbf82f6d6	-1.0231578
59	0xbef32332	-0.4748779
60	0xbea8264d	-0.3284172
61	0xbed15db3	-0.408918
62	0xbe8ac43f	-0.2710285
63	0xbdf03028	-0.11727935
64	0x3faf9c8c	1.3719649
65	0x3ed49b80	0.41524887
66	0x3e7664c7	0.24061881
67	0xbdceb5a2	-0.100932375
68	0x3ed65c9c	0.4186753
69	0x3e4c951d	0.19978757
70	0x3ec75bc0	0.38937187
71	0x3f3e7a29	0.7440515
72	0xbd8da10e	-0.06915484
73	0x3e82dffc	0.25561512
74	0x3ed0eb74	0.40804636
75	0x3e44b8b0	0.19211078
76	0xbd023b19	-0.03179464
77	0x3f07f11a	0.53102267
78	0x3e2a323c	0.16620725
79	0xbdb90cd4	-0.0903565
80	0xbe7fa56f	-0.24965452
81	0x3eef0aaa	0.46687824
82	0x3dd89934	0.10576096
83	0x3e52449a	0.20533982
84	0x3ea20028	0.31640744
85	0x3e05cb73	0.13065891
86	0x3e966105	0.29370895
87	0x3f480844	0.7813761
88	0xbea6b951	-0.3256326
89	0x3e92ad8d	0.28648034
90	0x3d2a4ce9	0.041577253
91	0xbfb881c2	-1.4414599
92	0xbe873ed5	-0.26415125
93	0xbaf169f4	-0.0018418417
94	0x3d5d7250	0.054064095
95	0x3fddae08	1.7318735
96	0xbc09b7bf	-0.008405625
97	0xbc875fc0	-0.01652515
98	0x3eca4b1d	0.39510432
99	0xbeb49a65	-0.35274044
100	0x3e54a8da	0.20767537
101	0x3e475507	0.19466029
102	0xbe5998ca	-0.2124969
103	0xbd6f91e8	-0.058488756
104	0xbd12ae10	-0.03581053
105	0x3ec3ce66	0.38243407
106	0x3e3ebed8	0.18627489
107	0x3f2e2e1f	0.68039125
108	0x4079d940	3.903885
109	0xbebae82c	-0.36505258
110	0x3ed46879	0.41485956
111	0x3effd4b6	0.49966973
112	0x3eae52d7	0.34047577
113	0x3fd5f0d4	1.671412
114	0x3d7ed4db	0.062214714
115	0x3e9e0ad3	0.30867633
116	0x3ea8e66f	0.32988307
117	0xbd118580	-0.035527706
118	0xbf6ef0aa	-0.93335974
119	0x3e34dec0	0.17663097
120	0x3e656e72	0.22405413
121	0x3f303593	0.6883175
122	0xbd5a36ab	-0.05327479
123	0xbf04e243	-0.5190775
124	0xbe4e324e	-0.20136377
125	0x3e90f3d3	0.28311023
126	0x3ea6f67d	0.3260993
127	0xbe144441	-0.14479162
128	0x3ed807a8	0.4219334
129	0xbecd9f79	-0.4016073
130	0xbed2002a	-0.4101575
131	0x3dddfde8	0.108394444
132	0xbeab8692	-0.33501107
133	0xbed0b51a	-0.4076317
134	0xbe4cdc2a	-0.20005861
135	0x3f3e7c04	0.7440798
136	0x3d514e39	0.05109999
137	0xbe75862f	-0.23976968
138	0xbe3e23a9	-0.18568291
139	0xbe802b80	-0.25033188
140	0xbddd5721	-0.10807634
141	0xbeca7a01	-0.39546207
142	0xbd531e8d	-0.051542807
143	0xba389e20	-0.00070426054
144	0x3e8b94d2	0.27261978
145	0x3ed6b91d	0.41938105
146	0xbeb6450b	-0.3559955
147	0xbe8ae800	-0.27130127
148	0xbe72b208	-0.23700726
149	0x3d80f855	0.062973656
150	0x3f0215ff	0.50814813
151	0xbf9e1e60	-1.235302
152	0x3e912bf7	0.28353855
153	0xbe6f0c56	-0.2334455
154	0x3eaec623	0.3413554
155	0x3ed87e18	0.42283702
156	0xbdf54394	-0.1197578
157	0x3c007e51	0.007842616
158	0x3f337697	0.7010283
159	0xbe2fec9e	-0.17180106
160	0xbf87f0de	-1.0620382
161	0x3ddee4e8	0.10883504
162	0xbdf6571c	-0.120283335
163	0xbf368233	-0.7129242
164	0xbeae9cb0	-0.34103918
165	0xbe9958c9	-0.2995055
166	0x3f4cef42	0.8005258
167	0xbf39945e	-0.72492015
168	0x3e82197d	0.2541007
169	0xbdcb8f47	-0.09939437
170	0xbe467146	-0.19379148
171	0xbea62ce8	-0.32456136
172	0x3c960340	0.018312097
173	0xbe3fe69b	-0.18740313
174	0xbeaae33e	-0.33376497
175	0x3f80c37f	1.0059661
176	0xbd0add97	-0.03390273
177	0x3ee0a668	0.43876958
178	0xbe095c71	-0.1341417
179	0xbead4c3c	-0.33847225
180	0xbe38f936	-0.18063816
181	0xbe687fe3	-0.22705035
182	0xbf1063c0	-0.56402206
183	0xbf8cc419	-1.0997344
184	0xbec9bc88	-0.3940165
185	0x3f94366b	1.1579107
186	0x3de7e8eb	0.113237225
187	0xbef1713c	-0.47156703
188	0xbf0e0907	-0.55482525
189	0xbeaa4f2c	-0.33263528
190	0xbe3851c3	-0.1799994
191	0xbdc9ce81	-0.098538406
192	0xbf87151c	-1.0553317
193	0xbe7de691	-0.24794985
194	0xbe94c7f0	-0.2905879
195	0xbd05ee50	-0.032697976
196	0xbeb31f71	-0.34984925
197	0xbe38df41	-0.18053915
198	0xbea62f9e	-0.32458204
199	0xbf16eebf	-0.5895805
200	0xbd923ad3	-0.07140126
201	0xbed8ff29	-0.42382172
202	0xbea0ed8c	-0.31431234
203	0xbeccb218	-0.39979625
204	0xbd66cf82	-0.05635024
205	0xbf10dedf	-0.56590074
206	0xbc4cc723	-0.01249865
207	0x3e428182	0.18994716
208	0xbe567afb	-0.20945351
209	0xbe7977cc	-0.24362105
210	0xbe5d4298	-0.21607435
211	0xbeb6b04f	-0.35681388
212	0xbe87dce8	-0.26535726
213	0x3eaeefb1	0.34167245
214	0xbdf2d13c	-0.118563145
215	0xbe0a1388	-0.13484013
216	0x3e4db716	0.20089373
217	0xbe60be5a	-0.21947613
218	0x3e974789	0.29546764
219	0xbf8bd226	-1.0923507
220	0x3e5fac11	0.21842982
221	0xbe96e0e9	-0.29468468
222	0x3d814da0	0.06313634
223	0xbf6b2a4e	-0.91861427
224	0x3da752d5	0.08170096
225	0x3f240560	0.640707
226	0x3e704b5d	0.23466249
227	0x3f243c37	0.6415438
228	0xbe3757e7	-0.17904626
229	0xbe3d28cd	-0.18472596
230	0x3ea2f178	0.3182485
231	0xbf4b2bab	-0.7936351
232	0x3de088ce	0.109635934
233	0xbe8f8152	-0.2802835
234	0xbea698df	-0.32538506
235	0x3f345a16	0.7044996
236	0xc0f70267	-7.7190433
237	0x3e23ede2	0.16008714
238	0xbe3db956	-0.18527731
239	0xbea5b3ea	-0.32363826
240	0xbe9afe63	-0.30272207
241	0x3fc44f91	1.5336782
242	0xbe347019	-0.17620887
243	0x3dba7cbc	0.091058224
244	0xbe54d7a9	-0.20785393
245	0x3da4bcf8	0.080438554
246	0x3f18886d	0.5958317
247	0x3e063e03	0.13109593
248	0xbeb12c11	-0.34603932
249	0xbec25134	-0.37952578
250	0xbf0c55f8	-0.5481868
251	0xbf2beab4	-0.67155004
252	0x3eac94c4	0.3370725
253	0xbe75d6b7	-0.24007688
254	0xbe832bf3	-0.25619468
255	0x3d89dd2e	0.0673164

fc3.bias f4 [6]
0	0xc30fd06c	-143.81415
1	0xc30fbd32	-143.73904
2	0xc3101bbf	-144.10838
3	0xc31041a5	-144.25642
4	0xc315aa49	-149.66518
5	0xc3177d55	-151.48958
