checkpoints/model_0.7_500.pth (torch, 25220 bytes, 6 tensors)

fc1.weight f4 [64, 16]
0	0xbda96e6c	-0.082730144
1	0x3d822ce4	0.063562185
2	0xbe7e557c	-0.24837297
3	0xbe46ece2	-0.19426301
4	0xbdb7582c	-0.08952364
5	0xbe01a73e	-0.12661454
6	0xbe16ccb4	-0.14726526
7	0xbe602b1a	-0.21891442
8	0xbe1e80ee	-0.1547887
9	0xbd8e7d40	-0.06957483
10	0xbe70eb16	-0.23527178
11	0xbdce5f08	-0.100767195
12	0xbd9fdf64	-0.0780628
13	0x3d995ee0	0.07488799
14	0x3a684e00	0.00088617206
15	0xbe3c2ec2	-0.18377212
16	0xbe19ce48	-0.15020096
17	0x3e50ae72	0.20379046
18	0xbc0fbc80	-0.008772969
19	0x3d8bbee4	0.06823519
20	0xbdf172c8	-0.11789471
21	0xbe2ca38e	-0.16859266
22	0x3e5039b0	0.20334506
23	0xbe2d000e	-0.16894552
24	0xbdfa1714	-0.12211433
25	0xbd9fc928	-0.078020394
26	0x3e0edfb2	0.1395252
27	0xbd2d6fa0	-0.042342782
28	0xbe1969b4	-0.14981729
29	0xbdcb908c	-0.099396795
30	0xbe674ac4	-0.22587115
31	0xbe1ec890	-0.15506196
32	0x3d1dfda8	0.038571984
33	0xbe62e4c0	-0.22157574
34	0x3d3b87e8	0.045783907
35	0x3bf46fc0	0.0074596107
36	0x3d9bf4d4	0.07615057
37	0x384b6000	4.848838e-05
38	0x3d025ef8	0.03182885
39	0x3e09e0bc	0.13464636
40	0xbde9291c	-0.11384794
41	0xbe133d50	-0.14378858
42	0xbdcb3640	-0.09922457
43	0x3e5ca516	0.2154735
44	0x3dfe56b0	0.12418878
45	0x3dcad320	0.0990355
46	0x3e3698de	0.17831752
47	0xbdbfd8fc	-0.09367558
48	0xbe6e5e0c	-0.23278064
49	0xbedf75da	-0.436446
50	0xbe0a9cd2	-0.13536385
51	0x3ce24200	0.027619362
52	0x3e19ce2a	0.15020052
53	0xbc903635	-0.017603973
54	0xbeaedabd	-0.3415126
55	0xbe58fbb0	-0.21189761
56	0xbd77c58a	-0.060491122
57	0xbe1955a0	-0.1497407
58	0xbe3a87b4	-0.18215829
59	0xbe8b90f3	-0.27259025
60	0xbe4c0a0a	-0.19925705
61	0xbf1637ac	-0.586787
62	0xbdb05964	-0.086108
63	0xbe9f1a70	-0.31074858
64	0xbecb5f3e	-0.39721102
65	0x3df86ce9	0.12130148
66	0x3cc90b90	0.024541646
67	0xbe7f853c	-0.24953169
68	0x3d503dd0	0.0508402
69	0xbdf37296	-0.1188709
70	0x3bdaaf6c	0.006673744
71	0x3e09cfaa	0.13458124
72	0xbe1d7ff9	-0.15380849
73	0x3d3f8c17	0.04676446
74	0x3d1828c4	0.037148252
75	0xbeae638c	-0.34060323
76	0x3e05a311	0.13050486
77	0xbf135986	-0.57558477
78	0xbe11e7d5	-0.14248593
79	0xbeac51f9	-0.3365629
80	0xbe6415b2	-0.22273901
81	0x3d9e55e1	0.07731224
82	0xbd82a148	-0.06378418
83	0x3d13a8c0	0.036049604
84	0x3e249038	0.1607064
85	0x3c9d1e23	0.01917941
86	0xbe321176	-0.17389473
87	0x3e32f35c	0.17475647
88	0xbeb07d81	-0.34470752
89	0xbdabb221	-0.08383585
90	0xbfe930b4	-1.8217988
91	0xbe9c49ed	-0.3052515
92	0x3f828831	1.0197812
93	0xbf2da1bf	-0.6782493
94	0xbe87147b	-0.26382813
95	0xbf672790	-0.9029474
96	0x3d5685b0	0.052373588
97	0xbd7a58c8	-0.061119825
98	0x3b9f9a00	0.004870653
99	0x3e2c0128	0.16797316
100	0xbcf217d0	-0.02955237
101	0xbd74a5b0	-0.059728324
102	0xbdb7c7f4	-0.08973685
103	0x3e08da52	0.13364533
104	0xbe23c74a	-0.15993991
105	0x3e1006d4	0.14065105
106	0xbe13d92a	-0.1443831
107	0x3de995a0	0.11405492
108	0xbe4da1ac	-0.20081204
109	0xbdc9696c	-0.09834561
110	0x3cead130	0.028664201
111	0x3db44720	0.088026285
112	0xbe316a63	-0.1732574
113	0xbe7eb416	-0.24873385
114	0x3d9f5dc0	0.07781553
115	0xbe77991a	-0.24179497
116	0xbe2ef34a	-0.17084995
117	0xbe7c7af0	-0.24656272
118	0xbeca1332	-0.3946777
119	0xbe2cff5a	-0.16894284
120	0xbef3299d	-0.47492686
121	0xbe2b3b2e	-0.16721794
122	0x3d893b7c	0.06700799
123	0xbd66e96f	-0.056374963
124	0xbe4780b0	-0.19482684
125	0xbe70df1a	-0.23522606
126	0xbeee2601	-0.4651337
127	0xbf069c8c	-0.5258262
128	0xbe296ef7	-0.16546236
129	0xbf0a99f6	-0.54141176
130	0xbe025e48	-0.12731278
131	0x3e5b6356	0.21424612
132	0x3e692cd6	0.2277101
133	0xbe57b15f	-0.21063755
134	0xbd7a3555	-0.061086018
135	0x3e79b68a	0.2438604
136	0xbdcfd490	-0.10147965
137	0xbec85c45	-0.39132896
138	0xbeda34ce	-0.42618412
139	0xbe9a2b2d	-0.30111066
140	0xbdf82178	-0.12115759
141	0xbe2b1d69	-0.16710438
142	0xbef30791	-0.4746671
143	0xbe3394eb	-0.17537276
144	0xbe2ec19c	-0.17066044
145	0xbe187c82	-0.14891246
146	0xbe339fa6	-0.1754137
147	0xbe5b1030	-0.21392894
148	0x3e099c66	0.13438568
149	0x3da8f3b0	0.08249605
150	0x3e1e0208	0.15430462
151	0xbc974fa0	-0.018470585
152	0xbda7e59c	-0.081980914
153	0xbe5935ac	-0.2121188
154	0xbe40eca0	-0.18840265
155	0x3de70a20	0.11281228
156	0x3dc2398c	0.094836324
157	0x3e62b5fc	0.22139734
158	0xbd318aa0	-0.043345094
159	0xbe7abdcc	-0.24486464
160	0xbe8e375b	-0.27776608
161	0xbeb130c4	-0.34607518
162	0xbe1329b2	-0.14371374
163	0x3e52dab0	0.20591235
164	0xbe027e62	-0.12743524
165	0xbd7b4353	-0.061343502
166	0xbe1b233b	-0.15150158
167	0x3e39f988	0.18161595
168	0xbd749082	-0.059708126
169	0xbe6f2a0b	-0.23355882
170	0xbe934b16	-0.28768224
171	0xbd56eb52	-0.052470513
172	0xbe2f24f7	-0.17103945
173	0x3ebcb29b	0.36855015
174	0x3c90a292	0.017655645
175	0xbe6ce893	-0.23135595
176	0xbf9870e0	-1.1909447
177	0xbf3b6083	-0.7319414
178	0x3d16f828	0.036857754
179	0xbde00f0c	-0.1094037
180	0x3e485b6c	0.19566125
181	0xbe86bcc8	-0.26315904
182	0xbe78b8be	-0.24289224
183	0xbe1e22ac	-0.15442914
184	0xbe5da820	-0.21646166
185	0xbed5424c	-0.41652143
186	0x3fca624f	1.5811251
187	0xbf593b3c	-0.8485601
188	0x3f87629d	1.0576969
189	0x401ada00	2.4195557
190	0xbe1df3e7	-0.15425073
191	0xbfd2b574	-1.6461625
192	0xbf6f4504	-0.93464684
193	0xbf836d32	-1.0267699
194	0x3bde6740	0.0067872107
195	0x3e4153ea	0.18879667
196	0xbe2d985c	-0.16952652
197	0xbf0a0c1e	-0.5392474
198	0xbef7a089	-0.48364666
199	0xbe7d2658	-0.24721658
200	0xbeda663a	-0.42656118
201	0xbf57c0c6	-0.84278524
202	0x3cb4f53b	0.022089591
203	0xbfc00e92	-1.5004447
204	0xbfe307e6	-1.7736785
205	0xbe7f0a27	-0.24906217
206	0xc126c2ec	-10.422588
207	0xbf8c912b	-1.0981802
208	0x3f3ca306	0.73686254
209	0x3e4da3ed	0.20082064
210	0xbdb7f8fc	-0.08983037
211	0xbe6b28b8	-0.22964752
212	0x3d8d9114	0.06912437
213	0xbea93799	-0.3305023
214	0xbf00eb08	-0.5035863
215	0xbe62fd98	-0.22167051
216	0xbea335b1	-0.318769
217	0xbf0a5015	-0.54028445
218	0xc04d0d70	-3.2039452
219	0x3d00337e	0.031299107
220	0x3fdb61fb	1.7139276
221	0xc0a72c4e	-5.2241583
222	0x3f2f3033	0.6843292
223	0x3dba33a3	0.0909188
224	0x3d7d8128	0.06189075
225	0xbe33671e	-0.17519805
226	0x3d52c1f8	0.051454514
227	0x3d84aa84	0.06477836
228	0xbe14d148	-0.1453296
229	0x3d977a00	0.073963165
230	0xbe3dff22	-0.18554357
231	0xbda9fe20	-0.083004236
232	0xbe4ed10a	-0.2019693
233	0x3e2f594e	0.17123911
234	0x3e2fe242	0.17176154
235	0x3e755cd6	0.23961195
236	0x3de82358	0.11334866
237	0x3de349d8	0.11098069
238	0xbddcc5c4	-0.10779908
239	0x3dacf3ec	0.08444962
240	0xbef43e20	-0.47703648
241	0xbe5eb54a	-0.21748844
242	0xbe3cdc28	-0.18443358
243	0xbde322a8	-0.110905945
244	0x3cdff750	0.027339607
245	0xbef3b34f	-0.4759774
246	0xbdbee672	-0.09321298
247	0xbcdda1c0	-0.027054667
248	0xbe9fb042	-0.31189162
249	0xbe525076	-0.20538506
250	0xbdc17cf0	-0.09447658
251	0xbdb14597	-0.08655851
252	0xbecfac24	-0.4056102
253	0xbe6011bd	-0.21881767
254	0xbe979a66	-0.29609984
255	0xbdcc6cf0	-0.09981716

fc1.bias f4 [64]
0	0xbd9a3d10	-0.07531178
1	0xbe5de1c6	-0.21668157
2	0x3d32e280	0.04367304
3	0xbec4ca9d	-0.38435832
4	0xbe82aef7	-0.25524113
5	0x3cd94381	0.026521446
6	0x3d039328	0.03212276
7	0xbf09f3dc	-0.53887725
8	0xbf0078d2	-0.5018436
9	0xbd0a9cf0	-0.033841074
10	0xbde1e9f7	-0.110309534
11	0xbe873e05	-0.26414505
12	0xbf3b2add	-0.7311228
13	0xbe607a1e	-0.21921584
14	0xbdf6f974	-0.12059298
15	0xbddacc34	-0.1068348
16	0xbf0bfbbf	-0.5468101
17	0xbe7d447b	-0.24733154
18	0xbf9ad27f	-1.2095488
19	0xbe0f7bb6	-0.14012036
20	0xbe098679	-0.13430203
21	0xbd665e92	-0.056242533
22	0xbd022ac1	-0.031779055
23	0xbd95ad39	-0.0730843
24	0xbe01b0c4	-0.12665087
25	0xbe3eab62	-0.18620065
26	0xbd785e2e	-0.06063669
27	0x3c909560	0.017649353
28	0xbb438f00	-0.0029839873
29	0xbebcd73d	-0.36882964
30	0xbf2d0fe7	-0.6760239
31	0x3e18598a	0.14877906
32	0x3cb6bae0	0.022305906
33	0xbe6fce38	-0.2341851
34	0x3d1442f8	0.03619668
35	0xbe845bec	-0.2585138
36	0xbdd8275c	-0.10554382
37	0xbe9cc38d	-0.30617943
38	0xbf910b24	-1.1331525
39	0x3cdfcd0e	0.027319457
40	0x3f1ab0ed	0.6042622
41	0xbe25775c	-0.16158813
42	0x3da19e4c	0.07891521
43	0x3e2f2ede	0.17107722
44	0x3c0995f0	0.008397564
45	0xbe216123	-0.15759711
46	0xbea30e44	-0.3184682
47	0x3dbfb357	0.09360378
48	0xbe8b423b	-0.27198967
49	0x3d580a00	0.05274391
50	0x3ce84840	0.028354764
51	0xbe5d00a4	-0.21582276
52	0xbee7e093	-0.45288524
53	0x3e1f6121	0.15564395
54	0xbeaaf088	-0.33386636
55	0xbe9f9cb9	-0.31174257
56	0xbf0d201f	-0.5512714
57	0xbe2c4850	-0.1682446
58	0xbe160f1e	-0.14654204
59	0xbdea7ccc	-0.11449584
60	0xbd92fdbc	-0.07177302
61	0xbe805543	-0.2506505
62	0xbea8a6d6	-0.32939786
63	0x3dde100c	0.108429044

fc2.weight f4 [64, 64]
0	0xbdbcece4	-0.09224871
1	0x3d27aa4c	0.040933892
2	0x3d6da8b8	0.05802223
3	0x3ee942d9	0.45558813
4	0xbd69c9b2	-0.057077117
5	0xbb4199fa	-0.002954124
6	0xbc35c400	-0.011094093
7	0x3e3c004e	0.18359491
8	0x3e8be24a	0.27321082
9	0x3da12c3e	0.07869767
10	0xbdba3ec0	-0.09094
11	0x3b130e4c	0.0022438942
12	0xbeae3310	-0.34023333
13	0x3d15a58e	0.03653484
14	0xbd918884	-0.071061164
15	0x3e784d79	0.24248303
16	0x3e881bf8	0.26583838
17	0xbe36cdd1	-0.1785195
18	0x3b9bef00	0.0047587156
19	0xbcd021bb	-0.025406709
20	0x3e965580	0.29362106
21	0x3ea28e71	0.317493
22	0xbdb8beee	-0.09020792
23	0xbe57232f	-0.21009515
24	0xbde9bb28	-0.1141265
25	0x3c659640	0.014012873
26	0x3d1bd20f	0.038042124
27	0xbdaa39fe	-0.083118424
28	0x3d8c8d8c	0.068629354
29	0x3e4ac5cf	0.1980202
30	0xbe65b8c9	-0.22433771
31	0x3bf116e0	0.0073574632
32	0x3df81870	0.12114036
33	0x3e376eaf	0.17913316
34	0xbdb0bc0a	-0.086296156
35	0x3e9b9ff8	0.30395484
36	0xbf2d8222	-0.6777669
37	0xbe2a9020	-0.16656542
38	0xbeafd4a1	-0.3434191
39	0xbd82af18	-0.06381053
40	0xbcf23fb9	-0.029571401
41	0xbdcf843b	-0.10132643
42	0x3d8a9588	0.06766802
43	0xbdfe7206	-0.12424092
44	0xbe9a7e56	-0.30174512
45	0xbd3fc913	-0.04682262
46	0xbdffe112	-0.12494101
47	0x3d9472a0	0.072484255
48	0x3ecef4af	0.40421054
49	0xbc12c360	-0.008957714
50	0xbc26d340	-0.010182202
51	0xbeb53552	-0.35392243
52	0xbd07475c	-0.033027038
53	0xbd5b9abc	-0.053614363
54	0x3d032a79	0.032022927
55	0x3e1cc69e	0.15310141
56	0xbec7a63b	-0.3899401
57	0xbc6f96d0	-0.014623359
58	0xbe7cab7e	-0.24674794
59	0xbd1cbb58	-0.038264602
60	0x3dc80bf8	0.09767908
61	0xbe3a2b49	-0.18180574
62	0x3e771bb0	0.24131656
63	0xbcbde5d0	-0.023180872
64	0xbd6ffa88	-0.058588535
65	0xbcb80370	-0.022462577
66	0x3dd89800	0.10575867
67	0xbad5f980	-0.0016324967
68	0xbda4001a	-0.08007832
69	0xbf1b7139	-0.6071964
70	0xbd3e539c	-0.046466455
71	0xbdb50f94	-0.08840862
72	0x3ddc8698	0.10767859
73	0xbc247140	-0.0100367665
74	0xbdb3effa	-0.08786006
75	0xbf056b65	-0.52116996
76	0xbf135a1a	-0.5755936
77	0xbe982798	-0.29717708
78	0xbd96433c	-0.07337043
79	0x3dc8436c	0.09778485
80	0x3d327b80	0.04357481
81	0x3dd27a20	0.102772
82	0x3dd6bc94	0.10485187
83	0x3d7a3398	0.06108436
84	0xbd37e1fc	-0.04489325
85	0x3da05a6a	0.07829745
86	0xbd5ec920	-0.054391026
87	0xbd8842d6	-0.06653373
88	0x3d40427c	0.046938404
89	0x3d4e7760	0.050406814
90	0xbeb8b591	-0.36076024
91	0xbcbaa260	-0.022782505
92	0xbb2e0dc0	-0.0026558489
93	0xbdf2092c	-0.11818156
94	0xbf0e844f	-0.55670637
95	0xbdee53b6	-0.1163706
96	0xbd5d156c	-0.053975508
97	0x3d91cdfa	0.07119365
98	0x3dde7d66	0.108637616
99	0xbd88f432	-0.066872016
100	0xbeeae763	-0.4587966
101	0x3da24cea	0.079248264
102	0xbf057e14	-0.52145505
103	0xbce6a690	-0.028155595
104	0xbed65b5b	-0.41866574
105	0x3c6f5a00	0.01460886
106	0xbd767a84	-0.060175434
107	0xbde36ca2	-0.111047044
108	0xbf178600	-0.5918884
109	0xbdfa7fbc	-0.12231395
110	0x3d9a34ca	0.075296
111	0x3ddd4d6c	0.10805783
112	0xbdc4bc80	-0.09606266
113	0x3d430dec	0.0476207
114	0xbda6ae90	-0.08138764
115	0xbecb5034	-0.39709628
116	0x3bbcacc0	0.005757898
117	0xbcc662a0	-0.02421695
118	0xbed662a4	-0.41872132
119	0x3ee988a1	0.45612052
120	0xbf0ed835	-0.55798656
121	0x3d3d8524	0.04626955
122	0xba899900	-0.0010497868
123	0x3c8ca260	0.01716727
124	0x3d786794	0.060645655
125	0xbd91cd2e	-0.07119213
126	0x3c9d0cb0	0.019171089
127	0xbd22e724	-0.039771214
128	0xbd3891f0	-0.04506105
129	0xbdac2b7c	-0.084067315
130	0x3d86b702	0.06577875
131	0x3e6887a6	0.22707996
132	0x3e6afd62	0.2294822
133	0x3e00772a	0.12545457
134	0x3cf81800	0.030284882
135	0x3de3d0ce	0.11123811
136	0x3e8bcdcc	0.27305448
137	0x3dfeaf34	0.12435761
138	0xbe7a3914	-0.24435836
139	0xbdcc968f	-0.09989654
140	0xbfe6ecb9	-1.8040992
141	0xbc94030d	-0.018067861
142	0x3cf924a8	0.030412987
143	0x3e544c5b	0.20732252
144	0x3e8ee24f	0.27907035
145	0xbe10a18c	-0.14124125
146	0xbfd23ab8	-1.642417
147	0xbe229954	-0.15878803
148	0x3e9ff748	0.31243348
149	0xbc369400	-0.011143684
150	0xbd644aeb	-0.05573551
151	0xbc149c09	-0.009070405
152	0x3ac79100	0.0015225708
153	0x3de60c62	0.112328306
154	0xbe5bc564	-0.21462017
155	0xbdde4234	-0.10852471
156	0xbc8f18d0	-0.017467886
157	0x3ea51096	0.32239217
158	0xbf36e7bb	-0.7144734
159	0x3da15336	0.07877199
160	0x39ce2200	0.00039316714
161	0x3e928a38	0.28621078
162	0x3bff5a80	0.007792771
163	0x3dbdfa4a	0.092762545
164	0xc022a402	-2.5412602
165	0xbd63d9ad	-0.055627514
166	0xbfb715cb	-1.4303526
167	0xbe5c99e5	-0.21543081
168	0xbfc92406	-1.5714118
169	0xbb55eb6f	-0.003264155
170	0xbdaaf326	-0.08347158
171	0xbdfc3872	-0.123154536
172	0xbe08e3e3	-0.13368182
173	0xbda1475c	-0.07874939
174	0x3d3206a8	0.04346338
175	0xbca3959a	-0.019968797
176	0x3e8c931c	0.27455986
177	0xbc986198	-0.018601224
178	0x3d6a2598	0.05716476
179	0xbea3f574	-0.32023203
180	0x3d58d14a	0.05293397
181	0x3d5106f1	0.05103201
182	0x3da75fdb	0.0817258
183	0xbf42cf86	-0.76097906
184	0xbfd360d7	-1.6513928
185	0xbd0a1fe8	-0.033721834
186	0xbabe99c8	-0.001454168
187	0x3d69fb2c	0.0571243
188	0xbd1298cc	-0.03579025
189	0xbe0b19e0	-0.1358409
190	0xbcb38578	-0.021914229
191	0x3d849b4e	0.064749345
192	0xbdce1c54	-0.10063997
193	0x3d3642e4	0.044497386
194	0xbdcb88b0	-0.099381804
195	0xbea29983	-0.31757745
196	0xbed3fffc	-0.41406238
197	0xbe3fe45c	-0.18739456
198	0xbdd13cbe	-0.10216664
199	0xbe606a53	-0.2191556
200	0xbe787373	-0.2426279
201	0xbdc12e06	-0.094326064
202	0xbe7ee143	-0.24890618
203	0xbec5b2e9	-0.3861306
204	0xbe989355	-0.29799905
205	0xbea8eebc	-0.3299464
206	0x3d3cfd60	0.046140075
207	0xbeb65004	-0.35607922
208	0xbe811850	-0.2521386
209	0xbea1918d	-0.3155636
210	0x3dd32298	0.103093326
211	0xbed49835	-0.41522375
212	0xbe5e7695	-0.21724923
213	0xbe8f1fce	-0.27953953
214	0xbe81efe3	-0.25378332
215	0xbed08a1b	-0.40730366
216	0x3d836c6c	0.06417164
217	0xbc8a1198	-0.016854092
218	0xbe78ed61	-0.24309303
219	0xbc4d68c0	-0.012537181
220	0x3dd4fc0a	0.10399635
221	0xbec3c0e4	-0.382331
222	0xbea69903	-0.32538614
223	0x3df7b0d6	0.12094276
224	0xbd83cba8	-0.06435329
225	0xbe820ab3	-0.25398788
226	0xbbc2d200	-0.005945444
227	0xbe527550	-0.20552564
228	0xbec4f52e	-0.38468307
229	0xbeb97479	-0.36221674
230	0xbed32fbb	-0.41247353
231	0xbec1ee0e	-0.37876934
232	0xbe3b77c6	-0.18307409
233	0xbe959525	-0.2921535
234	0xbd735798	-0.059409708
235	0x3dbcdb76	0.09221546
236	0xbe8dd495	-0.2770125
237	0xbeaebfd6	-0.34130734
238	0xbe87c309	-0.26515988
239	0xbe54dad8	-0.20786607
240	0xbeb95efb	-0.36205277
241	0xbd9a5928	-0.075365365
242	0xbb5c79c0	-0.0033641905
243	0xbe82805f	-0.25488564
244	0xbe5ea4c8	-0.21742547
245	0xbe9cd7a0	-0.3063326
246	0xbead03ee	-0.3379206
247	0xbe5a6baf	-0.2133014
248	0xbea56f95	-0.32311693
249	0x3dd44d62	0.10366322
250	0xbe398fae	-0.18121216
251	0x3daf863e	0.085705265
252	0x3d3eccac	0.04658191
253	0xbe33a1d6	-0.17542204
254	0xbeb33862	-0.35003954
255	0xbd1d55bc	-0.03841184

fc2.bias f4 [64]
0	0xbe93b1ef	-0.2884669
1	0xbef259d1	-0.4733415
2	0xbebf6a47	-0.3738577
3	0xbead2689	-0.33818462
4	0xc095a18e	-4.675971
5	0xbeca5d2e	-0.39524215
6	0xc0110da9	-2.2664587
7	0xc03b4b41	-2.9264681
8	0xbea941d1	-0.33058026
9	0xbe391830	-0.18075633
10	0xbe824973	-0.25446662
11	0xbe865124	-0.2623378
12	0xc00bf9f0	-2.18713
13	0xbd9191bb	-0.07107874
14	0xbf6a109f	-0.9143161
15	0xbea05e3d	-0.31321898
16	0xbe097426	-0.13423213
17	0xbefe1ed8	-0.49632907
18	0xbf6ce904	-0.92543054
19	0xbea2ad0f	-0.31772658
20	0xbe8b6c85	-0.2723123
21	0xbe997528	-0.29972196
22	0xbea862a1	-0.32887748
23	0xbf49f924	-0.78895783
24	0xbd63443a	-0.055484988
25	0xbe977ed0	-0.29588938
26	0xbeec608f	-0.46167418
27	0xbf9dd83f	-1.2331618
28	0xbd6d351d	-0.05791198
29	0xbe953201	-0.29139712
30	0xbe44631d	-0.19178434
31	0xbdc71e96	-0.09722631
32	0xbef2b4e2	-0.47403628
33	0xbe62f3a1	-0.2216325
34	0xbec92414	-0.39285338
35	0xc08fcf0b	-4.494024
36	0xbf26c472	-0.651435
37	0xbf82e9a0	-1.0227547
38	0xbee93a02	-0.4555207
39	0xbd023bc2	-0.03179527
40	0xbeb28768	-0.34868932
41	0xbe8dcb98	-0.27694392
42	0xbf2e44d4	-0.68073773
43	0x3f2045ca	0.6260649
44	0xbf2e31da	-0.6804482
45	0xbf0c38eb	-0.5477435
46	0xbf6957df	-0.91149706
47	0xbeb169f8	-0.3465116
48	0xbf0b92a1	-0.5452061
49	0xbe82d680	-0.25554276
50	0xbeae9935	-0.34101263
51	0xbfe5f798	-1.7966185
52	0xbf137751	-0.5760394
53	0xbe82a833	-0.2551895
54	0xbd06f382	-0.03294707
55	0xbf46e97f	-0.77700037
56	0xbdec1310	-0.115270734
57	0xbdea58b8	-0.11442703
58	0xbe83db48	-0.25753236
59	0xbd1226ad	-0.035681415
60	0xc0c60682	-6.1882944
61	0xbfe65b34	-1.7996583
62	0xbd51ac85	-0.051189918
63	0xbe46bdce	-0.19408342

fc3.weight f4 [6, 64]
0	0x3e958da3	0.29209623
1	0xbf120d1d	-0.5705126
2	0xbeae2b8d	-0.34017602
3	0xbea5abc1	-0.323576
4	0x3f3da03d	0.7407263
5	0x3ea471b8	0.3211801
6	0xbcfa7a7f	-0.030575989
7	0xbf34a8e3	-0.705702
8	0xbcddbd55	-0.02706782
9	0xbed2441c	-0.41067588
10	0xbdb553f4	-0.088539034
11	0xbc9a3357	-0.018823309
12	0xbe370b99	-0.17875518
13	0xbd9218df	-0.0713365
14	0x3f48609e	0.78272426
15	0x3e9db628	0.30803037
16	0x3c389614	0.01126625
17	0xbf0c2986	-0.5475086
18	0x3ee6087a	0.44928342
19	0xbed5994c	-0.4171852
20	0xbdc0ce76	-0.09414379
21	0x3d822793	0.063552044
22	0xbe8e6a9d	-0.27815714
23	0x3f3725ea	0.7154223
24	0x3e27b9c9	0.16379465
25	0x3e6aff81	0.2294903
26	0xbed14bd6	-0.4087817
27	0xbf250ebd	-0.64475614
28	0x3deabce9	0.11461813
29	0x3dc7de23	0.09759166
30	0x3d77a998	0.06046447
31	0x3e433c32	0.19065931
32	0x3dea17ed	0.11430345
33	0xbe6e2860	-0.2325759
34	0xbd4d54f8	-0.05012986
35	0xbdd8cc6e	-0.10585867
36	0xbe884a84	-0.2661935
37	0xbeed3ee5	-0.46337047
38	0x3c95d6c8	0.018290892
39	0xbe9f54c9	-0.31119373
40	0xbe7ef54a	-0.24898258
41	0xbe61505d	-0.22003312
42	0xbd63c6d7	-0.05560955
43	0x3f235aad	0.63810235
44	0xbec45759	-0.3834789
45	0x3f0afb4f	0.54289716
46	0x3da6c6e6	0.081434056
47	0x3e294ecf	0.1653397
48	0xbe58b918	-0.21164358
49	0xbe4477dd	-0.19186349
50	0xbec91408	-0.39273095
51	0x3f5d29ae	0.86391723
52	0x3ef13c35	0.47116247
53	0xbdc7aa77	-0.097493105
54	0x3d5840be	0.052796118
55	0xbf30fbf9	-0.6913448
56	0xbe80b8bc	-0.2514094
57	0xbe01373a	-0.12618724
58	0xbec739ab	-0.38911185
59	0x3e000a36	0.12503895
60	0x3f35ae40	0.7096901
61	0xbf10ec5e	-0.5661067
62	0x3d189ade	0.037257068
63	0xbe496a19	-0.1966938
64	0x3e110ea0	0.14165735
65	0x3f0a53bc	0.5403402
66	0xbe63ec16	-0.22258028
67	0xbe3bdfa9	-0.18347038
68	0x3c42ca5a	0.011889065
69	0xbe3a6cde	-0.18205592
70	0xbb9fa7dc	-0.0048723053
71	0xbd7962e0	-0.06088531
72	0xbe80f9c8	-0.25190568
73	0xbec298dd	-0.3800725
74	0x3e3944c9	0.18092646
75	0x3e50dd54	0.2039693
76	0x3eccd655	0.40007272
77	0xbec8cf4d	-0.39220658
78	0xbd5dfbc6	-0.054195188
79	0x3eb462bf	0.35231587
80	0x3e159b00	0.14609909
81	0x3d942258	0.07233113
82	0xbed3d970	-0.4137683
83	0xbea42f23	-0.32067212
84	0x3dfa1e82	0.1221285
85	0x3b194fba	0.0023393468
86	0xbe2254b1	-0.1585262
87	0x3eb74570	0.35795164
88	0xbf97925e	-1.1841543
89	0xbe4ca6c5	-0.19985493
90	0xbe38af28	-0.18035567
91	0x3f8b6f06	1.0893257
92	0xbe51cebf	-0.20489024
93	0x3e9c39de	0.305129
94	0xbd242ed4	-0.04008372
95	0xbf8ef868	-1.1169558
96	0x3d8a8696	0.067639515
97	0xbe738773	-0.23782139
98	0xbe6d54c1	-0.23176862
99	0xbef600f6	-0.48047608
100	0xbe61033e	-0.21973893
101	0x3e1482a5	0.14502962
102	0x3d7bb418	0.061451048
103	0xbe2e61c5	-0.17029484
104	0xbe1bbf02	-0.15209582
105	0xbe8afab0	-0.27144384
106	0xbe064916	-0.13113818
107	0xc1049a9f	-8.287749
108	0xbdf3239f	-0.118720286
109	0x3f0881c5	0.5332301
110	0xbea69e23	-0.32542524
111	0x3e8853fa	0.2662657
112	0xbf39c6a9	-0.72568756
113	0xbe821307	-0.25405142
114	0xbed0970e	-0.40740246
115	0x3c48db74	0.012259353
116	0xbf1f6e3f	-0.622776
117	0x3e3e703c	0.18597502
118	0xbd3c8340	-0.046023607
119	0xbf46f5a3	-0.7771856
120	0x3e723197	0.2365173
121	0x3e8d2c19	0.27572706
122	0xbeca2866	-0.39483947
123	0x3e0842d9	0.1330675
124	0xbfc8781c	-1.5661654
125	0xbab70638	-0.0013963645
126	0xbf315f72	-0.69286263
127	0xbf1f88bc	-0.62318015
128	0x3e003c71	0.12523057
129	0x3f020047	0.50781673
130	0x3f7010fa	0.93775904
131	0xbecac1c4	-0.39600956
132	0xbf25d6f5	-0.64781123
133	0xbe83146a	-0.25601512
134	0x3dc7ad1c	0.09749815
135	0xbfbda7ca	-1.481683
136	0x3ec6abe4	0.38803017
137	0xbea93a49	-0.3305228
138	0x3f2632be	0.64921176
139	0x3e2ddcea	0.16978803
140	0xbe5810e8	-0.21100199
141	0xbdfae9e7	-0.122516446
142	0xbdd72688	-0.10505396
143	0xbe2ee599	-0.17079772
144	0x3c487d72	0.01223694
145	0x3ed88718	0.42290568
146	0xbef19771	-0.47185853
147	0xbed700dc	-0.41992843
148	0x3e444b61	0.1916938
149	0x3da68516	0.08130853
150	0x3e480327	0.19532453
151	0x3f987857	1.1911725
152	0x3d0155e5	0.031576056
153	0xbe986191	-0.29761937
154	0xbe791d00	-0.24327469
155	0x3dc7bef0	0.09753215
156	0x3e968a89	0.2940257
157	0x3dac853c	0.0842385
158	0x3eccb6f9	0.39983347
159	0x3f39f926	0.72645795
160	0xbc908f05	-0.017646322
161	0xbe4cbd7a	-0.19994155
162	0x3e53db5b	0.20689146
163	0xbe99d389	-0.300442
164	0x3e582d3d	0.21111007
165	0x3e70f883	0.235323
166	0xbee630c5	-0.44959083
167	0x3f706135	0.93898326
168	0xbe57aaa8	-0.21061194
169	0xbed0ac89	-0.40756634
170	0xbef3a4da	-0.4758671
171	0xbd8db97d	-0.06920145
172	0xbe9295f8	-0.28630042
173	0xbd969ad6	-0.07353751
174	0x3e7a1c9e	0.24424979
175	0x3e92f976	0.2870595
176	0xbef56488	-0.47928262
177	0x3e8623e5	0.2619926
178	0xbecd4119	-0.40088728
179	0xbf00824a	-0.50198805
180	0x3e1f8686	0.1557866
181	0x3e0e5e3d	0.13903137
182	0x3db46b4f	0.0880953
183	0xbf3556a1	-0.7083531
184	0x3d5a85a2	0.0533501
185	0xbc3eba2a	-0.011641065
186	0xbed7edc3	-0.42173585
187	0xbb90d7cb	-0.004420256
188	0x3e309b0f	0.1724665
189	0xbe8c3a6b	-0.2738832
190	0xbd963a2f	-0.073353164
191	0x3e97b0f5	0.29627195
192	0x3d2968b7	0.04135963
193	0xbecb9630	-0.3976302
194	0xbd4ff66a	-0.05077211
195	0xbe9511e9	-0.29115227
196	0x3f32576b	0.6966464
197	0x3e45af41	0.19305135
198	0x3db8d410	0.09024823
199	0x3f92e104	1.1474919
200	0x3f4b0ae3	0.79313487
201	0xbe887f80	-0.26659775
202	0x3fd0e728	1.6320543
203	0xbe43b65e	-0.19112536
204	0xbea85674	-0.32878458
205	0xbeb902ba	-0.36134893
206	0x3ea54c43	0.32284746
207	0x3e8b305f	0.27185342
208	0xbd968a84	-0.073506385
209	0x3f268a35	0.6505464
210	0x3eb1ec57	0.34750625
211	0xbece92b7	-0.4034631
212	0xbe886a87	-0.26643774
213	0xbd81f285	-0.06345085
214	0xbcc67109	-0.024223821
215	0xbfa90295	-1.3203913
216	0xbe232772	-0.15933016
217	0x3ebdfdb4	0.37107623
218	0xbec393cb	-0.38198695
219	0x3f93b69d	1.1540104
220	0x3ed31156	0.41224164
221	0xbe9c30a3	-0.30505857
222	0x3c3a1840	0.011358321
223	0x3ed16aa0	0.4090166
224	0xbd2292c9	-0.039690766
225	0x3eb68c58	0.3565395
226	0xbe3a88b2	-0.18216208
227	0xbdeadc53	-0.11467805
228	0x3dc0d207	0.094150595
229	0xbe7f412d	-0.24927206
230	0x3f0edcf4	0.558059
231	0x3f965df5	1.1747423
232	0x3b1baaba	0.0023752884
233	0xbe425dbe	-0.18981072
234	0x3ee09694	0.43864882
235	0x3efcb816	0.49359196
236	0xbf2fae1c	-0.68625045
237	0xbf1d1b54	-0.61369824
238	0xbe6aba98	-0.22922742
239	0x3dee8069	0.11645586
240	0x3f56bdfd	0.8388365
241	0xbde9b86c	-0.11412129
242	0xbeb8b696	-0.36076802
243	0x3d37c90d	0.04486947
244	0xbe4a154a	-0.19734684
245	0xbdafdd62	-0.08587147
246	0xbe2909d9	-0.16507663
247	0x3f6d035d	0.92583257
248	0xbe4acd6d	-0.19804926
249	0xbd83fe17	-0.06444948
250	0xbeccf254	-0.40028632
251	0xbf03e3ad	-0.5151928
252	0xbef56142	-0.47925764
253	0xbeabb1bd	-0.3353404
254	0xbbb86f59	-0.005628508
255	0xbe8287f1	-0.2549434

fc3.bias f4 [6]
0	0xbec2d555	-0.38053384
1	0xbdc98445	-0.098396815
2	0xbfb5dfef	-1.4208964
3	0xbf951fbc	-1.165031
4	0xc115609b	-9.336085
5	0xc11f1c6f	-9.944442
