checkpoints/model_0.1_300.pth (torch, 25220 bytes, 6 tensors)

fc1.weight f4 [64, 16]
-0.14908807 -0.1650506 -0.08357543 -0.105266154 0.17014864 0.10938727 -0.07079453 -0.24962023
0.093436785 -0.21328169 0.37193146 0.013718861 0.00042110012 -0.23532072 -0.43927062 0.04225604
-0.48548007 -0.17704296 0.0302113 -0.10224432 0.24821207 -0.1512386 -0.49663544 -0.15275934
-0.1576137 -0.29230165 -0.26085743 -0.11012575 -0.39180395 0.025765926 -0.15657493 -0.5107141
-0.32959223 -0.34785107 -0.05117622 -0.027350307 0.19949439 -0.35695785 -0.27611893 0.076662034
-0.14458568 -0.36885938 -0.1834228 -0.10101249 -0.35763994 -0.29281688 -0.20594223 -0.31905612
-0.124758795 -0.4319174 0.07222578 0.074029565 0.13166499 -0.26268363 -0.33518082 -0.007055253
-0.23427214 -0.40255928 0.110242724 -0.50070393 -0.12130684 -0.52491647 -0.1967755 -0.018241346
-0.17550391 -0.065419436 -0.18610117 0.10425347 0.18010652 0.124290496 0.0012705028 0.14504066
-0.13026169 -0.1336106 -0.19753382 0.11689958 0.005432099 -0.07947394 0.040067703 0.061225533
-1.3819824 -0.61191255 -0.2094971 0.033234775 0.024439454 -0.06990239 -0.43800202 0.2379151
-0.29013157 -0.057918172 1.684748 -0.5654892 -0.17371972 -0.12801057 1.7318954 -1.0051502
-0.2303122 -0.29491585 -0.07575077 0.11744556 -0.2155253 -0.40898696 -0.34738973 -0.16735616
-0.068893775 -0.5369932 0.24403822 -0.14506625 -0.08564264 -0.0075450838 -0.16964023 -0.1386622
-0.20069493 -0.43624964 0.20820567 0.17161784 -0.013894618 -0.33851534 -0.38242942 -0.013381928
-0.4936277 -0.1008126 0.053750783 -0.06679123 0.13718778 -0.20685679 -0.11201758 -0.15998974
0.24384263 0.0035745203 -0.20588306 0.20885667 -0.09704876 -0.23573503 0.021222413 0.04241216
-0.058659047 -0.05038917 0.1991668 -0.12260327 -0.109347224 -0.1656737 0.19730645 -0.019877493
-0.10103794 -0.15755682 0.10063285 -0.12964332 -0.10175231 -0.10187074 0.0624027 0.06297079
0.03691006 -0.0129596945 -0.0070600365 -0.018773772 -0.2752818 -0.15608755 -0.17371078 -0.1574567
-0.12023756 -0.0773274 0.09032059 0.08483207 -0.08631042 -0.15155569 -0.10930392 -0.12426168
-0.012844503 -0.24267757 0.15023845 -0.2108218 -0.24118292 0.14268893 -0.14467835 -0.21481767
-0.13039812 -0.13509989 -0.068674 -0.008487135 0.107025325 0.026025414 -0.060964197 0.041650176
-0.06396186 0.0045503676 -0.0570333 -0.1458117 0.23216495 0.017231733 -0.24470282 0.060130775
-0.07107757 -0.37344995 -0.14069581 -0.105391026 0.008473158 -0.27083287 -0.4690542 -0.20289487
-0.05903058 -0.44971287 -0.1750589 -0.09992811 -0.06137924 -0.5164236 -0.4610518 -0.3909251
-0.08144608 -0.24922955 -0.03317225 0.0606564 -0.072723985 0.07933819 -0.07438427 0.18281975
-0.08507311 -0.12514082 -0.23874736 0.10773578 0.03563389 -0.16626263 0.23115885 0.109677225
0.009858131 -0.17871684 0.23039901 -0.07416466 0.23199773 -0.19870758 0.045311928 -0.17980188
-0.17540628 0.024990916 -0.16987103 0.102644056 0.023593277 -0.11383152 -0.15861368 -0.13367921
0.11388838 -0.21543562 0.15460673 0.08172107 0.18548185 -0.0078603625 -0.21264535 -0.10665569
0.07823798 -0.17222351 0.077569574 0.20626873 -0.013896525 0.23805404 -0.013072789 0.18238482
00000000: 8baa 18be 0603 29be 9829 abbd c895 d7bd
00000010: 723b 2e3e 6f06 e03d b9fc 90bd 729c 7fbe
00000020: c95b bf3d 8466 5abe cd6d be3e 13c5 603c
00000030: 1ac7 dc39 eaf7 70be 14e8 e0be ab14 2d3d
00000040: d890 f8be c04a 35be b07d f73c 7865 d1bd
00000050: 4e2b 7e3e 4bde 1abe 0047 febe f26c 1cbe
00000060: 7c65 21be 90a8 95be 1b8f 85be 9c89 e1bd
00000070: 879a c8be 1013 d33c 2e55 20be 29be 02bf
00000080: 50c0 a8be 8919 b2be 289e 51bd c00d e0bc
00000090: 4248 4c3e 2ec3 b6be 765f 8dbe fc00 9d3d
000000a0: 450e 14be 23db bcbe 30d3 3bbe a3df cebd
000000b0: 951c b7be 18ec 95be 85e2 52be 535b a3be
000000c0: 8a81 ffbd 4724 ddbe 1ceb 933d d09c 973d
000000d0: 30d3 063e 787e 86be d29c abbe c02f e7bb
000000e0: 09e5 6fbe 401c cebe f0c6 e13d 222e 00bf
000000f0: b86f f8bd ed60 06bf 847f 49be e06e 95bc
00000100: 4cb7 33be a0fa 85bd 4e91 3ebe d882 d53d
00000110: d86d 383e 048c fe3d 0087 a63a 8a85 143e
00000120: 5263 05be 38d1 08be 4e46 4abe 0c69 ef3d
00000130: c0ff b13b 3cc3 a2bd 081e 243d a0c7 7a3d
00000140: cde4 b0bf 4da6 1cbf 6886 56be 3021 083d
00000150: 4035 c83c fc28 8fbd cd41 e0be 04a0 733e
00000160: 208c 94be 9b3b 6dbd d3a5 d73f e6c3 10bf
00000170: 95e3 31be 3415 03be c0ae dd3f c3a8 80bf
00000180: f6d6 6bbe 36ff 96be 3823 9bbd 4c87 f03d
00000190: aab2 5cbe bd66 d1be 11dd b1be 6a5f 2bbe
000001a0: 2e18 8dbd 6378 09bf 28e5 793e 3f8c 14be
000001b0: 6965 afbd c03c f7bb 2bb6 2dbe 77fd 0dbe
000001c0: f982 4dbe 1d5c dfbe de33 553e 96bc 2f3e
000001d0: 40a6 63bc e251 adbe cacd c3be e03f 5bbc
000001e0: c5bc fcbe d676 cebd c829 5c3d d7c9 88bd
000001f0: f47a 0c3e 44d2 53be 7969 e5bd 5ad4 23be
00000200: e2b1 793e 8042 6a3b 02d3 52be 86de 553e
00000210: 80c1 c6bd 8664 71be a0da ad3c 60b8 2d3d
00000220: 7844 70bd e064 4ebd 62f2 4b3e 6c17 fbbd
00000230: 70f1 dfbd 5ea6 29be b40a 4a3e 20d6 a2bc
00000240: fbec cebd 9356 21be 9818 ce3d 38c1 04be
00000250: 8463 d0bd 9ba1 d0bd f999 7f3d d4f6 803d
00000260: 012f 173d e654 54bc e157 e7bb 74cb 99bc
00000270: bcf1 8cbe 6ad5 1fbe 3de1 31be 543c 21be
00000280: 1c3f f6bd d45d 9ebd 00fa b83d 70bc ad3d
00000290: 84c3 b0bd 6a31 1bbe bcda dfbd e87c febd
000002a0: c071 52bc 7880 78be 1cd8 193e ace1 57be
000002b0: a8f8 76be 0c1d 123e 9026 14be 2af9 5bbe
000002c0: 1687 05be a057 0abe f4a4 8cbd a00d 0bbc
000002d0: 1830 db3d 4033 d53c 98b5 79bd 6099 2a3d
000002e0: 70fe 82bd 401b 953b c09b 69bd aa4f 15be
000002f0: a6bc 6d3e 9029 8d3c 6093 7abe b04b 763d
00000300: 1e91 91bd d534 bfbe 9012 10be 40d7 d7bd
00000310: 00d3 0a3c 9baa 8abe df27 f0be acc3 4fbe
00000320: 0dca 71bd c440 e6be a442 33be 1ca7 ccbd
00000330: cc68 7bbd 5634 04bf fb0e ecbe 5627 c8be
00000340: 34cd a6bd 0836 7fbe a0df 07bd d872 783d
00000350: 50f0 94bd 107c a23d c856 98bd 1a35 3b3e
00000360: d03a aebd ea24 00be 307a 74be 94a4 dc3d
00000370: d8f4 113d c040 2abe e8b4 6c3e 749e e03d
00000380: 0084 213c 8c01 37be b8ed 6b3e a4e3 97bd
00000390: d090 6d3e 007a 4bbe 0099 393d fc1d 38be
000003a0: b49d 33be c0b9 cc3c acf2 2dbe 0c37 d23d
000003b0: b046 c13c 8020 e9bd a06b 22be 34e3 08be
000003c0: 503e e93d 289b 5cbe 3a51 1e3e 605d a73d
000003d0: f4ee 3d3e c0c8 00bc b4bf 59be 4c6e dabd
000003e0: 3c3b a03d 5c5b 30be ccdc 9e3d 1c38 533e
000003f0: 40ae 63bc 70c4 733e 402f 56bc 16c3 3a3e

fc1.bias f4 [64]
-0.29008827 -0.5441077 -0.35676426 -0.42681187 -0.19973746 -0.41996112 -0.35704046 -0.32217604
0.17306796 -0.36969343 -0.16907519 0.24476883 -0.47640404 0.09720412 -0.055039674 0.16485396
-0.19106945 -0.44933757 0.23634666 -0.1181698 0.17270002 -0.04672146 -0.398325 -0.13604975
0.105574846 -0.061685838 -0.11180453 -0.2837255 -0.7028875 0.11519167 -0.45001936 -0.20534775
-0.07156309 -0.20016995 -0.84315974 -0.082971305 -0.276124 0.13824001 -0.38963678 -0.47376972
-0.2852208 -0.6921814 -0.16722354 -0.65884465 -0.23516396 -0.2418703 0.16543627 -0.0638367
-0.061333578 -1.0277697 -0.24719514 -0.27530462 0.011040193 -0.2930854 -0.5636576 -0.7171201
-0.12588036 -0.5384006 -0.06655173 -1.0264472 -0.48650068 -0.24764124 0.1240145 -0.18866251
00000000: 7386 94be a44a 0bbf cea9 b6be 1687 dabe
00000010: fa87 4cbe 2505 d7be 02ce b6be 42f4 a4be
00000020: ba38 313e 7548 bdbe 0c22 2dbe aea4 7a3e
00000030: 3beb f3be f412 c73d 4871 61bd 7acf 283e
00000040: b6a7 43be 930f e6be dc04 723e 0203 f2bd
00000050: 46d8 303e 005f 3fbd 41f1 cbbe a050 0bbe
00000060: a037 d83d 4aaa 7cbd c6f9 e4bd 7844 91be
00000070: 6ff0 33bf 9ce9 eb3d f068 e6be ae46 52be
00000080: ab8f 92bd 5af9 4cbe 51d9 57bf dcec a9bd
00000090: 2060 8dbe ca8e 0d3e 797e c7be f291 f2be
000000a0: 7608 92be cd32 31bf a63c 2bbe 0baa 28bf
000000b0: d2ce 70be d9ac 77be 2068 293e d1bc 82bd
000000c0: eb38 7bbd f58d 83bf b920 7dbe baf4 8cbe
000000d0: ede1 343c 4a0f 96be dd4b 10bf 2f95 37bf
000000e0: c8e6 00be 9fd4 09bf 464c 88bd 9f62 83bf
000000f0: 9e16 f9be aa95 7dbe 50fb fd3d bf30 41be

fc2.weight f4 [64, 64]
0.31732443 0.24102728 -0.2137778 -0.29480425 -0.10396452 0.025466438 -0.32703274 -0.28605255
-0.049448386 -0.09301132 -0.03446664 -0.08141683 -0.3420553 0.027745828 0.0060574263 -0.057185248
-0.0042034686 0.3558578 0.07327956 -0.4042376 0.07466866 0.11810619 -0.2707046 0.11292249
0.18334751 -0.09791388 0.35935315 0.19989106 -0.539128 0.09363598 -0.24628703 0.012631282
0.24822092 0.035777926 0.567605 -0.07795203 -0.2507464 0.04067801 0.38533378 -0.21016707
-1.1022755 0.3572939 0.23718366 -4.0089464 -0.12135491 -0.46702194 -0.029826859 0.19765566
0.32707816 0.34405473 -0.25911868 0.2618723 0.40619195 -0.24028286 -0.045673765 -0.28888783
-0.08504951 -0.66880393 -0.050286714 -0.13380808 -0.40163463 -0.28312528 0.05773644 -0.4337036
-0.10011363 -0.055436075 -0.033329412 -0.072291136 -0.036761656 -0.32773522 0.08775729 -0.036344454
0.06542352 0.11369239 0.09758121 0.10500133 -0.04152462 -0.007869855 0.09149568 -0.036849245
-0.036885187 0.09650524 -0.080052525 -0.07990764 0.024256721 0.026968881 -0.04245867 -0.012466043
-0.43690452 0.094960675 0.115307644 -0.0022722632 -0.39999747 0.062588096 -0.074326485 -0.042852208
-0.41775262 -0.011912957 -0.047420397 0.08434327 -0.10182086 -0.015591741 -0.43123797 0.047980025
-0.4410024 -0.2864999 -0.104114965 -0.48697796 -0.075014204 0.059983343 0.11869505 0.006590247
-0.032265976 -0.46690485 0.017153889 0.036057934 -0.0037900656 -0.123729736 -0.29196405 -0.4213559
0.07903108 -0.35643345 -0.2936242 -0.112994686 -0.08270089 -0.32790136 0.08650643 0.05679415
-0.23929986 0.10679376 -0.08358739 0.07285419 0.012453169 -0.19786082 -0.033732966 -0.11050545
0.11504972 0.24634017 -0.020146593 -0.119153515 0.03930618 -0.007131204 -0.027117297 0.046414778
0.06820287 -0.08892809 0.075494215 0.18063214 -0.10253638 -0.024373427 -0.05630696 0.028666452
-0.21959285 0.32570654 0.034856066 -0.042603567 -0.20849536 0.0015304834 -0.061466366 0.10662222
-0.3003595 -0.1244203 -0.25313634 -0.10659273 -0.33221692 0.03127055 -0.24109592 -0.20538284
-0.29850525 -0.38271978 -0.072598845 -0.27317888 0.08675243 -0.34821784 -0.23116574 -0.09207712
0.089543566 -0.39207527 -0.2942442 -0.031994894 -0.27069265 0.2079923 -0.3634698 -0.32921085
0.122075185 -0.27328518 -0.34163237 -0.28727755 -0.10593283 -0.23126973 -0.060875237 -0.25290605
0.020097777 0.272405 0.345851 0.28579235 0.024394497 0.35545743 0.25085288 0.351452
0.09094232 0.07952616 0.055603355 -0.04082431 0.3282516 -0.08174893 -0.09911281 0.03424327
-0.01831156 0.36997858 -0.015032381 0.24649672 0.1234124 -0.08754976 0.19541943 -0.061325192
0.011934144 0.2497824 0.2314713 -0.3926023 -0.21872082 0.027406752 0.2736664 0.024867058
0.22036079 -0.05589679 1.5617763 0.026889354 0.27173087 0.040634558 0.42018425 0.11188545
-0.98656595 0.009639564 0.40741396 -1.7923311 0.045079306 0.38053212 0.03645602 0.34555897
0.4044805 -0.019796813 0.11992495 0.44187576 0.25220624 0.34256917 -0.9501266 0.14997715
-0.065155774 -0.31401053 0.13683054 -0.667979 0.18780403 -0.119267695 0.07595171 0.051418014
00000000: 5978 a23e dbcf 763e 91e8 5abe 95f0 96be
00000010: 5aeb d4bd fe9e d03c d670 a7be 7b75 92be
00000020: 648a 4abd b87c bebd e42c 0dbd debd a6bd
00000030: df21 afbe 384b e33c 607d c63b 143b 6abd
00000040: 40bd 89bb fe32 b63e 9813 963d 3bf8 cebe
00000050: e2eb 983d a8e1 f13d cb99 8abe e843 e73d
00000060: 73bf 3b3e 1387 c8bd 23fd b73e 3eb0 4c3e
00000070: 4b04 0abf 38c4 bf3d ab32 7cbe 70f3 4e3c
00000080: a02d 7e3e e08b 123d 904e 113f 50a5 9fbd
00000090: d561 80be fc9d 263d 784a c53e 0936 57be
000000a0: 5d17 8dbf 3aef b63e 46e0 723e 4a49 80c0
000000b0: ec88 f8bd 801d efbe 7557 f4bc 3f66 4a3e
000000c0: ca76 a73e f127 b03e 34ab 84be 2014 863e
000000d0: 64f8 cf3e b60c 76be 6a14 3bbd 1be9 93be
000000e0: 702e aebd bc36 2bbf 71f9 4dbd fc04 09be
000000f0: 0ea3 cdbe ccf5 90be 0c7d 6c3d 660e debe
00000100: 6008 cdbd f010 63bd 6c84 08bd 600d 94bd
00000110: 6493 16bd e9cc a7be 18ba b33d ecdd 14bd
00000120: c4fc 853d 8ed7 e83d a8d8 c73d f00a d73d
00000130: b815 2abd 90f0 00bc 1662 bb3d 3cef 16bd
00000140: ec14 17bd 8aa4 c53d 94f2 a3bd 9ea6 a3bd
00000150: 08b6 c63c d8ed dc3c 24e9 2dbd 603e 4cbc
00000160: f3b1 dfbe be7a c23d 6a26 ec3d 40ea 14bb
00000170: 78cc ccbe 302e 803d 7c38 98bd cc85 2fbd
00000180: ace3 d5be 902e 43bc e43b 42bd 2abc ac3d
00000190: 7487 d0bd 8074 7fbc 39cb dcbe b486 443d
000001a0: 11cb e1be 1db0 92be 3a3a d5bd 2d55 f9be
000001b0: 0ca1 99bd 18b1 753d 6416 f33d 00f3 d73b
000001c0: 5429 04bd 270e efbe 5086 8c3c 7cb1 133d
000001d0: c062 78bb 0466 fdbd 507c 95be f6bb d7be
000001e0: 0cdb a13d 727e b6be e955 96be c269 e7bd
000001f0: 165f a9bd b0e2 a7be 482a b13d fca0 683d
00000200: 060b 75be b0b6 da3d de2f abbd 9434 953d
00000210: 6008 4c3c 079c 4abe 942b 0abd ae50 e2bd
00000220: 309f eb3d 9940 7c3e 780a a5bc c206 f4bd
00000230: 84ff 203d e0ac e9bb 1825 debc 6c1d 3e3d
00000240: f2ad 8b3d ee1f b6bd b69c 9a3d a2f7 383e
00000250: 98fe d1bd c8aa c7bc 20a2 66bd e8d5 ea3c
00000260: f3dc 60be 02c3 a63e 3cc5 0e3d 1481 2ebd
00000270: cf7f 55be 809a c83a 28c4 7bbd c05c da3d
00000280: b8c8 99be 12d0 febd 169b 81be 4a4d dabd
00000290: 5618 aabe 8c15 003d d9e1 76be e14f 52be
000002a0: aed5 98be d9f3 c3be b4ae 94bd 1ade 8bbe
000002b0: 42ab b13d 9c49 b2be b6b6 6cbe ee92 bcbd
000002c0: 9e62 b73d 17be c8be 2da7 96be 140d 03bd
000002d0: 3a98 8abe effb 543e b718 babe 538e a8be
000002e0: 8e02 fa3d 09ec 8bbe 70ea aebe 0b16 93be
000002f0: 50f3 d8bd f9d1 6cbe 5058 79bd e77c 81be
00000300: 18a4 a43c ab78 8b3e 6213 b13e 6053 923e
00000310: f8d6 c73c 84fe b53e ca6f 803e 84f1 b33e
00000320: f83f ba3d 9dde a23d 58c0 633d 6437 27bd
00000330: 9810 a83e fc6b a7bd a8fb cabd ac42 0c3d
00000340: 2002 96bc d56d bd3e 604a 76bc a369 7c3e
00000350: a4bf fc3d 4a4d b3bd 081c 483e 2030 7bbd
00000360: 6e87 433c f5c6 7f3e d006 6d3e 2b03 c9be
00000370: 5af8 5fbe 2084 e03c 011e 8c3e 00b6 cb3c
00000380: 42a6 613e 08f4 64bd 49e8 c73f 1047 dc3c
00000390: 4f20 8b3e 6c70 263d 6422 d73e 3324 e53d
000003a0: 968f 7cbf 43ef 1d3c 9098 d03e 1b6b e5bf
000003b0: 14a5 383d 1bd5 c23e e852 153d 1bed b03e
000003c0: 1118 cf3e ed2c a2bc 369b f53d 8a3d e23e
000003d0: 2d21 813e 3a65 af3e 7f3b 73bf 9c93 193e
000003e0: 6470 85bd fdc5 a0be 4e1d 0c3e ac00 2bbf
000003f0: b34f 403e 9f42 f4bd 928c 9b3d b29b 523d

fc2.bias f4 [64]
-5.7536626 -0.45096752 -0.23547532 -0.9207413 -0.18067905 -1.3720379 -0.36565635 -0.40709564
-0.18864916 -0.83108646 -0.21884811 -0.6850409 -1.0390371 -0.36535206 -1.9167135 -0.3902431
-0.54791373 -0.12100342 -0.9197035 -0.26636922 -0.9242617 -0.3406751 -0.17153762 -0.4088129
-0.12158117 -0.23668705 -0.35959405 -1.5922412 -0.083216235 -0.25086623 -0.40893045 -0.33694977
-0.23579434 -0.69341224 -0.1922767 -0.41722947 -0.35343033 -0.594869 -0.09420735 -3.859658
-0.10018757 -0.26101232 -0.36944318 -0.39183795 -0.49925163 -0.67607147 -0.18847731 -2.9655802
-0.09036098 -0.12715042 -0.41071257 -0.27148262 -0.32892105 -0.38321507 -0.27673566 -0.10434018
-0.2312872 -0.25407666 -0.6365084 -0.0202717 -0.038411085 -0.12216149 -0.20788182 -0.15993628
00000000: 011e b8c0 37e5 e6be 7120 71be b4b5 6bbf
00000010: ee03 39be f09e afbf 4f37 bbbe d76e d0be
00000020: 3f2d 41be 15c2 54bf b819 60be d75e 2fbf
00000030: 2bff 84bf 6d0f bbbe de56 f5bf f2cd c7be
00000040: 1344 0cbf a4d0 f7bd b071 6bbf 8c61 88be
00000050: 6a9c 6cbf f76c aebe 8fa7 2fbe ed4f d1be
00000060: 8cff f8bd 175e 72be b61c b8be 8fce cbbf
00000070: 466d aabd 8a71 80be 555f d1be ae84 acbe
00000080: 1274 71be 7783 31bf 2fe4 44be 1a9f d5be
00000090: d2f4 b4be 5649 18bf c8ef c0bd a304 77c0
000000a0: 242f cdbd 68a3 85be a827 bdbe fc9e c8be
000000b0: e99d ffbe 0513 2dbf 3200 41be 11cc 3dc0
000000c0: 2d0f b9bd b833 02be eb48 d2be c5ff 8abe
000000d0: 5768 a8be c434 c4be 4cb0 8dbe 4eb0 d5bd
000000e0: 8dd6 6cbe 5616 82be 37f2 22bf d610 a6bc
000000f0: f154 1dbd ce2f fabd f9de 54be 56c6 23be

fc3.weight f4 [6, 64]
0.4990585 -0.43746206 -0.15906374 -0.021404171 0.16633399 -0.3165835 -0.3888304 0.31933263
0.22228132 0.85553163 -0.22072 0.16333228 0.13324045 0.42195907 0.077696666 -0.25025967
0.54489124 0.9700464 0.7822897 -0.23055986 -0.4371561 0.18118873 0.3935292 -0.32787746
-0.016341895 -0.34159788 0.114101015 0.063392974 -0.28188083 -0.050324757 -0.36727408 -0.2880433
0.19312279 -0.7932022 -0.18830249 -0.37609255 -0.23603095 -0.32162878 -0.13532197 0.5254431
-0.72146744 0.028533563 -0.23107895 -0.35340914 0.47609392 0.76167774 0.1394559 1.5814176
0.14419255 0.118250564 -0.40134445 -0.17774872 -0.24373707 -0.017722666 -0.2940744 0.61173725
0.1909923 -0.075689614 0.54589546 0.4321425 0.48932672 -0.03502366 -0.31164557 -0.14169076
-0.5666265 -0.32242057 0.2430253 -0.20323248 0.18654491 -0.40626246 0.15587561 -0.8656462
-0.044467907 -0.08250001 -0.28171447 -0.048292376 -0.2207519 -0.23989706 -0.2927997 -0.34949782
-0.052644104 0.37582073 0.097205535 -0.2298599 -0.19051793 -0.0051370263 0.69043154 -0.23195237
0.30033982 -0.15931678 0.103178136 -0.12513496 -0.1873442 0.18253042 -0.39148057 0.18202475
-0.2851803 0.46828294 -0.35155764 -0.19734429 -0.35516626 -0.3472915 0.3244999 -0.06639662
0.40729177 0.08558394 -0.29195884 -0.26490158 0.3553763 0.012728721 0.16457315 -0.17933911
-0.010448605 0.35326603 -0.3700144 0.41858634 -0.30347094 -0.14421743 0.319518 0.5893496
0.35477996 -0.22429122 0.72897863 -0.19528718 0.0668942 -0.04470609 -0.27496448 0.075530216
0.016862122 0.30641967 0.3270324 0.34564576 -0.3608934 -0.28601804 0.14829755 0.57467866
0.23384085 -0.70052755 -0.2305607 -0.2084669 0.17119326 -0.42428774 0.06539631 -0.22306368
0.11429854 0.9568073 0.8004848 -0.31565502 -0.03934884 0.076747805 -0.018554037 -0.3885184
0.17910625 0.22557417 -0.81631607 -0.001603367 -0.3233276 0.12129274 -0.3346556 0.34569538
-0.17613277 -0.015250234 -0.3842816 -0.24930573 -0.38509667 -0.277448 0.21685754 -0.1842689
-0.27632576 0.19294369 -0.3724528 -0.31986672 0.40357113 0.7763907 0.19269706 1.419919
-0.4635107 -0.60654694 -0.3454082 -0.2252075 -0.32030636 -0.06930099 -0.20997116 -0.06383994
-0.5531393 -0.28366545 -0.6910461 -1.3421999 -1.8084922 0.11036274 0.23162135 0.19127376
0.23773678 0.31954446 0.18464379 -0.20440169 0.2202019 -0.33342656 0.35468483 -0.05565363
-0.036175776 0.06126316 -0.19949843 -0.36738208 -0.42458236 -0.22276844 0.13141741 -0.3673387
0.039915532 -0.35867256 0.018754736 -0.2185431 0.12432841 -0.07912801 0.49849752 -0.31667995
0.17916647 0.1665855 -0.59151 0.5217049 0.49226797 0.075003825 -0.32478902 -0.2906825
-0.31148604 -0.4339832 -0.42214382 -0.21612258 -0.18953791 -0.103603676 0.07054993 -0.11287608
-0.16940396 -0.11256942 -0.2840214 -0.21532036 -0.43265766 -0.05640924 0.07218621 0.5385713
0.030279253 -0.92469233 -0.22865021 0.2052403 -0.2925225 0.2276452 -0.17522997 0.2749389
-0.23846644 -0.20248707 0.5087079 -0.019025384 0.2616128 0.061658382 -0.28325698 0.0009074219
00000000: 9984 ff3e 07fb dfbe 9be1 22be cd57 afbc
00000010: 7553 2a3e 3c17 a2be c714 c7be 917f a33e
00000020: b79d 633e 1f04 5b3f 6c04 62be 9440 273e
00000030: 2f70 083e 050b d83e 6e1f 9f3d 0922 80be
00000040: fe7d 0b3f f654 783f 2344 483f e217 6cbe
00000050: edd2 dfbe 8a89 393e a97c c93e 8edf a7be
00000060: 70df 85bc ebe5 aebe cbad e93d 2dd4 813d
00000070: af52 90be 5521 4ebd 590b bcbe 697a 93be
00000080: fbc1 453e 4d0f 4bbf 5ed2 40be 348f c0be
00000090: 19b2 71be 87ac a4be d891 0abe 7083 063f
000000a0: 17b2 38bf 38bf e93c f69f 6cbe 0bf2 b4be
000000b0: 95c2 f33e 50fd 423f 87cd 0e3e e46b ca3f
000000c0: 36a7 133e 5a2d f23d 057d cdbe c303 36be
000000d0: 3696 79be 202f 91bc eb90 96be d09a 1c3f
000000e0: 7c93 433e 2803 9bbd cebf 0b3f c841 dd3e
000000f0: 0889 fa3e f874 0fbd 0290 9fbe 6217 11be
00000100: 6f0e 11bf 4f14 a5be a0db 783e 2d1c 50be
00000110: a105 3f3e a201 d0be db9d 1f3e fd9a 5dbf
00000120: fb23 36bd c4f5 a8bd e13c 90be 3ace 45bd
00000130: c90c 62be 93a7 75be d8e9 95be 61f1 b2be
00000140: 58a1 57bd 936b c03e b213 c73d 6560 6bbe
00000150: 2217 43be 8054 a8bb 1fc0 303f ec84 6dbe
00000160: 24c6 993e f023 23be 0f4f d33d 6123 00be
00000170: 28d7 3fbe 41e9 3a3e 2470 c8be b264 3a3e
00000180: 2703 92be c8c2 ef3e 5dff b3be 9f14 4abe
00000190: 5ad8 b5be 31d0 b1be da24 a63e f3fa 87bd
000001a0: 8c88 d03e a246 af3d a17b 95be 2ea1 87be
000001b0: e2f3 b53e 208c 503c dd85 283e aca4 37be
000001c0: a030 2bbc 49df b43e 8772 bdbe f350 d63e
000001d0: 8b60 9bbe bcad 13be dd97 a33e 9edf 163f
000001e0: b8a5 b53e 99ac 65be 589e 3a3f 5df9 47be
000001f0: d4ff 883d bc1d 37bd 25c8 8cbe 96af 9a3d
00000200: 6f22 8a3c 0ae3 9c3e ca70 a73e 7bf8 b03e
00000210: 05c7 b8be f570 92be 50db 173e 241e 133f
00000220: fa73 6f3e c655 33bf 1b18 6cbe 5978 55be
00000230: 494d 2f3e 3e3c d9be 80ee 853d ce6a 64be
00000240: 5a15 ea3d 53f1 743f 92ec 4c3f 899d a1be
00000250: 402c 21bd f42d 9d3d a3fe 97bc e2eb c6be
00000260: a167 373e eafc 663e 17fa 50bf 1228 d2ba
00000270: 328b a5be 5468 f83d fb57 abbe fcfe b03e
00000280: 265c 34be 1edc 79bc 8fc0 c4be 004a 7fbe
00000290: 642b c5be aa0d 8ebe e70f 5e3e fdb0 3cbe
000002a0: 927a 8dbe 0893 453e 22b2 bebe 92c5 a3be
000002b0: e0a0 ce3e 8ac1 463f 6152 453e e8bf b53f
000002c0: 4651 edbe a946 1bbf 58d9 b0be cb9c 66be
000002d0: 32ff a3be aded 8dbd ae02 57be 84be 82bd
000002e0: 8a9a 0dbf 993c 91be 66e8 30bf 35cd abbf
000002f0: ac7c e7bf dc05 e23d 262e 6d3e 45dd 433e
00000300: 4571 733e 559b a33e 4313 3d3e ad4e 51be
00000310: 9b7c 613e e3b6 aabe 4099 b53e 10f5 63bd
00000320: 0d2d 14bd 14ef 7a3d 5149 4cbe 8119 bcbe
00000330: dc62 d9be 691d 64be 4992 063e d113 bcbe
00000340: 787e 233d eea3 b7be 88a3 993c c3c9 5fbe
00000350: e59f fe3d de0d a2bd 113b ff3e e023 a2be
00000360: 6a77 373e 6495 2a3e 336d 17bf 748e 053f
00000370: 8c0a fc3e 9b9b 993d bf4a a6be 56d4 94be
00000380: 197b 9fbe 0c33 debe 3c23 d8be 3d4f 5dbe
00000390: 3a16 42be 2a2e d4bd 7b7c 903d 932b e7bd
000003a0: 3b78 2dbe cc8a e6bd 416b 91be f17c 5cbe
000003b0: 4e85 ddbe 600d 67bd 5dd6 933d cfdf 093f
000003c0: 320c f83c a3b8 6cbf 4823 6abe 832a 523e
000003d0: 82c5 95be d31b 693e 7c6f 33be cbc4 8c3e
000003e0: 8c30 74be c558 4fbe ae3a 023f 1fdb 9bbc
000003f0: 1df2 853e 808d 7c3d 0f07 91be 0ee0 6d3a

fc3.bias f4 [6]
-3.8495095 -3.6667495 -3.6888032 -3.5503967 -8.104847 -9.854724
00000000: 5d5e 76c0 06ac 6ac0 5a15 6cc0 b339 63c0
00000010: 74ad 01c1 f3ac 1dc1
