checkpoints/model_128.pth (torch, 25180 bytes, 6 tensors)

fc1.weight f4 [64, 16]
0.07024726 -0.20076685 -0.018647287 -0.010652567 -0.0069003487 -0.030277135 -0.03559436 0.006679573
-0.03353914 -0.028693741 -0.008643414 0.059983347 -0.1021262 -0.012823362 0.20324628 -0.10359983
-0.0973764 -0.05856716 -0.017902363 0.009444323 -0.011348085 0.10593162 0.12136721 -0.0016210199
0.118375026 0.10234418 -0.11919659 -0.52360404 0.3329912 0.23162083 -0.52837455 0.30649424
0.007977323 -0.012454467 -0.018896235 0.00789934 0.019597406 -0.010198215 -0.0065169022 -0.018843714
-0.009584961 -0.003956513 -0.013091514 0.016111478 0.008601281 -0.012834926 0.01124443 -0.012903484
-0.010398416 0.02128351 -0.0037603488 -0.005433503 0.018751286 0.07872623 0.062781036 0.0038568662
0.067318164 0.07175876 0.016000576 0.1126263 -0.12420836 0.050242107 -0.04245142 0.07130939
0.07458458 -0.019061793 -0.0064669135 -0.003896337 -0.01577792 0.09471037 0.08204466 0.018841514
0.06347656 0.09550196 0.08360878 0.27217254 -0.11543073 -0.038713418 -0.025229914 -0.002907558
-0.25957152 0.058658987 0.016290162 -0.010932137 0.014766683 0.068950035 0.04161882 0.0029506048
0.0643645 0.057631847 -0.107893296 -0.2505414 -0.054906886 0.08558452 0.52276033 -1.5408708
-0.020262863 0.012878373 -0.013845338 0.00496255 -0.0051715723 -0.019516498 -0.017589139 -0.012042136
-0.005791054 0.015789628 -0.0024831737 0.0035684174 0.0019903982 0.016743762 0.020383311 0.008955658
-0.019307557 0.00077207456 -0.020216143 0.007705416 0.0029003883 0.0031865153 -0.016768144 -0.016956473
0.0005263017 0.0027370844 -0.0038639419 0.014578633 -0.011407342 -0.007811295 -0.010849463 0.014419557
-0.019314067 -0.010403368 -0.0015380715 -0.0059880987 -0.020504968 0.0002878992 -0.019170985 -0.0015012218
0.0028392896 0.004535074 -0.01968825 -0.019676784 -0.010476246 0.0073850043 0.01704733 0.0060791564
0.00014581882 -0.25078174 0.010930164 -0.0045195124 -0.0013840984 -0.010067156 0.00029232277 -0.0031423538
-0.025250617 -0.01741664 -0.090128236 -0.15607081 -0.070438184 -0.021401549 0.21239282 -0.21478206
-0.00595611 0.028405549 0.009768851 0.014349999 0.013924456 0.027268166 -0.0056126 0.009421942
-0.008671108 0.012021365 -0.30773607 0.07895777 0.8896932 -0.030741552 -0.31494302 0.31311783
0.00966344 -0.014229344 0.017076088 -0.0117281545 0.0035060877 -0.0059427675 -0.0001997477 -0.017913915
-0.016807053 -0.0052799853 -0.017657345 0.018680947 0.0010007438 0.012068612 -0.01693432 -0.0132034505
-0.008338401 0.01902247 0.0065633063 0.018571533 -0.0009868119 -0.015105009 -0.008897398 -0.0038896855
0.0017988102 0.007857999 -0.0070249825 0.010398198 -0.0022918286 0.018359747 -0.0005511598 -0.01264208
-0.11361349 0.021461926 -0.016123708 0.0160723 -0.0065168315 0.06527601 0.05115138 -0.0053402833
0.04907335 0.063339464 0.0033795554 -0.46737218 0.16908707 0.1477934 -0.23453555 0.03314737
-0.1467223 0.0036729428 0.018778836 0.017098524 -0.011658196 -0.0155579 -0.048971135 0.015237795
-0.023722552 -0.04124318 -0.088058375 -0.1931574 -0.161848 -0.17637864 0.24138567 0.31191218
-0.006742607 0.011362054 0.010458592 0.015082052 0.010719052 0.0004329106 -0.015691755 -0.0064707696
-0.019092519 0.004784056 0.013723755 -0.014179104 -0.0021075564 -0.010954619 0.0020762403 -0.019236647
00000000: ccdd 8f3d d395 4dbe 32c2 98bc 1b88 2ebc
00000010: 521c e2bb c107 f8bc 64cb 11bd 52e0 da3b
00000020: 5660 09bd 230f ebbc 1b9d 0dbc 19b1 753d
00000030: 8b27 d1bd 1419 52bc cb1f 503e 262c d4bd
00000040: 476d c7bd 1ee4 6fbd faa7 92bc 5dbc 1a3c
00000050: 51ed 39bc adf2 d83d 5f8f f83d 6778 d4ba
00000060: 9b6e f23d d399 d13d 571d f4bd ea0a 06bf
00000070: d37d aa3e 032e 6d3e 8e43 07bf d0ec 9c3e
00000080: 51b3 023c d20d 4cbc 47cc 9abc 3c6c 013c
00000090: bd8a a03c 6a16 27bc bd8b d5bb 225e 9abc
000000a0: 3e0a 1dbc a3a5 81bb ca7d 56bc 38fc 833c
000000b0: 63ec 0c3c 9549 52bc 8f3a 383c 2269 53bc
000000c0: 1e5e 2abc c15a ae3c 2f70 76bb 870b b2bb
000000d0: 4c9c 993c 383b a13d 5893 803d 7ac3 7c3b
000000e0: 1bde 893d 42f6 923d a413 833c 9ea8 e63d
000000f0: f460 febd abca 4d3d 8ae1 2dbd a80a 923d
00000100: cdbf 983d 7a27 9cbc 67e8 d3bb b059 7fbb
00000110: b240 81bc 83f7 c13d 0807 a83d 8559 9a3c
00000120: 0000 823d 8896 c33d 143b ab3d 335a 8b3e
00000130: f266 ecbd f691 1ebd f7ae cebc bb8c 3ebb
00000140: 8fe6 84be 6844 703d f272 853c b51c 33bc
00000150: f5ef 713c ad35 8d3d 7f78 2a3d ef5e 413b
00000160: 89d1 833d 5f0f 6c3d 29f7 dcbd f646 80be
00000170: 0be6 60bd f046 af3d 9fd3 053f 413b c5bf
00000180: 4efe a5bc d0ff 523c 8ed7 62bc e39c a23b
00000190: 4b76 a9bb 10e1 9fbc 1917 90bc 614c 45bc
000001a0: e2c2 bdbb 4059 813c bebc 22bb 1cdc 693b
000001b0: 5771 023b 372a 893c e7fa a63c c1ba 123c
000001c0: e22a 9ebc 0c65 4a3a 539c a5bc b77d fc3b
000001d0: 7114 3e3b dbd4 503b 595d 89bc 4de8 8abc
000001e0: 82f7 093a a860 333b 303a 7dbb 38db 6e3c
000001f0: dce5 3abc e4f5 ffbb f2c1 31bc 0140 6c3c
00000200: 8938 9ebc e372 2abc 1e99 c9ba d037 c4bb
00000210: 09fa a7bc 2df1 9639 780c 9dbc a5c4 c4ba
00000220: 6013 3a3b f59a 943b 4149 a1bc 3531 a1bc
00000230: 8fa4 2bbc e8fd f13b d8a6 8b3c a933 c73b
00000240: f1e6 1839 7766 80be 6e14 333c 6b18 94bb
00000250: a36a b5ba b6f0 24bc e642 9939 f3ef 4dbb
00000260: 62da cebc 57ad 8ebc 2795 b8bd 07d1 1fbe
00000270: e541 90bd 4d52 afbc 817d 593e d4ef 5bbe
00000280: 792b c3bb c1b2 e83c 880d 203c 421c 6b3c
00000290: 6723 643c 7d61 df3c e7e9 b7bb 7d5e 1a3c
000002a0: 4311 0ebc 42f5 443c 958f 9dbe 9cb4 a13d
000002b0: efc2 633f b5d5 fbbc 3640 a1be fb50 a03e
000002c0: 6853 1e3c 3222 69bc 27e3 8b3c 7227 40bc
000002d0: 64c6 653b 8cbb c2bb 5d73 51b9 34c0 92bc
000002e0: f2ae 89bc ba03 adbb 23a6 90bc c908 993c
000002f0: 642b 833a 6dbb 453c d8b9 8abc 4953 58bc
00000300: ca9d 08bc 03d5 9b3c 0111 d73b 5423 983c
00000310: ea57 81ba 007b 77bc 64c6 11bc 18ea 7ebb
00000320: 0ec6 eb3a d6be 003c d331 e6bb 345d 2a3c
00000330: 8132 16bb 2e67 963c b57b 10ba ba20 4fbc
00000340: 30ae e8bd ecd0 af3c de15 84bc 0eaa 833c
00000350: 258b d5bb 6eaf 853d 1c84 513d 8bfd aebb
00000360: 2301 493d 1fb8 813d 887b 5d3b 684b efbe
00000370: 2925 2d3e 2757 173e 162a 70be 89c5 073d
00000380: 5f3e 16be c1b5 703b 13d6 993c 3412 8c3c
00000390: 0502 3fbc 90e6 7ebc f595 48bd f2a7 793c
000003a0: cc55 c2bc 9cee 28bd f357 b4bd 0ecb 45be
000003b0: 7bbb 25be 9a9c 34be ce2d 773e f4b2 9f3e
000003c0: 16f1 dcbb e927 3a3c 845a 2b3c b61a 773c
000003d0: f69e 2f3c 47f8 e239 ff8b 80bc c008 d4bb
000003e0: ea67 9cbc 92c3 9c3b 9ad9 603c 794f 68bc
000003f0: ee1e 0abb 017b 33bc 8811 083b 2c96 9dbc

fc1.bias f4 [64]
-0.022734998 0.101733536 -0.009890449 0.07160601 0.08842971 0.035585232 -0.015616866 -0.005043374
0.009662058 0.004797913 0.010112602 -0.0068782074 -0.016183281 0.042224906 -0.033805367 -0.000669586
0.081677936 -0.0049185394 -0.120534115 0.023584051 -0.0005897207 0.12676808 0.08500926 0.0080310665
0.038997807 -0.01040473 0.073878154 -0.00863236 0.05445832 0.09750427 -0.015821114 -0.029436603
-0.077122115 -0.012565775 0.07563077 0.05506067 0.09336895 -0.044843253 0.07680002 -0.014802136
-0.007893961 0.011478647 -0.09815397 -0.1304421 0.0048632617 0.008514437 -0.013707114 -0.02084366
0.16510023 -0.017697455 0.045946743 -0.018049637 -0.07591427 -0.0051379134 0.08875363 -0.00034955502
0.050830495 0.020629534 -0.06349924 0.04580299 0.050560478 -0.023763545 0.08208834 -0.03867077
00000000: bf3e babc ac59 d03d 8d0b 22bc 2ca6 923d
00000010: a31a b53d d2c1 113d e2dd 7fbc e342 a5bb
00000020: 9c4d 1e3c d037 9d3b 54af 253c 9662 e1bb
00000030: cd92 84bc 06f4 2c3d 7f77 0abd 2887 2fba
00000040: c346 a73d b32b a1bb 97da f6bd 5733 c13c
00000050: 7c97 1aba 7ecf 013e 5619 ae3d bc94 033c
00000060: 2abc 1f3d 9a78 2abc 6e4d 973d be6e 0dbc
00000070: b00f 5f3d 52b0 c73d 489b 81bc 0825 f1bc
00000080: 33f2 9dbd aee0 4dbc 4ee4 9a3d 4c87 613d
00000090: 3838 bf3d 8fad 37bd 5449 9d3d a984 72bc
000000a0: ac55 01bc ef10 3c3c f304 c9bd 9d92 05be
000000b0: ff5b 9f3b 2380 0b3c ce93 60bc 53c0 aabc
000000c0: 0910 293e 41fa 90bc a732 3c3d d5dc 93bc
000000d0: f178 9bbd f15b a8bb 77c4 b53d 7b44 b7b9
000000e0: a333 503d 45ff a83c e40b 82bd eb9b 3b3d
000000f0: 8118 4f3d c4ab c2bc ee1d a83d 3e65 1ebd

fc2.weight f4 [64, 64]
0.006418331 0.0015144632 -0.005730495 -0.007935029 0.0027311775 -0.01065217 -0.008183692 -0.0043779165
0.005000009 -0.007825416 0.001853265 -0.0020796892 0.00052839465 -0.00027012973 -0.0063005136 -0.00591565
-0.0086494135 0.006934846 -0.008168008 0.0053651384 -0.0081710415 -0.007378671 -0.0069265775 -0.0025933143
0.0014673948 -0.00793912 -0.010696575 -0.00467442 -0.009361856 -0.008208312 -0.007553341 0.0022877036
0.0011202015 -0.0060702274 0.0030458327 -0.005221244 0.0030074206 0.0029279366 -0.0058191535 0.0043050265
-0.00029938115 -0.004094757 0.0050202548 -0.00658641 0.0027050714 0.0073242374 0.0031464766 -0.006419812
-0.00779533 -0.0038313626 -0.005904555 -0.000637874 -0.006802359 0.0018085974 -0.006757637 0.006573919
0.00054377434 -0.011740692 0.003183287 -0.009871818 0.006184588 -0.0021520404 -0.0043988917 -0.0025919727
-0.0038474964 -0.0045746416 0.008092029 0.00451796 0.0033810134 -0.0050618732 -0.0058694803 0.0032291843
0.000842422 0.0046421825 -0.0037243527 0.003158966 -0.010480686 0.0039452305 -0.0030908363 0.0022767691
-0.0031404034 -0.0023468493 0.003316021 -0.0007275738 -0.0006605672 -0.0010377363 -0.002151542 -0.011805993
-0.0032358249 0.0025688496 -0.012492726 0.00468073 -0.0036357387 -0.0009269507 -0.006015836 -0.010344984
0.0065557174 0.00022046368 -0.003021372 -0.012340954 0.006576463 0.004527761 -0.008347326 0.006550139
0.008421482 -0.003114794 0.006856893 -0.00022805687 0.009005627 0.0077253794 0.0062870653 -0.0076817013
-0.00058455043 -0.001981572 -0.000475951 0.004147797 -0.008974747 -0.004062324 -0.00452066 0.0009246958
-0.012916462 -0.012841495 -0.0037649882 0.004915277 -0.012806272 -0.0031603677 -0.010750638 -0.0034879576
-0.067078054 0.05959888 0.007080317 0.10331544 0.10079595 -0.028628854 -0.008342838 -0.009966983
0.0093348855 -0.1203349 -0.07846514 0.010074921 0.0057472535 0.08878111 0.40545607 0.004565076
0.10653527 0.00058034476 -0.3893074 0.07898693 0.0038993438 1.166139 0.091695786 0.08195295
0.0028002625 -0.0015174509 0.052554667 -0.038022604 0.12236014 0.1401126 0.008353269 -0.018485598
0.08862541 0.1603597 0.049241822 0.07066409 0.106020704 -0.06189453 0.095822506 -0.0057750717
-0.0067320145 -0.0008675675 -0.2051682 -0.17519586 -0.0026248007 0.009039859 0.005482365 -0.0063956464
-0.087088205 0.009866997 0.0832392 -0.009233616 0.09449587 -0.00043723293 -0.09575635 0.0058019473
0.08948427 0.0695036 -0.054495588 0.07726984 0.13584028 -0.02167199 0.048761275 -0.041682005
0.006362236 -0.012077332 0.009166776 -0.008094767 -0.01536697 -0.012693926 -0.005951808 0.0022969819
0.004012518 0.007595368 -0.021985741 -0.0030703254 -0.007457836 -0.010170893 -0.010284532 -0.0076254494
-0.02646017 0.0033640976 -0.010420256 -0.024041347 -0.0014564819 -0.0038243544 -0.028906014 -0.027775273
-0.0054251617 0.0061348965 -0.029882383 -0.0315504 -0.02623976 -0.023400499 -0.0069318297 0.0014221366
-0.009166582 -0.0166811 -0.019308295 -0.013685689 -0.016237002 -0.0061506643 -0.013089386 -0.004870221
-0.0045509976 -0.005450816 -0.021494942 -0.016002592 -0.0018142926 0.009846759 -0.0031490559 0.0040271077
-0.0045904657 -0.0072023626 -0.029301876 -0.008655111 0.0051065907 0.0061768577 -0.016330933 -0.0062259044
-0.02783078 -0.009528624 0.0011730929 -0.0101531595 -0.010571026 -0.010933492 -0.009790054 -0.0084319385
00000000: dd50 d23b f480 c63a e0c6 bbbb ed01 02bc
00000010: 8efd 323b 7086 2ebc e414 06bc a074 8fbb
00000020: 1ed7 a33b 2c36 00bc 41e9 f23a 654b 08bb
00000030: f783 0a3a 33a0 8db9 8a74 cebb 12d8 c1bb
00000040: 45b6 0dbc b43d e33b 1cd3 05bc 0bce af3b
00000050: d5df 05bc c7c8 f1bb 58f8 e2bb 98f4 29bb
00000060: 9955 c03a 1513 02bc b040 2fbc e12b 99bb
00000070: 7862 19bc 287c 06bc 0482 f7bb 4ced 153b
00000080: bad3 923a c2e8 c6bb 989c 473b f816 abbb
00000090: 2518 453b a0e2 3f3b 99ae bebb 2e11 8d3b
000000a0: 42f6 9cb9 502d 86bb f380 a43b d0d2 d7bb
000000b0: 9147 313b 2800 f03b 1e35 4e3b 495d d2bb
000000c0: f86f ffbb 9917 7bbb ff7a c1bb 0037 27ba
000000d0: 53e6 debb 750e ed3a 2b6f ddbb 086a d73b
000000e0: 148c 0e3a 085c 40bc b29e 503b 68bd 21bc
000000f0: 16a8 ca3b 3f09 0dbb 9424 90bb 16de 29bb
00000100: 4726 7cbb e0e6 95bb 6e94 043c 650b 943b
00000110: fe93 5d3b 12de a5bb c554 c0bb b9a0 533b
00000120: fcd5 5c3a 731d 983b 4514 74bb a806 4f3b
00000130: 2fb7 2bbc fe46 813b a18f 4abb d935 153b
00000140: 3acf 4dbb 99cd 19bb 9a51 593b a7ba 3eba
00000150: ea29 2dba a704 88ba e300 0dbb ec6d 41bc
00000160: 2210 54bb 255a 283b 4aae 4cbc cf60 993b
00000170: 9345 6ebb 9cfe 72ba 7d20 c5bb 027e 29bc
00000180: 58d1 d63b 452c 6739 3602 46bb b631 4abc
00000190: 5f7f d73b 9d5d 943b 39c3 08bc 8ca2 d63b
000001a0: 41fa 093c 9221 4cbb caaf e03b 8d22 6fb9
000001b0: 568c 133c 2e25 fd3b ba03 ce3b c8b6 fbbb
000001c0: 843c 19ba 43dd 01bb 1089 f9b9 3eea 873b
000001d0: d10a 13bc 3e1d 85bb 0b22 94bb 4967 723a
000001e0: 919f 53bc 2265 52bc 05be 76bb 5510 a13b
000001f0: 66d1 51bc 2c1e 4fbb 7223 30bc 3896 64bb
00000200: 3860 89bd f51d 743d 0102 e83b 0c97 d33d
00000210: 1b6e ce3d 0f87 eabc 66b0 08bc 8f4c 23bc
00000220: 59f1 183c 2572 f6bd 55b2 a0bd 4811 253c
00000230: 7553 bc3b dfd2 b53d f097 cf3e a296 953b
00000240: 2a2f da3d 4722 183a 4d53 c7be e6c3 a13d
00000250: 228c 7f3b 0b44 953f 00cb bb3d f3d6 a73d
00000260: 9c84 373b 34e5 c6ba 9043 573d 97bd 1bbd
00000270: f497 fa3d ad79 0f3e 26dc 083c 1c6f 97bc
00000280: 3d81 b53d 5535 243e cbb1 493d 56b8 903d
00000290: 6221 d93d 1e85 7dbd 973e c43d d03c bdbb
000002a0: 3b98 dcbb 786d 63ba 9d17 52be 8b66 33be
000002b0: d904 2cbb eb1b 143c 69a5 b33b 9292 d1bb
000002c0: 4d5b b2bd 2fa9 213c 5079 aa3d 9848 17bc
000002d0: 0d87 c13d 693c e5b9 e81b c4bd 431e be3b
000002e0: 8743 b73d e757 8e3d c436 5fbd a63f 9e3d
000002f0: b719 0b3e 7589 b1bc e7b9 473d c0ba 2abd
00000300: 4e7a d03b 00e0 45bc 3f30 163c ea9f 04bc
00000310: bec5 7bbc 2ffa 4fbc 6207 c3bb f688 163b
00000320: 717b 833b 91e2 f83b 711b b4bc 8337 49bb
00000330: dd60 f4bb d1a3 26bc 7480 28bc e8de f9bb
00000340: 00c3 d8bc 3178 5c3b b9b9 2abc 5cf2 c4bc
00000350: 6ce7 beba 05a2 7abb 4ecc ecbc f888 e3bc
00000360: 8ec5 b1bb 3e07 c93b e6cb f4bc fe3a 01bd
00000370: c4f4 d6bc 67b2 bfbc 6724 e3bb fc66 ba3a
00000380: 6e2f 16bc cda6 88bc 6e2c 9ebc f139 60bc
00000390: 7603 85bc 838b c9bb dd74 56bc 6096 9fbb
000003a0: 8920 95bb c29c b2bb 2916 b0bc de17 83bc
000003b0: 8fcd edba 4d54 213c 6460 4ebb d4f5 833b
000003c0: 9e6b 96bb cc01 ecbb 7d0a f0bc 2bce 0dbc
000003d0: 3055 a73b 3d67 ca3b 73c8 85bc ac02 ccbb
000003e0: 60fd e3bc f21d 1cbc 77c2 993a 7059 26bc
000003f0: 1932 2dbc 6422 33bc 7666 20bc 1d26 0abc

fc2.bias f4 [64]
-0.0016731432 0.004024182 0.16327557 -0.008324031 0.070957 -0.006276934 -0.0107091535 -0.0059760828
0.057033777 -0.0068024257 0.17388314 0.027667712 -0.012133375 0.0044530006 0.06690919 0.13189517
-0.00051940395 0.0055172946 -0.0011628523 0.06558812 0.17147332 0.18287294 0.22090995 0.17819606
0.20730586 -0.008755863 0.2030208 0.23216288 -0.005291515 0.12325633 0.05884746 0.14865576
-0.020489516 -0.016380804 0.19423053 -0.0093796635 -0.020579975 -0.01702304 0.14665078 0.000266817
0.086131826 0.18507281 0.186946 -0.00800601 0.19918059 0.0045874906 -0.010148894 0.20317437
0.09042166 0.19513632 0.20101763 0.13692416 0.12258681 -0.010067687 0.15143989 -0.018804844
-0.010219526 -0.0017839844 -0.004480962 0.112917684 0.10274656 0.18058819 0.20815057 0.21341701
00000000: 5f4d dbba 49dd 833b b631 273e 8461 08bc
00000010: e751 913d bdae cdbb 7275 2fbc 04d3 c3bb
00000020: 409c 693d e2e6 debb 6c0e 323e 66a7 e23c
00000030: 10cb 46bc 7aea 913b af07 893d 870f 073e
00000040: 9c28 08ba 6cca b43b d96a 98ba 1053 863d
00000050: b496 2f3e 0b43 3b3e 3836 623e 0779 363e
00000060: fd47 543e c074 0fbc afe4 4f3e 1bbc 6d3e
00000070: 7264 adbb d16d fc3d 090a 713d 3739 183e
00000080: a1d9 a7bc 0931 86bc 5ee4 463e 29ad 19bc
00000090: 5697 a8bc e773 8bbc 9f2b 163e 92e3 8b39
000000a0: e265 b03d ba83 3d3e c66e 3f3e a42b 03bc
000000b0: fff5 4b3e a952 963b 8c47 26bc f10c 503e
000000c0: fe2e b93d d1d1 473e 91d7 4d3e d935 0c3e
000000d0: cb0e fb3d f1f2 24bc 0f13 1b3e 9e0c 9abc
000000e0: cc6f 27bc 95d4 e9ba 09d5 92bb 6341 e73d
000000f0: ca6c d23d 1cec 383e 6c25 553e fd89 5a3e

fc3.weight f4 [6, 64]
-0.009428529 0.006923147 -0.0055233347 -0.0048776865 0.022243828 0.0028994216 0.031473376 -0.0013170388
-0.038186267 0.003117411 -0.065756366 -0.04562802 0.005897926 0.0031235944 0.05924414 -0.041271895
-0.0024232878 0.0016900868 0.0023410842 -0.031024065 -0.14211275 -0.17087004 -0.15094341 -0.056088254
-0.11035601 0.0077821864 -0.11501779 -0.14836991 -0.008864056 -0.21848688 0.018584477 -0.1401311
0.005693631 0.0035247274 -0.13050781 -0.0037927623 0.0003151509 0.0022037087 -0.084049165 -0.009294027
-0.091887385 -0.09012419 -0.13703737 -0.006507741 -0.18612152 0.006437427 -1.1638973e-05 -0.13462396
-0.8287641 -0.10969086 -0.12503815 -0.12758495 -0.2247327 0.009750741 -0.1739948 0.00041107737
0.0011035909 -0.009835871 0.005387861 0.011748232 -1.1763949 -0.06711882 -0.17994666 -0.15737104
0.006626753 0.0076394747 -0.03701038 0.0008121803 -0.07197728 -0.007078304 0.02009053 0.009276418
-0.0564839 -0.0040899487 -0.31869975 -0.03647186 0.0022639472 0.05873594 0.016395291 -0.10466075
0.0096769305 -0.013091366 0.005591563 -0.15375265 0.10892394 -0.2476039 -0.15912145 -0.19707187
-0.15200943 -0.0026941814 -0.061660897 -0.10347 -0.007497722 0.070048705 -0.32378182 -0.08913991
0.0021222446 0.0067799613 -0.060602337 0.008168708 0.0014186932 0.0008892638 0.011956771 0.00036279642
-0.24595098 -0.030897131 -0.06573881 -0.0041040285 0.0009531522 0.0052403472 -0.0069961064 -0.14524175
0.048275545 -0.15422787 -0.11280765 -0.25807148 -0.031421263 0.0038464789 0.079474345 0.00043456504
0.00862253 0.0016065908 -0.008466224 -0.19677268 -0.103281096 -0.14541832 -0.16903542 -0.4315345
-0.0024567246 0.0022268095 0.015500298 -0.029797247 -0.38599673 0.005567535 -0.026244745 -0.009906132
-0.10555771 0.0032883214 -0.19832702 0.019625846 -0.001957071 0.10584444 0.032039728 -0.26163894
0.004748874 -0.0012142439 0.0040113013 -0.14253128 -0.5059375 -0.094931 -0.15015681 -0.10236235
-0.16233385 0.007854276 -0.15193 -0.033888094 0.006228804 -0.07541391 -0.14771439 -0.19904487
-0.0013538636 0.0051051774 -0.13355705 -0.008033814 0.0046188645 -0.014923535 -0.053947903 0.0022853555
-0.067388 0.013457513 -0.15167196 0.009945079 -0.13627568 0.002339135 0.0030757922 -0.18472776
-0.015257056 -0.16188382 -0.13514826 -0.0512862 -0.05202818 -0.005473624 -0.07243327 -0.0012696366
-0.009053131 -0.0018582587 0.007078231 -0.1483846 -0.07689238 -0.08117455 -0.118418984 0.06656626
-0.0012946212 -0.005166423 -0.5568506 -0.011081374 0.059809446 -0.0007501719 -0.05268961 -0.00017249891
-0.054718565 -0.0028913436 -0.0850114 -0.0274451 0.0054796673 0.030969363 0.07105383 -0.12052013
0.002681848 0.00035765267 -0.0018989957 0.0022010596 -0.13548885 -0.05051252 -0.14573775 -0.14013395
-0.16105859 0.00341145 -0.23924655 -0.09638544 0.00879102 -0.13443759 0.027771486 -0.068004005
0.006636927 -0.00052679674 -0.017465897 -0.008266261 -0.008639048 0.0057149045 -0.04531176 0.0047012134
-0.05575988 -0.42253813 -0.047540586 0.00014686583 -0.068177916 -0.009537092 -0.004735053 -0.11972296
0.014605494 -0.15148185 0.022440366 -0.11464607 -0.07072575 0.0013945805 -0.117453024 -0.006706074
-0.009202359 -8.800451e-06 0.006429744 -0.0009727275 -0.026173996 -0.21054538 -0.12263743 -0.15145066
00000000: 1e7a 1abc 91db e23b 17fd b4bb 00d5 9fbb
00000010: b038 b63c 3904 3e3b 3aea 003d 7da0 acba
00000020: 3469 1cbd 7a4d 4c3b 46ab 86bd 72e4 3abd
00000030: 6443 c13b 38b5 4c3b fca9 723d b80c 29bd
00000040: 06d0 1ebb e785 dd3a e06c 193b 2e26 febc
00000050: 0186 11be 8ef8 2ebe e990 1abe ccbc 65bd
00000060: 5502 e2bd b601 ff3b 728e ebbd 48ee 17be
00000070: 8c3a 11bc 06bb 5fbe 793e 983c 877e 0fbe
00000080: a391 ba3b 1dff 663b d7a3 05be fe8f 78bb
00000090: d63a a539 196c 103b f821 acbd fa45 18bc
000000a0: 742f bcbd 0893 b8bd 8653 0cbe e33e d5bb
000000b0: a496 3ebe 0df1 d23b 0245 43b7 ddda 09be
000000c0: e229 54bf 9aa5 e0bd 000a 00be a1a5 02be
000000d0: 5420 66be 92c1 1f3c b12b 32be df85 d739
000000e0: 5ea6 903a a226 21bc a78c b03b a87b 403c
000000f0: 1c94 96bf 9875 89bd f043 38be e025 21be
00000100: 3c25 d93b 8f54 fa3b 3298 17bd 7fe8 543a
00000110: d368 93bd 1ef1 e7bb e594 a43c 1efc 173c
00000120: a95b 67bd fa04 86bb 9d2c a3be 8463 15bd
00000130: bb5e 143b 1995 703d 6b4f 863c 6058 d6bd
00000140: fd8b 1e3c 2b7d 56bc 6e39 b73b 5671 1dbe
00000150: 8413 df3d e08b 7dbe bcf0 22be 35cd 49be
00000160: 5ca8 1bbe dd90 30bb 2390 7cbd 14e8 d3bd
00000170: 73af f5bb b275 8f3d bbc6 a5be fc8e b6bd
00000180: 5b15 0b3b 702a de3b 283a 78bd 0bd6 053c
00000190: 72f3 b93a 7c1d 693a 55e6 433c b635 be39
000001a0: 93da 7bbe fb1b fdbc 12a2 86bd 167b 86bb
000001b0: f6dc 793a 38b7 ab3b 983f e5bb 41ba 14be
000001c0: 94bc 453d e9ed 1dbe b207 e7bd f221 84be
000001d0: 95b3 00bd 3515 7c3b 72c3 a23d 55d6 e339
000001e0: 8345 0d3c 3e94 d23a ebb5 0abc c77e 49be
000001f0: 0a85 d3bd 8ae8 14be 9f17 2dbe 17f2 dcbe
00000200: 0001 21bb aaef 113b f6f4 7d3c 5b19 f4bc
00000210: 5da1 c5be de6f b63b 38ff d6bc 544d 22bc
00000220: a42e d8bd e180 573b 3d16 4bbe 62c6 a03c
00000230: 3442 00bb f8c4 d83d 173c 033d 8af5 85be
00000240: 719c 9b3b 4427 9fba 3c71 833b b8f3 11be
00000250: 1f85 01bf 2f6b c2bd b5c2 19be 5aa3 d1bd
00000260: d83a 26be 39af 003c 8a93 1bbe 3ece 0abd
00000270: ff1a cc3b 9c72 9abd 7142 17be 6bd2 4bbe
00000280: 2074 b1ba 5549 a73b 2ec3 08be 42a0 03bc
00000290: d859 973b d881 74bc 7af8 5cbd e7c5 153b
000002a0: b802 8abd e77c 5c3c e54f 1bbe aff0 223c
000002b0: da8b 0bbe 2c4c 193b 3b93 493b 4629 3dbe
000002c0: bbf8 79bc dfc4 25be 4e64 0abe 7a11 52bd
000002d0: 801b 55bd 165c b3bb e557 94bd ef69 a6ba
000002e0: 9553 14bc d190 f3ba 81f0 e73b 22f2 17be
000002f0: c179 9dbd d83e a6bd a785 f2bd e453 883d
00000300: 47b0 a9ba 194b a9bb c38d 0ebf a78e 35bc
00000310: c0fa 743d 2fa7 44ba 0fd1 57bd d3e0 34b9
00000320: 9320 60bd b27c 3dbb 751a aebd 8cd4 e0bc
00000330: c88e b33b 76b3 fd3c ac84 913d 42d3 f6bd
00000340: f1c1 2f3b 5483 bb39 b9e7 f8ba a73f 103b
00000350: 97bd 0abe 37e6 4ebd 473c 15be 467f 0fbe
00000360: 8bec 24be a292 5f3b 0cfd 74be bb65 c5bd
00000370: 3608 103c 02aa 09be 0781 e33c af45 8bbd
00000380: 947a d93b bb18 0aba a414 8fbc 366f 07bc
00000390: cb8a 0dbc 1844 bb3b d398 39bd a30c 9a3b
000003a0: 7964 64bd eb56 d8be ebb9 42bd ffff 1939
000003b0: dda0 8bbd 7741 1cbc 8128 9bbb 5031 f5bd
000003c0: e24b 6f3c 0f1e 1bbe dcd4 b73c 8fcb eabd
000003d0: a9d8 90bd 5bca b63a 368b f0bd a0be dbbb
000003e0: 7ec5 16bc a6a5 13b7 9ab0 d23b a3fe 7eba
000003f0: d96a d6bc 3599 57be 5529 fbbd e215 1bbe

fc3.bias f4 [6]
-0.29217818 -0.22083342 -0.19633387 -0.24286582 -0.0012838686 -0.09099361
00000000: 6198 95be 2822 62be bf0b 49be d1b1 78be
00000010: 7b47 a8ba dc5a babd
