checkpoints/model_0.9_500.pth (torch, 25220 bytes, 6 tensors)

fc1.weight f4 [64, 16]
00000000: 4a21 023e 6cb8 41bf aeba 4c3e 0033 d93a
00000010: 7466 4b3e f077 90be 55b2 c3be 60f4 b03d
00000020: c7ab 44be a6e4 6cbe 1915 72bf 0ad8 bf3f
00000030: ea60 2d3f bafa d33f 325b f1bf 5673 e33e
00000040: 228e 9bbe 94c0 d8bd 0e42 463e 903d 703d
00000050: 1e57 213e d6fb 8a3d 6215 073e 00ad 863c
00000060: 46ac 083e ce75 a5be d678 11be 1c41 58be
00000070: 6232 5bbe f2fc f5be 50a0 78be fbe4 a3be
00000080: 7fd1 8ebe 5018 733d 4053 7f3c e436 d1bd
00000090: b06d 3f3d b421 16be 15be 8cbc b037 e13d
000000a0: 8bde 9bbe 5564 afbe 52a4 c9bd e9db 20bd
000000b0: f6bf 6cbd 51aa bbbe d68f 15bf 1332 a5be
000000c0: 9c7f 4fbe 4041 803d 402e 6ebc c4b4 cdbd
000000d0: 946c 3e3e ee87 0ebe c272 1bbe c873 b6bd
000000e0: 04b4 acbd 507b 903d 0cab d6bd bc72 693e
000000f0: 5485 b7bd 709b 9fbc 76ab 0d3e 3e57 16be
00000100: e08a 8f3d bcd8 8abd 00c8 9ab9 5cab 45be
00000110: e4b4 fe3d 548a 5ebe a86f 7bbe eca5 f13d
00000120: d052 3a3d 5e05 213e e22c 36be e07f 543c
00000130: 3461 20be aa0a 10be 9ca1 9abd 9edf 153e
00000140: 1410 9bbe f8dc fabe 084c 233d 8a03 0a3e
00000150: d8ae 353e afdf 9abe c3f1 ffbd f849 a73d
00000160: 5968 bebe fa84 55be 6778 413e 30fc 7dbe
00000170: 4b5e 79bd dfe5 83be 412e 05bf 973a b4be
00000180: 3c5d 42be 00d2 a0ba e810 7a3e c89c 42be
00000190: 22aa 053e a400 833d c8e0 053d 4ab7 66be
000001a0: 8836 29bd c292 3bbe 36ca 423e 8286 343e
000001b0: 508f 0d3e 6051 4bbc c648 3bbe 6218 54be
000001c0: 8819 53bd a22d aebe 6497 1c3e 501d 323d
000001d0: 56af 25be 5a9b adbd 171a 39be 4257 7f3e
000001e0: 74f6 01be 0735 26be 31fa 26bf f2aa c53d
000001f0: 949d 723f cb73 8ebf d23f b73f 42b4 54bd
00000200: c8b9 07bd 7207 1abe 800d 623c 626a 61be
00000210: 60b2 7b3e c096 18be f848 e6bd 30f2 773d
00000220: 7064 afbd 04d3 353e 5468 0b3e 5ef4 523e
00000230: 0005 013c 4c1e cfbd ccdf c3bd f8a1 11bd
00000240: 40ff b2bf 1fe0 7dbf 3cce 9d3d 783c 1e3e
00000250: 24b7 933d 5c5c 7fbf 9f97 91bf 64f6 31be
00000260: 65b8 94bf 1dbf 8cbf c8d6 4dbf c802 963f
00000270: 7f1d 3bbf 1ddf a2bf 56e0 a8bf d9d2 76bf
00000280: a872 79bd ae01 6cbe 684f 6bbe c4b4 afbd
00000290: 301e c9bc 98fd 68be 2c4f 2bbe f4ac b9bd
000002a0: 109c 51be dc84 7ebe 6c2e 593e 385b 783d
000002b0: 5e4e 78be 7670 2dbe d078 a63d 766f 10be
000002c0: 0d01 81be 9742 2bbe e0af 933c 807a 713b
000002d0: c63f 1d3e ad63 d8be 8f68 92bd 2a8b 03be
000002e0: 47e7 a7be 3a9c ffbe 0b5b 4e3e 98c8 07be
000002f0: 8ac3 a3be f41d b6bd f028 033e b3e6 abbe
00000300: 5ac4 743e 7053 29bd 9029 133e 7eb9 693e
00000310: dea1 1ebe a6b0 74be 7c01 8dbd 7cd0 66be
00000320: 185a 98bd 7888 1fbd 3413 e83d 6cf6 c8bd
00000330: 4e0f 1dbe 40b6 babb fc6b da3d d8bb 533d
00000340: d8a6 743d d88c 083e c2ce 2bbe a807 f53d
00000350: b8d0 08be 200f 3bbc a45d ba3d 3c5d 08be
00000360: c0e5 11be 5c08 0cbe 90b7 073d 200f 653d
00000370: 9e45 29be 6815 c5bd e023 b5bd 805a e83b
00000380: fba0 eabe 76b9 78be 4a61 313e 34c4 073e
00000390: 084e b7bd bd9d 1abe e665 8cbe 98bc 1ebe
000003a0: 197c 6dbe f50e b4be ee89 963d c466 c4be
000003b0: 726d ccbe 7cc9 cfbe f54f dabe e2ac a1be
000003c0: 300e 5cbe df87 213e 025b 67be ac3c 723e
000003d0: 46f6 2d3e 557f 16be 71dc 9cbd 9cf1 d63d
000003e0: a809 bdbd 5aa3 e4be dbf6 333d c4fa 143f
000003f0: f6be 0540 eb91 973d f81b 27c0 8052 c73e
0.12708011 -0.7567203 0.19993088 0.0016570985 0.19863302 -0.28216505 -0.38221994 0.08640361
-0.19206153 -0.23134097 -0.9456344 1.4987805 0.67726004 1.6560891 -1.8855956 0.44423932
-0.30381876 -0.10583606 0.19361135 0.05865246 0.15755889 0.06786315 0.1319175 0.016439915
0.13346967 -0.3231644 -0.14206252 -0.21118587 -0.21405938 -0.48044544 -0.24279904 -0.32010636
-0.27894208 0.059349358 0.015583813 -0.10215548 0.046735466 -0.14661294 -0.017180482 0.1099695
-0.30443224 -0.34256235 -0.09845795 -0.039272223 -0.057800256 -0.3665338 -0.584226 -0.32264766
-0.20263523 0.062624454 -0.014537394 -0.10044244 0.18596107 -0.1391904 -0.15180495 -0.08908802
-0.08432773 0.0705477 -0.10481843 0.22797674 -0.08960977 -0.019483298 0.13834938 -0.14681718
0.0700891 -0.0677962 -0.0002952218 -0.1930365 0.12436846 -0.21732455 -0.24554312 0.11799225
0.045489132 0.15724704 -0.17790559 0.012969941 -0.1566208 -0.14066568 -0.07550356 0.14636084
-0.30285704 -0.4899671 0.03986743 0.13477913 0.17742479 -0.30248782 -0.12497284 0.08168405
-0.37188986 -0.20851508 0.18893586 -0.24803233 -0.06088094 -0.25761315 -0.520237 -0.3520095
-0.18980879 -0.0012269616 0.24420512 -0.1900512 0.13053182 0.063966066 0.03268507 -0.22530857
-0.04131177 -0.18317702 0.1902245 0.17629436 0.138242 -0.012409538 -0.1828948 -0.20712426
-0.05153802 -0.3401919 0.15292126 0.043484986 -0.16180167 -0.084768966 -0.18076359 0.2493563
-0.1269167 -0.16231166 -0.6522551 0.09651746 0.94771695 -1.1129087 1.4316351 -0.05192972
-0.03313616 -0.15041903 0.013797164 -0.22013238 0.24579763 -0.14901257 -0.112443864 0.060533702
-0.08564079 0.17756277 0.13614017 0.20601031 0.007874727 -0.101132005 -0.0956417 -0.035554856
-1.3984146 -0.99170107 0.07705352 0.15452754 0.07212666 -0.99750304 -1.1374396 -0.17379147
-1.1618773 -1.0995823 -0.80405855 1.1719599 -0.7309188 -1.2724339 -1.3193462 -0.9641548
-0.06090036 -0.23047516 -0.2297951 -0.085794 -0.024550527 -0.22752988 -0.1672942 -0.09066191
-0.2046969 -0.2485537 0.21209115 0.060633868 -0.24248645 -0.16937432 0.08128512 -0.14105019
-0.25196114 -0.16724621 0.0180282 0.0036846697 0.15356359 -0.42263547 -0.07148849 -0.12846056
-0.32793638 -0.4992388 0.20151918 -0.13260114 -0.31985122 -0.08892432 0.12808585 -0.33574447
0.23903027 -0.041339338 0.14371324 0.22824666 -0.15491435 -0.23895511 -0.06885049 -0.22540468
-0.07439059 -0.038948506 0.11331788 -0.09812626 -0.1533787 -0.0056979954 0.10665128 0.051692814
0.059729427 0.13334978 -0.1677809 0.11964351 -0.1336087 -0.01141718 0.09099892 -0.13316816
-0.14247799 -0.13675064 0.033134043 0.055922627 -0.16530463 -0.096232235 -0.08844733 0.0070908666
-0.45825943 -0.24289498 0.17322269 0.1325844 -0.0895043 -0.15099235 -0.27421492 -0.1550163
-0.23191871 -0.3516766 0.07350527 -0.38359654 -0.3992725 -0.40583408 -0.42639127 -0.31577212
-0.21489787 0.15774487 -0.2259331 0.23655957 0.16988477 -0.14697011 -0.07659233 0.10495302
-0.092303574 -0.44655877 0.04393659 0.5819514 2.0897803 0.074008785 -2.611082 0.3893013

fc1.bias f4 [64]
00000000: 683c 03bf 7b56 6dbe e185 0cbe 28bd 003d
00000010: 0649 00be 6a2f b7be 841c 65be 4d84 b5bd
00000020: eee1 2a3e 2206 9fbf b459 18be b55f a0bd
00000030: 80fe 3cbd c4ee 42be 94f2 24be d6d4 d6be
00000040: 3e6d 133d b505 82bf 7aad b4be a4d1 a03d
00000050: eae3 3cbe ae2c 25be fee8 51bf 2ffd c1be
00000060: e2bc 783e d031 9f3c 2cef 493e fa5a 12be
00000070: c04b 75be 946d 4cbe 91da 03bf 81bd 0a3e
00000080: c8a1 ddbf 20dd 37bd aa87 4abf e6ea a0be
00000090: cc0a 99bd 072f abbe 68a5 1cbe f1e8 b7be
000000a0: 303f 34be e06c 11be e037 213c f38d 8e3d
000000b0: 5806 483d d40a 323e dafb a3be 9cce 7fbe
000000c0: 78c9 28bd 0e9d 12be e81b f7bd a012 3b3c
000000d0: 9886 b2bd 3af0 45be 9f44 7bbe 906b 3c3e
000000e0: 0657 99be 3117 4cbe aa33 71bd 567f d9be
000000f0: 45d2 97be 8440 46be 8d86 07bf 7d88 aebe
-0.5126405 -0.23177521 -0.13722946 0.031430393 -0.12527856 -0.35778362 -0.22374159 -0.08863125
0.16687748 -1.2423747 -0.14877969 -0.07830755 -0.046141148 -0.19036394 -0.16108161 -0.41959256
0.035992853 -1.0157992 -0.35288602 0.07852486 -0.18446317 -0.16130325 -0.8199614 -0.37888476
0.24290803 0.019432932 0.19720143 -0.14292517 -0.23954678 -0.19963676 -0.5150538 0.13548853
-1.7314997 -0.044888616 -0.79113257 -0.31429213 -0.074727625 -0.33434317 -0.15297472 -0.35919908
-0.17602229 -0.14201689 0.009839982 0.069606684 0.048834175 0.17386943 -0.32028085 -0.24981159
-0.04120776 -0.14317724 -0.120658696 0.011418015 -0.08717078 -0.1932992 -0.24537896 0.18400407
-0.29949206 -0.19930722 -0.05888716 -0.42479962 -0.2965261 -0.19360548 -0.52939683 -0.34088507

fc2.weight f4 [64, 64]
00000000: f4f8 643f d7d1 33bd d429 72bc 407d a4bb
00000010: 2ec0 89bd 99e7 913e 8467 b3bd 861b ac3e
00000020: 7eb2 fabd fcb0 a13f ba53 c2bd ddb7 b93e
00000030: a814 e73c 704e 7f3d 40ad a13e bd23 acbe
00000040: 8888 66bc da24 8c3f 7116 99be b0ae 613d
00000050: e515 bdbd 483c bdbe 3888 00c0 a5f2 ffbd
00000060: 5858 503d 60bc d2bb 3c4e 6abd 7020 2bbe
00000070: f858 7fbd 2c5d 1a3d 9bb4 563e d988 c7bf
00000080: 78a2 0ac0 8821 8dbd 0e8d fbbf 50ee ab3e
00000090: 7c91 a23e 4290 583e 604c 85be 293c bf3e
000000a0: c43f 12bd 2c32 c03d 101a bd3d 166f 78c0
000000b0: 3255 813d 0e34 85bd 9fbf 513e 9164 963e
000000c0: 52e7 d13d c84c ae3c dce5 b73d e8e0 a13d
000000d0: 94a1 35bd 6227 7b3f 3657 d5bf d024 89bd
000000e0: 1398 5bbb d951 4cbf 3d65 7bbe 8084 393e
000000f0: 9d6b 9dbc d6d3 dfbd 5faa c23e 4b58 963d
00000100: ed93 97be 3bde 49be 6b31 aabe 60fc 313d
00000110: d07d d73c 5c5b c5be bacc e7bd a0f3 f0bd
00000120: 4ecf b93d 9400 3abd 5423 763d cdaa d2be
00000130: a089 953b 52c8 e8bd f1de 7dbe beb0 96be
00000140: beec 96be 3065 d6be ab7f 94be 3ad9 bf3d
00000150: f05d 90bc 0f4a 4bbe bc5a c0be 1c9c adbe
00000160: 00c2 9c3a 0095 77bd 68c4 303d ebe0 bebe
00000170: c899 acbc 4051 713c 70b1 2f3d d862 acbe
00000180: 53f4 9abe 66f8 b13d 22ac a8be 54bf 673d
00000190: b06f aabe ebcc 59be 776e a7be 9208 82be
000001a0: 78c7 80bc 487b 9f3c 903d d2bc 266e 8abe
000001b0: a6d4 9ebd c42e fb3d 4c1b 41be 00ea a4ba
000001c0: 00e9 be3a 58d2 ebbd b4a8 d5bd 84e7 3f3d
000001d0: ba89 f1bd 7817 89bc 2cfb cabe 00c3 28bd
000001e0: 364f a2be 4477 59be d0a0 9bbe dbd2 b3be
000001f0: 8865 a63d dcae cf3d 62df 49be 91d2 41be
00000200: 32ab b8be d2a9 cabe 0ce0 afbe 622b d43d
00000210: d841 5bbd b034 83bc 885b 863d 9bdb d7be
00000220: 5c1b 4f3d 70b9 7b3d f2f7 e53d d628 fdbd
00000230: a02c 9c3b 6c84 e83d 2296 97bd 3fa4 5fbe
00000240: f2af 92be 42de a4be 5722 c6be 5c17 e83d
00000250: 8857 b5be 5848 4c3d 9cee 7fbe 371e d6be
00000260: 9825 933c 103b 4dbc d0c5 91bc 2373 95be
00000270: f858 b33c 2a97 eebd 60fe 9a3d 7455 9fbe
00000280: cb57 c5be 6048 83bb c637 3abe fc66 10bd
00000290: 36da 923e b998 b5be 4085 8f3c 70a8 7bbe
000002a0: 9235 92bd c6cc dabd 042f a5bd 2ecf bebe
000002b0: 48db f4bc 18a3 aa3d 68e6 7cbd d265 a83d
000002c0: 7618 d03d ceea a0bd acdb 7bbd 72de d63d
000002d0: 7c12 1b3d c43b 43be 88c0 a5be 12af cf3d
000002e0: 1ab0 bdbe 9c6a 37be e028 62be d48d 39bd
000002f0: c435 4bbe e694 963d 6213 d33d 905e 54be
00000300: bf0c 02be c7cb 013e c86f 643d 007f 65bd
00000310: c0d1 c73c 0cf6 a03e c0f3 44bb fb39 4ebc
00000320: 40bc a13c d9ff 8dbf 10bc e13d 5732 8a3e
00000330: 3078 873d c072 783d baa5 653e f373 45bc
00000340: 4480 c03d 4437 a9be 7ba3 8c3e 62ec e0bd
00000350: 75c8 0ebe 19be 723e dc70 54bf c38f 54ba
00000360: a869 9f3c 60b2 e2bc 30aa ed3d 1551 133e
00000370: ea6d c5bd ba45 fb3d 70ce a13e 39d9 cf3d
00000380: d838 a4bf d839 51bd 84d2 1cbf e0da 803e
00000390: 8e66 553e 2ff4 873e 54a8 9c3e d63e 3e3e
000003a0: 3c0e 3cbd d016 d43d 2091 a93d 00db 30bf
000003b0: 1483 b93d dc59 f33d e8ae 643e 4d19 823e
000003c0: 0057 063c a0d1 93bb e058 0a3c 1093 993d
000003d0: bc2d 26bd 2ca7 d2bc fb9f be3b 5252 d4bd
000003e0: c558 1d3d 93a6 cdbc d8bf 733d 7a53 9e3e
000003f0: 5a2f 99bd 80ec 9d3d c2ac 9d3e 254d 9f3e
0.8944237 -0.04390129 -0.01478048 -0.005019814 -0.067261085 0.28497007 -0.087599784 0.3361475
-0.12241076 1.2632136 -0.09488626 0.3627309 0.028208092 0.062330663 0.31577492 -0.33621016
-0.0140706375 1.0948746 -0.29899934 0.055098236 -0.09232692 -0.36960053 -2.0083141 -0.12497453
0.0508655 -0.0064311475 -0.057203516 -0.16711593 -0.062340707 0.037686512 0.20967333 -1.5588638
-2.1661663 -0.06891161 -1.9652421 0.33580256 0.3175162 0.2114878 -0.26034832 0.37350586
-0.035705343 0.093845695 0.09233487 -3.8817801 0.06315078 -0.06504069 0.20483254 0.293736
0.10249199 0.021276847 0.08979389 0.079042256 -0.044343546 0.9810697 -1.666724 -0.066964746
-0.0033507391 -0.7981239 -0.24550338 0.18116951 -0.019216353 -0.109290764 0.38020608 0.07341059
-0.29605046 -0.1971368 -0.33240828 0.043453574 0.02630511 -0.38546264 -0.11318345 -0.11765218
0.09072743 -0.045410708 0.060092285 -0.41145936 0.0045635253 -0.11366333 -0.24792077 -0.2943172
-0.29477495 -0.41874075 -0.29003653 0.093676046 -0.017622918 -0.1985247 -0.37569225 -0.33908165
0.0011959672 -0.06044483 0.043156058 -0.37280974 -0.021069422 0.014728844 0.042893827 -0.33669162
-0.3026453 0.08689956 -0.32943827 0.05657895 -0.33288336 -0.21269576 -0.32701465 -0.25397164
-0.015720114 0.019467965 -0.02566412 -0.27037162 -0.07755403 0.12264779 -0.18858069 -0.0012581944
0.0014565289 -0.11514729 -0.10432568 0.04685165 -0.117938474 -0.016734824 -0.39644754 -0.04120159
-0.31701058 -0.21236902 -0.30396128 -0.35121807 0.08124834 0.10140774 -0.1971412 -0.18927981
-0.36068112 -0.39582688 -0.34350622 0.10359837 -0.05352959 -0.016016334 0.06560427 -0.42159733
0.0505632 0.061456144 0.112289324 -0.123613045 0.004766062 0.113533825 -0.074016824 -0.21839999
-0.2864986 -0.3220082 -0.38698074 0.113325804 -0.35418344 0.04987368 -0.24993366 -0.41819927
0.017962262 -0.012526289 -0.01779452 -0.29189405 0.02189301 -0.11649926 0.075680494 -0.31119883
-0.38543543 -0.0040064305 -0.18185338 -0.035254464 0.28682107 -0.3546808 0.017519593 -0.24575973
-0.07139124 -0.10683589 -0.08065608 -0.3726744 -0.029889718 0.08331889 -0.06174317 0.08222546
0.101609156 -0.078572854 -0.061488792 0.10491647 0.037859425 -0.19065768 -0.32373452 0.10140814
-0.37048417 -0.17911762 -0.22085905 -0.045301273 -0.19844729 0.07352619 0.10306431 -0.20739198
-0.12700175 0.12675391 0.055770665 -0.05602932 0.024392009 0.3143772 -0.0030052513 -0.012587066
0.019743085 -1.1093704 0.11022198 0.2699153 0.06614721 0.06065631 0.22426501 -0.01205157
0.09399465 -0.33049977 0.27468476 -0.109825864 -0.13943656 0.23705329 -0.8298471 -0.00081085804
0.01945956 -0.027672946 0.11604726 0.14386399 -0.09640105 0.12269159 0.31602812 0.10148854
-1.2829847 -0.051080555 -0.6125872 0.25166988 0.20839903 0.26553485 0.30597174 0.18578658
-0.045912012 0.10355914 0.082796335 -0.6908417 0.09058204 0.11882374 0.22332346 0.25409928
0.008199453 -0.004511073 0.008444041 0.07498753 -0.04057096 -0.02571448 0.005817411 -0.10367264
0.038414735 -0.025103843 0.05950913 0.30923063 -0.07479735 0.077111244 0.30795866 0.31113544

fc2.bias f4 [64]
00000000: ec3e 97be a9c3 bcbe 51f1 76be 128d 50bd
00000010: 06b2 58be 9d14 c8be be25 a1be dbc0 a6be
00000020: 86e1 76bf 953e 26c0 5836 85bd 30fd a6be
00000030: 2b88 41be 473b 64bf a6b0 15be de5c 59bf
00000040: a692 9dbe 0473 bdbf be72 56bd 5126 66be
00000050: 5b82 82be a4ae ddbf 03a7 9cbe f075 39be
00000060: 608d 91bd a15f 97bd 8da5 08be 5e23 bebd
00000070: 599b fdbb 4c33 39bf b470 74be 19a1 b4be
00000080: f608 2dbe eccd 9cbc 0024 2bbf 137e 96bf
00000090: 8732 a1be 9843 51be 397f 73be a0ba 1abe
000000a0: 6a29 8fbe 4c87 0bbe 5722 c3be ec63 9cbe
000000b0: 8b9d 91bf 5a9b 00bf 28cd 8fbf d17a efbc
000000c0: dfe4 85bd d2d9 96be 91db a0be 88b1 20be
000000d0: 555b 35bd 2cbb 853f c3df bac0 8138 03be
000000e0: 3a1a ccbe 08eb c5bf 9122 53be 9c1c e1be
000000f0: 7bbc 44bd fe9b 77be afb7 afbe 2537 99be
-0.29540193 -0.36868027 -0.24115492 -0.050915785 -0.2116166 -0.39078227 -0.31474108 -0.32569012
-0.9643787 -2.5975697 -0.06504506 -0.32615042 -0.188996 -0.8915295 -0.14618167 -0.8490733
-0.30775946 -1.4800725 -0.05235552 -0.22475554 -0.25490078 -1.7318921 -0.3059617 -0.18111396
-0.07107043 -0.07391287 -0.13344403 -0.092840895 -0.007739466 -0.723439 -0.23871118 -0.35279158
-0.1689795 -0.01914116 -0.66851807 -1.1757225 -0.31483862 -0.20435941 -0.23779 -0.15110254
-0.27961284 -0.1362583 -0.38112137 -0.30544984 -1.1376203 -0.5023705 -1.1234484 -0.029233368
-0.06537794 -0.2946306 -0.31417516 -0.15692723 -0.044276554 1.0447745 -5.8398147 -0.12814523
-0.3986376 -1.5462351 -0.20618655 -0.4396714 -0.04803131 -0.241806 -0.34319827 -0.29924884

fc3.weight f4 [6, 64]
00000000: efb6 0840 7b24 3e3e 5499 493e 7ab3 623f
00000010: 3bd1 acbe fb17 14c0 b536 d9be 1798 c0be
00000020: a258 f33d 37b6 bc3f 65e7 333e 60e7 c1be
00000030: ad67 d2bd 8faa 26bf e113 d1be 768d d8be
00000040: bc28 1fbe efc2 133f 5f74 1f3c b01e 56be
00000050: f730 69be 198a 1cbe 1f52 c7be 3f18 20bf
00000060: d001 9dbc 825e 833d 8a7c a13c c0a8 923b
00000070: b564 a33d 9924 b03d 772c 8dbb 5e0e c93e
00000080: 50fb 7fbe 03b0 8640 43e3 213f 00d6 dfbb
00000090: 6afa 4c3e eb68 99bb 8b20 c73c aae3 4bbd
000000a0: 8cfb bcbe bd8f 883d f51d d3be c371 b0be
000000b0: f007 723d 5832 9c3e b15a 823f 1fc9 8ebe
000000c0: 2fc9 f9be f157 09bd a96c 35be 051d 1c3e
000000d0: 0c5f 5cbf 78da 6dc0 d19c 0abf 4e11 8f3c
000000e0: 5612 8f3e 43f5 7a3e 183c 50be b816 b7be
000000f0: f122 303f 8fee 713e ffe5 9d3e f69f ae3e
00000100: 2126 f53e 01b9 54be 7938 a0be d8ea 293e
00000110: 79a4 723e 7930 c5be da56 96be 8089 ba3a
00000120: 1974 4a3f 23e8 bf3f 0421 903e 2407 6ebe
00000130: 7885 86bd 7047 be3e d782 d4bf c9cb a4be
00000140: 3d18 46bf 0a5b 8cbe 3e28 1ebf 47ed 86be
00000150: 3c7e b63e 41f0 dd3b 2e7e b7be 358d cd3d
00000160: fd5b 2a3d fa66 15bf 7ecc fdbd 3801 fabc
00000170: e93b 24bf 9576 0ebe bc6e e7bd 60c6 343e
00000180: 605f 283e b456 09bd d0de 00bc d628 9e3f
00000190: 1242 0bbe f7c2 a03c 822a b6bd c357 19bd
000001a0: ae80 d7be 52cc 963d 93d5 a1be cc2a bebe
000001b0: 8c5e 753f 40cb 5fbe d21b 22bf 18b3 a2bc
000001c0: decd 94bf d845 013e baf5 bc3e ba19 3d3f
000001d0: 8585 bdbf a2d3 00c0 9f74 af3c 5682 a9be
000001e0: f548 69be 79b7 333f a546 77be be93 823e
000001f0: 8980 113e f20a 74be 6ff5 d0be 8a5c c0bd
00000200: f3f1 443e 9f39 8bbe 39e0 6abe 6359 7b3e
00000210: cd09 7cbe 8c74 973e 0fbd a5be ecda 06bd
00000220: 80f1 88bd 468f 08bf fe4b bd3d 2812 61be
00000230: 5cfc 1ebe e96c 8f3f ac4a e5bc 9e25 91be
00000240: 9ffd 1c3e f202 c5bf 4903 693c 910d c6be
00000250: fc37 6abe 92e2 a3bd bbc0 b8be 0798 c2be
00000260: 0d0d f13d 7e26 b5bb 580a 133b d464 593d
00000270: 397a c43d 7cca e93d d139 8abe 0310 323e
00000280: 6208 713e cffd 00bf a807 d0bc 68d0 8ebf
00000290: a6b6 3f3e c5cd abbd fe5d e3bd 5488 b2bd
000002a0: edbe abbe c358 cf3d e925 3cbe 257e 85be
000002b0: c228 babd 184d 0cbe 3998 fd3e e7e9 453e
000002c0: b1ba 27bd ff69 52be 167d 46be a115 373d
000002d0: b0d4 733e f633 e1bf e0b5 a9be 1e6b 9f3d
000002e0: efae 81be 8a0a 9a3e 3e98 83be a69d 6d3e
000002f0: 8185 d73c 7ebd 773e 2dab c73e 838d ab3d
00000300: b059 443f 5d98 a0be 59ea 9fbe d449 84be
00000310: 923a a0be f8e5 2140 f341 37be a7ea 73be
00000320: b425 86bd 9441 b13f 5437 be3d 5b32 a6be
00000330: c63b cabd c2b9 6b3f 66b8 8abe 0e66 3c3f
00000340: 9178 993d 82c9 133f 03bf eb3d 13a7 70be
00000350: 7539 5ebe 0988 6cbd 1b64 47be 6318 cf3e
00000360: dbb8 92be 1b3c 313e 2c36 e2bd 4037 d4bb
00000370: fa95 cdbc 2b4f 98be 5a52 4bbe 8519 4b3e
00000380: a6b1 6ebe 8f6e 1440 c01a 76bc a439 40bd
00000390: ea83 7b3c 6aad 53bd 7d2c 0bbe 1116 82be
000003a0: 1663 62be e2c2 aabd bfb8 6bbe 103a 86be
000003b0: 9db8 783f a7b5 323d a5bd 41bf 3cd0 1abf
000003c0: b196 143e 4440 af3e 4f94 98be fb21 af3e
000003d0: 1352 adbe 278b 6ec0 64f1 7dbe 3e2d a0be
000003e0: 6a11 9ebe 2d8a 6dbe 3aec 6abe 5013 69be
000003f0: 3293 20bf 5d83 4cbe caef a33e f4dc 6ebd
2.1361654 0.18568604 0.19687396 0.8855511 -0.3375338 -2.3139637 -0.4242455 -0.37616035
0.1188214 1.4743108 0.17568739 -0.37871838 -0.10273681 -0.65104 -0.4083548 -0.42295426
-0.15542883 0.5771932 0.009732335 -0.20910144 -0.22772585 -0.15287055 -0.3892984 -0.62536997
-0.019165903 0.0641451 0.019712705 0.004475683 0.07978193 0.086007304 -0.004308279 0.39268774
-0.24998212 4.208986 0.632374 -0.0068309307 0.200174 -0.0046816966 0.02430751 -0.049777664
-0.36910665 0.06668041 -0.41233793 -0.34461793 0.0590896 0.3050716 1.0183927 -0.27887818
-0.48786303 -0.033531133 -0.17717232 0.15245445 -0.8608253 -3.7164593 -0.5414553 0.017464306
0.27943677 0.24507622 -0.20335424 -0.3575952 0.68803316 0.23626159 0.30839536 0.34106416
0.47880653 -0.20773698 -0.31293085 0.16593492 0.23695554 -0.38513544 -0.29363137 0.0014231652
0.790834 1.4992718 0.2815019 -0.23244911 -0.06568426 0.37163877 -1.6602429 -0.32186726
-0.77380735 -0.27413207 -0.61780155 -0.26352903 0.35643184 0.0067730253 -0.35838455 0.10036699
0.041591633 -0.58360255 -0.123925194 -0.03051816 -0.64153916 -0.13912423 -0.11300418 0.17653799
0.16442633 -0.033529952 -0.007865623 1.2356212 -0.13599423 0.019624216 -0.088948265 -0.03743721
-0.42090362 0.0736319 -0.31608257 -0.37142026 0.9584739 -0.21854877 -0.633237 -0.01986079
-1.1625326 0.126243 0.36906224 0.7386738 -1.4806372 -2.012917 0.021417914 -0.3310725
-0.22781737 0.7020183 -0.24148043 0.25503343 0.14209189 -0.238323 -0.4081225 -0.093926504
0.19232921 -0.271924 -0.22937097 0.24545817 -0.24613114 0.29581106 -0.32370803 -0.032923624
-0.066866875 -0.5334362 0.0924301 -0.21979582 -0.15525955 1.1205112 -0.027989708 -0.28349012
0.15331124 -1.5391524 0.014221975 -0.38682225 -0.22872919 -0.08002199 -0.36084542 -0.38006613
0.11770067 -0.0055282703 0.0022436585 0.053074673 0.095936246 0.11415574 -0.26997235 0.1738892
0.23538354 -0.5038728 -0.025394276 -1.115735 0.18722019 -0.08388857 -0.11101912 -0.08717409
-0.33544102 0.10124352 -0.18373837 -0.26072803 -0.09089805 -0.13701284 0.495302 0.19327508
-0.040949527 -0.20548247 -0.19383654 0.04469836 0.23811603 -1.7593982 -0.33146572 0.07784103
-0.25328776 0.30086166 -0.2570209 0.2320467 0.026308777 0.2419338 0.38997784 0.083766006
0.7669935 -0.31366244 -0.3123348 -0.25837576 -0.31294686 2.5296612 -0.17896251 -0.23819982
-0.0655016 1.3848138 0.09287897 -0.32460293 -0.09874682 0.9208032 -0.2709381 0.73593223
0.07493699 0.5772935 0.11511042 -0.23501234 -0.21701606 -0.05774692 -0.19471781 0.40448293
-0.2865666 0.17308085 -0.11045489 -0.006476313 -0.025095928 -0.297479 -0.19855633 0.19833954
-0.23309955 2.319248 -0.015021026 -0.04692997 0.015351275 -0.051679052 -0.1359119 -0.2540746
-0.22108111 -0.08337952 -0.23019694 -0.26216173 0.971567 0.04363027 -0.7568 -0.6047399
0.14510609 0.34228718 -0.2980065 0.34205613 -0.3385168 -3.7272432 -0.24799114 -0.31284517
-0.3087266 -0.23197241 -0.22941676 -0.22761273 -0.627246 -0.19971986 0.32018882 -0.058316186

fc3.bias f4 [6]
00000000: 8629 003e 632c 4bbf 3ca3 bfbf a9bb 733d
00000010: b6b4 0cc1 0d68 1ec1
0.1251584 -0.79364604 -1.497169 0.05950514 -8.794119 -9.900403
