checkpoints/model_0.7_20.pth (torch, 25210 bytes, 6 tensors)

fc1.weight f4 [64, 16]
0	0xbf59b620	-0.85043526
1	0xbe84979d	-0.25896922
2	0x3df587ac	0.11988768
3	0xbe09846e	-0.13429424
4	0xbc9a3000	-0.018821716
5	0xbf614fe0	-0.88012505
6	0xbf908e3e	-1.1293409
7	0xbe06e114	-0.13171798
8	0xbf6149a1	-0.88002974
9	0xbf4614b9	-0.7737537
10	0xc0255b89	-2.5837119
11	0xc0eabf7c	-7.3358746
12	0xbf81fd81	-1.0155488
13	0x3fa34a7f	1.2757109
14	0xbec2847a	-0.37991697
15	0xbd8731e0	-0.0660131
16	0xbe23e5e2	-0.16005662
17	0xbed50aa4	-0.4160968
18	0xbdb61f4c	-0.08892688
19	0x3dd2b330	0.102880836
20	0x3d270108	0.040772468
21	0xbe447890	-0.19186616
22	0xbde9da64	-0.11418608
23	0xbe09a144	-0.13440424
24	0xbd813492	-0.06308855
25	0xbea15fc9	-0.3151839
26	0x3dd74401	0.105110176
27	0xbf7931c9	-0.9734159
28	0xbef68489	-0.4814799
29	0x3fd3751e	1.6520116
30	0xbfa9b5ca	-1.3258603
31	0x3f8240f7	1.0176076
32	0xbe4357f4	-0.1907652
33	0xbdda2b35	-0.10652772
34	0xbd486390	-0.048923075
35	0xbd827f1c	-0.063719004
36	0xbe608686	-0.21926317
37	0xbea359a9	-0.31904343
38	0xbe8cfcab	-0.2753652
39	0xbc8f4b50	-0.017491966
40	0xbeebaea4	-0.46031678
41	0xbecd247e	-0.40066904
42	0xbe2666de	-0.16250178
43	0x3d1ab3b0	0.03776902
44	0xbe7e43cb	-0.24830548
45	0xbdda3798	-0.10655135
46	0x3d1c36d8	0.03813824
47	0xbd976228	-0.07391769
48	0xbe8f100c	-0.2794193
49	0xbc5a176e	-0.01331125
50	0xbd727d88	-0.059201747
51	0x3e752222	0.23938802
52	0x3df954dc	0.12174389
53	0x385b0897	5.222167e-05
54	0xbeb9d0db	-0.36292157
55	0x3d557928	0.052117497
56	0xbe8be69c	-0.27324378
57	0xbe54f15e	-0.207952
58	0x3fe0661f	1.7531165
59	0xbd6e6d72	-0.058209844
60	0x3fb1bf32	1.3886473
61	0xbe841240	-0.25795174
62	0xc0129a67	-2.290674
63	0xbf79a9c0	-0.9752464
64	0xbdc77476	-0.0973901
65	0xbdf823df	-0.12116217
66	0x3e60df76	0.21960244
67	0x3e2e9f16	0.17052874
68	0x3e5ef334	0.21772462
69	0xbecf1a7b	-0.4044989
70	0xbe3f15f6	-0.18660721
71	0xbce45cb0	-0.027876228
72	0xbde0b081	-0.109711654
73	0xbee00b16	-0.43758458
74	0xbe1e3d22	-0.15453008
75	0xbeffc169	-0.49952248
76	0xbe2a7afc	-0.16648477
77	0xbdc94cc4	-0.09829095
78	0xbeddc944	-0.43317616
79	0xbd35053c	-0.044194445
80	0xc012339e	-2.2844005
81	0xbc8d64c3	-0.017259961
82	0x3e664dfa	0.22490683
83	0x3e68f244	0.22748667
84	0x3d031b20	0.03200829
85	0xbf31f36a	-0.69512045
86	0xbf119462	-0.5686704
87	0xbdcb11e4	-0.09915522
88	0xbf158f40	-0.5842171
89	0xbee82fd0	-0.45348978
90	0xbe1d5b18	-0.15366781
91	0xc138e369	-11.55552
92	0xc0013913	-2.0191085
93	0xc0d45936	-6.63589
94	0x40e5f784	7.1864643
95	0xbf63e30f	-0.8901834
96	0xbe5ee782	-0.21768
97	0x3e1aae86	0.15105638
98	0xb9039800	-0.00012549758
99	0xbdd3a484	-0.10334113
100	0x3e0d371e	0.13790557
101	0xbdeaed98	-0.11471099
102	0x3d7c8390	0.061648905
103	0x3da47264	0.08029631
104	0xbe433426	-0.19062862
105	0xbe529d12	-0.2056773
106	0xbe1fd816	-0.15609774
107	0x3e6c1476	0.2305468
108	0xbd79c140	-0.060975313
109	0x3e78007e	0.24218938
110	0xbe6d24c6	-0.23158559
111	0xbdbcde80	-0.09222126
112	0x3dad00dc	0.084474295
113	0xbdea2bb4	-0.11434117
114	0xbdd11d48	-0.10210663
115	0xbe475f70	-0.1947
116	0xbe33d88a	-0.17563072
117	0xbe29f282	-0.16596416
118	0xbe669148	-0.22516358
119	0x3e5b37ca	0.21408
120	0xbdba2ef4	-0.09090987
121	0xbc71a680	-0.014749169
122	0x3db03e30	0.08605611
123	0xbd12d788	-0.035850078
124	0xbcca4b00	-0.024693966
125	0x3da9f914	0.08299461
126	0x3e22a822	0.1588445
127	0xbe488c6a	-0.19584814
128	0xbda815a4	-0.082072526
129	0xbc4dc866	-0.012559986
130	0xbdcf6634	-0.101269156
131	0x3c3c6a40	0.011499941
132	0xbcaf7b90	-0.021421224
133	0xbe0cac04	-0.13737494
134	0xbdabb882	-0.083848014
135	0xbd95e524	-0.07319096
136	0xbd2bcf13	-0.04194553
137	0xbe0f9321	-0.14020969
138	0x3ef8350a	0.48477966
139	0xbf4209d9	-0.75796276
140	0xbdc2a1de	-0.0950353
141	0xbf8d6a2c	-1.1048026
142	0xbf97b18a	-1.1851056
143	0xbbbbccbd	-0.005731194
144	0x3e4619ce	0.19345781
145	0x3c8598f0	0.016308278
146	0x3e7eb64e	0.24874231
147	0x3df9ba40	0.121937275
148	0x3d8cf28c	0.068822
149	0x3e1eba54	0.15500766
150	0xbd4b21d0	-0.049592793
151	0x3e3647da	0.17800847
152	0xbdcc252c	-0.099680275
153	0xbe2f8750	-0.17141461
154	0x3d586ae8	0.05283633
155	0xbe6e40fc	-0.23266977
156	0x3d4cdbe8	0.050014406
157	0xbe466da4	-0.19377762
158	0xbaaeda00	-0.0013340116
159	0xbe57a66c	-0.21059579
160	0xbeb2fcba	-0.3495844
161	0xbe8dea2f	-0.2771773
162	0x3ccc7390	0.024957448
163	0xbe1aab10	-0.15104318
164	0xbe2e6ec8	-0.17034447
165	0x3d8ec43c	0.069710225
166	0xbe818fc6	-0.25305003
167	0xbdc79bf8	-0.097465456
168	0xbe933775	-0.28753248
169	0x3df6e396	0.12055127
170	0x3d253577	0.04033419
171	0xbcc438eb	-0.023952922
172	0xbe74761a	-0.23873177
173	0xbe9481f9	-0.2900541
174	0xbe511390	-0.20417619
175	0x3c2a3c5d	0.010390368
176	0x3e9fec23	0.31234846
177	0xbde0a52e	-0.109690055
178	0xbb9de100	-0.004818082
179	0x3e509f82	0.20373347
180	0x3e026ca6	0.12736759
181	0xbed99a6b	-0.42500624
182	0xbed77896	-0.42084187
183	0xbb859380	-0.0040764213
184	0xbed9a6b9	-0.42510012
185	0xbe16017b	-0.14649002
186	0x3f0479df	0.5174846
187	0x3e54e08a	0.2078878
188	0xbe9fc484	-0.31204617
189	0x3d549f00	0.051909447
190	0xbe6f85a6	-0.23390827
191	0xbd5e6e33	-0.054304313
192	0xbd412840	-0.047157526
193	0xbd3222c8	-0.0434902
194	0x3e0f80c8	0.1401397
195	0xbd9a83e8	-0.0754469
196	0x3db2d3e8	0.08731824
197	0x3c35a020	0.01108554
198	0xbde52df8	-0.111904085
199	0x3e0a24a2	0.13490537
200	0xbe2578be	-0.1615934
201	0xbca4d750	-0.0201222
202	0xbe5e994e	-0.21738169
203	0x3ca35cc0	0.019941688
204	0xbcf6d010	-0.030128509
205	0xbe656428	-0.22401488
206	0xbe4b2eaa	-0.1984202
207	0x3e141cc8	0.14464104
208	0xc1348cc0	-11.284363
209	0xbf081b7c	-0.5316694
210	0xbb9341c0	-0.004493922
211	0xbe0300fc	-0.12793344
212	0xbe2d1bf2	-0.16905192
213	0xbfaf03b5	-1.3673006
214	0xbf955f36	-1.1669681
215	0x3e7df440	0.24800205
216	0xbfbc189e	-1.4695013
217	0xbf969a0c	-1.1765761
218	0x40f31d6f	7.597343
219	0xbfe4d359	-1.7876998
220	0x3f83a432	1.0284483
221	0x3f52af66	0.82298887
222	0x3f097302	0.53691113
223	0xbf367347	-0.7126965
224	0xbd885aa5	-0.06657914
225	0xbeedf759	-0.46477774
226	0x3d32ebb8	0.04368183
227	0x3d88ba20	0.066761255
228	0xbe73046a	-0.23732153
229	0xbe9b9c81	-0.3039284
230	0xbef0d320	-0.47036076
231	0xbc6c7d80	-0.014434218
232	0xbec071d7	-0.37586853
233	0xbe1c2964	-0.15250164
234	0xbda324f8	-0.079660356
235	0xbebb5089	-0.3658488
236	0xbde8e377	-0.113715105
237	0xbeefee80	-0.4686165
238	0xbdf26d17	-0.118372135
239	0xbe4d7c52	-0.20066956
240	0x3c4f4260	0.012650102
241	0x3e310808	0.1728822
242	0xbe1d7a8c	-0.15378779
243	0x3c7190c0	0.014743984
244	0x3d8ea8e8	0.0696581
245	0x3d1a1278	0.03761527
246	0xbe2d1c3e	-0.16905305
247	0xbdea4630	-0.114391685
248	0xbe6c912e	-0.23102257
249	0xbd6bd8d0	-0.057579815
250	0xbdb3800c	-0.087646574
251	0x3e2a7aa8	0.16648352
252	0xbe143422	-0.14473012
253	0x3d9bbec0	0.07604742
254	0x3e3da2b8	0.18519104
255	0xbcc943b0	-0.024568409

fc1.bias f4 [64]
0	0xbf49eda0	-0.7887821
1	0xbf03dadc	-0.5150583
2	0xbe67e51d	-0.22645994
3	0xbe698fd6	-0.22808775
4	0xbedf213c	-0.43580043
5	0xbf3697b5	-0.71325237
6	0x3cb22810	0.021747619
7	0x3d0f1f18	0.034941763
8	0xbd7413f4	-0.05958934
9	0xbe5014d4	-0.20320445
10	0xbc9e07d7	-0.019290848
11	0xbea2b793	-0.3178068
12	0x3cdaef90	0.02672556
13	0xbfa813ab	-1.3131002
14	0xbe5a0667	-0.21291505
15	0x3d9975e0	0.07493186
16	0xbf0ae8d8	-0.5426154
17	0x3dbb2ba5	0.09139184
18	0xbeb268a4	-0.3484546
19	0x3e127046	0.14300641
20	0xbf99f507	-1.2027901
21	0xbef23453	-0.47305545
22	0x3d8ae464	0.06781843
23	0xbe9521c3	-0.2912732
24	0xbf1dfc09	-0.617127
25	0x394e1800	0.00019654632
26	0xbe3094e8	-0.17244303
27	0xbe6f40c0	-0.23364544
28	0xbdf01118	-0.117220104
29	0xbe8f0014	-0.27929747
30	0xbef72e49	-0.482775
31	0xbddeea59	-0.10884542
32	0xbea7b03e	-0.3275165
33	0xbdf6ff20	-0.1206038
34	0xbd87c919	-0.06630153
35	0xbed64b82	-0.41854483
36	0xbd576bd9	-0.052593086
37	0xbf1b49f3	-0.6065971
38	0xbe5459f2	-0.20737436
39	0xbd7a0450	-0.06103927
40	0xbdfbc604	-0.12293628
41	0xbdc356fa	-0.09538074
42	0x3ad5e21e	0.0016317999
43	0xbe1629ef	-0.14664434
44	0xbf992b08	-1.1966257
45	0xbdabe97b	-0.08394142
46	0xbe8d3634	-0.27580416
47	0xbdf94af7	-0.121725015
48	0xbe785272	-0.242502
49	0xbe40c0c8	-0.1882354
50	0xbd25ac60	-0.040447593
51	0xbda59ff5	-0.0808715
52	0xbc9bb070	-0.01900503
53	0xbf69c8aa	-0.91321814
54	0xbeb20da1	-0.34776023
55	0x3e51ff66	0.20507583
56	0xbf02e127	-0.51124805
57	0xbe73f1f8	-0.23822773
58	0xbe907026	-0.28210562
59	0xbf0a8964	-0.5411589
60	0xba9aae00	-0.0011801124
61	0xbe716e98	-0.23577344
62	0x3e526e3e	0.20549867
63	0xbe919a15	-0.28437868

fc2.weight f4 [64, 64]
0	0xbeaa6827	-0.33282587
1	0xbe3a6ac2	-0.18204787
2	0x3e5993e8	0.21247828
3	0xbe914458	-0.28372455
4	0xbeb46cbf	-0.35239217
5	0xbe9de6ad	-0.30840054
6	0x3dc50540	0.09620142
7	0x3dc2f730	0.095198035
8	0xbeb73a2a	-0.35786563
9	0xbbb20fa0	-0.0054339916
10	0xbed88e9b	-0.422963
11	0xbe64eaf5	-0.22355254
12	0xbbbce980	-0.00576514
13	0xbe493e1a	-0.19652596
14	0xbe722c23	-0.2364965
15	0xbd9bf4dc	-0.076150626
16	0xbe76ca07	-0.24100505
17	0xbec41aef	-0.383018
18	0xbeca9e1e	-0.3957376
19	0xbd834972	-0.06410493
20	0xbe890355	-0.26760355
21	0xbed07c8c	-0.40720022
22	0x3dd89856	0.10575931
23	0xbe3c6da0	-0.18401194
24	0xbea0ff35	-0.31444708
25	0x3debb610	0.11509335
26	0xbe5e54c3	-0.21712022
27	0xbec98ee5	-0.39366832
28	0xbea6ee65	-0.32603756
29	0xbe81ad5f	-0.25327584
30	0xbe85dfc4	-0.26147282
31	0xbeb9b61e	-0.36271757
32	0xbec327dc	-0.38116348
33	0xbd579b30	-0.052638233
34	0xbe52d899	-0.20590438
35	0xbe3d16d3	-0.18465738
36	0xbe6c7f38	-0.23095405
37	0xbeb40254	-0.35158026
38	0xbc54c310	-0.01298596
39	0xbdf79e2e	-0.12090717
40	0xbd951428	-0.07279235
41	0xbebcf507	-0.3690569
42	0xbeb52054	-0.35376227
43	0xbe976d88	-0.29575753
44	0xbe6f48e7	-0.23367654
45	0xbe5be818	-0.21475255
46	0xbea4c274	-0.32179606
47	0x3e962fe4	0.29333413
48	0xbe783263	-0.24237971
49	0xbe867163	-0.26258382
50	0x3ccadb38	0.024762735
51	0xbe898023	-0.26855573
52	0x3c750030	0.014953658
53	0xbec3cfc5	-0.38244453
54	0xbe8b2a18	-0.27180552
55	0xbdaf256c	-0.085520595
56	0xbe57ca9f	-0.21073388
57	0xbd5dd9f0	-0.05416292
58	0xbeb19688	-0.3468516
59	0xbea19d14	-0.31565154
60	0xbdee84bc	-0.11646411
61	0xbe9b18cb	-0.30292353
62	0xbd037ac0	-0.032099485
63	0xbed3f3ba	-0.41396886
64	0xbef46d4f	-0.47739646
65	0xbeeeeb2b	-0.46663794
66	0xbdf095d6	-0.11747329
67	0xbed056fa	-0.40691358
68	0xbd9b113a	-0.07571645
69	0xbf231842	-0.6370889
70	0x3ca7a4d8	0.020464346
71	0xbd60e744	-0.054908052
72	0xbf13dcf4	-0.5775902
73	0x3d75c298	0.060000032
74	0xbc8642a0	-0.016389191
75	0x3ae97080	0.0017810017
76	0x3c5e3570	0.013562545
77	0xbf12f0ba	-0.5739857
78	0xbdcbacaa	-0.099450424
79	0x3c9f4f20	0.01944691
80	0xbd17c4ac	-0.037052795
81	0x3d603930	0.05474204
82	0x3d0d5acc	0.03451042
83	0xbdae0866	-0.084976956
84	0xbf23705b	-0.63843316
85	0x3dc90072	0.09814538
86	0x3d4f50e0	0.050614238
87	0xbd1651d8	-0.036699146
88	0xbedfd02c	-0.4371351
89	0xbc11b360	-0.008892864
90	0xbc86f5c8	-0.01647462
91	0x3cca1978	0.024670348
92	0xbcb75c68	-0.02238293
93	0xbc890368	-0.016725257
94	0xbed5523e	-0.41664308
95	0x3d10c968	0.035348326
96	0xbdb711be	-0.08938931
97	0x3da12c4c	0.07869777
98	0xbdc5b87c	-0.09654328
99	0x3dce92ec	0.10086617
100	0x3dbef7fc	0.09324643
101	0x3d5b6aae	0.053568535
102	0x3dec1b7e	0.11528681
103	0xbddb17c0	-0.10697889
104	0x3d545f24	0.051848546
105	0x3d817cf2	0.063226596
106	0xbe909b8a	-0.28243667
107	0x3df74f5a	0.12075682
108	0xbedb8a2b	-0.4287885
109	0xbd023654	-0.031790093
110	0xbd889144	-0.06668332
111	0x3d054508	0.032536536
112	0xbcf585b8	-0.029970989
113	0x3e1ac96d	0.151159
114	0x3d2e0eb4	0.04249449
115	0xbdfa7ce8	-0.12230855
116	0x3de01dde	0.10943197
117	0xbf07827b	-0.5293347
118	0xbdab3bb2	-0.08360995
119	0xbddd66ba	-0.10810609
120	0xbedfae6f	-0.4368777
121	0xbaeecc00	-0.0018218756
122	0xbcb0a040	-0.021560788
123	0xbf125ac0	-0.57169724
124	0x3b182e80	0.0023221076
125	0xbf0b10f4	-0.54322743
126	0x3deae470	0.11469352
127	0xbc69b340	-0.014263928
128	0xbf0924b7	-0.5357165
129	0xbec8dafa	-0.39229566
130	0x3eb35ff1	0.35034135
131	0xbc9d0c8f	-0.019171027
132	0x3e736fc9	0.23773111
133	0xbe2fb2c1	-0.17158033
134	0xbd85191e	-0.06498931
135	0xbd790300	-0.060793877
136	0x3bee622d	0.007274887
137	0x3da4eb10	0.08052647
138	0xbe0d9a13	-0.13828306
139	0x3e9e5323	0.30922803
140	0xbcb9b778	-0.022670493
141	0xbeb0f997	-0.34565422
142	0x3e77c188	0.2419492
143	0x3c381390	0.011235133
144	0x3e5c17f6	0.21493515
145	0xbd78c496	-0.060734354
146	0x3ebb72d6	0.3661105
147	0x3d2af344	0.041735902
148	0xbf0d3f25	-0.55174476
149	0x3e9fc699	0.31206205
150	0xbdc73ca8	-0.09728366
151	0x3bea4b7e	0.0071501127
152	0xbe0de09a	-0.1385521
153	0x3d580968	0.052743345
154	0xbe8cad1d	-0.27475825
155	0x3ce432ed	0.027856315
156	0x3ed599a6	0.41718787
157	0x3ed72fb2	0.42028576
158	0xbd3a274c	-0.045447633
159	0x3e675b36	0.22593388
160	0x3e3f3d77	0.1867579
161	0x3d9774e6	0.073953435
162	0x3e814dce	0.25254673
163	0xbe177f4d	-0.14794655
164	0xbdf9befb	-0.1219463
165	0xbc58e258	-0.013237558
166	0x3db34b70	0.08754623
167	0xbbb77d60	-0.0055996627
168	0xbd8ce6d4	-0.068799645
169	0x3e837d1a	0.25681382
170	0xbd4199e1	-0.04726589
171	0x3e3c22b0	0.18372607
172	0xbe8abb07	-0.27095816
173	0x3e8a7c37	0.27047893
174	0x3ead9ea5	0.339101
175	0x3e834d5a	0.25644952
176	0x3bceeb9a	0.006314707
177	0xbef82cc1	-0.48471645
178	0xbde0b120	-0.10971284
179	0xbca843f3	-0.020540213
180	0xbd3865d0	-0.04501897
181	0xbe92061a	-0.2852028
182	0xbd22cf03	-0.039748203
183	0x3dba88bc	0.09108111
184	0x3c9064a8	0.017626122
185	0x3dce6b70	0.10079086
186	0xbd382888	-0.04496053
187	0xbddbe060	-0.107361555
188	0x3d9201d0	0.07129252
189	0xbe6a6893	-0.22891454
190	0x3c3f96f0	0.011693701
191	0x3e9d1ee8	0.30687642
192	0xc023ecd2	-2.5613294
193	0xbe1c87b8	-0.15286148
194	0xbe9a84bb	-0.3017939
195	0xbda3dba6	-0.08000879
196	0x3e8ffdea	0.2812341
197	0xbfd6d753	-1.6784462
198	0xbd4a6774	-0.049415067
199	0x3dcd117e	0.10013102
200	0xbd84e489	-0.06488902
201	0x3de1c59e	0.110240206
202	0xbdb56c09	-0.08858497
203	0x3e98b5dd	0.2982625
204	0xbdce0db8	-0.100612104
205	0xc16a212c	-14.633099
206	0x3ec02445	0.3752767
207	0xbc4454c0	-0.011983097
208	0x3e8f5e8f	0.2800183
209	0xbe1f40a4	-0.15552002
210	0x3e8dd85f	0.2770414
211	0x3dc62208	0.0967446
212	0xc02fb8a1	-2.7456439
213	0x3eb6ad05	0.35678878
214	0xbdbf8a42	-0.093525425
215	0xbe6176f5	-0.22018035
216	0xbf7a54cb	-0.97785634
217	0xbccdd1b8	-0.025124416
218	0xbe9ebe66	-0.31004637
219	0xbcc854a7	-0.024454428
220	0x3eb4bc8f	0.3530011
221	0x3ea696fa	0.3253706
222	0xbef22ff3	-0.47302207
223	0x3ea7a84d	0.3274559
224	0x3ead5550	0.3385415
225	0xbdfdb12e	-0.1238731
226	0x3e6911fe	0.2276077
227	0xbdb32733	-0.08747711
228	0xbd6bd8d3	-0.057579827
229	0x3e27ca84	0.16385847
230	0xbde999ce	-0.11406289
231	0xbcdcf0c8	-0.026970282
232	0xbd097634	-0.033559993
233	0x3e8ab879	0.27093866
234	0x3e80d8e5	0.25165477
235	0x3e525cc2	0.20543197
236	0xbf996b24	-1.1985822
237	0x3e8dbfd1	0.27685407
238	0x3e9633fc	0.29336536
239	0x3e477b2b	0.19480579
240	0x3dbda7b3	0.09260502
241	0x3e63b822	0.2223821
242	0x3df5eb16	0.1200773
243	0xbda67b99	-0.08129043
244	0xbc04bef0	-0.008102164
245	0xbf913bf7	-1.1346425
246	0xbcc7d33b	-0.024392715
247	0xbde8ccd6	-0.11367194
248	0xbec05321	-0.37563422
249	0x3b523b00	0.0032078624
250	0x3d34ad03	0.04411031
251	0xbf3ba663	-0.7330076
252	0xbceed648	-0.029154912
253	0x3f55a1d1	0.8345004
254	0x3d7fb7c0	0.062431097
255	0x3eaf8b79	0.34286097

fc2.bias f4 [64]
0	0xbea3014f	-0.31836936
1	0xbf0dc3d4	-0.55376935
2	0xbe1ae0c5	-0.15124805
3	0xbd4be969	-0.049783144
4	0xbe96bf5d	-0.29442874
5	0xc05d85a6	-3.4612823
6	0xbe9c6eb3	-0.30553207
7	0xbed56323	-0.41677198
8	0xbe98b13e	-0.29822725
9	0xbecc6678	-0.39921927
10	0xbec219dd	-0.37910357
11	0x3eb5c129	0.35498932
12	0xbe13b682	-0.1442509
13	0xbe427a54	-0.18991977
14	0xbebf95e8	-0.37419057
15	0xbf345207	-0.70437664
16	0xbd2b232f	-0.0417816
17	0xbd16a789	-0.036780868
18	0xbe904f53	-0.2818552
19	0xbf47c80e	-0.78039634
20	0xbe7bc803	-0.24588017
21	0xbf50275a	-0.81310046
22	0xbeab084c	-0.33404768
23	0xbee7a350	-0.45241785
24	0xbe7896e6	-0.24276313
25	0xbeaaedc7	-0.33384535
26	0xbead8177	-0.33887836
27	0xbf2715e2	-0.65267766
28	0xbe36dd7f	-0.17857932
29	0xbec89c27	-0.39181635
30	0xbfb5f311	-1.4214803
31	0xbe3daf29	-0.1852385
32	0xbf72fc0c	-0.94915843
33	0xbf8dc701	-1.1076356
34	0xbec738db	-0.38910565
35	0xc0fb6268	-7.8557625
36	0xbf98b065	-1.1928831
37	0xc0a4cce3	-5.1500106
38	0xbcb3badc	-0.021939687
39	0xbfb34f37	-1.400855
40	0xbf1f0672	-0.6211921
41	0xbdbb1e52	-0.091366425
42	0xbeddd6c5	-0.4332792
43	0xbe9879d5	-0.2978045
44	0xbf398d1f	-0.7248096
45	0xbe84d959	-0.25947073
46	0xbf042c1a	-0.51629794
47	0xbea4409e	-0.3208055
48	0xbeeb4e34	-0.45958102
49	0xbeac7e83	-0.3369027
50	0xbea28d4e	-0.31748432
51	0xbe9a3a99	-0.3012283
52	0xbe7ff3e2	-0.24995378
53	0xc011a659	-2.275778
54	0xbf269e98	-0.65085745
55	0xbec98b62	-0.39364153
56	0xbd2538b4	-0.04033728
57	0xbf2666a2	-0.65000355
58	0xbea6f81b	-0.32611164
59	0xbf0f347c	-0.5593946
60	0xbe6a47ad	-0.22878905
61	0xbec30e7f	-0.38096997
62	0xbeeada66	-0.4586975
63	0xc03370aa	-2.8037515

fc3.weight f4 [6, 64]
0	0xbe902fa3	-0.28161344
1	0xbe543b6a	-0.2072579
2	0x3c7ee26f	0.015556916
3	0xbe53aaf4	-0.20670682
4	0xbe615f2a	-0.22008958
5	0x3e9f791d	0.3114709
6	0x3e89a008	0.26879907
7	0xbe96d7f5	-0.29461637
8	0xbe43082e	-0.19046089
9	0xbe6fa3a9	-0.23402275
10	0x3e96262d	0.29326
11	0xc0244a21	-2.5670245
12	0xbe7b7748	-0.24557221
13	0xbf024a95	-0.50895053
14	0xbe7ca38c	-0.24671763
15	0xbd3ced55	-0.046124775
16	0x3f01b934	0.5067322
17	0x3e459cc4	0.19298083
18	0xbe91f08f	-0.28503844
19	0xbf5a477e	-0.8526534
20	0x3c9218c0	0.017834067
21	0x3ecb27e2	0.39678866
22	0xbec351f6	-0.3814847
23	0x3d106484	0.03525211
24	0x3ed51b1a	0.4162224
25	0xbe823c9e	-0.25436872
26	0xbe261cde	-0.1622195
27	0x3e79fc65	0.24412687
28	0xbe1ebcc3	-0.15501694
29	0xbe8f29d6	-0.27961606
30	0xbee17926	-0.4403774
31	0x3d0578b9	0.032585833
32	0xbf6cc2cc	-0.92484736
33	0x3ca3f320	0.020013392
34	0x3e62000b	0.22070329
35	0xbe9e6c87	-0.30942175
36	0xbd1b6eb4	-0.03794737
37	0x3dc91ba9	0.09819729
38	0xbd4a1501	-0.049336437
39	0x3e6fe8a0	0.23428583
40	0x3ed0b07f	0.40759656
41	0x3f87fbef	1.0623759
42	0x3cba4570	0.022738189
43	0xbea824b9	-0.32840517
44	0x3eb9d62b	0.3629621
45	0x3ea2a16d	0.31763783
46	0xbd6417b9	-0.055686686
47	0x3e35fb0f	0.17771553
48	0x3f4a69fe	0.7906798
49	0xbe3a179f	-0.18173073
50	0xbe5ab0f5	-0.21356566
51	0xbe8d9afc	-0.27657306
52	0x3f3683b4	0.71294713
53	0x3ee137be	0.4398784
54	0xbeb43881	-0.3519936
55	0x3e5db8c0	0.21652508
56	0xbe63a3da	-0.22230473
57	0xbd95fd0a	-0.07323654
58	0x3e63e430	0.22255015
59	0x3f4584dc	0.7715585
60	0xbe91956e	-0.28434318
61	0x3ef3020a	0.47462493
62	0xbe8cc00e	-0.27490276
63	0xbfb68594	-1.4259515
64	0xbe52c0c6	-0.2058135
65	0x3e9656dc	0.29363143
66	0x3da1f417	0.079078846
67	0x3f2174af	0.6306867
68	0x3e600d34	0.21880037
69	0xbf0f0d71	-0.55879885
70	0xbe613864	-0.21994168
71	0xbec9af0b	-0.3939136
72	0xbea1ad29	-0.31577423
73	0xbe41e1d0	-0.18933797
74	0x3e61cad8	0.22050035
75	0xbef29154	-0.47376502
76	0x3de3412d	0.11096416
77	0x40064aa0	2.0983047
78	0xbe91d8a4	-0.28485596
79	0x3dc8d274	0.09805766
80	0x3fb73515	1.4313074
81	0xbd44110f	-0.04786783
82	0xbea01ceb	-0.31272063
83	0x3db06c34	0.08614388
84	0xbea87f81	-0.32909778
85	0x3e59990b	0.21249788
86	0xbeab3482	-0.33438498
87	0xbeb8524a	-0.36000282
88	0xbed36236	-0.41285866
89	0xbeaebe4b	-0.34129557
90	0xbe96396f	-0.29340693
91	0x3ecb75c1	0.39738277
92	0x3e4b17a5	0.19833238
93	0xbeb1d757	-0.34734604
94	0x3ef304c3	0.4746457
95	0x3e56cc81	0.2097645
96	0xbd358198	-0.044313043
97	0x3d95dcce	0.07317506
98	0xbe96351e	-0.293374
99	0x3d1cc221	0.038271073
100	0xbf77ff52	-0.9687396
101	0x3f8c21fc	1.0947871
102	0xbeec0faa	-0.461057
103	0xbda90c4d	-0.08254299
104	0x3f00313f	0.50075144
105	0xbf887150	-1.065958
106	0x3d4c7058	0.049911827
107	0x3e95a059	0.29223898
108	0xbecd320d	-0.40077248
109	0x3e8092da	0.2511204
110	0x3e1af297	0.15131603
111	0x3b5403c0	0.0032350868
112	0xbf2f5e7b	-0.6850354
113	0xbe15a80b	-0.14614885
114	0xbebc7c9b	-0.36813816
115	0xbe6c409b	-0.2307152
116	0x3da8725e	0.08224939
117	0xbea1b4cd	-0.31583253
118	0xbe321462	-0.17390588
119	0x3e32a49a	0.17445603
120	0xbdcfa198	-0.101382434
121	0x3d0d1824	0.03444685
122	0xbeb6797a	-0.35639554
123	0x3f00585e	0.5013484
124	0xbe54fdc4	-0.20799929
125	0x3d5ec8ac	0.054390594
126	0xbc6b9ee5	-0.014381145
127	0x3f9ffda9	1.2499286
128	0xbe3876b5	-0.18014033
129	0x3eca9687	0.39567968
130	0x3e433e37	0.19066702
131	0x3f078980	0.52944183
132	0xbea721ed	-0.3264307
133	0xbe1c883c	-0.15286344
134	0xbe47cef1	-0.19512536
135	0xbe8699ed	-0.2628931
136	0xbed8794f	-0.4228005
137	0xbeb37986	-0.35053653
138	0x3e7357c8	0.23763955
139	0x41614834	14.080128
140	0x3dc904eb	0.09815391
141	0xbf21a2a0	-0.6313877
142	0xbeb9a1ab	-0.36256155
143	0xbe978600	-0.2959442
144	0x3f27649a	0.6538788
145	0x4011a887	2.275911
146	0xbe9a7734	-0.3016907
147	0xbd4fac18	-0.05070123
148	0xbe971d97	-0.29514763
149	0xbdc4eefe	-0.09615897
150	0xbe3e160c	-0.18563098
151	0xbee088df	-0.43854424
152	0xbed870e6	-0.42273635
153	0xbe53cc14	-0.20683318
154	0xbed03436	-0.40664834
155	0xbf0df235	-0.55447704
156	0x3e0fd083	0.14044385
157	0xbe7abb13	-0.24485426
158	0x3e25c6de	0.16189143
159	0x3f9c9cda	1.2235367
160	0x3d761b88	0.06008485
161	0xbd2ba8e4	-0.041909114
162	0xbe443d27	-0.19163953
163	0xbe1ad687	-0.15120898
164	0x3f8e5dac	1.1122336
165	0xbf968dc2	-1.1762011
166	0x3ef65dc5	0.48118415
167	0xbdb4039b	-0.0878975
168	0x3ddff6b9	0.109357305
169	0x3fa6f5aa	1.3043721
170	0xbdb398be	-0.08769368
171	0xbe7b60a9	-0.24548592
172	0xbed196ff	-0.40935513
173	0x3e8243d8	0.25442386
174	0xbef0115f	-0.46888253
175	0x3d43d904	0.047814384
176	0x3f765821	0.96228224
177	0x3f1b18a3	0.6058447
178	0xbe8237a1	-0.25433066
179	0xbed0829b	-0.40724644
180	0xbf27c33a	-0.6553227
181	0xbe4afb21	-0.1982236
182	0xbeb56596	-0.35429066
183	0x3e82f079	0.2557409
184	0x4054a4d8	3.3225613
185	0x3df2d1e4	0.1185644
186	0xbe50d72c	-0.20394582
187	0xbec5e53a	-0.38651448
188	0xbe8219e7	-0.25410387
189	0xbee9a92e	-0.45636886
190	0xbebe4bf2	-0.37167317
191	0xbf532212	-0.8247386
192	0xbe927c55	-0.28610483
193	0x3e3ed839	0.1863717
194	0xbe5614e0	-0.209064
195	0x3ebfed1a	0.37485582
196	0x3eb687ce	0.35650486
197	0x3e3ce53e	0.18446824
198	0x3ec28b02	0.3799668
199	0xbe4d1e4e	-0.20031092
200	0xbe3899cf	-0.18027423
201	0xbeb0499d	-0.34431162
202	0xbe9961ec	-0.2995752
203	0xbf11ae98	-0.56907034
204	0xbd4c0fba	-0.049819686
205	0x4007162f	2.110729
206	0xbe9335a4	-0.28751862
207	0xbf10629a	-0.56400454
208	0xbf5fad23	-0.8737356
209	0x3ce7ce86	0.02829672
210	0xbe6fe1fa	-0.23426047
211	0x3ded7772	0.11595048
212	0x3dae0508	0.084970534
213	0xbebef0ee	-0.3729319
214	0xbe83b994	-0.25727522
215	0xbd96daf0	-0.07365978
216	0xbe9f34dd	-0.3109502
217	0xbed304f5	-0.4121472
218	0xbe8070fc	-0.250862
219	0xbcb3d095	-0.021950046
220	0xbe0e2969	-0.13882984
221	0xbec783eb	-0.38967833
222	0xbf094a4d	-0.53629
223	0xbda2ffe2	-0.07958962
224	0x3de8ecac	0.113732666
225	0xbd8b6fee	-0.06808458
226	0xbe9cc683	-0.30620202
227	0x3e5779b2	0.21042517
228	0x3f8d812f	1.1055049
229	0xbf6ed780	-0.93297577
230	0x3e8a6883	0.2703286
231	0x3e395af2	0.18101099
232	0xbf1449fb	-0.57925385
233	0x3fddddf0	1.7333355
234	0x3eaf9d2e	0.34299606
235	0xbe8ec4a4	-0.278844
236	0xbe4d02a0	-0.20020533
237	0xbe72d2fa	-0.23713294
238	0xbcf46d76	-0.029837351
239	0xbc862f60	-0.016380012
240	0xbe936ad1	-0.28792432
241	0xbe5d8f6d	-0.21636744
242	0xbe807168	-0.25086522
243	0xbe92bb58	-0.28658557
244	0x3e9ad699	0.3024185
245	0xbf216677	-0.63046974
246	0xbeb53315	-0.35390535
247	0x3e4b03ec	0.19825715
248	0x3d0ac2c5	0.033877153
249	0x3f2b057c	0.66805243
250	0xbe0fa19b	-0.14026491
251	0x3f019b19	0.50627285
252	0xbeabd20e	-0.33558697
253	0x3f1d93ff	0.6155395
254	0xbe1432f6	-0.14472565
255	0xbf81f981	-1.0154268

fc3.bias f4 [6]
0	0xc1327a03	-11.154788
1	0xc12dd4b8	-10.864433
2	0xc1730a21	-15.189973
3	0xc120a57b	-10.0404005
4	0xc19ee0ef	-19.85983
5	0xc1a14805	-20.160166
