checkpoints/model_0.7_250.pth (torch, 25220 bytes, 6 tensors)

fc1.weight f4 [64, 16]
0.089500785 0.24121886 -0.1925999 -0.17727807 -0.07970795 0.05825171 -0.027516335 -0.118312865
-0.11798605 -0.052272826 -0.23593289 -0.0483886 -0.115338296 0.22504577 -0.16276363 0.13711113
-0.18112272 0.114176035 -0.16451803 0.19355044 -0.1839965 -0.23319092 0.11289868 0.06584683
0.039670676 0.235688 -0.07365286 0.02136013 0.24459526 -0.04794684 0.08645716 -0.08945814
0.09432718 -0.044489026 0.0031963289 0.20426264 0.14432755 -0.13937059 0.1545226 -0.050492972
0.047596544 -0.0999898 0.08449975 -0.13182604 -0.24496311 -0.10099587 0.015226036 -0.16651914
0.2097261 0.24727705 -0.100173 0.10134232 -0.111121446 0.1354594 -0.12661111 -0.03802997
0.07480505 -0.030910999 0.1373148 0.088476986 0.19864088 0.18972737 0.03779033 0.22598916
0.05647725 0.021131814 -0.24937865 -0.031924576 -0.06337443 -0.17345965 0.072934 0.07417062
0.19090211 -0.02672115 -0.028146654 -0.030298263 -0.23253751 0.043875575 0.18359432 -0.14705527
0.19157323 0.1809811 -0.052589864 0.08325669 0.070287764 -0.060225308 0.11629006 -0.2139236
0.18168774 0.08585748 0.22468108 0.20411289 -0.1862666 -0.05183357 -0.23694646 -0.23837829
0.02843541 0.092420906 -0.21722886 -0.095155954 -0.16297075 0.051500738 -0.108449936 0.1695855
-0.025567174 0.23610741 -0.13711432 0.079086274 0.1494875 -0.13147631 0.23148179 -0.1998733
-0.185319 0.23352125 0.077846706 -0.16517752 0.024925023 -0.09243977 0.036057353 -0.03155765
0.050899416 -0.16433811 0.064015925 -0.12196314 -0.035414755 0.24930322 -0.12150517 0.114798754
-0.17883042 0.11026299 0.13344759 -0.07492679 0.030210644 0.13282719 0.18724167 0.008352786
-0.13459921 0.13448846 -0.19274157 0.20799458 -0.13863361 0.21211839 0.16828918 0.039913356
0.18671083 0.1476298 -0.15483746 0.0045690536 -0.008582741 0.124616414 0.24385631 0.09525016
0.049251825 -0.18838677 0.06347698 0.012841791 0.10181907 -0.013413966 0.084931165 0.07474661
-0.048496127 -0.20186907 0.1350345 0.21426702 0.20799813 -0.19795302 -0.17395523 0.16960683
-0.1861035 -0.16500679 0.11711493 -0.108974576 0.082197875 0.20366189 0.06894466 0.15705466
0.15572721 -0.15714213 -0.013238251 0.14431497 0.10458636 -0.07648471 -0.17928746 0.0023123026
0.03008321 -0.24157521 -0.02428165 0.12619096 0.1990503 0.11297491 -0.2388961 -0.19791052
-0.22139227 0.042138964 0.22982699 0.1459541 -0.072846234 0.19735837 -0.14899752 -0.0890837
0.102778375 0.0777905 0.18428895 -0.019220829 0.040551484 0.1012508 0.2183263 0.085348904
-0.22620672 0.1418469 -0.062160045 0.20706785 -0.006984085 -0.15562916 -0.05562809 0.03130606
-0.12623107 -0.030801356 -0.21104291 -0.054374516 -0.006034732 -0.10996544 -0.019354075 -0.036827713
-0.07568413 -0.05950877 0.06313649 -0.17192498 0.089876324 -0.0737654 -0.043458194 0.12001616
0.19844243 0.1472753 0.14646849 0.1147573 0.06769869 0.10700911 -0.13779628 0.19300249
-0.027279198 0.17491665 -0.17807901 -0.18138441 -0.18010497 -0.19001433 0.14696783 0.1847587
0.016245812 -0.13202143 -0.055359274 -0.123903245 0.24168706 -0.024946958 0.06653017 0.00605917
00000000: 304c b73d 1402 773e e838 45be 6288 35be
00000010: ec3d a3bd 5899 6e3d f069 e1bc 044e f2bd
00000020: aca2 f1bd 081c 56bd 6498 71be 2033 46bd
00000030: 7c36 ecbd 6672 663e 82ab 26be dc66 0c3e
00000040: 3c78 39be 20d5 e93d 6a77 28be 1632 463e
00000050: 9469 3cbe 9ac9 6ebe 6c37 e73d b4da 863d
00000060: b87d 223d 3258 713e 50d7 96bd 70fb ae3c
00000070: 2e77 7a3e e863 44bd 7410 b13d d435 b7bd
00000080: 9c2e c13d 203a 36bd 8079 513b 3a2a 513e
00000090: 9aca 133e 2ab7 0ebe 2c3b 1e3e b8d1 4ebd
000000a0: 98f4 423d 74c7 ccbd 340e ad3d 68fd 06be
000000b0: 9cd7 7abe ecd6 cebd a076 793c fe83 2abe
000000c0: 70c2 563e 3236 7d3e 8027 cdbd 908c cf3d
000000d0: a493 e3bd deb5 0a3e 58a6 01be 50c5 1bbd
000000e0: 6433 993d 1039 fdbc 409c 0c3e 6c33 b53d
000000f0: 8468 4b3e e447 423e 08ca 1a3d b469 673e
00000100: b054 673d a01c ad3c 1e5d 7fbe 58c3 02bd
00000110: 74ca 81bd 689f 31be 6c5e 953d c4e6 973d
00000120: d87b 433e 50e6 dabc d093 e6bc 1034 f8bc
00000130: 501e 6ebe e0b6 333d 2600 3c3e a895 16be
00000140: c62b 443e 1c53 393e 7868 57bd 7c82 aa3d
00000150: 08f3 8f3d d0ae 76bd 7c29 ee3d ca0e 5bbe
00000160: 5a0c 3a3e 0cd6 af3d cc12 663e f802 513e
00000170: acbc 3ebe 704f 54bd 18a2 72be 7019 74be
00000180: 60f1 e83c 2c47 bd3d 3e71 5ebe 20e1 c2bd
00000190: cee1 26be 70f2 523d 001b debd d2a7 2d3e
000001a0: 4072 d1bc 24c6 713e b267 0cbe fcf7 a13d
000001b0: 4013 193e baa1 06be 9009 6d3e 96ab 4cbe
000001c0: 44c4 3dbe 3220 6f3e 186e 9f3d 4c24 29be
000001d0: 902f cc3c 1051 bdbd e0b0 133d 9842 01bd
000001e0: e87b 503d 4048 28be c81a 833d d0c7 f9bd
000001f0: 100f 11bd 5849 7f3e b4d7 f8bd 9c1b eb3d
00000200: 521f 37be 90d1 e13d 7ca6 083e 3873 99bd
00000210: 507c f73c da03 083e 48bc 3f3e 20da 083c
00000220: 60d4 09be 58b7 093e 0c5e 45be 88fc 543e
00000230: f8f5 0dbe 9035 593e 0054 2c3e 307c 233d
00000240: 2031 3f3e 442c 173e b68d 1ebe 00b8 953b
00000250: a09e 0cbc e436 ff3d 78b5 793e 8412 c33d
00000260: 48bc 493d 76e8 40be 3800 823d 6066 523c
00000270: 8486 d03d 40c6 5bbc 64f0 ad3d c014 993d
00000280: e0a3 46bd c4b6 4ebe 7c46 0a3e d068 5b3e
00000290: 76fd 543e 32b4 4abe 5221 32be 6aad 2d3e
000002a0: ea91 3ebe 8af7 28be f4d9 ef3d 102e dfbd
000002b0: 5c57 a83d be8c 503e dc32 8d3d f0d2 203e
000002c0: f476 1f3e dee9 20be 40e5 58bc 4ec7 133e
000002d0: 6031 d63d 04a4 9cbd 2297 37be 008a 173b
000002e0: 1071 f63c 7e5f 77be 50ea c6bc 3438 013e
000002f0: d8d3 4b3e 645f e73d 2ea1 74be 0ea9 4abe
00000300: a8b4 62be e899 2c3d c457 6b3e fe74 153e
00000310: 6830 95bd 5018 4a3e ce92 18be 8471 b6bd
00000320: 787d d23d a050 9f3d 3eb6 3c3e 0075 9dbc
00000330: 5019 263d 945c cf3d ee90 5f3e 68cb ae3d
00000340: bca2 67be 5040 113e 889b 7ebd 9809 543e
00000350: c0da e4bb 405d 1fbe 48da 63bd c83a 003d
00000360: b842 01be 2053 fcbc a21b 58be d0b7 5ebd
00000370: 00bf c5bb 9035 e1bd 708c 9ebc a8d8 16bd
00000380: 4800 9bbd 78bf 73bd b44d 813d 1a0d 30be
00000390: 1411 b83d 5012 97bd 3801 32bd 08cb f53d
000003a0: 7e34 4b3e 56cf 163e d6fb 153e e005 eb3d
000003b0: 9ca5 8a3d 9827 db3d 781a 0dbe 72a2 453e
000003c0: a078 dfbc 5a1d 333e 585a 36be d6bc 39be
000003d0: 706d 38be 1e93 42be bc7e 163e 6231 3d3e
000003e0: f015 853c a030 07be 68c0 62bd fcc0 fdbd
000003f0: d07c 773e 905d ccbc f840 883d 008c c63b

fc1.bias f4 [64]
0.2068372 0.14038679 -0.046336293 0.0973171 -0.013981968 0.0835844 -0.23560601 0.07547492
0.12345457 0.10729015 0.12759945 0.076942146 -0.100442976 0.0449259 -0.13520816 -0.041858703
-0.12888533 -0.003871888 0.0817911 -0.16708338 -0.23943529 0.24196383 0.15582034 0.23871535
-0.032704324 0.026004255 0.18123358 0.02040124 -0.21277109 0.1082952 0.00016692281 -0.09106997
0.16271427 -0.025449544 -0.10901007 0.15139562 0.1241194 0.15290797 0.20670834 -0.09521866
0.06974104 -0.030988693 0.07989839 0.006397456 -0.16198105 0.13477635 0.15597233 -0.10784635
0.08953655 -0.012769014 -0.21622887 -0.16952974 0.03656456 0.10757843 0.06000477 -0.14912492
0.222534 0.101720035 -0.14279649 -0.06806484 0.1662933 -0.16934541 0.24159816 -0.20108268
00000000: 22cd 533e 8ec1 0f3e 20cb 3dbd 304e c73d
00000010: a014 65bc 4c2e ab3d b442 71be 9892 9a3d
00000020: c0d5 fc3d f0ba db3d 6ea9 023e d893 9d3d
00000030: 0cb5 cdbd 3804 383d 0274 0abe 0874 2bbd
00000040: 84fa 03be 80bf 7dbb 1882 a73d e817 2bbe
00000050: 862e 75be 5ec5 773e 5e8f 1f3e cc71 743e
00000060: f8f4 05bd e006 d53c 4c95 393e 8020 a73c
00000070: aae0 59be e0c9 dd3d 0008 2f39 e482 babd
00000080: 929e 263e 907b d0bc ac40 dfbd 7407 1b3e
00000090: 5032 fe3d e893 1c3e 5aab 533e 0002 c3bd
000000a0: 64d4 8e3d 00dc fdbc c4a1 a33d c0a1 d13b
000000b0: 5cde 25be d002 0a3e 36b7 1f3e 8cde dcbd
000000c0: f05e b73d 2035 51bc 1a6b 5dbe 3499 2dbe
000000d0: b8c4 153d 1452 dc3d 90c7 753d 34b4 18be
000000e0: f4df 633e 9852 d03d 3e39 12be 9465 8bbd
000000f0: ca48 2a3e e268 2dbe 8265 773e 9ee8 4dbe

fc2.weight f4 [64, 64]
0.076889455 0.021436542 -0.08377433 0.02625832 0.016009703 -0.0968221 -0.10814296 0.01895696
-0.097510174 -0.024148554 -0.09088661 -0.012334555 -0.09836976 -0.09798753 0.04366769 0.043508187
-0.006095737 0.015846565 0.008061245 -0.11490719 0.03602253 0.009441629 -0.08617282 0.010371208
-0.119111374 -0.032037675 0.03966607 0.019230664 0.11499208 -0.022773325 -0.11639643 0.11813043
0.08959003 0.07363601 0.12477268 -0.07473011 -0.11391032 -0.0012331009 -0.047193244 0.018750846
-0.10357921 0.002022922 -0.06240058 -0.07632008 -0.06058529 0.115695044 -0.036117822 0.101864666
-0.037412986 0.017851323 0.044429034 0.12105335 -0.08558573 0.08423385 0.067846134 0.09871438
-0.0474374 0.022174716 0.12004046 -0.108436346 0.01777932 0.0036635995 0.084169924 -0.008169338
0.07921144 0.05568269 0.055161297 0.05318266 -0.0068683624 -0.09964445 0.023421735 -0.05836101
-0.12302981 -0.037111014 -0.105091706 -0.0772233 0.06718914 -0.0895237 -0.037312523 0.03296703
0.035176694 0.0632174 0.11536507 0.018054739 0.005946979 -0.0596371 0.07540426 -0.019291416
-0.03805244 0.04032907 -0.06908183 -0.0010521263 -0.05644101 -0.08831452 -0.05916746 -0.07501009
-0.11224505 0.0004606098 0.06465742 0.10924591 -0.07793108 -0.0897786 0.09486842 -0.042082056
0.08324528 0.034514904 0.08117521 0.03393835 0.10364279 -0.115459055 0.0507202 0.03634356
-0.00192523 0.062182903 -0.04303418 0.06682198 -0.08878982 0.095713064 0.030449867 0.004116297
-0.039134383 0.08656877 0.053375766 0.06025462 -0.11417429 -0.114036396 -0.09017907 -0.026265994
0.002683252 0.09906295 0.077631265 0.0034538656 0.058806002 0.09853451 0.052518263 0.116671115
0.095558226 -0.059260324 0.035164654 0.058071345 0.038393438 0.014056727 0.029723302 0.025565654
-0.007385418 0.110146284 -0.077419594 -0.10525943 -0.11795333 -0.10791613 0.06878045 -0.02879551
-0.023072213 -0.08193894 0.04952444 0.023183882 0.05212958 -0.030916095 -0.01518999 0.10290691
0.11326851 0.09719288 -0.011834368 0.015034929 0.017805904 -0.01033096 -0.026705489 0.010807589
0.0046773255 -0.11453149 0.12418191 0.071985796 -0.090976104 0.027296439 0.07408561 -0.03858967
-0.036523357 -0.0052983463 0.062105045 -0.11981338 0.026095033 -0.068629935 0.07160801 0.120317355
-0.024973541 0.027061075 0.08545716 -0.043493852 -0.03869863 -0.009793088 -0.11853029 0.04954122
-0.034347266 -0.03756295 0.013683781 0.11373983 0.008389905 0.038062617 0.100789174 -0.060801208
-0.04474494 -0.02315171 -0.0030162632 -0.08426291 -0.113663 0.10851024 0.02329719 -0.072879106
-0.015172079 -0.0783515 0.110670015 0.10934536 -0.004804641 -0.08888532 0.056225568 -0.11238338
0.1127577 -0.11262363 0.063164115 0.055396438 0.03484133 0.087305635 -0.11188692 0.001602456
-0.060851917 -0.10740121 0.023065716 -0.08281541 -0.018764123 -0.051780954 -0.0781336 -0.051252857
-0.042821378 0.022132054 0.02209811 0.073257595 0.00828813 -0.06521031 -0.029864773 -0.004328653
0.019385025 -0.020430088 -0.101317495 -0.09071407 0.033179343 0.01913014 -0.038099468 0.0726226
-0.10631049 0.0339341 -0.062047884 0.09300946 0.12237778 -0.038727224 -0.108720794 -0.01556842
00000000: 3878 9d3d b09b af3c e091 abbd b01b d73c
00000010: c826 833c aa4a c6bd 0e7a ddbd a04b 9b3c
00000020: 6ab3 c7bd 30d3 c5bc c222 babd e016 4abc
00000030: 1676 c9bd b0ad c8bd e4dc 323d a435 323d
00000040: c0be c7bb a8d0 813c 5013 043c 7654 ebbd
00000050: 5c8c 133d 10b1 1a3c 607b b0bd 00ec 293c
00000060: aaf0 f3bd f039 03bd e478 223d a089 9d3c
00000070: f880 eb3d 208f babc 4061 eebd 5eee f13d
00000080: fa7a b73d 7ace 963d d288 ff3d 1a0c 99bd
00000090: d049 e9bd 00a0 a1ba b44d 41bd 609b 993c
000000a0: 5621 d4bd 0093 043b c097 7fbd b44d 9cbd
000000b0: 4828 78bd 86f1 ec3d 48f0 13bd 6c9e d03d
000000c0: 5c3e 19bd f03c 923c 38fb 353d d2ea f73d
000000d0: 9247 afbd cc82 ac3d eaf2 8a3d c42a ca3d
000000e0: b84d 42bd c0a7 b53c c6d7 f53d e013 debd
000000f0: f0a5 913c 0019 703b 4861 ac3d b0d8 05bc
00000100: 9c39 a23d 8813 643d d0f0 613d 10d6 593d
00000110: 0010 e1bb 6412 ccbd f0de bf3c f40b 6fbd
00000120: 0ef7 fbbd b801 18bd 523a d7bd 4027 9ebd
00000130: 769a 893d 3458 b7bd 04d5 18bd 7008 073d
00000140: 7015 103d 2078 813d 8644 ec3d 88e7 933c
00000150: e0de c23b 0846 74bd 8c6d 9a3d 0809 9ebc
00000160: e0dc 1bbd 1830 253d c67a 8dbd 80e7 89ba
00000170: b02e 67bd 3ede b4bd 9459 72bd e49e 99bd
00000180: bce0 e5bd 007e f139 1c6b 843d 52bc df3d
00000190: 549a 9fbd d8dd b7bd 604a c23d 3c5e 2cbd
000001a0: 807c aa3d 805f 0d3d 303f a63d f002 0b3d
000001b0: ac42 d43d cc75 ecbd fcbf 4f3d fcdc 143d
000001c0: 0058 fcba 80b3 7e3d 9c44 30bd f6d9 883d
000001d0: 70d7 b5bd 3605 c43d 0072 f93c 00e2 863b
000001e0: 604b 20bd f84a b13d 8ca0 5a3d 8ccd 763d
000001f0: 36d4 e9bd ea8b e9bd ceaf b8bd c82b d7bc
00000200: 80d9 2f3b 84e1 ca3d 24fd 9e3d 405a 623b
00000210: 90de 703d 76cc c93d 641d 573d 44f1 ee3d
00000220: 08b4 c33d f4ba 72bd d008 103d 38dc 6d3d
00000230: 7042 1d3d 304e 663c 487e f33c 106f d13c
00000240: 6001 f2bb 6094 e13d 2a8e 9ebd 4292 d7bd
00000250: 8491 f1bd 2203 ddbd c4dc 8c3d 90e4 ebbc
00000260: f001 bdbc 9acf a7bd 24da 4a3d 20ec bd3c
00000270: d485 553d c043 fdbc 70df 78bc dcc0 d23d
00000280: 52f9 e73d 100d c73d f0e4 41bc 1055 763c
00000290: b0dd 913c 3043 29bc 78c5 dabc 5012 313c
000002a0: 4044 993b 7c8f eabd 1653 fe3d 4a6d 933d
000002b0: ae51 babd c89c df3c 32ba 973d 3410 1ebd
000002c0: 8499 15bd c09d adbb dc61 7e3d b860 f5bd
000002d0: 40c5 d53c da8d 8cbd 38a7 923d f268 f63d
000002e0: 5095 ccbc 30af dd3c 2a04 af3d 9c26 32bd
000002f0: 7482 1ebd 3073 20bc 02c0 f2bd bceb 4a3d
00000300: b8af 0cbd 9cdb 19bd f031 603c 6ef0 e83d
00000310: d075 093c 8ce7 1b3d 8e6a ce3d b00a 79bd
00000320: 7846 37bd a8a8 bdbc 80ac 45bb 0892 acbd
00000330: 26c8 e8bd 9e3a de3d c0d9 be3c a441 95bd
00000340: 5094 78bc c076 a0bd f6a6 e23d 76f0 df3d
00000350: 4070 9dbb 8209 b6bd c84c 663d 4229 e6bd
00000360: 82ed e63d 38a7 e6bd 305c 813d 60e7 623d
00000370: c8b5 0e3d 4ccd b23d f824 e5bd 8009 d23a
00000380: dc3f 79bd 2af5 dbbd 50f4 bc3c 209b a9bd
00000390: 38b7 99bc 4418 54bd 8204 a0bd 84ee 51bd
000003a0: 7865 2fbd 484e b53c 1807 b53c 1408 963d
000003b0: f0ca 073c fc8c 85bd f8a6 f4bc 60d7 8dbb
000003c0: 58cd 9e3c 005d a7bc 8c7f cfbd 4cc8 b9bd
000003d0: 10e7 073d d0b6 9c3c 300e 1cbd 28bb 943d
000003e0: 50b9 d9bd 7cfe 0a3d ec25 7ebd be7b be3d
000003f0: 34a1 fa3d 70a0 1ebd 02a9 debd b012 7fbc

fc2.bias f4 [64]
-0.06567502 0.05152224 -0.04454401 -0.1239942 -0.04638645 -0.02288717 0.062258422 0.0570758
0.01559177 -0.054604605 -0.12474236 0.085372224 -0.09301178 0.08631389 -0.0069732815 -0.04894896
-0.010592431 -0.021359563 -0.08186969 -0.023972407 -0.025197268 0.01030612 0.101439044 0.08471903
-0.024128303 -0.04791689 0.0380387 0.013641372 0.053353682 0.028939247 0.030370072 0.017278105
-0.005916387 0.0244295 0.028684959 -0.04266514 0.016771138 0.027342469 -0.081364036 0.052115545
0.078863636 -0.060804576 -0.11289315 -0.10521151 -0.073723495 0.039340734 -0.10597345 0.025419652
-0.060937583 -0.07928613 0.1140085 0.056340054 0.08213425 0.033517256 -0.11868578 0.08693625
-0.065405875 0.01669085 0.0975955 0.09079225 0.066784605 -0.016967952 0.100853935 -0.09308615
00000000: a080 86bd fc08 533d c873 36bd acf0 fdbd
00000010: b8ff 3dbd e07d bbbc b002 7f3d 50c8 693d
00000020: a074 7f3c 14a9 5fbd ec78 ffbd a2d7 ae3d
00000030: f67c bebd 56c5 b03d 2080 e4bb b47e 48bd
00000040: e08b 2dbc 40fa aebc 4cab a7bd c861 c4bc
00000050: 806a cebc 00db 283c 46bf cf3d 2c81 ad3d
00000060: b8a8 c5bc 8044 44bd 78ce 1b3d 1080 5f3c
00000070: 6489 5a3d 0012 ed3c a8ca f83c d08a 8d3c
00000080: 40de c1bb 6020 c83c b8fc ea3c a4c1 2ebd
00000090: a063 893c 50fd df3c 30a2 a6bd 1c77 553d
000000a0: 4283 a13d 380e 79bd 8634 e7bd 2279 d7bd
000000b0: 58fc 96bd c023 213d 9c08 d9bd e03c d03c
000000c0: b099 79bd c460 a2bd 4a7d e93d d4c4 663d
000000d0: 0036 a83d 6449 093d 8811 f3bd a20b b23d
000000e0: 84f3 85bd 40bb 883c 26e0 c73d 4af1 b93d
000000f0: 5ec6 883d 6000 8bbc 828c ce3d f4a3 bebd

fc3.weight f4 [6, 64]
-0.093272865 0.113967225 -0.12117204 -0.1034466 0.048202917 -0.07914697 0.0897986 0.0044802725
0.056355566 0.03453186 -0.038723126 0.11598471 -0.04870574 0.113443285 0.1082363 -0.033556506
0.034753025 -0.102439135 -0.05467969 0.0684903 -0.029968679 -0.090976685 0.029568493 0.011764199
-0.1005944 0.0020296574 -0.10222459 -0.06868091 0.0074618906 0.013738155 0.01624301 -0.0022345483
0.080051914 0.01764837 0.07051197 0.014816478 0.0887848 -0.013475463 0.071529984 -0.093268454
0.108854905 -0.03029254 -0.06986654 -0.06045495 0.119773895 0.078804255 -0.07293855 -0.11626239
0.006447375 -0.1247035 -0.12385064 -0.032677352 -0.086336285 0.07086858 0.009213313 -0.095870614
0.08061431 0.049350813 -0.013954252 -0.04312621 0.11677082 -0.09630141 -0.048462838 0.09217189
0.10922919 0.10722828 0.0749148 0.070374474 0.029523805 0.052699804 -0.02678287 0.07126106
-0.063962325 0.082697496 0.028122291 0.11424655 0.04867275 0.09691726 0.017171353 -0.04418412
-0.07328004 0.11640288 0.03466679 0.081479535 0.060182407 0.026475444 0.11610538 -0.05059655
0.09341285 -0.021956533 -0.1160849 -0.009244248 -0.12488946 0.02324298 -0.07690744 0.058038548
0.018838555 -0.08315593 -0.116586775 0.09776975 -0.123652354 -0.00081941485 -0.08968431 0.10292897
0.089319795 0.115920484 0.055612043 0.108228415 -0.09974867 -0.078427 -0.033819437 -0.06906639
-0.0318224 0.11047973 -0.08212988 0.07537253 0.03831911 0.08066806 0.057334304 0.027298257
0.042100325 0.00077316165 -0.054201603 -0.08412926 -0.11079195 0.12259333 -0.016492069 -0.07693237
-0.041783974 -0.061606407 0.10506068 -0.04830353 -0.0070655346 0.030715078 0.07014687 -0.0702243
0.08229543 -0.03300202 -0.11486508 0.0043554753 -0.097493365 -0.059550896 0.06985988 -0.073476344
-0.09241426 0.048284084 -0.1005736 0.055793032 0.0024883747 0.05405441 -0.08429563 0.03987302
-0.07659446 0.08275142 -0.002324149 0.03470713 0.042722896 0.117263585 -0.04716724 -0.10561831
-0.012646958 0.036605477 -0.017778099 -0.043535113 0.06562975 0.116105765 -0.06558949 0.01814802
-0.108967125 0.012943774 0.027570024 -0.03984788 0.1100737 -0.009668231 -0.046377465 0.10083759
0.11623816 -0.016873121 0.04637544 -0.11863276 -0.056869373 -0.1218074 -0.08566561 -0.11337122
0.09973915 -0.033161417 -0.041720018 -0.031002223 0.07189356 -0.10492119 0.026381657 0.10416995
0.10905635 0.12396215 0.01331529 -0.102672964 0.11035028 -0.123733476 -0.049433142 0.007975772
-0.104847044 -0.041606933 -0.019936979 -0.07410121 0.015004396 0.040952742 -0.120247856 -0.06846741
0.121128604 0.11019625 -0.050861895 0.087301016 0.051873386 0.020511553 -0.115166426 0.041619807
-0.044704795 -0.030545518 0.010852322 0.05552107 -0.10443567 -0.1228946 -0.068860486 -0.09841739
-0.10110864 -0.10169837 0.029919863 -0.08164257 -0.08233008 -0.012187779 -0.10553409 0.024258703
-0.018241137 -0.022985041 -0.060339168 -0.11145404 -0.05522099 0.1193115 0.091416076 -0.06841764
-0.007180661 0.04752469 -0.02424647 -0.05846308 -0.058340475 -0.07914816 -0.09637059 0.07101877
-0.00057272613 0.04467511 -0.0015293956 0.027584955 -0.05514653 -0.07122861 -0.013269529 -0.12301198
00000000: d805 bfbd a667 e93d 0c29 f8bd d0db d3bd
00000010: 6c70 453d ce17 a2bd 54e8 b73d 40cf 923b
00000020: 18d5 663d 4871 0d3d 249c 1ebd 6489 ed3d
00000030: ac7f 47bd f454 e83d feaa dd3d 8c72 09bd
00000040: 3059 0e3d 9ccb d1bd d0f7 5fbd a444 8c3d
00000050: e080 f5bc fc51 babd a039 f23c a0be 403c
00000060: 7004 cebd 0004 053b 205b d1bd 94a8 8cbd
00000070: e082 f43b 0016 613c 1010 853c 8071 12bb
00000080: 42f2 a33d 5093 903c 9468 903d d0c0 723c
00000090: ced4 b53d 30c8 5cbc 507e 923d 8803 bfbd
000000a0: 52ef de3d 1028 f8bc 3016 8fbd 9c9f 77bd
000000b0: 044c f53d 2064 a13d ce60 95bd fa1a eebd
000000c0: 8044 d33b 8c64 ffbd 68a5 fdbd b0d8 05bd
000000d0: 14d1 b0bd 8c23 913d 70f3 163c d057 c4bd
000000e0: 1e19 a53d 1424 4a3d 60a0 64bc 1ca5 30bd
000000f0: 8a25 ef3d ac39 c5bd f880 46bd 9ec4 bc3d
00000100: 8eb3 df3d 809a db3d ee6c 993d 7e20 903d
00000110: e8db f13c c0db 573d c067 dbbc 52f1 913d
00000120: aefe 82bd 4e5d a93d b860 e63c 18fa e93d
00000130: 145d 473d 8e7c c63d f0aa 8c3c 68fa 34bd
00000140: d813 96bd a264 ee3d c4fe 0d3d bede a63d
00000150: d481 763d 08e3 d83c a8c8 ed3d 543e 4fbd
00000160: 3c4f bf3d 30de b3bc ecbd edbd 3075 17bc
00000170: 0cc6 ffbd 1068 be3c a681 9dbd d4b9 6d3d
00000180: 5053 9a3c a84d aabd 0cc5 eebd 823b c83d
00000190: 723d fdbd 00ce 56ba 68ac b7bd 6ccc d23d
000001a0: 4ced b63d b867 ed3d 74c9 633d dca6 dd3d
000001b0: 0849 ccbd 569e a0bd 4086 0abd ae72 8dbd
000001c0: 3458 02bd 3243 e23d b633 a8bd ea5c 9a3d
000001d0: 80f4 1c3d 4c35 a53d 60d7 6a3d 98a0 df3c
000001e0: 6471 2c3d 00ae 4a3a 8002 5ebd f64b acbd
000001f0: e4e6 e2bd 3612 fb3d 601a 87bc b88e 9dbd
00000200: ac25 2bbd 0057 7cbd 0e2a d73d ecd9 45bd
00000210: 0086 e7bb 309e fb3c 2aa9 8f3d c2d1 8fbd
00000220: 828a a83d 202d 07bd 623e ebbd 60b8 8e3b
00000230: 9aaa c7bd a4eb 73bd b212 8f3d c47a 96bd
00000240: b043 bdbd 88c5 453d 88f9 cdbd 3c87 643d
00000250: 0014 233b 2868 5d3d 30a3 acbd e451 233d
00000260: 8edd 9cbd 9479 a93d c050 18bb 1029 0e3d
00000270: 34fe 2e3d e427 f03d 7032 41bd 6a4e d8bd
00000280: 3035 4fbc a0ef 153d 60a3 91bc e051 32bd
00000290: e468 863d dcc8 ed3d c853 86bd 28ab 943c
000002a0: 282a dfbd 2012 543c 88da e13c 8837 23bd
000002b0: 526e e13d 8067 1ebc 4cf6 3dbd f083 ce3d
000002c0: 460e ee3d 8039 8abc 2cf4 3d3d bcf5 f2bd
000002d0: dcef 68bd 2876 f9bd 7471 afbd 2c2f e8bd
000002e0: 0a44 cc3d 44d4 07bd 9ce2 2abd 60f8 fdbc
000002f0: ee3c 933d ece0 d6bd 581e d83c 0e57 d53d
00000300: f058 df3d dedf fd3d 6028 5a3c 3446 d2bd
00000310: 54ff e13d fa67 fdbd 687a 4abd d0ac 023c
00000320: 0cba d6bd 086c 2abd e052 a3bc 60c2 97bd
00000330: 00d5 753c 10be 273d 8244 f6bd a438 8cbd
00000340: 4612 f83d 92ae e13d 9054 50bd e0ca b23d
00000350: 3079 543d d807 a83c 60dc ebbd 8879 2a3d
00000360: 601c 37bd 983a fabc f0cd 313c 106a 633d
00000370: 5ee2 d5bd 2ab0 fbbd ba06 8dbd 0e8f c9bd
00000380: 0c12 cfbd 3c47 d0bd 801a f53c 3834 a7bd
00000390: ac9c a8bd 40af 47bc 4222 d8bd 30ba c63c
000003a0: 706e 95bc 204b bcbc 3426 77bd 0442 e4bd
000003b0: 682f 62bd 9659 f43d 5a38 bb3d 8c1e 8cbd
000003c0: c04b ebbb 40a9 423d 88a0 c6bc fc76 6fbd
000003d0: 6cf6 6ebd 6e18 a2bd f25d c5bd 4a72 913d
000003e0: 0023 16ba 40fd 363d 0076 c8ba d8f9 e13c
000003f0: 54e1 61bd 4ee0 91bd 7068 59bc b4ed fbbd

fc3.bias f4 [6]
-0.080403164 -0.06591323 0.09707636 0.051256716 0.056206003 0.0018977672
00000000: 6aaa a4bd 84fd 86bd f8cf c63d 90f2 513d
00000010: 4438 663d 80be f83a
