checkpoints/model_0.7_200.pth (torch, 25220 bytes, 6 tensors)

fc1.weight f4 [64, 16]
0	0x3e06af1e	0.1315274
1	0x3d13ca80	0.03608179
2	0x3d783628	0.060598522
3	0x3df831a0	0.1211884
4	0xbe302600	-0.17201996
5	0xbe71fea2	-0.23632291
6	0xbe6c1156	-0.23053488
7	0x3da34c04	0.07973483
8	0xbe63a3fa	-0.22230521
9	0xbdde88c8	-0.10865933
10	0x3ca2b7c0	0.01986301
11	0x3d3b9f00	0.04580593
12	0x3e563982	0.20920375
13	0xbe3ce4ca	-0.18446651
14	0xbe6b7e60	-0.22997427
15	0xbe7a49ac	-0.24442166
16	0x3e1cbbe6	0.15306053
17	0xbf6efb63	-0.93352336
18	0xbdcef2c4	-0.101048976
19	0xbd143978	-0.03618762
20	0xbe28223e	-0.16419312
21	0xbef6df67	-0.48217317
22	0xbd96c024	-0.07360867
23	0xbe6b0de0	-0.22954512
24	0xbd8966ba	-0.06709047
25	0xbe92becd	-0.28661194
26	0xc0180a1a	-2.3756166
27	0x3f87ae9a	1.0600159
28	0x3c72c417	0.014817259
29	0x3f9a7d8d	1.2069565
30	0xbf1638c1	-0.5868035
31	0xc02fc08d	-2.7461274
32	0x3ea43c90	0.32077456
33	0xbf627fe0	-0.8847637
34	0xbe356d3a	-0.17717448
35	0x3d6646c0	0.056219816
36	0xbe78c436	-0.24293599
37	0xbed503a8	-0.41604352
38	0xbe7c7d77	-0.24657236
39	0xbe10b5fe	-0.14131925
40	0xbf22cd04	-0.6359408
41	0xbe435ef9	-0.19079198
42	0xbfdc036b	-1.7188543
43	0x3ff5eeda	1.9213517
44	0xbf8bdbd6	-1.0926464
45	0x3f182f96	0.5944761
46	0xbf85cbf4	-1.0452867
47	0xc03b7c59	-2.9294646
48	0xbe4be513	-0.19911604
49	0xbe1d1b08	-0.15342343
50	0x3e024950	0.12723279
51	0x3d519d88	0.051175624
52	0xbcf770e0	-0.03020519
53	0xbeb1a87d	-0.3469886
54	0xbedd921a	-0.4327553
55	0x3d642978	0.05570361
56	0xbe0c9f3c	-0.13732618
57	0xbeb35f74	-0.35033762
58	0x3e9d11ac	0.30677545
59	0xbe58ffb2	-0.2119129
60	0xbed31046	-0.41223353
61	0xbdb6dc69	-0.08928759
62	0x3ed5f3bc	0.41787517
63	0x3ee846f0	0.4536662
64	0x3e377136	0.1791428
65	0xbe0289f8	-0.12747943
66	0xbdd3378c	-0.10313329
67	0xbe7f3b0e	-0.24924871
68	0x3de41a98	0.11137885
69	0xbe3f9bc8	-0.1871177
70	0xbe605e68	-0.21911013
71	0xbe56a0da	-0.20959798
72	0x3daae728	0.08344871
73	0xbe0b7d8a	-0.13622108
74	0xbe6817de	-0.22665355
75	0xbe0171d8	-0.12641084
76	0x3e4b7806	0.19870004
77	0xbe6e20ba	-0.23254672
78	0xbe7572bc	-0.23969549
79	0xbe2f45a2	-0.17116407
80	0xbe369a46	-0.17832288
81	0xbee3aea4	-0.44469178
82	0x3b12cf80	0.0022401512
83	0xbdcf4c84	-0.10122016
84	0xbd043110	-0.032273352
85	0xbe9e690b	-0.30939516
86	0xbf01de0d	-0.5072945
87	0xbe77d492	-0.24202183
88	0xbe45ef42	-0.19329551
89	0xbe705e3c	-0.23473448
90	0x3da3882c	0.07984957
91	0xbdaeed95	-0.08541409
92	0x3e3f5006	0.1868287
93	0xbe9afe1e	-0.30272
94	0x3b99f1c0	0.0046980083
95	0xbe8f0361	-0.27932265
96	0xbbe71680	-0.0070522428
97	0x3e14abb2	0.14518622
98	0xbe4026b8	-0.1876477
99	0xbe4b78e4	-0.19870335
100	0xbd9f4f2c	-0.07778773
101	0xbdcdd848	-0.10051018
102	0xbe0693e4	-0.13142353
103	0x3d75da40	0.060022593
104	0xbe18286a	-0.14859167
105	0x3cba1890	0.02271679
106	0xbe7dd7d6	-0.24789366
107	0x3e63ef1a	0.22259179
108	0x3ce86b90	0.028371602
109	0x3dd18c7c	0.102318734
110	0xbe57bd22	-0.21068242
111	0xbe55c8c8	-0.20877373
112	0xbf88b865	-1.0681273
113	0xc0206a82	-2.5065007
114	0xbe320466	-0.1738449
115	0x3d9a802c	0.07543978
116	0x3de5d008	0.112213194
117	0xbf06204a	-0.5239302
118	0xbf182e72	-0.5944587
119	0xbde18e3c	-0.11013457
120	0xbf223f70	-0.6337805
121	0xbf711241	-0.9416848
122	0x402af5c9	2.6712515
123	0xc0dadf2a	-6.8397417
124	0x40700ae3	3.7506645
125	0xc100767d	-8.028928
126	0x410bef73	8.745959
127	0xc0aa3137	-5.3185077
128	0xbe3971a3	-0.18109755
129	0xbe877cff	-0.26462552
130	0xbd2ddc08	-0.042446166
131	0xbe2eb540	-0.17061329
132	0x3e6e4f0c	0.23272341
133	0xbe0b6fd9	-0.13616885
134	0xbe7d9ce6	-0.24766883
135	0x3de986c8	0.114026606
136	0xbf0ca325	-0.5493644
137	0xbeade2db	-0.3396214
138	0x3d86fbbc	0.06590983
139	0xbeb5ab1f	-0.35482118
140	0xbe5bf3ea	-0.21479765
141	0xbe706549	-0.23476137
142	0xbe2ca76e	-0.16860744
143	0xbe215858	-0.15756357
144	0xbdcfb83d	-0.101425625
145	0xbec8d811	-0.39227346
146	0x3e2c9878	0.16855037
147	0x3d300040	0.04296899
148	0xbd9a637c	-0.075385064
149	0xbe8df629	-0.27726868
150	0xbe312526	-0.17299327
151	0x3d5d2128	0.0539867
152	0xbecc8912	-0.39948326
153	0xbdf06525	-0.11738042
154	0x3ea57872	0.32318455
155	0xbdf98fff	-0.12185668
156	0x3e8d3ea8	0.27586865
157	0xbeb9cee5	-0.3629066
158	0x3dcf77c0	0.101302624
159	0xbdc78522	-0.0974219
160	0xbe8d10da	-0.2755192
161	0xbe1aa702	-0.15102771
162	0xbe7d91e0	-0.24762678
163	0x3e11cdd0	0.14238667
164	0x3e5a4f1c	0.2131924
165	0xbe19d90e	-0.15024206
166	0xbe91cbac	-0.28475702
167	0xbe494baa	-0.1965777
168	0xbed03372	-0.4066425
169	0xbe9bc73f	-0.3042545
170	0x3d6c8c1c	0.057750806
171	0xbe99d5e8	-0.3004601
172	0xbefea8f2	-0.4973827
173	0xbed13938	-0.40863967
174	0x3d9d58c3	0.076829456
175	0xbebbe2af	-0.36696383
176	0x3cee6348	0.029100075
177	0x3da04659	0.07825918
178	0xbe306776	-0.17226967
179	0xbe1e9d70	-0.15489745
180	0xbdfd5ce8	-0.12371236
181	0xbec74401	-0.3891907
182	0xbeaa94c9	-0.3331664
183	0xbd1c3020	-0.038131833
184	0xbe3ff16d	-0.1874444
185	0xbdd71e11	-0.105037816
186	0xbf039832	-0.51404107
187	0xbd34f05b	-0.044174533
188	0xbea1c94d	-0.31598893
189	0xbed1b853	-0.4096094
190	0xbe20fe47	-0.15721999
191	0xbeba1555	-0.363444
192	0xbeecc97b	-0.46247467
193	0xbf996622	-1.1984293
194	0x3dbbbc94	0.09166828
195	0x3cd76920	0.026295245
196	0x3dff2f8c	0.12460241
197	0xbeaf5d11	-0.34250692
198	0xbda0ab7f	-0.0784521
199	0x3c6f2a00	0.014597416
200	0xbe851d2d	-0.25998822
201	0xbe13f8bf	-0.14450358
202	0xc09a7c84	-4.8276997
203	0xbe951da5	-0.2912418
204	0x3e141277	0.14460169
205	0x3f65c3d2	0.89751923
206	0xbe9a0355	-0.30080667
207	0x3fa11230	1.2583675
208	0x3ef8e4fc	0.486122
209	0xbe333bf2	-0.17503336
210	0xbded5810	-0.11589062
211	0x3d7ccb00	0.061717033
212	0x3d312db8	0.04325649
213	0xbebfa51f	-0.37430665
214	0xbef5f44a	-0.4803794
215	0x3db6023c	0.08887145
216	0xbe021f60	-0.12707281
217	0xbea4519a	-0.32093507
218	0xbeff1baa	-0.49825794
219	0x4021dd80	2.5291443
220	0xbfd8b2d5	-1.6929575
221	0x3eb58e7e	0.35460275
222	0xbf8d19f6	-1.1023548
223	0xc0183998	-2.3785152
224	0xbe6f9b34	-0.23399049
225	0xbda8e7b8	-0.08247322
226	0x3e1159b4	0.14194375
227	0x3de48450	0.11158049
228	0x3e28246e	0.16420147
229	0x3d33ab50	0.04386455
230	0xbe558458	-0.20851266
231	0x3e24945a	0.16072217
232	0xbd944390	-0.07239449
233	0xbd905d3c	-0.07049033
234	0xbc4df620	-0.012570888
235	0xbe0a173c	-0.13485426
236	0x3e253f0a	0.16137329
237	0x3e5e9e98	0.21740186
238	0x3def9f2c	0.117002815
239	0x3d8d2a2c	0.06892809
240	0xbe7764e2	-0.24159577
241	0xbefced3a	-0.4939974
242	0x3d02db20	0.031947255
243	0x3de86318	0.11347026
244	0xbe3ce27a	-0.18445769
245	0xbebeb368	-0.3724625
246	0xbdd279f5	-0.10277168
247	0xbdf739a4	-0.12071541
248	0xbe6f0e77	-0.23345362
249	0xbe679fc6	-0.22619542
250	0x3f0ac72f	0.5421018
251	0xbe9cd151	-0.30628446
252	0x3ead9201	0.33900455
253	0xbebbc264	-0.36671746
254	0x3d5d201d	0.053985704
255	0xbe9cf129	-0.3065274

fc1.bias f4 [64]
0	0x3cac28d0	0.021015555
1	0xbea75870	-0.3268466
2	0xbf22c176	-0.6357645
3	0xbe48ada3	-0.19597487
4	0x3e25b0c6	0.16180715
5	0xbedc9e75	-0.43089643
6	0xbe4d5232	-0.20050886
7	0xbf74cd9e	-0.95626247
8	0xbebfcd08	-0.37461114
9	0xbe44cbcc	-0.19218367
10	0xbd86c64c	-0.06580791
11	0xbd5e4752	-0.054267235
12	0xbe231c5d	-0.15928788
13	0xbde9fe9d	-0.11425517
14	0x3e5d0510	0.21583962
15	0xbee39ceb	-0.44455656
16	0x3dc433d0	0.09580195
17	0xbe44f0e5	-0.19232519
18	0xbd84caa0	-0.0648396
19	0xbf028845	-0.5098918
20	0x3e1c56ce	0.15267488
21	0x3bca59c0	0.00617525
22	0xbed173c1	-0.40908626
23	0xbeadc183	-0.339367
24	0x3cc75508	0.024332538
25	0xbd73d768	-0.0595316
26	0xbe221fc1	-0.15832426
27	0x3f045e22	0.51706135
28	0xbeace07c	-0.33765018
29	0xbbc0a800	-0.005879402
30	0xbebb8df7	-0.36631748
31	0xbe80e2f0	-0.2517314
32	0x3df2d2cc	0.118566126
33	0xbed031ba	-0.40662938
34	0xbeeb5eee	-0.45970863
35	0xbed2028d	-0.4101757
36	0xbd8c1ccd	-0.06841431
37	0xbd77ab1c	-0.060465917
38	0xbefb25fb	-0.49052414
39	0xbe957d7b	-0.29197297
40	0xbdabcd77	-0.08388799
41	0x3de074f8	0.1095981
42	0xbdc5b1bf	-0.09653043
43	0xbed142b5	-0.40871206
44	0xbf0246e2	-0.5088941
45	0x3d9d303c	0.076752156
46	0x3e74f741	0.23922445
47	0xbdd29a74	-0.10283366
48	0xbe6aa5b7	-0.22914778
49	0xbf61098a	-0.8790518
50	0xbf3ffb31	-0.7499266
51	0xbf9f52e6	-1.2447174
52	0xbf07fdc0	-0.53121567
53	0x3d442a0a	0.047891654
54	0xbe72ccce	-0.2371094
55	0xbe1067d0	-0.14102101
56	0xbd533146	-0.051560663
57	0xbf70460a	-0.9385687
58	0xbecdb636	-0.40178078
59	0xbf06e9f6	-0.52700746
60	0xbe803907	-0.25043508
61	0xbbd64598	-0.006539058
62	0xbe6df776	-0.2323893
63	0x3e1baee2	0.15203431

fc2.weight f4 [64, 64]
0	0xbd80afc6	-0.06283526
1	0xbdd3b1de	-0.1033666
2	0xbe3fdd9f	-0.18736885
3	0x3e8e340d	0.27774087
4	0xbdb6f454	-0.08933321
5	0x3ed83b5f	0.42232797
6	0x3cb79688	0.022410646
7	0xbf1eadad	-0.6198376
8	0xbeca9519	-0.39566877
9	0x3ea6757b	0.32511505
10	0xbec521bc	-0.385023
11	0xbe6f1620	-0.23348284
12	0xbefc4e15	-0.49278322
13	0xbe477370	-0.1947763
14	0x3d5c0d78	0.053723782
15	0x3e9d71dc	0.3075093
16	0x3c210640	0.00982815
17	0xbeb819e6	-0.3595726
18	0x3d8da8ce	0.069169626
19	0xbe30b4d0	-0.17256474
20	0x3c921668	0.01783295
21	0x3d918bbe	0.07106732
22	0xbeb47198	-0.35242915
23	0xbecf3d37	-0.4047639
24	0xbe1fdc8b	-0.15611474
25	0xbd119d0c	-0.035550162
26	0xbe64339f	-0.22285317
27	0xbd1b5925	-0.03792681
28	0xbdf786c4	-0.120862514
29	0x3d842890	0.06453049
30	0xbea065dc	-0.31327713
31	0xbe8a4f21	-0.27013496
32	0xbdbb9c06	-0.091606185
33	0xbe588308	-0.21143734
34	0x3ec45aa6	0.3835041
35	0xbe56f756	-0.20992789
36	0xbc555929	-0.013021746
37	0xbe05425a	-0.13013592
38	0x3ed90371	0.42385438
39	0xbecd6443	-0.40115556
40	0xbdf9d409	-0.121986456
41	0xbdf909ba	-0.12160058
42	0xbd24fb04	-0.04027845
43	0x3e5b9023	0.21441703
44	0xbe144f73	-0.14483432
45	0x3d9c9a28	0.076465905
46	0xbe6fe827	-0.23428403
47	0xbd401128	-0.04689136
48	0xbdb0613b	-0.08612295
49	0xbf000dfd	-0.50021344
50	0xbebf5b12	-0.3737417
51	0xbecc9cfb	-0.39963517
52	0xbd898d44	-0.067163974
53	0xbe2d9ea6	-0.16955051
54	0xbd8f7f74	-0.07006732
55	0xbd25d63d	-0.040487517
56	0xbe94a927	-0.29035303
57	0x3bb0fae9	0.0054010046
58	0x3d675bcd	0.056484032
59	0xbea1b545	-0.3158361
60	0xbe57f828	-0.21090758
61	0xbe3728fb	-0.17886727
62	0xbba79320	-0.005113974
63	0x3d1b36f0	0.03789419
64	0xbde35a04	-0.111011535
65	0xbf1c0a84	-0.60953546
66	0xbed727a4	-0.4202243
67	0x3ca945b8	0.020663127
68	0xbd1151bc	-0.03547834
69	0xbd879910	-0.06620991
70	0xbd8ee702	-0.06977655
71	0xbfbcf79c	-1.4763064
72	0x3da045f6	0.07825844
73	0x3d658cd4	0.056042507
74	0xbdf52444	-0.11969808
75	0xbd2081e4	-0.039186373
76	0xbf1c9a28	-0.61172724
77	0xbf0f084e	-0.55872047
78	0xbb642040	-0.0034809262
79	0x3df1c128	0.1180442
80	0x3d9d2832	0.07673682
81	0x3d92b41a	0.07163258
82	0x3da69dde	0.081355795
83	0xbf129f5f	-0.5727443
84	0x3dfc46d8	0.123182
85	0xbdc407ce	-0.09571801
86	0xbf020682	-0.5079118
87	0xbcc53be0	-0.024076402
88	0x3db2f688	0.08738428
89	0xbc2597c0	-0.010106981
90	0x3d1b5e28	0.03793159
91	0xbf986799	-1.1906615
92	0xbf0ea063	-0.5571348
93	0xbdd294ec	-0.10282311
94	0xbce4f8a8	-0.0279506
95	0x3d6c03b8	0.057620734
96	0x3dbe50e6	0.09292774
97	0xbef9fa9c	-0.48824012
98	0xbdb4bc78	-0.0882501
99	0x3d63806c	0.055542395
100	0xbf2096f4	-0.62730336
101	0x3d95dc86	0.07317452
102	0xbdef8eec	-0.11697182
103	0xbd185334	-0.037188724
104	0x3d8fe5dc	0.07026264
105	0xbda14d5c	-0.07876083
106	0x3db47b62	0.08812596
107	0xbc577c70	-0.013152227
108	0xbf1da4bb	-0.61579484
109	0xbd9fc4e0	-0.07801223
110	0xbd3c9094	-0.046036318
111	0xbdeed1e2	-0.11661126
112	0xbd81f458	-0.06345433
113	0xbdf92158	-0.12164563
114	0xbf0fe782	-0.5621263
115	0xbeda4e62	-0.42637926
116	0xbf1975a5	-0.59945136
117	0xbf027e29	-0.50973755
118	0x3ce84460	0.028352916
119	0xbf03015c	-0.5117395
120	0xbd411734	-0.04714127
121	0xc05ab5b4	-3.4173403
122	0xbf1a1548	-0.6018872
123	0xbf23e132	-0.64015496
124	0xbd6a373c	-0.05718158
125	0x3c3b6b80	0.011439204
126	0xbdda7f8e	-0.106688604
127	0xbd895eb8	-0.06707519
128	0x3cb50b88	0.022100225
129	0xbed9bc57	-0.42526504
130	0xbcc597a8	-0.024120167
131	0xbeb12752	-0.34600312
132	0x3de8d58c	0.11368856
133	0x3d3c9f8c	0.046050593
134	0xbddd69d0	-0.10811198
135	0xbebf447c	-0.37356937
136	0x3e400f86	0.18755922
137	0x3ea04274	0.313007
138	0xbec51c9e	-0.38498396
139	0xbdfccb82	-0.123435035
140	0xbe976267	-0.29567263
141	0xbe8d6282	-0.27614218
142	0x3db00c60	0.0859611
143	0xbea60696	-0.324269
144	0xbd7500dc	-0.059815273
145	0xbe87899f	-0.26472184
146	0x3d143948	0.03618744
147	0xbdc92208	-0.09820944
148	0x3b3d8940	0.0028920919
149	0xbdac9e06	-0.08428578
150	0xbea3e07c	-0.32007205
151	0xbe3f46f1	-0.18679406
152	0xbeb1e27e	-0.34743112
153	0x3d8694ea	0.06571372
154	0xbec44892	-0.38336617
155	0xbed51582	-0.41617972
156	0xbebeebba	-0.3728922
157	0xbde1df88	-0.11028963
158	0xbe86b15f	-0.26307198
159	0xbe894751	-0.26812223
160	0x3da7f82a	0.082016304
161	0x3da82394	0.08209911
162	0xbea953b4	-0.33071673
163	0xbec746aa	-0.389211
164	0xbe824849	-0.25445774
165	0x3cd5ae30	0.026084036
166	0x3e57850b	0.21046846
167	0x3d7d8a00	0.061899185
168	0xbe56b27d	-0.20966525
169	0x3d6d2280	0.05789423
170	0xbe5a161b	-0.21297495
171	0xbe653412	-0.22383144
172	0xbe4979b2	-0.1967533
173	0x3c5fbbd0	0.013655618
174	0xbe3bf40a	-0.18354812
175	0x3d48cc44	0.049022928
176	0xbed5f04b	-0.4178489
177	0xbd815246	-0.063145205
178	0xbec820cd	-0.39087525
179	0xbdf672cc	-0.120336145
180	0xbe582ab9	-0.21110047
181	0xbeb741f5	-0.3579251
182	0xbd8ca344	-0.06867078
183	0xbed94ab9	-0.4243982
184	0xbec2485d	-0.37945834
185	0xbe65a5eb	-0.22426574
186	0x3eb85b50	0.36007166
187	0xbeb96066	-0.3620636
188	0x3db9b73c	0.09068152
189	0xbe3e938d	-0.18610974
190	0x3d82767c	0.06370255
191	0xbd143c30	-0.03619021
192	0xbde0325c	-0.10947105
193	0xbdd43430	-0.103615165
194	0xbe770e80	-0.24126625
195	0xbe4fa7bc	-0.2027883
196	0xbd13d158	-0.036088318
197	0x3e389b04	0.18027884
198	0x3d3ea664	0.0465454
199	0xbe84c4d1	-0.2593141
200	0xbe499991	-0.19687487
201	0xbe9a2d55	-0.3011271
202	0xbeaad0b3	-0.3336235
203	0xbe6973b9	-0.22798051
204	0xbea5e106	-0.32398242
205	0xbed4095b	-0.41413388
206	0xbbed2ae0	-0.007237777
207	0xbead4611	-0.3384252
208	0xbdd0ccfc	-0.10195348
209	0xbecc47d6	-0.39898556
210	0x3b922de0	0.004461035
211	0xbe8f1910	-0.2794881
212	0x3d80647e	0.06269167
213	0xbd49ff8c	-0.049315974
214	0xbe629904	-0.22128683
215	0x3ed4fc9a	0.4159897
216	0xbee58ea7	-0.44835398
217	0x3d84fb7e	0.06493281
218	0xbe46d3bf	-0.19416712
219	0xbea15748	-0.31511903
220	0xbe89e499	-0.2693222
221	0x3be85980	0.0070907474
222	0xbedb6c19	-0.4285591
223	0xbd692929	-0.05692402
224	0xbdec4bd8	-0.115379035
225	0xbe8bab5d	-0.27279177
226	0xbe6a1bf3	-0.22862224
227	0xbe021627	-0.12703763
228	0xbecb5a5c	-0.39717376
229	0xbe883ecb	-0.26610407
230	0x3e9826f0	0.29717207
231	0xbea5ce7e	-0.32384104
232	0xbed1770e	-0.40911144
233	0x3d01e58c	0.031713054
234	0x3e9ff1eb	0.31239256
235	0xbe3d8c9c	-0.1851067
236	0xbe348b09	-0.17631163
237	0xbdae3820	-0.08506799
238	0xbe844f08	-0.25841546
239	0x3dda3392	0.106543675
240	0xbe6b65b8	-0.22988021
241	0xbde546c9	-0.11195142
242	0xbe94904d	-0.29016343
243	0xbe2bf73d	-0.16793533
244	0xbe06e6dd	-0.13174005
245	0xbec8622a	-0.39137393
246	0xbd130638	-0.035894603
247	0xbe843164	-0.25818932
248	0xbea5bb4f	-0.32369468
249	0xbec925fa	-0.39286786
250	0xbe0a3eab	-0.13500468
251	0xbdbfa918	-0.09358424
252	0xbe79cf99	-0.24395598
253	0xbea43b12	-0.32076317
254	0xbca869c0	-0.020558238
255	0xbdef73f4	-0.11692038

fc2.bias f4 [64]
0	0xbe7992ad	-0.24372359
1	0xbff0b105	-1.8804022
2	0xbe9f0bdc	-0.31063735
3	0xbe53a017	-0.20666538
4	0xbe3fe8cc	-0.18741149
5	0xbeceffc2	-0.40429503
6	0xbd9527c2	-0.07282974
7	0xbf16e30d	-0.589402
8	0xbee878fc	-0.45404804
9	0xbf29ea43	-0.6637308
10	0xbeb4b1d8	-0.35291934
11	0xbf7684c2	-0.9629632
12	0xbf2b2e3a	-0.6686741
13	0xbdd9f301	-0.106420524
14	0xbfa4b829	-1.2868701
15	0xbfbc1813	-1.4694847
16	0xbe12920d	-0.14313526
17	0xbfb5a648	-1.419137
18	0xbf95c678	-1.1701193
19	0xbb6dbb05	-0.0036274802
20	0xbf847949	-1.0349513
21	0xbf22ea8f	-0.6363916
22	0xbec50665	-0.3848144
23	0xc04c621c	-3.1934881
24	0xbf3511e2	-0.7073041
25	0xbfcb336d	-1.5875069
26	0xbdc35ebf	-0.09539556
27	0xbeab6d8c	-0.33482015
28	0xbd212b2f	-0.039347824
29	0xbf9820d2	-1.1885016
30	0xbe3feb75	-0.18742163
31	0xbe993998	-0.29926753
32	0xbe7283f3	-0.23683147
33	0xbeac85fc	-0.33695972
34	0xbe826dfb	-0.25474533
35	0xbd6a7ef4	-0.05724998
36	0xbea64dee	-0.3248133
37	0xc092ef20	-4.59169
38	0xbf678252	-0.9043323
39	0xbda7a427	-0.081856064
40	0xbd7e78d2	-0.062126942
41	0xbfb9b3d0	-1.4508
42	0xbec0d1ec	-0.37660158
43	0xbedf54e5	-0.43619457
44	0xbeb21d31	-0.34787896
45	0xbed36794	-0.4128996
46	0xbeb516dd	-0.35369006
47	0xbf00c5f2	-0.5030204
48	0x3f1bb8a4	0.60828614
49	0xbe809ec0	-0.25121117
50	0xbde5af6a	-0.11215098
51	0xbe5c93cb	-0.21540754
52	0xbe6d9f40	-0.2320528
53	0xbed28a91	-0.41121343
54	0xbe3f7c50	-0.18699765
55	0xbf8af1cc	-1.085504
56	0xbf49c836	-0.7882112
57	0xbe39fe4e	-0.18163416
58	0xbf8186c7	-1.0119256
59	0xbf1df49d	-0.61701375
60	0xbe894cb4	-0.26816332
61	0xbdc37d72	-0.09545411
62	0xbd79ac32	-0.060955234
63	0xbc8b8559	-0.017031359

fc3.weight f4 [6, 64]
0	0x3e63730f	0.2221186
1	0xbf260f0a	-0.648667
2	0x3ead8675	0.33891645
3	0xbd89b079	-0.067231126
4	0x3e3667fd	0.17813106
5	0xbe748e6c	-0.23882455
6	0x3e790ffe	0.24322507
7	0x3f253da2	0.6454717
8	0xbe4f4d08	-0.20244229
9	0x3d43d3f7	0.047809567
10	0x3d91e8de	0.07124494
11	0x3e321388	0.17390263
12	0x3e550424	0.20802361
13	0x3e076d45	0.13225277
14	0xbfbf542c	-1.4947562
15	0xbdb7dbfe	-0.08977507
16	0x3f1bfb8f	0.6093072
17	0xbc7da9b6	-0.015482357
18	0xbf840a3e	-1.0315626
19	0x3c26c613	0.0101790605
20	0x3fdb4590	1.7130604
21	0x3c226726	0.009912288
22	0xbe504429	-0.20338501
23	0xbe4cd269	-0.2000214
24	0xbf18d325	-0.5969718
25	0x3dcf8bd4	0.10134092
26	0x3e10a438	0.14125144
27	0xbe604d56	-0.21904501
28	0xbd59cd5f	-0.053174373
29	0x3ecf001a	0.40429765
30	0xbeac8504	-0.33695233
31	0xbe02886d	-0.12747355
32	0x3ec7548e	0.38931698
33	0x3d419e80	0.047270298
34	0xbdf7ee09	-0.121059485
35	0xbdee66d8	-0.1164071
36	0x3f641682	0.89096844
37	0xbe96f093	-0.2948042
38	0xbe811041	-0.25207713
39	0x3f96170d	1.1725785
40	0x3e0848cc	0.1330902
41	0xbdd63e60	-0.10461116
42	0x3ed76c1c	0.42074668
43	0x3e9a82b6	0.3017785
44	0xbed9b10a	-0.42517883
45	0xbe89b309	-0.26894405
46	0xbe5ac40e	-0.21363851
47	0xbec09e47	-0.37620756
48	0x3ef6f475	0.4823338
49	0xbe3a5745	-0.18197353
50	0x3e22b5ea	0.15889707
51	0xbecc5d67	-0.3991501
52	0xbe81f49e	-0.2538194
53	0xbec7c4d0	-0.39017344
54	0xbe61689b	-0.2201256
55	0xbfccfc0b	-1.6014417
56	0x3f01652b	0.50544995
57	0x3d1fc012	0.039001532
58	0x3ceb6530	0.028734773
59	0x3dd570c8	0.10421902
60	0xbe919700	-0.28435516
61	0x3f1c227f	0.60990137
62	0x3d9156dc	0.07096645
63	0x3d242589	0.04007486
64	0x3dff5242	0.12466861
65	0xbf795e36	-0.9740938
66	0xbe8e73f9	-0.27822855
67	0xbebc49ec	-0.36775148
68	0x3e27e725	0.16396768
69	0xbed51a41	-0.41621593
70	0x3add1986	0.0016868568
71	0x3f1c13da	0.6096779
72	0xbed0dca5	-0.40793338
73	0xbe4a7237	-0.19770132
74	0xbe7eaadf	-0.2486987
75	0xbf1690e7	-0.58814853
76	0x3f4c7ce1	0.7987805
77	0x3ed45e54	0.41478217
78	0xbf6e3e04	-0.9306338
79	0x3f0377af	0.513545
80	0x3d4fa060	0.050690055
81	0xbf4dc690	-0.8038111
82	0x3f66e776	0.9019693
83	0x3daf7b70	0.08568466
84	0x3f0ef5d7	0.5584387
85	0x3e0e414a	0.13892093
86	0xbe5b971c	-0.21444362
87	0x3d1248a8	0.03571382
88	0xbdac2bed	-0.08406816
89	0x3ea171e1	0.31532195
90	0xbf6e0468	-0.92975473
91	0xbebfb7c2	-0.37444884
92	0x3d854284	0.065068275
93	0xbf4f2a70	-0.8092413
94	0x3e77b3a0	0.24189615
95	0xbf04ec13	-0.5192272
96	0xbe9bd639	-0.30436876
97	0xbe944680	-0.28960037
98	0xbbb228ba	-0.005436984
99	0xbf1d200d	-0.6137703
100	0xbf48b528	-0.7840142
101	0x3ce60b1b	0.028081467
102	0x3ec88e68	0.39171147
103	0x3dca6b81	0.09883786
104	0x3f13b224	0.57693696
105	0x3f687de3	0.9081709
106	0xbe5f4c49	-0.21806444
107	0x3ea6cd9b	0.3257874
108	0x3ebe0e10	0.37120104
109	0xbe91f1d2	-0.28504807
110	0x3ec1ff69	0.37890175
111	0x3eacd0f6	0.33753175
112	0x3ed38a20	0.4131632
113	0xbe8165b2	-0.252729
114	0x3e5216fa	0.20516577
115	0xbeb5facb	-0.35542902
116	0xbe5c9f15	-0.2154506
117	0xbe3908a9	-0.1806971
118	0x3dea563c	0.11442229
119	0xbf4aa196	-0.7915281
120	0xbf3db4c6	-0.74103963
121	0xbe884bb7	-0.26620266
122	0x3f840674	1.0314469
123	0x3dc9d166	0.09854393
124	0xbea0a5d4	-0.31376517
125	0x3e72ad27	0.23698865
126	0x3f06a40e	0.5259408
127	0xbe3e8784	-0.18606383
128	0x3e93a4c5	0.28836647
129	0xbe13882d	-0.14407416
130	0xbe992f6f	-0.29919
131	0x3e3a2316	0.18177447
132	0x3ec016f7	0.3751752
133	0xbec2e5d3	-0.38065967
134	0x3e896507	0.2683489
135	0xbdd2d261	-0.10294033
136	0xbe3b219d	-0.18274541
137	0xbedbed30	-0.42954397
138	0x3e497f2c	0.19677418
139	0x3e882b9c	0.2659577
140	0xbe4715f3	-0.19441967
141	0x3f88329b	1.0640444
142	0xbfc95bc3	-1.5731128
143	0x3f3b4bf7	0.7316279
144	0xbeaebc05	-0.34127823
145	0x3d1f10c8	0.038834363
146	0x3f179e70	0.5922613
147	0x3e0710a9	0.13189949
148	0xc01ae252	-2.4200635
149	0x3ebe99b7	0.3722665
150	0xbea6945e	-0.3253507
151	0xbe8a464d	-0.2700676
152	0xbe64da7d	-0.22348972
153	0x3f614f35	0.88011485
154	0x3c8fec7a	0.017568815
155	0xbece8717	-0.4033744
156	0x3ea06aa8	0.31331372
157	0xbf03f08d	-0.51538926
158	0xbe87d171	-0.2652698
159	0xbe31fa76	-0.173807
160	0x3e41f293	0.18940191
161	0x3e366ba7	0.17814504
162	0x3ecae679	0.39628962
163	0x3efe49a0	0.49665546
164	0x3e4356c0	0.19076061
165	0x3d02f131	0.0319683
166	0x3ea043dd	0.31301776
167	0x3efc2d6b	0.492534
168	0x3fa6449d	1.2989689
169	0xbf84ee5d	-1.0385243
170	0xbe91e26f	-0.28493068
171	0xbde39ef3	-0.111143015
172	0xbe4d64ff	-0.20058058
173	0xbeb6230e	-0.3557362
174	0xbebdae37	-0.37046978
175	0xbeb2d8bc	-0.3493098
176	0x3f399333	0.72490233
177	0x3e07c470	0.13258529
178	0x3ed4e686	0.41582125
179	0xbe97a29a	-0.29616243
180	0xbec0332f	-0.3753905
181	0xbecd64c0	-0.4011593
182	0x3e3ecb83	0.18632321
183	0xbd0b481f	-0.034004327
184	0x3f3681f5	0.7129205
185	0xbdab4577	-0.08362859
186	0xbf80c985	-1.0061499
187	0xbd8a8c28	-0.06765014
188	0xbe8d0138	-0.27539992
189	0xbe3d85c3	-0.18508057
190	0x3f9a803f	1.2070388
191	0xbf5e1d87	-0.86763805
192	0xbb5ded0f	-0.0033863222
193	0xbce8df81	-0.028426887
194	0xbe9f8a28	-0.31160092
195	0x3d30943b	0.043110114
196	0xbe2e2d19	-0.17009391
197	0xbea0fe29	-0.3144391
198	0x3ebe5e2d	0.37181225
199	0x3f33772a	0.70103705
200	0xbec9d831	-0.39422753
201	0x3df86c03	0.121299766
202	0x3e42f9c2	0.19040588
203	0xbea5e9e8	-0.3240502
204	0x3e032358	0.12806451
205	0xbe1c6d1c	-0.15275997
206	0x3fec81cb	1.847711
207	0x3ec298b0	0.38007116
208	0x3d161fc3	0.036651384
209	0xbe8f96ab	-0.28044638
210	0x3fa355a9	1.2760516
211	0xbd7ca0c1	-0.061676744
212	0x3e2568e9	0.16153301
213	0xbe117925	-0.14206369
214	0xbea29693	-0.31755504
215	0xbe51c089	-0.20483603
216	0xbccdbadc	-0.025113516
217	0x3db66d90	0.08907616
218	0x3e40d19b	0.18829958
219	0xbeb3c1a7	-0.35108683
220	0x3c826249	0.015916007
221	0xbe388080	-0.18017769
222	0xbeaef361	-0.34170058
223	0x3e87794d	0.26459733
224	0xbe5bb30a	-0.21455017
225	0x3e6bef62	0.23040536
226	0xbe71b163	-0.23602824
227	0xbf3475d5	-0.704923
228	0xbe10436d	-0.14088221
229	0xbe9eb7ad	-0.30999509
230	0xbe917b10	-0.28414202
231	0x3ea17652	0.31535584
232	0xbea3d3db	-0.3199757
233	0xbef88bf8	-0.48544288
234	0xbea06bfa	-0.3133238
235	0xbe6ea71f	-0.23305939
236	0xbe951705	-0.29119125
237	0xbea86b67	-0.3289444
238	0xbe8d3b5a	-0.27584344
239	0xbea1929c	-0.31557167
240	0xc0f1f493	-7.5611053
241	0x3e00887e	0.12552068
242	0x3c83aab3	0.016072607
243	0xbea790d3	-0.3272768
244	0xbe3384aa	-0.17531076
245	0xbe8f9833	-0.28045806
246	0xbe90f0ce	-0.2830872
247	0x3fd4c1ce	1.6621644
248	0x3f740b1d	0.9532946
249	0xbef9b66e	-0.48771995
250	0x3f8efee3	1.1171535
251	0xbf2ae72f	-0.6675901
252	0xbec52741	-0.3850651
253	0x3d8c1c3d	0.068413235
254	0xbe961989	-0.29316357
255	0xbf64fbe7	-0.8944687

fc3.bias f4 [6]
0	0xbf989b13	-1.1922325
1	0xbfa70b19	-1.3050262
2	0xbef9cc55	-0.48788705
3	0xbe370c02	-0.17875674
4	0xc12a19e6	-10.631323
5	0xc125e1c0	-10.367615
