checkpoints/model_256.pth (torch, 418456 bytes, 8 tensors)

fc1.weight f4 [256, 16]
00000000: a030 173d 4aee 073e 3a92 38be 1096 f63c
00000010: 788d e43d d459 18be 868a 6dbe 688a 6a3e
00000020: 90c7 42bd 3c59 dc3d 0a22 12be 94c2 0ebe
00000030: a01b b23d a276 31be 9e8d 4abe f697 48be
00000040: c69b 1bbe ee77 65be 20d4 cc3d 5cc4 353e
00000050: f072 533d 8efd 063e 0e95 4fbe e26a 17be
00000060: 00bf aa3a fc86 c3bd 2086 73bd a426 423e
00000070: 1462 40be 1c42 0ebe 580d 173d 002a 64be
00000080: 2783 373e 4c52 fe3d 7c2e 973d 4075 c6bd
00000090: 2c41 e5bd 7d5c 07bd ad13 2dbe 3804 37be
000000a0: 377d 6abe dd6d 2b3e dafe 4f3e 169e fd3d
000000b0: b1e7 54be 50c5 d93c 30b7 5c3e 3c49 a93d
000000c0: bb4e d93d 28df 473d 26b3 4bbe 7e0f 1dbe
000000d0: 54dd eebd c5e4 8a3d 03f7 e4bd 6439 78be
000000e0: d22c 303e d4e0 54be 404f 69bc 6d46 b43d
000000f0: 1d97 2fbd e06c ba3d 83a4 233e 696a 75be
00000100: 36dc 77be e888 d83d d6c6 48be fa5e 7c3e
00000110: b42e 133e 438a da3d a522 41bd 20fb d2bd
00000120: a356 d63d fe68 77be 0c91 263e 48f7 87bd
00000130: aa6b 153e cc93 133e 6303 173d 5633 40be
00000140: a48a 863d ba76 15be 20c3 503e 6011 4d3c
00000150: b6f5 20be c0f6 4ebe 619c 813e 0067 ee3a
00000160: d48a 6d3e 5ee9 373e dd76 5e3e dae3 153e
00000170: bc8d 723e cd75 11be c48b 8abd 2230 0fbe
00000180: 10ef e33d 44a1 1c3e dcce 563e b864 32be
00000190: d80d 0abe 07d6 2dbe a82a e0bd a081 c5bd
000001a0: 193f 673e 9d1e 553e 9587 7cbe 73a7 02be
000001b0: 524a 623e 86d3 253e b410 94bd 06de 33be
000001c0: dcf1 603e 96d3 b83d c022 2fbc ba2e 663e
000001d0: 4c77 873d 251a 183d 7acd 11be 02bc 623e
000001e0: 5a00 fc3d 0272 143e 758f 48be 41f8 a43d
000001f0: 2892 593d eae2 b2bd f51c 5dbd aae8 18bb
00000200: 3f19 12be dbcf 483e 28a7 cb3d 807d ec3d
00000210: 0c5f 993d 6119 14bd f8b5 913d 203e 06be
00000220: bdc1 72be e9c2 4e3e 44a2 14bd dfa0 5a3e
00000230: ef77 f1bd 50a7 97bc 279d b43d ce20 8bbd
00000240: 0e3e 46be e939 1abd 66e4 08be 143e 44be
00000250: 34d6 283e 311e 813d 0b5b 583e f680 673e
00000260: 695e e83d 6149 d2bc 5bab 303e 33f2 7cbc
00000270: d320 803e 1fd2 16be 80ef 0e3e 5644 8a3d
00000280: 573b 1a3e d2bf 52be 02d7 6d3e d8b5 2f3d
00000290: 50cc 33be 044e d13d 949f bf3d 9aff 1dbe
000002a0: 3a32 3dbe 1475 8ebd 9d64 513e cc8f ff3d
000002b0: 46eb 053e c42b a73d 2f6e 3dbe f62c 2dbe
000002c0: 0221 083c 628d 333e 040d 593e 6c68 24be
000002d0: 6847 be3d 48a5 90bd c3c8 803e 8c9b ba3d
000002e0: 4d44 6e3e 6d83 6ebe 4134 a9bd 0dd6 57be
000002f0: efa0 fcbd 9a1a d4bb 90a2 d3bd c1bd 2c3e
00000300: 940c e0bd fa12 1ebe 6057 8dbc e09a 443d
00000310: 304e 6bbd f2e7 3cbe 9888 49be 184c 753d
00000320: e0a3 21be f29b 4e3e b8cb 41be 84aa da3d
00000330: 242a dabd 80b2 b1bd 207a 02be 9849 8b3d
00000340: 4c18 db3d 407b c53d 3ee0 463e 4c33 e83d
00000350: ee1f 6cbe 34d9 a1bd 862a 7fbe 4001 0bbc
00000360: be76 2ebe ce1a 303e c05a bfbd 700e 2c3d
00000370: c80b f5bd aa8b 55be 76ea 3abe e4eb cb3d
00000380: b42f aabd 6467 53be 28e8 e5bd 80b7 663d
00000390: c46f f5bd 78b4 1a3d a645 3dbe 0048 493a
000003a0: 6c2e b5bd ccf4 2c3e d440 d6bd 0071 bd3c
000003b0: b01a 013d 8c5f 36be 6cd0 e0bd 100c d33c
000003c0: 7d88 84be 136a 0e3e 4033 46be 08a0 db3d
000003d0: b06a aebd 430b 413b f65d 0b3e 98a8 36bd
000003e0: a35f 383e d169 4f3d 5982 f83d 8c32 96bd
000003f0: 54e9 11bd 38b9 c13d 9579 563e 98e3 5e3d
0.036911607 0.13274494 -0.18024531 0.030100852 0.111597955 -0.14878017 -0.23197374 0.2290436
-0.0475536 0.107592076 -0.14270797 -0.13941413 0.08696675 -0.17330411 -0.19780585 -0.19589218
-0.15196142 -0.22409031 0.10001397 0.17750686 0.051623285 0.13182661 -0.20271704 -0.14786866
0.0013026893 -0.095472306 -0.059454083 0.18960053 -0.18787414 -0.13892406 0.03687796 -0.22281647
0.17921124 0.12418041 0.07381913 -0.096903324 -0.11194071 -0.033047188 -0.16902037 -0.17872703
-0.22899328 0.16741128 0.20312062 0.12383668 -0.20791508 0.026583344 0.21554255 0.082659215
0.1061072 0.048796803 -0.19892558 -0.15337941 -0.11663309 0.067819156 -0.11179926 -0.24240643
0.17204598 -0.2078889 -0.014240086 0.08802495 -0.042868722 0.091027975 0.15980725 -0.23966374
-0.24205098 0.10572988 -0.196071 0.24645606 0.14373285 0.106709026 -0.04715218 -0.103018045
0.104657434 -0.24161145 0.16266268 -0.06638962 0.14591852 0.14411849 0.036868464 -0.18769583
0.06569412 -0.14596072 0.20386934 0.01251635 -0.15718731 -0.20211315 0.2531462 0.0018188655
0.2319749 0.17960116 0.2172503 0.146377 0.2368688 -0.14205094 -0.067649394 -0.13983205
0.11129582 0.15295893 0.20977348 -0.17421234 -0.13481843 -0.16976176 -0.10945636 -0.09643865
0.22582664 0.2081246 -0.24661095 -0.1275919 0.22098663 0.16193971 -0.07229748 -0.17565164
0.21967262 0.09024732 -0.010689437 0.22478762 0.06614551 0.03713431 -0.1423854 0.22142032
0.123047546 0.14496616 -0.19585975 0.08055163 0.0531179 -0.08734687 -0.053982694 -0.0023332038
-0.14267443 0.1961054 0.09943992 0.11547375 0.07488832 -0.036157016 0.07114786 -0.13109636
-0.23706718 0.2019154 -0.03628756 0.2135043 -0.11790454 -0.018512398 0.08819037 -0.067933664
-0.1935961 -0.037652884 -0.13368377 -0.19164306 0.16487962 0.06304587 0.2112848 0.22607788
0.11346132 -0.025669755 0.17252867 -0.015438604 0.25025043 -0.14728592 0.1395855 0.06751315
0.15061699 -0.20580986 0.2322655 0.04289803 -0.17558408 0.102199584 0.09356609 -0.15429536
-0.18476191 -0.06955925 0.20448537 0.12478599 0.13078031 0.081626445 -0.18499063 -0.16911682
0.008308651 0.17534402 0.21196371 -0.16055459 0.092909634 -0.07062775 0.2515317 0.091116995
0.23268242 -0.23292322 -0.0826192 -0.21077748 -0.12335383 -0.0064728977 -0.10333741 0.1686926
-0.10939899 -0.15436926 -0.017253578 0.047999263 -0.057447612 -0.18447855 -0.19681013 0.05988702
-0.1578517 0.20176676 -0.18925369 0.106770545 -0.10652569 -0.08676624 -0.127419 0.06801146
0.10697994 0.09642649 0.19421479 0.11337909 -0.23059055 -0.07902756 -0.24918565 -0.008484185
-0.17037484 0.17197725 -0.09343481 0.042005956 -0.11965138 -0.20854059 -0.18253502 0.09957102
-0.0830988 -0.20644909 -0.11225921 0.056327343 -0.11984208 0.037769765 -0.184836 0.00076782703
-0.08846745 0.16890258 -0.10461584 0.023125172 0.03151959 -0.17809886 -0.10977253 0.025762588
-0.25885382 0.13907652 -0.19355488 0.10723883 -0.08516443 0.0029456175 0.13610062 -0.044594377
0.18005233 0.050638024 0.12134237 -0.0733386 -0.03562291 0.09459156 0.20944817 0.05441627

fc1.bias f4 [256]
00000000: 2050 0dbc 8c79 2dbe bd2e 49be 51af 1fbe
00000010: 0aee 45be fd4a 9abc 8be3 243d e60a 46be
00000020: 0517 62be 726c 14be 06f7 69bd 8aa5 00bd
00000030: 5c2e 25be 0eb6 33be aafb 2c3e b3b9 143e
00000040: 6740 0e3e f949 3bbe 8ef1 a3bd c434 f3bd
00000050: d644 2cbe 546b 94bd 7f35 7abe 66e0 3abe
00000060: c0c5 74bd b2f1 3bbe 3e22 16be 40db a6bd
00000070: 4fc4 abbc e7ae 1b3e 8c00 74be b33b 91bc
00000080: 5061 67be 75d1 463d 1010 e43d 1e9e 0dbe
00000090: 3b2b bd3d 835f 093e 50ed 4f3e b2de cbbd
000000a0: 2136 23be 0285 45be dc6e d13d d836 eebd
000000b0: dc4c 203e b381 823e 2848 45be 6dbc 023d
000000c0: 277f 08bd 3baa 45be 2bd5 303e 61f0 0dbe
000000d0: 1297 173e 9497 653e 8490 3abe 4217 84bd
000000e0: fc5c 16be 2c32 573e 6878 e2bd 5744 c9bd
000000f0: 8b67 c9bb b76c 55be 95e8 593e c2e1 1d3d
00000100: cb0b 31bd 3e18 4f3e a046 4e3e e16b 0fbe
00000110: ecbe 4d3e 946c fbbd 500d ddbd 58be 50bd
00000120: 8a4b 4d3d 8e3e 583e c818 23bd d3c2 5a3e
00000130: c3da 7abd 0a8b 52bd 879b 77bd 3c85 64bd
00000140: c1fe e93d 3dd7 d3bc f7d9 babd 3a99 21be
00000150: ac77 803d 482c 503d 5dd9 003e 8940 67be
00000160: ff56 25be 2474 b33d 3e92 043e a758 673e
00000170: e501 e1bd 1d38 fb3d fca9 04be dbb2 5f3d
00000180: 761b f73d 0739 b93d 1835 c13d c849 533e
00000190: 3110 29be 2c5c 323e f454 9ebd e6ad 513e
000001a0: 31fc 683e ab61 f23d 6804 b43d fdf5 0fbe
000001b0: 5383 e5bc 5977 203e bbb5 e13d a9c9 a2bd
000001c0: e3a3 87bd 416f 9abd 5e32 1a3e 6b21 21be
000001d0: 971f 403e d88f 3abe 9643 2c3e 22f2 253e
000001e0: d82d e43d ac37 163e 3f5f 3c3d 6035 503d
000001f0: 6220 ee3d 2745 5cbe a14c 54be 3295 96bd
00000200: d987 fe3c a11b 2b39 faa1 50be 7888 c8bd
00000210: 8b60 383e 5e16 b0bd c5fe aa3c c085 d03d
00000220: 81ef 533e 40be 523e bd32 1d3e 4905 e63d
00000230: 0071 f3bd 9aa8 033e 78d7 b73c 40a7 c5bc
00000240: bad2 67be 7052 65be b8af 933d 061c 24be
00000250: 269a a5bd bd3b 763e 3494 383e 60da f03d
00000260: a87f 293e 68bc 593e 99f0 f63c 4f53 523e
00000270: 65e5 a73d c200 fabb d8d0 9f3d da54 f23d
00000280: c6f3 c63c a0da 413c c8b7 64be cd52 01bd
00000290: bcc5 9e3d e60a 00bc 704a d1bd e2d1 cdba
000002a0: b597 2bbd 2e63 143e 0856 1bbd 4da3 0abc
000002b0: 39bf 38be d0b9 abbd 5413 5c3e fc3a c2bd
000002c0: f021 25be 4d78 5fbe 0726 48be bde8 36be
000002d0: b810 cabd 46f0 d23d 5a20 09be be33 0fbd
000002e0: cb42 47be c083 97bd 1a08 7dbe bb13 693c
000002f0: d7ed 333e f81e 3fbe b72f 3c3e c58c 623e
00000300: 1097 eebd 5c75 26be 87fa 1bbe 9228 7fbe
00000310: 90ab 7ebe edfe 3fbe d82d 153d ef22 02be
00000320: 02e1 9e3d a8cc 393e fcaf 153e 60c9 263e
00000330: 5cd1 933d 9eba 493e d29c 6fbe 3fdd 1d3e
00000340: 07e2 2bbd 881f 36be c611 093e 9df2 ac3d
00000350: 73a9 9f3d fa26 6fbe b676 1ebe 80d2 9bbd
00000360: 2e47 9f3d c843 65be a85e 53be 1057 cd3c
00000370: 7754 51be edc8 5cbe d238 5b3e 52e5 22be
00000380: a6bf ff3c e870 463e 486c 0a3e 80b5 7cbd
00000390: 0f78 d1bd a803 153d 5031 6cbe bc95 293e
000003a0: 95df 36be 009c d1ba 9ee6 793e 01e1 f23d
000003b0: 30ca e7bc 3e2f 68be 591c 473e 8b94 713e
000003c0: 1df7 f93d 1b2b 7d3e 9617 403e 86d3 c63d
000003d0: 5997 363e 8425 f8bd 1308 cc3d 2842 d33c
000003e0: a81a 7cbe 846d 383d c0b0 00bc dce5 373e
000003f0: 7e52 003e 5a3a 20be be02 1c3e 946c 2a3e
-0.00862506 -0.16940898 -0.19646735 -0.15594222 -0.19329086 -0.018834585 0.040256064 -0.19340095
-0.22079094 -0.14494494 -0.057120346 -0.03140787 -0.16130966 -0.17549917 0.16892877 0.14523964
0.13891755 -0.18289937 -0.08005057 -0.118752986 -0.16823134 -0.07247034 -0.2443447 -0.18249664
-0.0597589 -0.18353918 -0.146615 -0.08147287 -0.02096763 0.15203439 -0.23828334 -0.017728662
-0.22595716 0.048539598 0.11135876 -0.13829848 0.09236761 0.13415341 0.20305371 -0.09954585
-0.15938617 -0.1928902 0.10226223 -0.11631554 0.1565432 0.25489578 -0.19265807 0.031917978
-0.033324387 -0.19303219 0.17268817 -0.13861229 0.14803723 0.22421104 -0.18219191 -0.064497486
-0.14683908 0.21015233 -0.11058122 -0.09827488 -0.0061463765 -0.20842253 0.21280129 0.038545378
-0.043224137 0.20224091 0.20144129 -0.14005996 0.20092362 -0.12276569 -0.10793555 -0.050962776
0.050120868 0.21117613 -0.039818555 0.21363382 -0.061243784 -0.05140213 -0.060451057 -0.055791125
0.114255436 -0.02585947 -0.09123605 -0.15781108 0.062728256 0.05082348 0.12582918 -0.22583212
-0.16146468 0.087623864 0.12946412 0.22592412 -0.109866895 0.12266562 -0.12955469 0.05461393
0.12065785 0.0904408 0.09433955 0.20633614 -0.16510083 0.17417973 -0.07731047 0.20476493
0.22752453 0.11835035 0.08789903 -0.14058681 -0.028016722 0.15670528 0.110209905 -0.0794862
-0.06623056 -0.07540751 0.15058276 -0.15735404 0.1876205 -0.18218935 0.16822657 0.16205648
0.111415565 0.14669675 0.04598927 0.050832152 0.1162727 -0.21510755 -0.20732357 -0.073526755
0.031070637 0.00016318123 -0.20374289 -0.09791654 0.18005578 -0.08598016 0.020873437 0.10181761
0.20696832 0.20580387 0.15351386 0.11231477 -0.118867874 0.12857285 0.02244161 -0.024127603
-0.2263898 -0.22394729 0.0721125 -0.16026315 -0.08086042 0.24046226 0.18025285 0.11760402
0.16552603 0.21263278 0.030144023 0.20539592 0.081980504 -0.007629485 0.07803506 0.118325904
0.024286162 0.011831909 -0.22335732 -0.031573106 0.077525586 -0.007815098 -0.10219276 -0.0015702809
-0.041892726 0.14490959 -0.037923843 -0.0084617855 -0.18041696 -0.0838505 0.21491748 -0.094839066
-0.16126227 -0.21823235 -0.19545756 -0.1786222 -0.0986647 0.10299735 -0.13391247 -0.034961455
-0.19459073 -0.07398176 -0.24710122 0.0142258955 0.17571197 -0.18664157 0.18377577 0.22124012
-0.11649907 -0.16255707 -0.15232287 -0.2491782 -0.24870133 -0.1874959 0.036420673 -0.12708639
0.077577606 0.18144476 0.14617914 0.16287756 0.072176665 0.19700095 -0.23399666 0.1541643
-0.041963603 -0.17785466 0.13385686 0.08444712 0.07795992 -0.23354712 -0.15474972 -0.07608509
0.07777248 -0.22389138 -0.20641577 0.025065929 -0.20442377 -0.21561022 0.21408394 -0.15907791
0.031219315 0.19379008 0.13517869 -0.06169653 -0.102279775 0.03638044 -0.23065686 0.16561025
-0.17858727 -0.0015991926 0.2440438 0.11859322 -0.028294653 -0.22674271 0.19444408 0.23591821
0.12205336 0.24723475 0.18758997 0.09708314 0.17831172 -0.121165305 0.099624775 0.025788382
-0.24619544 0.045026317 -0.0078546405 0.17958778 0.12531468 -0.1564726 0.15235421 0.16642982

fc2.weight f4 [256, 256]
00000000: 626e 793d 2269 063d b5f0 583d cfd2 493d
00000010: 057a 813b 8c1e 3bbd 510e f53c 3e03 04bd
00000020: c7cb cbbb 86a1 2fbd 7348 5e3d 79eb 14bd
00000030: aec6 243d 2cf1 503d 10ef bfbc 8eae 103d
00000040: e8fa bd3c 39fd bc3a 912f 573d 408e 833c
00000050: 2139 3b3d 506b 6ebc b5fb f4bc c0e7 8a3c
00000060: 0055 98bb 8069 853c f2d0 5abd a41b c43c
00000070: bd59 8b3d fa65 88bc eccd 02bd ed55 873d
00000080: b84f 903c 04f7 383d 9a15 863d 23f6 843d
00000090: 160e 933d e05e 5d3d a635 343d bcb4 5d3d
000000a0: e86a b9b9 543a debc af5d 283d 3c0c 35bd
000000b0: 5e5d 443d e8f9 00bd 4881 6d3d e11d 2cbd
000000c0: 39aa 9abb eba5 37bd 8437 4ebd f96e a23c
000000d0: a223 7c3d ac03 ec3c 0026 443b f3c5 7938
000000e0: e85b 223c 6e9b 383d 78ca fe3b 7056 bbbb
000000f0: 8a07 ee3c 8005 a13d 3f91 553c c24f 79bd
00000100: 04db 803d a556 6d3d abd9 61bd 301e 6c3d
00000110: 8ac5 7fbd 0dff 8d3d 6795 8cbb ac03 f8bc
00000120: 2e8b 64bc c0c4 4fbc ac98 15bd 59dc b4bc
00000130: 2e90 60bd e959 45bd 86f1 c23c 7644 a83c
00000140: 9cf7 3b3d e25a 41bd 6ebd 023d 2044 bc3b
00000150: 4016 abbc a06a 78bc f53b 79bd cbd0 4bbd
00000160: bfc1 f43c 58d2 b73c f0f8 9bb8 ba0d f73c
00000170: 9775 c93b 5479 f7bc 5eab cfbc 6647 943c
00000180: 56f0 d23c 108f 48bd 0039 9fb9 4030 1f3b
00000190: 913b 823c 2853 f33c 180a fabc 0080 5cbd
000001a0: be5d f03a 216a 913d 70e0 cb3c 284f 01bd
000001b0: 679e e33c 2b5d b33c 9c04 5b3d 9337 41bd
000001c0: a9d9 623d 5dad 96bc 552f 01bc 2c1e c9bb
000001d0: 6bfc 66bd 93e6 aabb 588d e33c 1ef6 f83b
000001e0: d4b1 31ba 18c3 66bc c704 403c 1666 6abd
000001f0: 5335 553c bbeb 1c3d 1b56 ccbc 52da 7d3d
00000200: 7648 e33b 3acb 21bc ef4a 01bd a4df 823c
00000210: 5026 303d e4b9 c93c 4319 1dbd c404 6ebd
00000220: 2177 a8bc 81e9 883d 9e47 503d 330d 3e3d
00000230: df14 413d c80c 473d fef4 913c 90b5 4b3c
00000240: ac75 3cbd 16c5 733d 2860 8abc caa3 18bd
00000250: b73d 48bd c924 363d f0ec 06bc b8a3 b23c
00000260: 4cf9 f73c 489a 3f3d 1df6 9e3a ef43 eebc
00000270: a138 24bc 3b30 30bd 48dc 163c b9c3 213d
00000280: ec0d 38bc a8b0 143c c801 70bc a1ef 2e3d
00000290: aee1 dbbc 58a1 49bc 3cdc a43c 78a1 c83c
000002a0: 2871 f5bc 3c38 823d d4a6 b3bc fe63 34ba
000002b0: d822 49bb 80b2 66bc 691b 8a3d a8d1 46bd
000002c0: b89e 7ebd fb74 ae3c 3e01 153d dfac 94ba
000002d0: 60d4 413d c699 02bd 7ac9 2e3d 13be 1d3d
000002e0: ed41 693d 7256 06bd 9e0a 18bd a254 7dbb
000002f0: 4974 183d 0fde 243d 7401 abba 913d 2e3d
00000300: da9f 47bd befe 283d b270 073d 288a 2c3c
00000310: e82a fabc 05a7 32bd 606a 0c3b 7af5 efbc
00000320: 39df f8bc c603 2b3d 838c 5e3d a200 103d
00000330: 828a 4e3d e048 493d be10 e43c 5291 613d
00000340: 3d16 43bc 38dd cebc b5cf 7a3d 2a3b 0c3d
00000350: dc81 c6bc dea3 7b3d 8498 903d e28f 46bd
00000360: 021e 9ebc 0e69 7dbd 31d2 a93b 047c cc3c
00000370: 876b bc3b 8a58 5e3d faeb 17bd 4f53 5cbb
00000380: 53fd 44bc 1a91 8abc 7778 813d f02a 413d
00000390: 8536 133d 8467 613d f082 a4bb b1b6 e03c
000003a0: 50fe 19bd f46c b4bc 1aec 62bd b277 8f3d
000003b0: 48d9 6d3c bac8 3e3d 5ef4 17bd 5cf5 c7bc
000003c0: e837 b5bc 010c e23c 7674 313b 42f1 74bd
000003d0: 5cba e4bc 5eba 29bd d6ea 4b3b 13b4 633d
000003e0: 18d6 283d cb49 2c3c 6290 26bd fbdc b5bc
000003f0: 1428 a8bb 449a e2bc 60b3 28bb c0cc 433d
0.060896285 0.032815106 0.05296393 0.04927331 0.0039513134 -0.04568343 0.029914053 -0.032229654
-0.0062193605 -0.04287865 0.05426831 -0.036357377 0.04022854 0.05101125 -0.023429424 0.03532272
0.02319093 0.0014418728 0.052535597 0.016059041 0.04570878 -0.0145519525 -0.02990518 0.01695621
-0.0046488047 0.016285658 -0.053421922 0.023938961 0.068042256 -0.016650189 -0.031934664 0.06608186
0.017616138 0.045157447 0.06547089 0.06492259 0.07180421 0.054045558 0.043996476 0.05412744
-0.000353656 -0.027127422 0.04110497 -0.04420112 0.047940604 -0.03148833 0.05798462 -0.042020682
-0.004719999 -0.044835966 -0.050345913 0.019828307 0.06155742 0.028810345 0.0029929876 5.955058e-05
0.0099096075 0.045070104 0.007775601 -0.0057170913 0.02905633 0.07862377 0.013035118 -0.06086708
0.06291774 0.05794396 -0.055139225 0.057645977 -0.062444247 0.06933413 -0.004290271 -0.030275188
-0.013949199 -0.012681186 -0.036522552 -0.022077726 -0.054825 -0.048181448 0.023796808 0.020540457
0.045890436 -0.047205813 0.031918935 0.005745426 -0.020884633 -0.01516214 -0.060848195 -0.049759667
0.029877542 0.022439167 -7.437344e-05 0.030157913 0.006148051 -0.030209221 -0.025350269 0.018100452
0.025749367 -0.04896456 -0.00030369312 0.0024290234 0.015897544 0.029702738 -0.030522391 -0.053833008
0.0018338484 0.071003206 0.024887294 -0.03156963 0.027785493 0.021895012 0.053471193 -0.04717214
0.05538336 -0.018393213 -0.00788482 -0.00613763 -0.05639307 -0.005215475 0.027777359 0.007597699
-0.00067785126 -0.0140846 0.011719889 -0.057226263 0.013013202 0.038310748 -0.024943402 0.061975785
0.0069361283 -0.009875113 -0.031565603 0.01597578 0.043005288 0.024624772 -0.03835417 -0.058110014
-0.020564618 0.06685162 0.05084955 0.046399307 0.047139045 0.048596174 0.017817017 0.012433425
-0.04601066 0.059514128 -0.016891554 -0.037265576 -0.04888698 0.044468675 -0.008235201 0.021806583
0.030270241 0.046777993 0.0012127791 -0.029085128 -0.010023267 -0.043014746 0.009207793 0.039493296
-0.011233788 0.009075321 -0.014648862 0.042708997 -0.02684101 -0.012306534 0.020124547 0.024491057
-0.029961184 0.06358382 -0.021930136 -0.0006881355 -0.0030690935 -0.014080644 0.06743509 -0.048539788
-0.062163085 0.021296015 0.036378138 -0.0011343024 0.047321677 -0.03188493 0.04267261 0.038511347
0.056947637 -0.032797284 -0.0371195 -0.0038655181 0.037220273 0.040250834 -0.0013046698 0.042539183
-0.04873643 0.041258566 0.03306646 0.010530986 -0.030538037 -0.043616313 0.002142571 -0.029291857
-0.030379878 0.041751646 0.05433322 0.035156853 0.05042506 0.049141765 0.027840015 0.05507023
-0.0119071575 -0.02525197 0.06123324 0.03423611 -0.024231844 0.061435573 0.0706034 -0.04847706
-0.019301418 -0.061867766 0.0051825275 0.024961479 0.005750123 0.054283656 -0.03709028 -0.0033618992
-0.012023288 -0.016914893 0.06321805 0.04716009 0.035940666 0.05503036 -0.005020492 0.027430864
-0.037596047 -0.02202461 -0.055400945 0.07005252 0.014517136 0.046578147 -0.03709828 -0.024408989
-0.022121385 0.027593615 0.0027077473 -0.059800394 -0.027920894 -0.0414375 0.0031115315 0.055591654
0.0412198 0.0105156405 -0.040665038 -0.022200098 -0.005131731 -0.02766145 -0.0025741681 0.047802687

fc2.bias f4 [256]
00000000: 881c 783b d062 8c3c 142a e13c 9208 893b
00000010: b8a3 0bbd 24c8 063d 7cfd 0abd 7a20 63bd
00000020: 6402 e3bc 3dbc 2abd 08ae 8d3c c341 63bc
00000030: b09b 7b3c ea28 bb3b aade 6abd fe60 4a3d
00000040: 9eb3 4dbd cd66 833c f399 6d3c eeed 0fbd
00000050: 388a 1a3d 094e 22bb b43d 793d 44f8 853c
00000060: d085 72bc ece3 b53c 10c1 223c 68fa 27bd
00000070: da39 0c3d b897 48bb 6253 343c b408 42bd
00000080: 4b28 c8bb 9702 09bc c08e c33a eaef 2d3c
00000090: c4f8 363d c675 6ebd da06 71bd d5be 26bc
000000a0: a4eb 3a3d a013 0d3d 80de 0cbd 88f7 443d
000000b0: 3d4c c1bc 7078 203d 65ca eabc 0fcc 4e3d
000000c0: b559 22bd 0030 f138 92c1 493d e53a 1d3d
000000d0: cd76 c53c d2b0 5ebd ebec 6a3d da9f d83c
000000e0: 8a99 023c 9d50 6bbd 28cc 7a3c 764a 563d
000000f0: 8c6c 6dbd a7dc 91bc 474a ecbc 520e 003d
00000100: c03f 773b 5a5e a9ba b0c1 73bd c42a 31bd
00000110: 19f7 023d 60d9 44bd 4256 0fbd 0345 603d
00000120: 229e 643d 2fc2 b73c 6899 f7bc a9af 823d
00000130: 12e2 efbc 977c a0ba 2b80 fb3b d2bf 963c
00000140: 7cc8 663d 7095 acbc 3e29 033c 0d5b 08bd
00000150: dc21 213d 1a49 f6bc 985c a7bc df6f b93b
00000160: ed1d 36bc c13b b5bc e113 363d 5f31 21bb
00000170: 3006 6fbc 450f 56bd 86e0 f83b dcb8 4e3d
00000180: d000 7d3c fa95 05bd 3259 18bd bcad 07bd
00000190: e42a 14bd dbd3 563d a397 013c a12f 833d
000001a0: 0ffa f13c fca0 29bd 50e0 573c 4a1f 1cbd
000001b0: 2066 34bd c0d4 313b f866 f9bc e884 9ebc
000001c0: 3060 4e3c 8049 e13c af4a 333d a957 25bc
000001d0: 84ad 4fbd da51 663c 501f 9d3b 2313 023d
000001e0: 6edd 91ba 2b67 033d c766 fdbb 5004 773c
000001f0: 3a82 853c b485 b43c 3273 863b 80a4 003a
00000200: 2ed8 373d 50bc 8cbc ab15 5ebd 090e 783d
00000210: 0051 fe3b 705d 3e3d 0ee6 22bd 6254 573c
00000220: d52e d23c deb0 61bd 27ac f4bc 8c13 62bd
00000230: 1710 583d aa6e 243d c03d 36bd 52a1 833d
00000240: 179e 30bb fcb2 5f3d 4ffb c43c 34db 473d
00000250: 96c1 1f3d 4312 4c3d c84d 0ebd 07fa ce3b
00000260: deb3 5b3d 28ed 68bd 03cc 71bd 2687 53bd
00000270: d22a f7ba a650 52bc 8c62 14bd 4021 583c
00000280: 845b a7bc 3821 f1bc e05c 1dbd 66f8 873c
00000290: b825 9dbc cbac 3dbd 6a2d a63c 452e a33b
000002a0: e12b d6bc c4fd 94bc 9066 f5bc 28ba bc3c
000002b0: 9c6a 4fbd 9757 36bd 0594 6e3d 289e 9cbc
000002c0: ae87 1e3d 6cd3 13bd 48ec 683c b3c9 693d
000002d0: 9a85 1b3d 4089 95bb 2c81 efbc 93ff ef3c
000002e0: 1775 69bd 7468 fc3c ed7b 00bc d3b5 70bd
000002f0: 79cb 183d 65a0 ecbc 8251 e7bc aa20 2b3d
00000300: fb05 80bc 704c 3fbc 54df 75bd 077e 4ebc
00000310: 8960 ce3c d73e bdba 7d76 f3bc 886e 6dbd
00000320: bec4 7abd 1872 1bbd 77fa cf3b fa73 0f3d
00000330: 609e 043b d334 3a3d 67da a6bc 1017 1d3c
00000340: c201 53bd dd99 523d c18d 66bc 968a 57bd
00000350: c366 0cbd 0d95 c9bc d0a8 e2bb 28bc 06bc
00000360: 41d2 bf3b 5764 c1ba 873d a8ba 7cca 3c3d
00000370: 09b2 50bd 6889 b2bc 84e7 dabc c105 5e3d
00000380: 4018 a8ba 8c5f e6bc d0d8 913c 207b 523d
00000390: 00c8 e2bb c89f b8bc fcbd 713d 824e d8bc
000003a0: ae10 55bd ab70 2b3d a0d6 e1bc 409a 00bc
000003b0: 933f aabc 7d58 8b3d 8822 0dbd e442 c83c
000003c0: 0af8 1c3d d816 52bd 8cc4 00bd da76 c03c
000003d0: 9476 aa3c 718f 26bd 9fb7 a9bb 2896 dd3c
000003e0: 222f 09bd cf00 053d 36ea af3c 7593 303d
000003f0: d8c6 44bc 1121 503d 7419 a9bc fef9 caba
0.0037858803 0.017136961 0.027485885 0.00418193 -0.03409168 0.032905713 -0.033933148 -0.055450894
-0.0277111 -0.041683424 0.017294899 -0.013870659 0.015356943 0.0057116644 -0.057341255 0.049408905
-0.050220124 0.01604023 0.014502036 -0.035139017 0.037729472 -0.002476575 0.06084986 0.016353734
-0.014802411 0.022203408 0.009933725 -0.04101029 0.03423486 -0.003060801 0.011006208 -0.04737158
-0.006108319 -0.008362434 0.0014919862 0.010616282 0.044670835 -0.058217786 -0.058844425 -0.010177334
0.04563488 0.034442544 -0.03439188 0.048087627 -0.023595924 0.03917736 -0.028660962 0.050487574
-0.039636333 0.00011500716 0.04925687 0.038386244 0.0241045 -0.054367848 0.05735485 0.02644341
0.007971177 -0.057449926 0.015307464 0.052317105 -0.057964846 -0.01780541 -0.028844012 0.031263657
0.0037727207 -0.0012921796 -0.059510887 -0.043253675 0.031973932 -0.048058867 -0.03499437 0.054753315
0.05581487 0.022431461 -0.030224517 0.06381161 -0.029282603 -0.0012244162 0.007675191 0.018402014
0.05634354 -0.021067351 0.008005438 -0.033289958 0.03933893 -0.030064154 -0.020429894 0.005659088
-0.011115533 -0.02212322 0.04445255 -0.0024596078 -0.014588878 -0.052260656 0.0075951247 0.050469264
0.015442088 -0.032613732 -0.03719444 -0.03312467 -0.036173716 0.052448135 0.007909688 0.06405569
0.029538183 -0.041413292 0.013176039 -0.038115777 -0.044042706 0.0027134866 -0.030444607 -0.019350484
0.012596175 0.027500868 0.043772396 -0.010091701 -0.050702587 0.014057601 0.0047949925 0.03175653
-0.0011128613 0.03208081 -0.0077331993 0.015076712 0.016297448 0.02203641 0.004103088 0.0004907325
0.0448839 -0.017179638 -0.054219883 0.06056026 0.007761121 0.046475828 -0.03977018 0.013142677
0.025657097 -0.055100314 -0.029867245 -0.055194423 0.05274972 0.0401446 -0.044492483 0.06427254
-0.0026949698 0.054614052 0.024045615 0.048793033 0.039002977 0.049822103 -0.034742147 0.0063164267
0.05363833 -0.056866795 -0.05903245 -0.05164256 -0.0018857366 -0.012836611 -0.036226794 0.013191521
-0.02042938 -0.029434785 -0.03841865 0.016597938 -0.019183025 -0.046307366 0.020285327 0.004979881
-0.02614397 -0.018187411 -0.029956132 0.023037985 -0.05063878 -0.044517126 0.05824663 -0.019118384
0.038703613 -0.0360903 0.01421649 0.05707712 0.03796921 -0.0045634806 -0.029236399 0.029296672
-0.05699643 0.030811526 -0.007842046 -0.05876715 0.03730342 -0.028885076 -0.028237108 0.041779198
-0.015627852 -0.011675939 -0.060027435 -0.012603289 0.025192516 -0.0014438283 -0.029719586 -0.05796674
-0.061222784 -0.037950605 0.0063469964 0.035022713 0.0020236 0.045460533 -0.020367814 0.009588018
-0.05151535 0.051416267 -0.014071883 -0.0526224 -0.03427769 -0.024607206 -0.0069170967 -0.008223571
0.0058539216 -0.0014754635 -0.0012835719 0.04609154 -0.050951038 -0.021794036 -0.026721723 0.054204706
-0.001282461 -0.028121732 0.01780358 0.051386952 -0.0069208145 -0.022537127 0.059019074 -0.026404623
-0.05201786 0.041855495 -0.027568161 -0.007849276 -0.020782268 0.06803987 -0.03445676 0.024445958
0.038322486 -0.051291317 -0.03143744 0.023494173 0.020808496 -0.04066414 -0.00517936 0.02704914
-0.033492215 0.032471474 0.021473985 0.043109376 -0.012010299 0.050812785 -0.02064202 -0.001548588

fc3.weight f4 [128, 256]
00000000: 783c e4bc acfd 9b3c e0f2 c4bc 2c2e f8bc
00000010: b848 7abd a2b4 233d 704d 423d 3883 bdbc
00000020: 7071 7bbd c62c 0ebd e275 6dbd 925e 16bd
00000030: 2039 293c 48fe 60bc 1662 533d a481 87bc
00000040: 481c 7dbd 1c00 d63c 8af5 56bd 044f 44bd
00000050: 5269 123d 46ed 0c3d 08bb 51bc 4814 5a3d
00000060: 90ed 41bd 9e65 683d ee86 6fbd 4c0b 883c
00000070: f830 31bd 36d5 34bd 1893 ebbc 0cbb 62bd
00000080: 902b e73c 8094 dd3c 1053 153c e095 32bd
00000090: 842a 4ebd b061 b5bb aa2c 643d 0056 7639
000000a0: 70f5 c43b 2cc5 9d3c 5865 2f3c 8cdb 64bd
000000b0: 1492 80bc 3007 1f3d 848d b9bc bc57 693d
000000c0: f054 c93b 885f 243d 8eb6 53bd ec5d 77bd
000000d0: fe6f 723d c47b f13c a02e e8bb 38cd c63c
000000e0: 2030 eabc 8866 42bd 8638 263d 7492 663d
000000f0: 6496 2d3d 3885 7abd 0063 eb39 28c8 21bc
00000100: ac45 14bd caee 0abd 80d3 d1ba 8ef2 08bd
00000110: 7cb4 283d 002f ef3b 8018 a7bc 6898 b7bc
00000120: 18cf 24bd 3043 36bc 2004 0d3c a447 a2bc
00000130: 0068 19bd 3039 063d 82f7 3e3d 5025 4e3d
00000140: 3631 58bd 00f8 fabc 82ca 7b3d 5a4d 4fbd
00000150: 2244 27bd 1c4c a13c 5e0d 41bd 209f 5e3c
00000160: 3a84 22bd 381b 3c3d 30f4 f4bb be20 5c3d
00000170: 8221 28bd 0808 92bc 74a2 523d b8c4 7dbc
00000180: dc4c c1bc 7a1e 7a3d 0e0a 17bd 00b8 bbba
00000190: 4cfb cdbc 16dc 773d 381e 6a3d 90e1 c13b
000001a0: ec26 3bbd b293 32bd a867 9abc 4410 39bd
000001b0: c0fe fcbb 142c 8cbc 3e66 38bd c082 a63a
000001c0: fe1b 5ebd 402b 21bd 504e 5dbd 42d9 21bd
000001d0: 80c1 e0ba 1c72 57bd 40a9 e9bb 18f8 b73c
000001e0: 5ca3 7a3d a870 6cbc d037 b8bc e6c4 173d
000001f0: 90bb e4bc 9e95 7bbd 12b3 57bd 502d ab3c
00000200: 80ad e73a d0cb 973b a824 733c c439 683d
00000210: 2093 673c b8aa 41bc d2ab 213d 1eea 29bd
00000220: a474 403d 7498 a6bc 6883 adbc b4bc b53c
00000230: 4402 263d f01d 863c e6b3 6d3d 8013 aabc
00000240: 70ac ef3c 30b1 16bd 60a5 8e3b 08b4 5dbc
00000250: 901c efbb 4672 713d 2483 903c 289c 18bd
00000260: e898 043d 00c6 66ba f0cd e9bc 4cea 343d
00000270: e8c8 5a3d 8ef3 3d3d 6c9b 453d b0eb 263d
00000280: 668d 213d 40ea 903c 1cc2 1dbd 20a8 9c3c
00000290: e012 8ebc 000e bd3a 84f2 233d 78ea 3cbd
000002a0: 0884 d13c 000c 4d3c 6050 0ebc 54eb 713d
000002b0: e83a 0fbd 804a 8dbb 9008 eabb 0063 c5ba
000002c0: cc75 903c 9c98 c6bc 7815 77bc e01e 223c
000002d0: 28e8 bdbc e85b e6bc 9017 41bd b04e 783d
000002e0: 3892 76bd 7478 6dbd e6f1 6d3d 7cc5 88bc
000002f0: 0cb1 23bd b4f3 7ebd de74 76bd 9c54 0cbd
00000300: 4cf0 38bd d0fc 0b3c a847 3fbd a8a9 54bd
00000310: 0020 32bc 0057 b8bc c886 49bd 2e31 7cbd
00000320: 28b8 0ebc 6c8b 3bbd 1aef 653d 2c71 d03c
00000330: 601b e53c 9818 343d 7041 97bc e89f 8abc
00000340: 00fe 843b 6c0d 50bd f45b 083d 0014 c63c
00000350: 9e2a 743d 1826 6cbd 1095 9cbb baa1 46bd
00000360: 1a54 4cbd f68e 7cbd 10ee 5bbd ae43 1abd
00000370: 90ad b13c da4c 013d 26c1 193d 3061 26bd
00000380: 94f5 533d 50f9 073d 38de 093d 8082 ccba
00000390: 207a 7b3b a0ef da3b c00d d7ba f45f 74bd
000003a0: 646e d93c 38b6 fabc 0072 5cbc 406a 7ebd
000003b0: f22a 443d fe28 293d 103e 34bc 10ee 233d
000003c0: 5096 35bd 88c1 273d 2e5f 763d 82dd 1e3d
000003d0: 6c4e babc 40b5 4cbc b63f 073d 5265 6fbd
000003e0: b065 e6bc 7c31 0cbd e0ff 24bc dcfa 66bd
000003f0: 18dc 3b3c 10eb 35bc 8e70 78bd 002d 663c
-0.027860865 0.019041859 -0.024041593 -0.030295454 -0.061104506 0.039967187 0.04743713 -0.023133859
-0.06138748 -0.034710668 -0.05797375 -0.036711283 0.010328561 -0.0137325 0.051607214 -0.01654131
-0.06179455 0.026123099 -0.052480258 -0.047926918 0.035744973 0.03440597 -0.012800939 0.053241998
-0.047345698 0.056737535 -0.05847829 0.01660695 -0.04325959 -0.044148646 -0.028756663 -0.055354163
0.028219014 0.02704835 0.009114042 -0.043599963 -0.050333515 -0.005535327 0.055706657 0.00023492426
0.0060107037 0.019259058 0.010705315 -0.05587344 -0.015694655 0.038825214 -0.022650488 0.056968436
0.0061441585 0.04013017 -0.05168777 -0.060392305 0.059188835 0.029477961 -0.0070856363 0.024267778
-0.0285874 -0.047461063 0.04058125 0.056292012 0.04237975 -0.061162204 0.00044896454 -0.009874381
-0.036199257 -0.033919133 -0.0016008466 -0.033434443 0.04118775 0.007299304 -0.020397425 -0.02241154
-0.040236562 -0.011124417 0.0086069405 -0.019809552 -0.037452698 0.032769382 0.04662276 0.050328553
-0.052781306 -0.030635834 0.061472423 -0.050610878 -0.04083646 0.019689612 -0.04713189 0.013587743
-0.039676882 0.045924395 -0.0074753985 0.053742163 -0.04104758 -0.017826095 0.05142446 -0.015488796
-0.02359622 0.06106422 -0.036874823 -0.0014321804 -0.025144242 0.060512625 0.057157725 0.0059167817
-0.045691416 -0.043597884 -0.018848255 -0.045181528 -0.0077207983 -0.017110862 -0.04501938 0.0012703761
-0.054225914 -0.039347887 -0.054029763 -0.039513834 -0.0017147511 -0.052599058 -0.007130772 0.022457168
0.061190948 -0.014431156 -0.022487551 0.03705301 -0.027921468 -0.061421983 -0.05266101 0.02089563
0.0017675608 0.0046324506 0.0148402825 0.056695715 0.014134198 -0.011820488 0.0394705 -0.041483037
0.046986237 -0.020336367 -0.021180823 0.022184707 0.040529504 0.016371697 0.058032893 -0.020761251
0.02925703 -0.036790073 0.0043532103 -0.013531692 -0.007297106 0.05894687 0.017640658 -0.037258297
0.032372385 -0.0008803308 -0.028540581 0.044168755 0.053414255 0.04637485 0.048243925 0.040752113
0.03944149 0.017689824 -0.038515195 0.019123137 -0.017342985 0.0014423728 0.040026203 -0.046122044
0.025575653 0.012515068 -0.008686155 0.059062317 -0.034968287 -0.0043118596 -0.007142134 -0.0015059412
0.017634295 -0.024242692 -0.015080802 0.0098950565 -0.02318199 -0.028119996 -0.04714161 0.060621917
-0.06019804 -0.0579762 0.05809202 -0.01669573 -0.039963767 -0.062244132 -0.060170047 -0.034260377
-0.04515104 0.008544162 -0.046699196 -0.05191961 -0.010871887 -0.022502422 -0.049200803 -0.06157034
-0.008710898 -0.04578726 0.05613623 0.02544459 0.027967155 0.043968767 -0.01846382 -0.016921952
0.0040585995 -0.05079405 0.03329082 0.024179459 0.059610955 -0.057653517 -0.004778512 -0.04849408
-0.049884893 -0.061659776 -0.05369383 -0.0376622 0.021689206 0.031567432 0.037537716 -0.04062003
0.051747873 0.033196747 0.03365919 -0.0015602857 0.0038372353 0.0066813976 -0.0016407296 -0.05966182
0.026541896 -0.030604467 -0.013454914 -0.062113047 0.04789252 0.04129886 -0.011001125 0.040021956
-0.044332802 0.04095605 0.060149364 0.038785465 -0.022742473 -0.012494385 0.033019744 -0.058446236
-0.02812466 -0.03422688 -0.010070771 -0.056391582 0.011466049 -0.011103407 -0.060654216 0.014048815

fc3.bias f4 [128]
00000000: f09a 153d dc80 2abd de23 5a3d fc93 3abd
00000010: c094 8fbc 4af6 7b3d c08f 52bd f1ae 163c
00000020: cbc9 f73c 0aef ff3c ee45 76bd ec85 893c
00000030: 5ae6 543d 2293 333d fc1e d73c e290 5f3c
00000040: 80ff 1dbd ac44 b1bc 66eb 9abc 4831 543d
00000050: 1ff8 963d d400 653d dfda 433c 913b 63bd
00000060: 4ce0 11bb b27e a03b d635 74bd 24ec a4bc
00000070: fd45 573d 8192 ebbc a2fa 3f3d eb87 bc3c
00000080: c28c 4f3d 8c44 e63c 58d5 5a3c 5484 2d3c
00000090: fcd5 023d 3e6c 70bd b967 45bd 84bd 98bc
000000a0: a6aa a43c 68d0 5a3d 72bb 5fbd 7e2c 0b3c
000000b0: c384 423d 6c79 053d e565 fcbc b41d 40bd
000000c0: 9087 e03c 968a dbbc fd3c 2abd 56b6 123d
000000d0: b5c5 213d 725e 983c 581a d2b9 5773 82bc
000000e0: eec6 a0bc 2ed9 79bd 789b 6c3c b8d1 6c3d
000000f0: 30b1 c7bc a0ce 583d 8a84 483b 28f3 183d
00000100: 444d 673d d7c1 833c d0cf 11bd 783a febc
00000110: 2325 55bd 9cc4 9e3d 95e5 12bc 17a0 783c
00000120: 40b1 8fbc c72a e1bc b4f6 2b3b 3083 a9bc
00000130: ac54 cabb 4485 cf3c c9f4 4c3c 8148 113d
00000140: 8c13 c2ba 7516 993d ecac 343d 8675 0bbd
00000150: 6bcf afbc 8c01 183d f436 733d 3320 12bd
00000160: 79da 4d3c 87a6 b3bc 98dc 6e3d 1411 fa3b
00000170: e06c 11bd 8e09 4abd 9a94 52bd 84fc e0bc
00000180: 40d4 0b3c 3378 593d c462 55bd 709e d63c
00000190: a243 5e3d 8e0b 263b 35b6 e0bc fbb9 8e3c
000001a0: f624 d93c 1ebe 55bd a0a8 21bb d0b8 d73b
000001b0: 9e89 de3b 8ce4 3d3d dcec d83c 5872 28bc
000001c0: 4b97 3c3d 8c85 1bbd 0e3e 7dbd aac7 71bd
000001d0: a09a 463d bd67 54bc 00c4 8c3d 0335 ddbc
000001e0: acc1 e23c 4e13 83ba 692e e03c 8c29 0a3d
000001f0: df28 f2bb 7de7 b03c 84af 7dbc 7f38 813c
0.036524713 -0.041626796 0.053256862 -0.045551285 -0.017526984 0.061514176 -0.051406622 0.009196983
0.03024759 0.031241912 -0.060125284 0.016787492 0.051977493 0.04384149 0.026259892 0.013645383
-0.038573742 -0.02163919 -0.018911075 0.05180481 0.07371544 0.055908993 0.011954038 -0.05547673
-0.0022258935 0.0048979158 -0.059621654 -0.020132132 0.05255698 -0.028756382 0.04686988 0.02301403
0.050671346 0.028108858 0.013356529 0.0105906315 0.031942353 -0.058696978 -0.04819462 -0.018645056
0.020100903 0.053421408 -0.05462212 0.0084944945 0.047489893 0.0325865 -0.030810306 -0.046903327
0.027408391 -0.026799481 -0.04156207 0.03581842 0.03949519 0.018599723 -0.0004007395 -0.015924139
-0.019626107 -0.060998134 0.0144413635 0.05781719 -0.024376482 0.052931428 0.0030596578 0.037341267
0.05647017 0.016083641 -0.035598576 -0.03103374 -0.05203737 0.07752344 -0.008965869 0.015174887
-0.017540574 -0.027486218 0.0026239576 -0.020692438 -0.0061746445 0.0253321 0.012509533 0.035469536
-0.0014806851 0.074749865 0.044110224 -0.034047626 -0.02146121 0.03711085 0.05937858 -0.03567524
0.012564295 -0.021929992 0.058315843 0.0076314304 -0.035504222 -0.04932552 -0.05141125 -0.027464159
0.008534491 0.053093147 -0.052096143 0.026198596 0.05426372 0.0025336477 -0.027430633 0.017422667
0.026506882 -0.052183263 -0.0024667159 0.0065833107 0.0067913076 0.046360537 0.02648013 -0.010281168
0.04604272 -0.037969157 -0.061826758 -0.059028305 0.048487306 -0.012964186 0.068733215 -0.027002817
0.02768024 -0.001000026 0.02736588 0.03373103 -0.007390126 0.021594757 -0.015483741 0.01577401

fc4.weight f4 [6, 128]
00000000: 0b35 33bd b1c5 b23d 650a 2e3d 71ca eeba
00000010: 3c5a e93c eede b0bd 52d4 ab3d 968b 15bd
00000020: 365b cfbb dcaf 32bb 9aaa 913d a52f 623d
00000030: d565 003d 9a43 3dbd aa7a 6b3c 5085 cb3c
00000040: 3111 17bd 45a8 313d 12ed 863c a172 4cbc
00000050: d845 d23d cea8 a4bc 47a9 e1bc 9658 abbd
00000060: 7ae9 913b 02d9 8a3c ad3f c9bb 73d0 85bd
00000070: 4c68 77bc f081 e43b 4703 ffba 86f3 37bc
00000080: 0727 9ebd c37e 81bd 76de 03bd 7136 5f3d
00000090: bcd9 a03d 8ecb 013d 66d5 733c 213e a8bd
000000a0: 365d bcbc 60dd 0a3a 39d2 a9bd 9892 8f3d
000000b0: 977e 84bd f577 e9bc e089 38bd b793 9abd
000000c0: 5fbf 1cbd e6a6 5b3d 8bc4 98bd 624f 313b
000000d0: d701 8bbd e5a8 2ebd c039 59bc a0fe 8abd
000000e0: 1092 463d dc82 633c 4de0 c73c 9636 933d
000000f0: 4b79 9dbd 14e3 1dbc 5cfa 8ebd 8d47 8abd
00000100: d879 543d b07d 8fbc 6b5d 153c 5a16 6f3c
00000110: a291 b03d 05a5 103d 0759 7bbd de65 75bd
00000120: 5d65 82bc d3fa 243d b056 d83c 5bdd 8b3d
00000130: 366c 9ebc 52bf 67bb 292a f4bc fda7 a8bd
00000140: f89f aabd 336f 8b3d 22b9 493d a99f 8a3d
00000150: ae66 b73c 755f 9c3d 43c4 6e3c f3ee a63c
00000160: 60a0 59bd 8f45 a5bd b192 883d 7215 c43c
00000170: f808 a93c 8c52 87bd 9155 92bc a20a 193d
00000180: 9583 0c3b 47ff 8fbd 7cfa 30bd 603b 633c
00000190: becf 3cbd 35d9 063d 5628 a53c cb68 5fbc
000001a0: dcf6 21bd 4375 0cbc f0ee d63c 5545 51bc
000001b0: e3cc d93b 5442 06bc 6b7c c03d 43c3 ab3d
000001c0: c4aa 9abd 6d1b 433a d624 b1bc 3342 083d
000001d0: 7f09 8e3d c9e4 fcbc 1cd2 49bd 8ce3 b4bd
000001e0: 3030 5ebd 125a 51bd fffc 2e3d 7655 e53c
000001f0: 81fc 16bb 3a6c b9bd 7522 e83b 85fe 9e3d
00000200: 3f6f af3d 9f4b 6e3c 9e6e 5ebd f054 ac3d
00000210: d363 b3bd 9c02 3dba c7ee 93bd 4994 27bd
00000220: 67c0 01bc cd3d 7ebd 5884 5e3b c052 8cbd
00000230: fec7 543d 8cde 453c 3c6e 0abd f9bc a1bd
00000240: 4be0 81bd e53f bbbc f270 a6bd dd1d 92bd
00000250: 390e 9d3c 70ff be3d 7575 32bd e860 bcbc
00000260: a01c 84bd 14d6 ba3d 12a0 9cbd 5534 143d
00000270: 7ed0 853d a5be 61bd ffdf 94bb f12f f43c
00000280: 43ef 323b 39e6 88bc 6904 61bc 60a9 773c
00000290: 59df e9bc 4063 953d 9c48 81bc 802f 263d
000002a0: 5730 f43c 8d4a 61bd c99f ad3d 8b5b 3b3c
000002b0: f31a d4bc f082 a1bd ecf3 013d c763 9ebc
000002c0: 2798 1dbd 2da3 773d 9ff0 933d d4a6 acbd
000002d0: 976c 8ebc 226d 9e3d ead3 84bd 5653 2dbd
000002e0: b768 1bbd 989d adbc 3a5c 253c 490e 8d3c
000002f0: 4f0f 24bc 005c a6bd 9b7e 4b3d 42ca 5abd
00000300: 2f1f 543d 91ef 57bd 95c5 f23c 5cfe 453d
00000310: 0fc7 4abc 5b48 e9ba 58e2 d03c f6db 073d
00000320: 50ba ccbc 96fd d9bc fe4a 6d3c 779a 963c
00000330: 3210 8d3d 8253 bd3c f066 28bd 7835 173d
00000340: 593e 753b 4828 debc 90ae 513d a150 1abd
00000350: 365c b9bd 60c9 81bd 82c3 a73d f69c 0fbd
00000360: ef5e 843d 78f5 ec3b 7ab5 583c 67de 88bd
00000370: 4758 f43c 7234 053d 0d78 abbd 3858 2bbc
00000380: e1c9 70bd d922 ecbc 5b3e 74bd ec80 073d
00000390: 8de7 983d c3bc a53c 65a9 8bbd a5f6 a2bd
000003a0: 16d8 783d cdf4 89bd aabd 193d 5573 f8ba
000003b0: 5b39 8fbd 2c1d 9d3b 0846 e9bc e309 3e3d
000003c0: 2909 313d 4d55 39bc 196e ea3b de39 a73d
000003d0: df38 993d 8ee8 c3bc e3ce 90bc 2998 2e3d
000003e0: b57b f73b 9ebc c13d 0591 20bc 1db7 1f3d
000003f0: a8f9 fbbc 1e7c 6bbd c4c1 be3c 3a23 82bd
-0.043751758 0.08729113 0.04249038 -0.0018218291 0.02848541 -0.086362705 0.08390106 -0.036510073
-0.006328012 -0.0027265465 0.07112618 0.05522122 0.031347115 -0.046207048 0.014372507 0.024843842
-0.03688163 0.043373365 0.016470466 -0.012478502 0.10267228 -0.020100024 -0.027546538 -0.08366506
0.0044528814 0.01694918 -0.006141624 -0.06533899 -0.01510055 0.0069734976 -0.0019455933 -0.011227494
-0.077222876 -0.06323006 -0.032194577 0.05449528 0.078540295 0.031688266 0.014882421 -0.08214975
-0.022993665 0.00052972697 -0.0829205 0.070103824 -0.064694576 -0.028499583 -0.045053363 -0.075477056
-0.038268443 0.053625964 -0.074593626 0.0027055372 -0.0678746 -0.04264154 -0.013258398 -0.06786847
0.04847914 0.01388618 0.024398947 0.07188146 -0.076891504 -0.009636659 -0.06981346 -0.067519285
0.05187401 -0.017515987 0.009116511 0.014592731 0.08621527 0.035313625 -0.0613642 -0.0599116
-0.015917474 0.040278267 0.026408523 0.068293296 -0.019338708 -0.0035361839 -0.02980526 -0.08235166
-0.08331293 0.06808319 0.049248822 0.06768734 0.022387829 0.076353945 0.01457316 0.020377612
-0.05313146 -0.08069908 0.06668604 0.023936007 0.02063416 -0.066075414 -0.017863067 0.037363656
0.0021440734 -0.07031112 -0.04320763 0.013869137 -0.046096556 0.03292199 0.020160835 -0.013635824
-0.039542064 -0.008572879 0.026236981 -0.012772878 0.006646739 -0.008194525 0.09398731 0.083868526
-0.07552102 0.00074427464 -0.02162401 0.033266257 0.06935405 -0.030870812 -0.04927264 -0.088324636
-0.054245174 -0.05111129 0.042721745 0.027994853 -0.0023038688 -0.09053846 0.0070841857 0.077633895
0.085661404 0.014544397 -0.05430471 0.08414638 -0.08759274 -0.00072101667 -0.072232775 -0.0409129
-0.007919407 -0.062070657 0.0033953395 -0.06851721 0.05194854 0.012076985 -0.033796534 -0.07897372
-0.063416086 -0.022857616 -0.08127011 -0.07134602 0.019171821 0.093260646 -0.043569047 -0.022995427
-0.06450772 0.091228634 -0.076477185 0.03618272 0.06533907 -0.055113453 -0.004543304 0.029808016
0.0027303256 -0.016711341 -0.013733962 0.015116066 -0.028548883 0.07294321 -0.015781693 0.040572643
0.029808206 -0.055002738 0.08477742 0.0114354 -0.025891757 -0.078863025 0.031726763 -0.019334687
-0.038475182 0.06045835 0.07223629 -0.084302574 -0.017385764 0.07735659 -0.06485732 -0.042315803
-0.03794166 -0.02119331 0.010092789 0.017218726 -0.0100134155 -0.08123016 0.049681287 -0.053415544
0.05178755 -0.052718703 0.02963523 0.04833828 -0.012376561 -0.0017798053 0.025498554 0.033168755
-0.024991184 -0.026610177 0.014483212 0.018384201 0.06887855 0.023111109 -0.041113794 0.036916226
0.0037421195 -0.027118817 0.051191866 -0.03767455 -0.09050791 -0.06337237 0.08191587 -0.0350618
0.0646342 0.0072314106 0.013226861 -0.06683045 0.02982725 0.03252072 -0.08372507 -0.010458045
-0.058786277 -0.02882521 -0.05962978 0.033081934 0.0746604 0.02023161 -0.06819419 -0.079572
0.06075295 -0.06736145 0.037534393 -0.001895527 -0.069933616 0.0047947373 -0.028475776 0.046396147
0.043221626 -0.011311841 0.007154238 0.08165334 0.074815504 -0.023914602 -0.017676776 0.04262558
0.007552589 0.09459804 -0.0098002 0.03899299 -0.030758694 -0.057491414 0.023285754 -0.06354375

fc4.bias f4 [6]
00000000: 0425 be3b 9193 24bd dc8e 493d e049 95bd
00000010: 8459 fbbd ce13 84bd
0.0058027525 -0.040179793 0.049208507 -0.07289481 -0.12272933 -0.0644909
