checkpoints/model_0.9_50.pth (torch, 25210 bytes, 6 tensors)

fc1.weight f4 [64, 16]
000000 0e ef 1d 3f 02 aa a1 3d 60 a0 f6 3d 24 0d 24 3e
       0.61692894 0.078937545 0.12042308 0.16020638
000010 40 00 e1 bd 9d 2d 87 bf 1c 5b 9d bf c0 b2 6c bc
       -0.10986376 -1.0560795 -1.2293429 -0.014446914
000020 11 da 88 bf 0f 34 61 bf 95 ce 92 bf ad ba 26 41
       -1.0691549 -0.8797006 -1.1469294 10.420575
000030 35 5a 5d 3f b1 74 1d c0 6b 08 8d bf f5 88 57 c0
       0.8646577 -2.4602473 -1.1018194 -3.3677342
000040 6c 5d 9d bd 10 07 7f 3e a0 14 5f bc a4 81 9d 3d
       -0.076838344 0.24905038 -0.013615757 0.076907426
000050 56 ed 7d be 18 6e 7a 3d f2 e7 29 be b4 86 bf 3d
       -0.24797568 0.06114015 -0.16592386 0.093518645
000060 d2 a0 47 be a0 fc d7 bc 78 68 93 3d e2 50 2a be
       -0.19494942 -0.026365578 0.0719766 -0.16632417
000070 18 01 b7 3d c4 9d b0 bd 20 06 68 bc 70 ec 51 bd
       0.089357555 -0.086238414 -0.014161617 -0.051250875
000080 ac 18 86 3d e6 a7 36 be 18 98 32 3d 94 48 6e be
       0.065476745 -0.17837486 0.04360208 -0.23269874
000090 fe 45 27 be 80 bb ee 3b dc 75 4e be 0a 1c 79 be
       -0.16335294 0.0072855353 -0.20162147 -0.24327102
0000a0 ee 09 46 be 2c ea 36 3e 80 ca 1d bb e6 c0 41 be
       -0.19339725 0.17862767 -0.0024076998 -0.18921241
0000b0 56 ac 13 3e 3a 99 01 be 38 f2 70 3d 10 74 90 bd
       0.1442121 -0.12656108 0.058824748 -0.07053387
0000c0 a8 df 7a be 05 ce 8d 3f 6c 27 59 3e 08 da 2c 3d
       -0.2449938 1.1078497 0.21206445 0.04220012
0000d0 64 eb f1 bd 63 d6 7d bf 0a a1 63 bf 1e d0 4b be
       -0.11812475 -0.99155253 -0.889176 -0.19903609
0000e0 e3 7f 80 bf 38 d9 69 bf 2d ef 97 c0 a8 6b ea be
       -1.0039028 -0.91347075 -4.7479463 -0.4578526
0000f0 25 f0 e8 40 44 6c 62 3e 39 31 f4 bf 42 7b 91 3f
       7.2793145 0.22111613 -1.9077522 1.136574
000100 18 b0 7e 3e 80 1f c1 bc 00 d3 4d bb 84 cb 50 be
       0.24871862 -0.02357459 -0.0031406283 -0.20390135
000110 f8 78 26 3d c8 8d 45 bd 9c fa 99 bd e0 0f b9 3c
       0.04064271 -0.048230916 -0.07518503 0.022590578
000120 4c 3e 15 be d8 87 27 bd 64 fd 8b bd 10 b4 dc 3c
       -0.14574546 -0.040901035 -0.0683544 0.02694133
000130 50 93 e7 bc 10 3a 88 3d 38 a0 51 bd 0e d8 0d be
       -0.028268486 0.066516995 -0.051178187 -0.1385195
000140 d0 d2 05 bd b8 d3 b2 3d c2 42 47 be 1c 8e 00 be
       -0.03267175 0.087317884 -0.1945906 -0.1255421
000150 20 60 1e bc 5c b9 83 bd 50 ad 5c 3d f2 ff 71 be
       -0.009666473 -0.06431839 0.05387622 -0.23632792
000160 d8 29 28 be 30 46 31 bd 98 ee 91 bd 5c 54 7b be
       -0.16422212 -0.043279827 -0.07125586 -0.245439
000170 40 77 4e 3d c4 64 d2 bd a0 02 fe bc 80 a6 ee 3d
       0.050406694 -0.10273126 -0.031007111 0.11652851
000180 b8 4e 9e bd 44 0d 1b be 54 77 d1 bd 96 d6 59 3e
       -0.07729858 -0.15141779 -0.10227838 0.21273264
000190 04 d4 6a be c6 58 18 3e e6 2a 40 be c4 b8 07 be
       -0.2293244 0.14877614 -0.18766364 -0.13254076
0001a0 3a 02 5a be 90 7c 06 bd 34 5b 7d be 8e c1 0b 3e
       -0.21289912 -0.032833636 -0.24741822 0.13648054
0001b0 0c a3 16 3e a4 86 00 3e b2 30 75 3e 66 d7 50 3e
       0.14710635 0.12551361 0.23944357 0.20394668
0001c0 18 0a 05 c0 c0 d2 58 bf 08 75 63 bd ec 9f 41 3e
       -2.078741 -0.8469658 -0.05553153 0.18908662
0001d0 50 02 04 3e 92 27 01 bf 97 8e 8b be 38 21 f5 bd
       0.12891507 -0.50451005 -0.27257225 -0.119692266
0001e0 bc c9 9a be 83 cc 90 be b9 23 03 40 d8 2a c9 be
       -0.30232036 -0.2828103 2.0490553 -0.392905
0001f0 44 a4 aa bf b7 39 87 c0 7b f0 dc bf 70 ca eb 3e
       -1.333138 -4.2257953 -1.7260889 0.46052885
000200 9f 20 8f be 9b 55 95 3d 38 65 7e be e8 2b 0d 3d
       -0.27954575 0.072917186 -0.248433 0.0344657
000210 ce aa 08 3e 5b ba ac 3c 58 3b eb 3d 14 64 d5 bd
       0.13346407 0.021084955 0.11485928 -0.10419479
000220 07 8d 88 3d 49 b7 8c be 4d 6a 69 bf 3f 14 3e be
       0.06667524 -0.27483585 -0.9117783 -0.18562411
000230 cf 44 7b 3e 41 a7 5b 3d 09 16 cb bf d9 e2 ee bd
       0.24537967 0.053626303 -1.58661 -0.116643615
000240 5b 3a 5a be b5 04 93 bd 76 53 38 be 50 ee 69 3d
       -0.21311323 -0.07178632 -0.18000588 0.057112038
000250 40 66 b6 bd 46 7b bc bb e5 31 30 3c 86 29 75 be
       -0.089062214 -0.005752 0.010754083 -0.23941621
000260 d5 58 d5 be c7 96 3c bc 27 c4 e7 3c 6e d7 0b be
       -0.41669336 -0.0115105575 0.028291775 -0.13656399
000270 16 fc bc be bd 53 50 bd ed 11 7f be bd 28 b4 be
       -0.36911076 -0.05086111 -0.24909182 -0.3518733
000280 9f c6 6e bd bd 23 e2 bd 70 43 4e 3d b8 d9 d8 bd
       -0.05829489 -0.11041973 0.050357282 -0.105884016
000290 90 49 a2 bd e3 9f 74 be 78 d4 ab bd ac 4e 25 be
       -0.07924187 -0.23889117 -0.083901346 -0.16143292
0002a0 08 e9 7f 3c 84 9d 13 be f5 ee 05 be 0e aa 91 be
       0.015619524 -0.14415556 -0.13079436 -0.28450054
0002b0 ba aa 38 be 98 97 db be e5 7f 62 be 0c c2 05 bf
       -0.18033877 -0.42889094 -0.221191 -0.5224922
0002c0 05 82 7d be b7 91 6f be c6 1c 6b be 40 60 0f 3d
       -0.2475663 -0.2339543 -0.22960195 0.0350039
0002d0 56 5c 3a 3e dd f1 bd bd ec 9d be be 9e 9b 64 3e
       0.18199286 -0.092746474 -0.3722986 0.22324988
0002e0 ad e9 a5 be 73 0e 98 bd 86 2d af be f3 5c 48 be
       -0.32404843 -0.07424631 -0.3421442 -0.19566707
0002f0 f8 a7 fe be 8a dd 9e be ac 9f 9f be 51 9c f5 bd
       -0.49737525 -0.31028396 -0.31176507 -0.119927056
000300 f0 0b c3 be 12 86 48 be 90 b2 d3 bc 00 04 5c be
       -0.38095045 -0.19582394 -0.025841981 -0.21485901
000310 3a f4 03 be 7d 81 c9 be 2b 80 ab be 4c bd 17 3e
       -0.12886134 -0.39356604 -0.33496222 0.14818305
000320 47 11 67 be 69 e7 6a be 98 18 9e be f0 86 92 bc
       -0.22565185 -0.22939838 -0.3087814 -0.017886609
000330 d8 7c 92 be 3c f7 d3 3d 98 03 6e be b5 1e d1 be
       -0.28610873 0.103498906 -0.23243558 -0.4084374
000340 99 a9 cd bd c6 86 c5 3e b0 5c 41 3d 80 6e a0 3c
       -0.10042114 0.38579386 0.047207534 0.01958394
000350 00 12 8d ba 3d ef 05 bf ba 94 d8 bd 5a 53 2b 3e
       -0.0010762811 -0.52318174 -0.10575242 0.16731015
000360 22 66 00 bf a3 fa 11 be 3c 5f fd bd 7d f3 5e be
       -0.5015584 -0.14255767 -0.1237168 -0.21772571
000370 35 2f ba 3e 13 0e 25 be e3 c3 3c 3e 17 c7 ba 3e
       0.3636414 -0.1611865 0.184341 0.36480018
000380 e1 ad 11 bf 47 1f f1 be b0 56 43 3d a0 0b c2 bd
       -0.56905943 -0.47094175 0.047690094 -0.094748735
000390 98 7f c1 bd 4a a9 07 be 48 5c f2 bd ec bb 6d 3e
       -0.09448165 -0.13248172 -0.118340075 0.23216218
0003a0 89 5c 9e be 56 c9 54 be 10 58 86 3e 13 2c 95 be
       -0.30929974 -0.20779929 0.2623906 -0.29135188
0003b0 1d c4 19 bf 01 41 8c be c5 58 88 bd d4 72 c2 3d
       -0.6006487 -0.27393344 -0.066575564 0.09494558
0003c0 e0 da ec 3c 5e dc 3f be 88 3f 46 3d 74 42 1a be
       0.028912961 -0.18736407 0.048400432 -0.15064412
0003d0 a8 6d ea 3d 50 89 cf bc d6 86 7b be 00 b0 49 3e
       0.114466965 -0.02533403 -0.24563155 0.19696045
0003e0 40 95 8c bc 9c aa 01 3e 02 84 39 3e b8 ac 34 3d
       -0.017161012 0.12662739 0.18116763 0.04411003
0003f0 e4 27 19 3e 9a ec 7f 3e e0 e7 a6 bc fc 63 ba bd
       0.14956623 0.249926 -0.020374238 -0.09101102

fc1.bias f4 [64]
000000 df 03 7f bf 26 79 05 be 86 fd 1e be 60 78 77 bf
       -0.9961528 -0.13034496 -0.15526399 -0.9666805
000010 cc 90 77 be 40 5b a2 bb 42 44 60 be 84 e1 19 bf
       -0.2417633 -0.0049547255 -0.21901038 -0.60109735
000020 8b e1 01 be 62 8d 08 be ff 54 b2 be 72 b9 f7 bd
       -0.12683694 -0.13335183 -0.34830472 -0.12095918
000030 58 26 80 be cf 90 f7 be 3e 90 10 bf 80 54 4a be
       -0.25029254 -0.48352668 -0.56470096 -0.19758797
000040 10 85 08 be 66 1b 7a be 88 9f 73 bd 3b 06 59 be
       -0.1333201 -0.24424514 -0.059478313 -0.21193783
000050 b7 4a d8 bd c2 c6 4c be 39 79 65 3d ff 71 72 be
       -0.10561126 -0.19997695 0.05602381 -0.23676299
000060 cb 26 95 be 08 ee 57 be bf 88 01 be b8 59 07 bd
       -0.2913116 -0.21086895 -0.1264982 -0.033044547
000070 c8 85 96 bf b8 22 47 bd d1 39 06 bf 62 1a 1e be
       -1.1759577 -0.048617095 -0.5243197 -0.15439752
000080 e5 b5 85 be 20 a3 6c be 84 e5 28 3e b2 38 6d be
       -0.26115337 -0.23109102 0.16493803 -0.23166159
000090 27 74 07 bf 54 6d af 3e 36 15 b9 be 43 a8 6a bf
       -0.5291161 0.34263098 -0.36148995 -0.91662997
0000a0 32 c5 09 be 84 b0 24 be 2d 5b ad 3a 2a 25 1a be
       -0.1345413 -0.1608296 0.0013226025 -0.1505324
0000b0 df 4a f9 be 38 7f c3 be b1 22 8e bd b4 00 59 bf
       -0.48689935 -0.38182998 -0.069402106 -0.847667
0000c0 72 d6 40 be e4 7c 8a be 41 2c 8d 3c 24 59 af 3d
       -0.18831804 -0.2704841 0.017233016 0.08561924
0000d0 a6 37 2c be 3b d9 19 be 2d b2 5c be 65 cf 40 bf
       -0.16818103 -0.15024273 -0.21552344 -0.7531646
0000e0 f4 30 b4 be f5 d4 04 bf b6 09 26 be 45 61 a2 be
       -0.35193598 -0.51887447 -0.16214642 -0.31714836
0000f0 08 71 2d be 3c 13 9b bd aa 47 e0 be da f7 9c bf
       -0.16937649 -0.07572028 -0.43804675 -1.2263138

fc2.weight f4 [64, 64]
000000 ce f9 e2 bd 4c 98 ed bd 40 6c 28 bd b7 30 d1 be
       -0.11082803 -0.11601314 -0.04111886 -0.4085748
000010 f0 8a c0 bd c0 88 47 bc 12 87 a8 bd 03 0f d7 be
       -0.094015 -0.0121786 -0.082288876 -0.4200364
000020 db 7a cb be e2 63 ca 3d 20 36 34 bc 60 d0 aa 3d
       -0.3974217 0.098823324 -0.0109992325 0.083405256
000030 3c f1 a4 3d 3c e7 df bd 38 6d 9e bc fa 37 f3 3d
       0.08053824 -0.10932776 -0.019339189 0.11875911
000040 c4 1f e5 3d 60 19 bf 3d 98 c4 8c 3c 10 11 5f bd
       0.111876994 0.09331012 0.017183587 -0.05445963
000050 a6 24 bb 3d 0e ac e6 bd f4 e2 2e bd 50 2e 6f bc
       0.091378495 -0.112632856 -0.042696908 -0.014598444
000060 3a a7 ea 3d b4 ff bc 3d 5e ea a7 be 14 ae b3 3d
       0.11457677 0.09228459 -0.32795995 0.08773437
000070 27 03 e0 be 22 18 e5 bd c0 ad f3 3c 76 0a 96 3d
       -0.43752405 -0.111862436 0.029745936 0.07326214
000080 66 c3 f9 bd fc 9c ba 3d 42 2a 9f bd 30 ef 06 3c
       -0.121954724 0.09111974 -0.07771732 0.008235738
000090 4b bc aa be 25 77 7b be a5 da a7 be 63 59 85 be
       -0.3334678 -0.24557169 -0.32784 -0.2604476
0000a0 2c 65 c8 3d c4 97 34 3d 77 d5 9c be 00 1b 07 bb
       0.09784922 0.044090047 -0.3063161 -0.0020615458
0000b0 74 56 27 3d ea 6b 83 bd 10 c4 32 bc 0a 06 9b be
       0.040853932 -0.06417067 -0.010911003 -0.30278045
0000c0 a2 5d 89 bd 6c 6a a6 bd a4 4e dd be de a0 9e 3d
       -0.06707312 -0.08125767 -0.4322406 0.07745527
0000d0 32 68 9b bd 42 ee c5 bd 7e ed aa bd 3c 23 26 3d
       -0.07588233 -0.09664585 -0.08346079 0.040560946
0000e0 2e 9f a3 bd fb 9d 6d be 28 58 df bd 26 ae d9 be
       -0.079893455 -0.23204796 -0.10905486 -0.42515677
0000f0 40 b4 54 3d 44 d6 71 bd bc 1a 34 bd 26 e8 9b be
       0.051929712 -0.05904223 -0.04397081 -0.30450553
000100 7e 08 e4 bd a8 f3 04 3d 00 b2 66 bb 0f c8 76 bf
       -0.11134432 0.03245893 -0.003520131 -0.96399015
000110 2c fd a1 3d 58 fa 9e 3c e4 81 9c 3d c6 82 73 bf
       0.07909617 0.019406483 0.07641962 -0.9512142
000120 a0 bb 7b bd 0c 60 14 bd 00 38 e6 38 28 04 f4 bd
       -0.06145823 -0.03622441 0.000109776855 -0.11914855
000130 d0 57 d6 bc d6 26 e7 bd 10 3c 22 3c 44 cc 1e bd
       -0.02616492 -0.11286704 0.009902015 -0.03876902
000140 9a 21 cd bd 80 60 8f bc 60 cb 77 bd 00 7b fc 3b
       -0.100161746 -0.01750207 -0.060496688 0.0077050924
000150 54 cb 12 bd 46 e5 fa 3d 0e 14 e4 3d a0 1a 0c 3d
       -0.03583844 0.12250762 0.11136638 0.03420508
000160 32 d6 ec 3d 10 ae a4 3c 96 35 74 bf 08 3e c0 3c
       0.11564292 0.02010253 -0.95394266 0.023467079
000170 21 ab 7f bf 9a 37 8e 3d 42 69 8f bd 5a 3c 94 bd
       -0.99870497 0.06944199 -0.07002498 -0.07238074
000180 f0 01 e7 3d 00 fc 1f 3c 70 27 14 bc d8 b6 75 3d
       0.112796664 0.009764671 -0.009042606 0.059988827
000190 f4 f0 c8 bd bc 79 6e bd 48 96 f5 bd 4a 5d e2 bd
       -0.09811583 -0.058221564 -0.119915545 -0.1105295
0001a0 f0 7c 3e 3d 30 17 98 3c 72 92 8a bf 80 4d 28 3c
       0.04650587 0.018565744 -1.0825942 0.010272384
0001b0 ec b3 f4 bd 88 e9 e3 3c 14 6f 1c 3d f2 ee 83 bf
       -0.1194838 0.027821317 0.03819187 -1.0307295
0001c0 ba 86 fc 3d 16 7a b5 3d 9c 39 76 3d 5c 04 b6 bd
       0.123303846 0.08861177 0.060113534 -0.0888755
0001d0 c0 f6 20 bd 60 60 cd bd 48 c8 bf bd fe 70 81 bf
       -0.03929782 -0.10028148 -0.093643725 -1.0112607
0001e0 84 c4 bf 3d e3 c4 86 bf 50 dc f9 bc b3 4b 8e bf
       0.09363654 -1.0528835 -0.030500561 -1.1116852
0001f0 b8 5b 2c 3d e0 70 b6 3c 28 22 58 bd 00 51 13 bb
       0.042079657 0.02227062 -0.05276695 -0.00224787
000200 01 79 98 be 14 cf 4d 3d a8 f6 35 3d 46 8c 05 bf
       -0.2977982 0.050246313 0.044424683 -0.52167165
000210 a0 26 be bb c4 a6 57 3d b0 51 11 3c 94 b4 72 be
       -0.0058029443 0.052649274 0.0088695735 -0.23701698
000220 3e 69 9d be 03 72 91 be bf 22 42 be 6d cd 97 be
       -0.30744356 -0.28407297 -0.18958567 -0.29648915
000230 7e 70 d1 3e b4 4f 62 be a4 0e 8b be 8a 5f df bd
       0.40906137 -0.22100717 -0.27159607 -0.109068945
000240 18 55 f4 bd 58 ad e5 bd 70 33 4b bd ae d6 6a 3e
       -0.11930293 -0.11214703 -0.0496096 0.22933456
000250 dc 12 8e be 00 32 c4 39 6d 41 b8 be 0a ed 3e be
       -0.27748764 0.00037421286 -0.35987416 -0.1864511
000260 d7 24 73 3e 11 dd ba be 02 58 99 be e4 d3 a8 bd
       0.23744522 -0.36496785 -0.29949957 -0.0824354
000270 ea b0 84 be 88 3f 35 bd 54 b6 c8 3d e0 57 84 3c
       -0.25916225 -0.04425004 0.09800401 0.016155183
000280 af fa 94 be d0 58 e8 3c d0 17 3c bd 55 ae 74 be
       -0.29097506 0.028362662 -0.045921147 -0.23894627
000290 61 51 d0 be d7 2b 4a be 72 62 7b be 59 79 59 be
       -0.40687087 -0.19743286 -0.24549273 -0.21237697
0002a0 2a f7 8e bd 9c 5c c4 be 27 a2 9d be a0 f7 d5 3b
       -0.069807366 -0.38351905 -0.30787775 0.0065297633
0002b0 2d 2e 6f be 4c ae a6 be 80 0f c1 3e e8 2b b2 be
       -0.23357458 -0.32554853 0.37707138 -0.34799123
0002c0 c8 19 8c 3c 5e 3a 98 be 39 6e d6 be e0 c9 7b bd
       0.017102137 -0.2973203 -0.41880968 -0.06147182
0002d0 f4 19 83 bd 91 0b d9 3e 8f 09 92 be ff ac 65 be
       -0.064014345 0.42391637 -0.28522918 -0.22429274
0002e0 ac 7b b0 be a5 24 98 be 12 d5 8d 3d be 55 12 bf
       -0.34469354 -0.29715458 0.069254056 -0.5716208
0002f0 28 39 bb 3c af bf 7e be 28 79 8a be 5b 76 5f bf
       0.022854403 -0.24877809 -0.2704556 -0.8728997
000300 ef 1e 17 bd 8c 28 a8 3d 6c f4 c0 3d 69 8d a4 be
       -0.036894735 0.08210859 0.0942162 -0.32139137
000310 62 55 89 bd dc a9 b7 3d 90 3c de 3c e1 d1 36 be
       -0.067057386 0.08967945 0.027128488 -0.178535
000320 1e 22 b8 be 7b 44 e9 bd b2 2f 88 be 69 9b 87 bd
       -0.3596353 -0.11390015 -0.2659889 -0.06621439
000330 ab 7e 71 be 44 4a 5e 3e 66 41 cb be f8 e8 e0 3d
       -0.23583476 0.21708018 -0.39698333 0.10981935
000340 dc 63 92 3d 40 5b 17 3c 9c 60 b6 3d 06 87 81 be
       0.07147953 0.009238064 0.089051455 -0.25298327
000350 20 41 f4 bd f8 0d ad 3c 97 61 2a be a2 80 96 be
       -0.11926484 0.021124825 -0.1663879 -0.29395014
000360 0b 08 b7 be 9a 66 ed be 1f 79 0d be 10 63 51 3c
       -0.35748324 -0.4636734 -0.13815735 0.012779966
000370 c8 4e 86 be 60 56 de bd 94 a2 18 3d ac 20 2a bd
       -0.2623198 -0.108563185 0.03726442 -0.041535065
000380 e1 fa 05 be f0 9a 1c 3c f4 97 70 bd c6 9a 80 bc
       -0.13083984 0.009558424 -0.058738664 -0.015698802
000390 6c f9 74 be d5 56 2b be 16 bb 1c be 63 9b 1b bd
       -0.23923272 -0.16732343 -0.15305743 -0.037989985
0003a0 42 f8 ba 3d 1b ce 38 3d b9 b6 9f bc 32 c5 d4 3d
       0.09129383 0.045118432 -0.019496309 0.103891745
0003b0 4e 32 c3 3e 3c ca 4d be 5c 92 67 be 58 5f 60 be
       0.38124317 -0.20096678 -0.22614425 -0.21911371
0003c0 50 92 12 3d cd 7f 8c bd fd 5c 94 be e4 58 91 bd
       0.035784066 -0.068603136 -0.28977194 -0.07097033
0003d0 12 04 99 bd 21 f7 8c be 38 26 ab be f6 14 85 bd
       -0.074714795 -0.27532294 -0.33427596 -0.064981386
0003e0 9c 22 c7 be b0 84 96 be bc aa 64 bd ba 33 3d be
       -0.38893592 -0.29398108 -0.055826887 -0.18476763
0003f0 a4 aa bf bd 91 8b 95 be 9f 14 cb 3e d1 66 81 be
       -0.09358719 -0.29208043 0.3966417 -0.25273755

fc2.bias f4 [64]
000000 59 cf d0 be d6 7b 8c bf f4 a8 d7 be 41 3c c2 bd
       -0.40783194 -1.0975292 -0.42121089 -0.09484149
000010 cc 57 0f bd 09 a8 2c be 25 9b 48 be 2c 53 8c bf
       -0.03499584 -0.16860975 -0.19590433 -1.0962882
000020 16 84 02 c0 38 15 75 bd 04 7e 7f bd b0 97 8d bf
       -2.039312 -0.05983469 -0.062376037 -1.1061916
000030 77 9f c8 be bd 3e 80 be 0b d7 dd be 7a a5 d1 bf
       -0.39184162 -0.25047866 -0.43328127 -1.6378624
000040 69 89 2b bf 94 b5 02 c0 ca db 89 be 75 7f b5 be
       -0.67006546 -2.0423326 -0.26925498 -0.35448804
000050 f2 02 fa bd 12 33 d4 3e 68 14 45 be a5 84 6e be
       -0.12207593 0.41445214 -0.19246066 -0.23292787
000060 ad 23 3c bd 9c 02 29 bf a5 68 76 be 14 8a c6 be
       -0.04593246 -0.66019607 -0.24063356 -0.3877722
000070 53 96 71 bf 50 20 9d bf d0 4a 48 bc d8 b5 9a bc
       -0.9437 -1.2275486 -0.012224868 -0.018885538
000080 9b fc 08 c0 9a 65 74 be 2c 2d 7d be 56 3f 34 be
       -2.1404178 -0.23866883 -0.24724263 -0.17602286
000090 fb da 02 be a9 72 42 c0 4c ca b6 be c3 fe f0 bd
       -0.12778847 -3.0382483 -0.35701215 -0.11767342
0000a0 90 e2 a2 be e3 3d 93 bd 19 5d 6b be 43 43 72 bf
       -0.31813478 -0.07189538 -0.22984733 -0.94633883
0000b0 91 13 12 bf d2 ef 3a bc 84 9e d0 be 26 22 06 bc
       -0.57061106 -0.011409717 -0.40745938 -0.008186853
0000c0 fe 86 31 bf 02 ff 15 c0 da 60 d8 bd 31 13 f7 bf
       -0.69346607 -2.3436894 -0.10565348 -1.9302732
0000d0 57 e0 d6 be 4e a7 10 bf 75 36 ef be f0 70 d4 be
       -0.41968033 -0.56505287 -0.46721235 -0.41492414
0000e0 37 53 d6 be 86 f5 b3 be 8a 3a 73 be e7 a2 70 be
       -0.41860363 -0.35148257 -0.237528 -0.23499642
0000f0 4a 1b 9b be 97 4e 1b bf 4a 8f 62 bd 9c db ac bd
       -0.30294257 -0.60666794 -0.055312432 -0.08440325

fc3.weight f4 [6, 64]
000000 5e 6d be bd 18 00 7c bf e9 a5 58 be cb e2 15 3e
       -0.09298204 -0.98437643 -0.2115704 0.14637296
000010 d7 5f e4 3e 67 a4 b7 be ce 1c ac be d2 ee 5f be
       0.4460437 -0.35867617 -0.33615726 -0.21868446
000020 f4 5c dd bd 6a 00 c1 bd 5d 0e b7 3f d0 2b 56 bf
       -0.10808745 -0.09423907 1.4301258 -0.836606
000030 3f b2 a2 be 5d c3 6e be 93 70 a6 be 77 4d b8 be
       -0.31776616 -0.23316713 -0.32507762 -0.359966
000040 ca fe ab 3e f0 16 31 bf da dc 3d be 7c a8 68 be
       0.33592826 -0.69175625 -0.1854128 -0.22720522
000050 c6 c7 b4 bd ab 90 c3 3e 68 05 28 3e 3d dc d6 be
       -0.08827166 0.3819631 0.16408312 -0.41964903
000060 7c 44 65 3e f0 4d b0 3c e0 70 83 be 7f a6 10 3e
       0.22389406 0.021521538 -0.25672054 0.14126013
000070 23 14 01 3f 96 44 05 bf 82 0f 60 bf 92 0a 93 bf
       0.5042135 -0.5205778 -0.87523663 -1.1487601
000080 3a 87 a8 bf 03 4c d1 be cb 10 90 be cc 11 c9 3e
       -1.3166268 -0.40878305 -0.28137812 0.3927139
000090 89 77 51 3e f7 37 c7 bf e5 31 31 3e d1 08 b0 3f
       0.20455755 -1.5563954 0.1730419 1.375269
0000a0 1e b6 95 be 54 05 8b be 8d 8d 6d 3e 35 af 7a be
       -0.29240507 -0.27152503 0.23198529 -0.24480899
0000b0 b2 76 d2 be 6d 9b 6b be fa 0c d0 be 31 9c 3a be
       -0.41106182 -0.23008509 -0.406349 -0.18223645
0000c0 9f f7 52 3f dc 81 50 3d 37 e5 95 bf f5 c2 06 c0
       0.8240909 0.050905094 -1.1710576 -2.1056492
0000d0 10 cc 9a be 2b d7 45 bf e6 1f c9 bd 1d ec a4 3e
       -0.30233812 -0.77281445 -0.09820537 0.3221139
0000e0 e4 e2 93 be dd 4f 9f 3e dd 6f d0 bc a0 c0 c2 be
       -0.2888404 0.31115618 -0.025443966 -0.38037586
0000f0 f2 21 bf be 43 67 36 3f 34 2e d6 3d 56 9d 5b bf
       -0.37330586 0.71251315 0.10458031 -0.8578695
000100 d0 ff 82 be 5e 2b 7b bf 3e d1 8c be 06 ef 55 be
       -0.25585794 -0.9811305 -0.2750339 -0.20891961
000110 84 f9 75 3e 74 c1 2c 3e 13 33 9c be 41 e9 03 bf
       0.24020964 0.16870672 -0.30507717 -0.5152779
000120 94 b7 ba bf 43 3f 6c 3d c6 4b fd bd df 60 1c be
       -1.4587274 0.05767752 -0.12367968 -0.15271328
000130 86 dc 7b be 74 ac 78 be bf 87 90 bd cc 4a d2 bf
       -0.24595842 -0.24284536 -0.070571415 -1.6429076
000140 ad fa bc be 5c ad f4 3f 10 f8 79 be f4 53 b0 be
       -0.3691 1.9115405 -0.24411035 -0.3443905
000150 2f 76 44 3d dd 80 53 c1 57 32 b4 be ac 6e b5 be
       0.04796427 -13.218961 -0.35194656 -0.35435998
000160 0f d1 2c be d4 e9 be 3d 57 16 af 3e 06 b8 f0 be
       -0.16876625 0.09321943 0.3419673 -0.470154
000170 95 3f 1d be 43 cd bb 3d a3 e2 68 be e3 97 be bf
       -0.15356286 0.0917001 -0.22742705 -1.4890102
000180 0a 81 a8 3f ad ee 39 3e a6 76 9e be 03 6b 85 bd
       1.316438 0.18157454 -0.30949897 -0.065145515
000190 0a c7 4c bd 1d 9e a7 3f 26 06 96 3e 64 d2 ae bf
       -0.049994506 1.3095127 0.29301566 -1.3657956
0001a0 f8 e7 a0 be 31 fa b3 3e 7b bf af 3e 23 e2 c0 be
       -0.31426978 0.35151818 0.34325776 -0.3767253
0001b0 de 8d 76 be b2 bd ec 38 2f 3e b0 be e7 5b f5 3c
       -0.24077556 0.000112886904 -0.34422442 0.029951049
0001c0 d1 c2 2d 3e 37 a6 7a be e7 6b 81 3e 31 f9 9a bf
       0.16968848 -0.24477468 0.25277635 -1.2107297
0001d0 ba 4c 8b be dc b0 32 3f aa 37 fa be 0a 96 ba 3d
       -0.27206975 0.69801116 -0.48870593 0.09110649
0001e0 7c 79 c6 3d fd a2 8d be 80 ab 87 3d 3f ef 6a be
       0.0969114 -0.27663413 0.06624508 -0.22942828
0001f0 14 e9 88 3e cc 80 3a be 31 23 07 c0 b8 2c bf 3e
       0.26740324 -0.18213195 -2.111523 0.37338805
000200 fc 7d a2 3e 4c 6b 32 bd 42 a3 7e be a0 73 8b 3e
       0.31736743 -0.043559358 -0.24866965 0.27236652
000210 5b 78 9c 3d 4f 8f cd 3e 2a 35 9b be f0 31 0a 3f
       0.076401435 0.40148398 -0.30313998 0.5398245
000220 bf fb 82 be 37 6b b1 3c a5 20 d8 3e 6b 1c 2f 3f
       -0.25582692 0.02165757 0.42212406 0.6840274
000230 96 84 b1 be 1f d9 c1 be 2d 14 aa be 46 28 95 be
       -0.34671468 -0.37860963 -0.33218518 -0.2913229
000240 a5 18 38 3e 69 98 ea bf 0d cc 86 be 2a 3f 37 3e
       0.17978151 -1.8327762 -0.26327553 0.17895189
000250 bd 00 34 be d6 a3 f9 be 90 a1 b6 be b3 9e 5d be
       -0.17578407 -0.4875781 -0.35670137 -0.2164257
000260 ee a1 35 bd ee 7e 20 bf be 55 81 3e 8a 37 c3 be
       -0.04434388 -0.6269368 0.2526073 -0.3812831
000270 76 69 9d 3e 32 56 b2 3e 7f f9 34 bf f1 1c 21 bf
       0.30744523 0.34831387 -0.706932 -0.62934786
000280 bc 3c 96 3f cb 96 02 bf cf b0 54 3e 86 e2 13 be
       1.1737285 -0.5101134 0.20770572 -0.1444188
000290 c2 62 16 be cd b0 e7 be 84 e3 ab 3e cc c3 c7 3d
       -0.1468611 -0.45252076 0.33572018 0.09754142
0002a0 ef 9b d9 be 7e 8f 1c be ca e8 cb be bf 2f 6d bf
       -0.4250178 -0.15289113 -0.3982604 -0.9265098
0002b0 ad a8 30 bf 7c 34 50 3e 46 3d 4d be 28 73 64 be
       -0.6900738 0.20332521 -0.20042905 -0.22309554
0002c0 02 fe 14 3f 4a 9f c5 3d d3 3c 1c bf 24 1e 39 3f
       0.58200085 0.096495226 -0.6103031 0.72311616
0002d0 77 0b 7b be f8 a3 37 3f 0e 87 c3 3e 38 7f ba 3d
       -0.24516092 0.7173457 0.38188976 0.09106296
0002e0 ec ff 68 be e4 5f 2b be 87 b7 bb 3c 1c d6 78 be
       -0.22753876 -0.16735798 0.022914661 -0.24300426
0002f0 fb 75 86 be 9f 2b 22 be 3a b6 10 3e f1 ae cc be
       -0.26261887 -0.15836953 0.14132014 -0.3997722
000300 6c fd 3c 3d 4a 3c 85 bf 0a 0f 3c be a5 ef 15 be
       0.04614012 -1.0409024 -0.18365112 -0.14642198
000310 84 52 17 bf b6 a5 98 3e 84 93 c9 be 20 93 24 3f
       -0.59110284 0.29813927 -0.39370358 0.64286995
000320 b0 f4 4c 3d e4 88 84 bd ef c1 c7 bf 90 f0 31 bf
       0.05003804 -0.06471422 -1.5606059 -0.69507694
000330 29 f9 66 be 35 3c b1 be 91 f1 a9 be f0 25 6d be
       -0.22555985 -0.34616247 -0.33192113 -0.23159003
000340 86 b0 41 3d a6 3b 70 be 5f c5 89 be e9 b8 9f 3e
       0.047287486 -0.23460254 -0.26908395 0.31195763
000350 3c a3 21 3e d7 a9 40 bf 91 e2 95 3e 15 36 d8 be
       0.15784925 -0.75259155 0.2927442 -0.4222876
000360 5c 0a 8a bd e6 37 d4 bd eb 41 99 3e 6a bc a7 bd
       -0.06740257 -0.10362224 0.29933104 -0.08190234
000370 45 b5 d5 3d 0a 8b d4 3e 78 b9 1f be 3e 53 de 3d
       0.10434965 0.41512328 -0.15598094 0.10855721
000380 6b 50 26 3c 97 43 96 3d 31 1d 7f be 11 bf cb 3b
       0.010151009 0.073371105 -0.2491348 0.0062178452
000390 c2 f5 96 bd 5d f9 08 40 52 86 94 3e 01 0c 8b 3e
       -0.07371093 2.14022 0.29008728 0.27157596
0003a0 84 ed 7f be e6 99 11 be ca a9 3b 3e 54 60 93 be
       -0.24992949 -0.14218864 0.18326488 -0.2878443
0003b0 6e 86 af be 07 e9 af 3c 32 54 c3 be ff b2 be be
       -0.3428225 0.02147342 -0.38150173 -0.37245938
0003c0 4e 0e 1d bf 25 86 95 3d 4a 1c d5 be 0f ad a3 3f
       -0.6134995 0.07300977 -0.41623145 1.2787188
0003d0 f7 f2 c4 be a8 a9 76 3f 44 80 54 3c ef b6 96 3e
       -0.38466617 0.96352625 0.012970034 0.29436442
0003e0 c0 e9 bd bb 1d f0 98 3d 23 15 10 bd 58 dd 6e be
       -0.0057956874 0.07467673 -0.035176408 -0.23326623
0003f0 22 a7 80 be 6d 30 c3 3e 2d 6a 1b be c9 41 71 bf
       -0.25127512 0.38122883 -0.15177222 -0.94241005

fc3.bias f4 [6]
000000 48 14 23 c1 57 b1 20 c1 28 4b 2b c1 65 1c 2a c1
       -10.1924515 -10.043296 -10.705849 -10.631932
000010 2b 54 9e c1 d5 22 a0 c1
       -19.791098 -20.017008
