checkpoints/model_256.pth (torch, 418456 bytes, 8 tensors)

fc1.weight f4 [256, 16]
0	0x3e1b4bc9	0.15165628
1	0x3d8f4a49	0.06996591
2	0x3e2bf932	0.16794279
3	0x3e4eded2	0.20202187
4	0x3e78f374	0.2431162
5	0xbe47b921	-0.19504215
6	0xbd9c9602	-0.07645799
7	0x3e34b57e	0.17647359
8	0xbd87109e	-0.06594966
9	0x3e315cdd	0.17320581
10	0xbd35b420	-0.044361234
11	0x3e571f85	0.21008117
12	0xbba7bf42	-0.0051192353
13	0xbe232f7d	-0.15936084
14	0xbdb4a411	-0.08820356
15	0xbe5ac795	-0.21365197
16	0xbafa0098	-0.0019073663
17	0xbe5f8e23	-0.21831565
18	0xbe395a9a	-0.18100968
19	0xbc35bae0	-0.011091918
20	0xbe41498a	-0.18875709
21	0xbe8220f4	-0.25415766
22	0x3da52380	0.08063412
23	0x3e1204be	0.14259622
24	0x3e231f86	0.15929994
25	0x3ddf96cc	0.10917434
26	0xbe035966	-0.12827072
27	0xbd83762a	-0.064190224
28	0x3e2b2c12	0.1671603
29	0x3e60c9b9	0.21951951
30	0xbe34ab50	-0.17643476
31	0xbe13b0c6	-0.14422902
32	0xbe436ae0	-0.19083738
33	0x3e0160d6	0.12634596
34	0xbe45a1e0	-0.19300032
35	0xbe33ce32	-0.17559126
36	0x3df25984	0.1183348
37	0xbbd9bb8a	-0.006644671
38	0x3e138ebe	0.1440992
39	0xbe1dbd20	-0.15404177
40	0xbdeec42e	-0.11658512
41	0xbdcb2fb6	-0.099212095
42	0xbdc9bd8b	-0.098506056
43	0x3e5b34be	0.21406838
44	0xbe5781de	-0.21045634
45	0x3dff59a0	0.124682665
46	0xbd849a84	-0.06474784
47	0x3dfdfbc9	0.1240154
48	0xbda717f7	-0.08158868
49	0x3e2ed67a	0.17074004
50	0x3dec4118	0.11535853
51	0xbe00b1f0	-0.12567878
52	0x3cd1b290	0.02559784
53	0x3dc0ba6d	0.09410558
54	0xbd3078fa	-0.043084122
55	0x3e35c46c	0.1775071
56	0x3e58e9ce	0.2118294
57	0xbe067996	-0.13132319
58	0xbe0c6f1f	-0.13714264
59	0xbe10f53f	-0.14156054
60	0xbdc71338	-0.097204626
61	0x3de1b108	0.11020094
62	0x3e52e102	0.20593646
63	0x3e57f597	0.21089779
64	0xbe44696a	-0.19180837
65	0x3e66d246	0.2254115
66	0xbe026710	-0.12734628
67	0x3e060c6e	0.13090679
68	0xbe23aeca	-0.15984645
69	0x3d08a938	0.033364505
70	0xbd9641dc	-0.073367804
71	0x3df55b6c	0.11980328
72	0xbd86cb68	-0.065817654
73	0xbe350328	-0.17676985
74	0xbd85212c	-0.06500468
75	0x3d73b4b0	0.05949849
76	0xbe4f4b30	-0.20243526
77	0x3d8e1cb8	0.069390714
78	0xbba9f880	-0.005187094
79	0xbe55a856	-0.20864996
80	0xbe0125c2	-0.1261206
81	0x3cb586f7	0.022159083
82	0x3df9a1cc	0.121890634
83	0xbd5d6120	-0.054047704
84	0x3e558a14	0.20853454
85	0xbe142d24	-0.14470345
86	0xbcac7812	-0.021053348
87	0xbdb64da8	-0.089015305
88	0x3dce9d73	0.10088625
89	0x3dea4a73	0.11439981
90	0xbcd2009b	-0.025635054
91	0x3e394648	0.18093216
92	0xbe6b12ae	-0.22956344
93	0x3e359edb	0.1773638
94	0x3d17000f	0.03686529
95	0x3e736ea7	0.2377268
96	0x3da946c1	0.08265448
97	0xbe608907	-0.21927272
98	0x3e4ee50a	0.20204559
99	0x3e5ce6c6	0.21572408
100	0x3cbe3fc0	0.023223758
101	0x3c96b0cb	0.018394848
102	0x3d0eb446	0.03483989
103	0x3e08a292	0.13343266
104	0x3e018c67	0.12651215
105	0x3dd5770c	0.10423097
106	0x3d1c1b0a	0.038111724
107	0x3e60d0ee	0.219547
108	0xbdbaf60b	-0.0912896
109	0xbe36c6f2	-0.17849329
110	0xbc9d38d8	-0.019192144
111	0xbd974cf4	-0.073877245
112	0x3da85eba	0.08221193
113	0x3d4a2259	0.049349163
114	0xbdcc1008	-0.09963995
115	0xbe324b4c	-0.17411536
116	0xbe6d3c48	-0.23167527
117	0x3e5e4c64	0.21708828
118	0x3e543222	0.20722249
119	0xbe0f0c12	-0.13969448
120	0x3dc650f5	0.0968341
121	0xbdb96663	-0.09052732
122	0xbd932dbb	-0.07186457
123	0x3ce346b7	0.02774368
124	0x3de7b756	0.113142654
125	0x3e1a71e1	0.15082504
126	0x3d01a66b	0.03165285
127	0xbe2cdb6b	-0.16880576
128	0x3dc32cac	0.09530005
129	0xbe1a79d0	-0.1508553
130	0x3da622b4	0.08112088
131	0xbda413c0	-0.080115795
132	0x3caa3080	0.02077508
133	0xbe6d3c04	-0.23167425
134	0xbe292104	-0.165165
135	0x3e625e5a	0.22106305
136	0xbe1e0572	-0.15431765
137	0x3e2fa8b4	0.17154199
138	0x3e563de4	0.20922047
139	0x3d6c16c8	0.057638913
140	0xbe0adbfe	-0.13560483
141	0x3e724836	0.23660359
142	0x3d871090	0.06594956
143	0x3de8fd34	0.1137642
144	0x3e16a7ff	0.14712523
145	0x3cc1a9b6	0.023640495
146	0x3d3fc758	0.04682097
147	0x3d4e4188	0.050355464
148	0x3ddca180	0.10772991
149	0xbe6d97ac	-0.2320239
150	0x3d460a41	0.048349623
151	0x3db91234	0.09036675
152	0xbc3781a8	-0.011200346
153	0x3d623081	0.05522204
154	0xbd5066c8	-0.05087927
155	0x3e17f310	0.14838815
156	0xbccee5b3	-0.025256013
157	0x3dd49bce	0.1038128
158	0xbe2e04af	-0.16993974
159	0x3bffc308	0.007805232
160	0xbcf5f8fa	-0.030025948
161	0x3c0a0105	0.008423095
162	0x3e462178	0.19348705
163	0x3e16cc3a	0.14726344
164	0x3dd1b4f0	0.10239589
165	0x3e3a330f	0.1818354
166	0x3d9097ca	0.070602015
167	0x3e34404c	0.17602652
168	0xbe074611	-0.13210322
169	0x3d1b7c74	0.037960485
170	0xbe146d62	-0.14494851
171	0x3df476bf	0.119367115
172	0xbd17a969	-0.037026796
173	0xbe009f13	-0.12560682
174	0xbc4e343a	-0.012585694
175	0xbe0d7bd7	-0.13816772
176	0xbe7b3f76	-0.24535927
177	0x3d5fdb21	0.054652337
178	0x3e5b4274	0.21412069
179	0x3e15d6ea	0.14632764
180	0x3d432988	0.04764703
181	0x3e4840ed	0.19556017
182	0xbe32d6ff	-0.17464827
183	0x3e26782e	0.16256782
184	0xbe2ed3c1	-0.17072965
185	0x3c8a280d	0.0168648
186	0xbd30602b	-0.043060463
187	0xbd91ce64	-0.07119444
188	0x3e29bed6	0.16576704
189	0xbe12acf0	-0.14323783
190	0x3e3c708e	0.18402311
191	0x3e5ba6ce	0.2145035
192	0xbe161661	-0.14656974
193	0x3e3b3b4b	0.18284337
194	0x3e65a1a8	0.22424948
195	0x3b84b040	0.004049331
196	0x3acb7500	0.001552254
197	0xbdf4ea91	-0.119588025
198	0x3e19443b	0.14967434
199	0x3e39ac4e	0.18132135
200	0xbc859845	-0.01630796
201	0xbdfce9fe	-0.12349318
202	0xbdc24359	-0.09485502
203	0xbe6a53ac	-0.22883481
204	0xbd016b0a	-0.03159622
205	0x3de9e6c0	0.11420965
206	0xbdfff300	-0.124975204
207	0x3d916e2c	0.07101092
208	0xbdecb1b2	-0.1155733
209	0x3d61d3e2	0.055133708
210	0x3d9f33c8	0.07773548
211	0xbdb3c264	-0.087773114
212	0xbd0036d8	-0.031302303
213	0x3e66454d	0.22487374
214	0xbe633bf9	-0.22190847
215	0x3e10bb9c	0.14134067
216	0x3e10e7ef	0.14150976
217	0x3dc12edd	0.094327666
218	0x3dcc4867	0.09974747
219	0x3d2d4555	0.04230245
220	0xbdbd164c	-0.092327684
221	0x3e2c8986	0.16849336
222	0xbdf70d2b	-0.120630585
223	0x3d8c7475	0.0685815
224	0x3dee5f22	0.11639239
225	0xbdbfd150	-0.09366095
226	0x3acbab00	0.0015538633
227	0xbd964284	-0.073369056
228	0x3d481b68	0.04885426
229	0xbc55c424	-0.013047252
230	0x3e671d52	0.22569779
231	0xbe289724	-0.16463906
232	0x3e4b96dc	0.19881767
233	0xbd221833	-0.03957386
234	0xbd5a89ad	-0.053353954
235	0x3e399ace	0.1812546
236	0x3e4b8ed5	0.19878705
237	0x3cd14f51	0.025550516
238	0xbe5ee4e6	-0.21767005
239	0xbdafda84	-0.085866004
240	0xbd8d621b	-0.06903478
241	0xbd2b2529	-0.041783486
242	0x3e55963c	0.20858091
243	0x3c0eea80	0.008722901
244	0x3cf01100	0.029304981
245	0x3e608e13	0.21929197
246	0xbd7a9d3e	-0.061185114
247	0xbe37ecd8	-0.17961442
248	0x3d873483	0.06601813
249	0xbcc9c304	-0.024629124
250	0x3e698006	0.22802743
251	0x3e155755	0.14584096
252	0x3d99c7a0	0.075087786
253	0xbe31c442	-0.17360023
254	0x3dd343b7	0.1031565
255	0xbe0dae4d	-0.13836022

fc1.bias f4 [256]
0	0x3de4211f	0.1113913
1	0x3e66e08f	0.225466
2	0xbda0a91f	-0.07844757
3	0xbe44591d	-0.19174619
4	0xbdca2168	-0.09869653
5	0x3dbb6e96	0.09151952
6	0x3e7c7330	0.24653316
7	0x3e2fa7ae	0.17153808
8	0x3e4b3282	0.19843486
9	0x3d6d80fe	0.057984345
10	0xbe7286f7	-0.23684298
11	0xbdb4b5e4	-0.088237554
12	0x3cb91e77	0.022597535
13	0x3d4b37a4	0.04961361
14	0xbe0061bf	-0.12537287
15	0xbe693e7a	-0.22777739
16	0xbd93366a	-0.07188113
17	0xbdc90f57	-0.09817379
18	0xbd4f2c63	-0.05057944
19	0xbe6bee0a	-0.23040023
20	0x3e575ba7	0.21031056
21	0x3e63a49b	0.22230761
22	0x3e722cbf	0.23649882
23	0xbd05d84d	-0.032676984
24	0xbd5fd148	-0.054642946
25	0xbe2f0c9e	-0.17094657
26	0x3bb6522b	0.0055639944
27	0xbe7ff84f	-0.24997066
28	0x3e719f7b	0.23595993
29	0xbe1beef2	-0.15227869
30	0xbe152131	-0.14563443
31	0x3e144ec2	0.14483169
32	0xbbe97cd2	-0.0071254754
33	0xbe6de2bb	-0.23231022
34	0xbe023572	-0.127157
35	0xbcd5eba3	-0.026113337
36	0x3e59fa7e	0.21286961
37	0xbe030e3a	-0.12798396
38	0xbe7581cd	-0.23975296
39	0x3d51b957	0.051202144
40	0xbe2187d0	-0.15774465
41	0xbc97f1e0	-0.018547952
42	0x3dc60dac	0.096705765
43	0x3d1bda60	0.038050056
44	0xbe2d1224	-0.16901451
45	0xbdca6fed	-0.098846294
46	0xbe0e3921	-0.1388898
47	0xbe06c968	-0.13162768
48	0xbd811386	-0.06302552
49	0x3e79414a	0.24341312
50	0xbe285f92	-0.16442707
51	0x3da104d7	0.07862251
52	0x3e2feb88	0.17179692
53	0xbe68c7fa	-0.22732535
54	0x3cffd96b	0.031231603
55	0xbe6bf5e7	-0.23043023
56	0x3d5f8a50	0.054575264
57	0x3e0a7335	0.1352051
58	0xbe346f57	-0.17620598
59	0x3e5e041b	0.21681254
60	0x3d3aab4b	0.045573514
61	0x3b00d158	0.0019656029
62	0x3df9c4c7	0.121957354
63	0xbe79772f	-0.24361871
64	0xbe192e28	-0.14959013
65	0xbdfae37c	-0.122504205
66	0x3e450f56	0.19244131
67	0x3db63f88	0.088988364
68	0xbabc7f31	-0.0014381168
69	0xbd337ce8	-0.04382029
70	0xbe7d92fa	-0.24763098
71	0x3e1f2984	0.1554318
72	0x3dec51b7	0.11539023
73	0xbe6dd4ec	-0.23225754
74	0x3e5000b2	0.20312765
75	0xbe25b262	-0.16181329
76	0xbdf18258	-0.11792439
77	0x3e2b80be	0.1674833
78	0x3d1884e8	0.037236124
79	0x3d9fe025	0.07806424
80	0xbdaf9f8e	-0.085753545
81	0x3e40c645	0.18825634
82	0xbe25842f	-0.16163705
83	0x3e33729a	0.17524186
84	0xbdc0385d	-0.093857504
85	0xbda76144	-0.08172849
86	0xbe7670ad	-0.2406642
87	0xbe500302	-0.20313647
88	0xbe45975e	-0.19296023
89	0x3e639975	0.22226508
90	0x3dd64156	0.104616806
91	0xbbd8aff8	-0.006612774
92	0x3d76d574	0.06026216
93	0x3dc893c0	0.09793806
94	0xbe09a7d4	-0.13442928
95	0xbd57e754	-0.052710846
96	0xbd882c7c	-0.0664911
97	0xbc11d68c	-0.00890125
98	0x3e6b7597	0.22994076
99	0xbe6f5c52	-0.23375061
100	0xbe35758f	-0.17720626
101	0xbdb43208	-0.08798605
102	0xbde6e6f7	-0.11274522
103	0xbe420a2a	-0.1894919
104	0x3dcfc3d3	0.101447724
105	0xbe707e56	-0.23485693
106	0xbe764146	-0.24048337
107	0x3e6df780	0.23238945
108	0x3dd214ac	0.10257849
109	0xbde9ab48	-0.114096224
110	0x3dfabcfe	0.12243079
111	0xbad6a018	-0.0016374616
112	0x3dbf4e82	0.09341146
113	0xbdbe298e	-0.0928527
114	0xbbeff06a	-0.0073223608
115	0x3e01ea24	0.12686974
116	0xbd8ea026	-0.0696414
117	0x3e1a3996	0.1506103
118	0x3e45e06a	0.19323888
119	0x3e0b77f1	0.13619973
120	0x3cd8e7c6	0.026477706
121	0xbcc33a64	-0.023831554
122	0xbe0f15fb	-0.13973229
123	0x3e3c7980	0.18405724
124	0x3e7b8c52	0.24565247
125	0xbe76e60d	-0.24111195
126	0x3e1052e4	0.1409412
127	0xbd85eeef	-0.065397136
128	0xbe4a9f9a	-0.19787446
129	0x3e0054d0	0.12532353
130	0xbe758399	-0.23975982
131	0xbe437321	-0.19086887
132	0xbe5efbfd	-0.21775813
133	0x3e675e42	0.2259455
134	0x3e523980	0.20529747
135	0x3e0e8b74	0.13920385
136	0x3dd586c6	0.104260966
137	0x3d99670b	0.07490357
138	0x3e10bc3b	0.14134304
139	0x3c24b344	0.010052506
140	0x3dbb5e51	0.09148849
141	0xbd195d28	-0.037442356
142	0x3cfa53f0	0.030557603
143	0x3dff8ef7	0.1247844
144	0xbe3d6530	-0.18495631
145	0x3e412d4c	0.18864936
146	0x3e029e80	0.12755775
147	0x3d0c2856	0.034218155
148	0xbe7b9072	-0.2456682
149	0x3e67082f	0.22561716
150	0x3e7c7460	0.24653769
151	0xbe5d7a08	-0.21628582
152	0xbe0c3206	-0.13690957
153	0x3e134c82	0.14384654
154	0x3e3e602a	0.18591371
155	0x3d8d9888	0.06913859
156	0xbe55a236	-0.2086266
157	0xbde77bd0	-0.11302912
158	0xbe49d3be	-0.1970968
159	0x3de91924	0.11381748
160	0x3cc82e46	0.024436127
161	0xbe572ba8	-0.21012747
162	0xbe4a4397	-0.19752346
163	0xbe6adcd9	-0.22935809
164	0x3db4f598	0.08835906
165	0x3d4a6097	0.04940852
166	0xbe429d96	-0.19005427
167	0x3e64b5a0	0.2233491
168	0xbe1e1001	-0.15435793
169	0x3e2b4dbc	0.16728872
170	0x3dadeb38	0.0849213
171	0xbe137b03	-0.14402394
172	0xbd19d561	-0.03755701
173	0x3e145d6c	0.14488763
174	0xbe6e3978	-0.2326411
175	0xbe010ba1	-0.12602092
176	0xbe49f422	-0.19722036
177	0xbddc9b5c	-0.1077182
178	0xbcb73c30	-0.022367567
179	0x3e4448a2	0.19168332
180	0x3de98090	0.114014745
181	0x3e1ef09f	0.15521477
182	0xbd830033	-0.063965224
183	0x3e1e3771	0.15450837
184	0xbdf57028	-0.11984283
185	0xbe35f9bb	-0.17771046
186	0xbe208086	-0.15674028
187	0x3dbf4dc1	0.09341002
188	0xbe2ffabc	-0.17185491
189	0xbd8e18ec	-0.06938347
190	0x3e71c1fe	0.23609158
191	0xbd6ca7a8	-0.057777077
192	0x3d8ccc8d	0.068749525
193	0x3d826bbd	0.06368206
194	0x3c080fc0	0.008304536
195	0x3df7d652	0.12101425
196	0xbe544cf8	-0.20732486
197	0x3e6432b6	0.2228497
198	0xbe69480a	-0.22781387
199	0x3e5cb404	0.21553046
200	0x3deb2a34	0.11482659
201	0x3e69c76e	0.22829983
202	0x3e3405b2	0.17580298
203	0xbd44dd78	-0.04806277
204	0xbe49ff33	-0.19726257
205	0xbe64fd01	-0.22362138
206	0xbda2d9c0	-0.07951689
207	0xbe359dde	-0.17736003
208	0xbde33576	-0.11094181
209	0xbe2da262	-0.16956475
210	0xbcf4e392	-0.02989367
211	0xbe1d8895	-0.15384133
212	0x3e252f29	0.16131271
213	0x3cf2ec66	0.02965374
214	0x3e54e092	0.20788792
215	0x3e2e36d3	0.17013101
216	0x3e5210ac	0.20514172
217	0xbe62f5ee	-0.22164127
218	0x3e450f04	0.1924401
219	0xbe60b116	-0.21942553
220	0x3dd688d9	0.1047532
221	0xbd705508	-0.058674842
222	0x3d3632d1	0.044482056
223	0x3d802488	0.06256968
224	0xbe72c526	-0.23708019
225	0xbe3a14c2	-0.18171981
226	0x3b556ace	0.0032564881
227	0x3c0276ff	0.007962941
228	0x3c92a545	0.017901072
229	0xbd4e39c0	-0.050348043
230	0xbe12a065	-0.14318998
231	0x3e5075dd	0.20357461
232	0xbe05bdfc	-0.13060755
233	0x3b53177c	0.0032210043
234	0xbd9a8276	-0.07544415
235	0xbe08e234	-0.1336754
236	0x3e2303c6	0.15919408
237	0xbe181fbf	-0.1485586
238	0xbd49ad88	-0.049237758
239	0xbdcac109	-0.099001
240	0xbd2bf078	-0.041977376
241	0x3e2a6a79	0.16642179
242	0x3d4e6c46	0.050396226
243	0xbe452380	-0.19251823
244	0x3dd46a58	0.10371846
245	0x3de11314	0.10989967
246	0x3e120e69	0.1426331
247	0x3e7609fe	0.24027249
248	0xbc858d17	-0.016302628
249	0xbe525c9e	-0.20543143
250	0x3e18b7cc	0.14913863
251	0x3e287bec	0.16453522
252	0xbe288fd4	-0.16461116
253	0xbe7b81e6	-0.24561271
254	0x3e476b66	0.19474563
255	0x3b1eb000	0.002421379

fc2.weight f4 [256, 256]
0	0x3d0fc04a	0.03509549
1	0xbcedaa00	-0.029011726
2	0xbca28718	-0.019839808
3	0xbd5835ca	-0.052785672
4	0xbd7bc556	-0.06146749
5	0x3ca72cc4	0.020407088
6	0xbd09c4ea	-0.033635058
7	0x3d312e98	0.043257326
8	0xbcda0868	-0.026615337
9	0x3d099b0a	0.033595122
10	0x3b63e6dc	0.0034775054
11	0x3d734c5c	0.059398994
12	0xbd0017bd	-0.03127264
13	0x3d02192d	0.03176229
14	0x3caa0c05	0.020757684
15	0x3c565dc4	0.013083879
16	0x3d1af6a1	0.03783286
17	0xbd10970e	-0.035300307
18	0x3bb4601d	0.0055046217
19	0x3c26e8a8	0.0101873055
20	0x3b19acf9	0.0023449047
21	0x3cffe401	0.03123665
22	0xbd4272aa	-0.047472633
23	0x3d6efabf	0.0583446
24	0x3b6c3f20	0.0036048368
25	0x3c45c9f3	0.012072074
26	0xbce201a0	-0.027588665
27	0x3c582740	0.013192952
28	0x3d439e76	0.047758542
29	0x3d2184b4	0.039433196
30	0x3c95f1ee	0.018303838
31	0xbc90f108	-0.017693058
32	0xbc466948	-0.012110062
33	0x3d677146	0.05650451
34	0x3d1a8cf8	0.037732095
35	0x3d6feb4e	0.058574013
36	0xbd34db4e	-0.044154458
37	0x3bc52a00	0.0060169697
38	0xbd6b8df2	-0.057508416
39	0x3b868872	0.004105621
40	0xbcbb5baa	-0.022870857
41	0x3d1676a0	0.036734223
42	0x3c1fac28	0.009745635
43	0xbd45ee06	-0.0483227
44	0xbcaaab58	-0.020833656
45	0x3cbb95a4	0.022898503
46	0x3d6a686e	0.0572285
47	0xbd17c677	-0.037054505
48	0x3d09dfd8	0.03366074
49	0xbd0886f8	-0.03333184
50	0xbc58bf00	-0.013229132
51	0xbcae1913	-0.02125219
52	0xbcfc8370	-0.030824393
53	0x3cdea590	0.027178556
54	0x3d0b743c	0.034046397
55	0x3d61a48d	0.05508857
56	0xbcc15d5c	-0.023604088
57	0xbd6284f0	-0.05530256
58	0x3d7d009c	0.06176816
59	0xbd46957c	-0.048482403
60	0xbd3f661b	-0.046728235
61	0xbd557a3e	-0.052118532
62	0xbd6b5f1e	-0.057463758
63	0xbbf956a8	-0.007609207
64	0x3d56e850	0.052467644
65	0x3d7f3948	0.062310487
66	0x3d0004ef	0.031254705
67	0xbd5658f6	-0.052330934
68	0xbb090d15	-0.0020912339
69	0xbd26cd18	-0.040722936
70	0x3bae1d50	0.005313553
71	0x3d6dc1c4	0.058046117
72	0x3b5d833a	0.003380014
73	0xbce26a08	-0.02763845
74	0x3c611918	0.013738893
75	0xbcaa002b	-0.020752033
76	0x3d32d198	0.043656915
77	0x3b09fa7c	0.0021053841
78	0x3d40e51e	0.047093503
79	0xbd44b20f	-0.048021372
80	0x3b6a85d7	0.0035785341
81	0xbc1f97e8	-0.009740807
82	0x3cf043ef	0.029329268
83	0xbd381616	-0.044942938
84	0xbd0bea77	-0.03415915
85	0x3d72bc8e	0.05926185
86	0xbd7e560e	-0.062093787
87	0xbd32e28e	-0.04367309
88	0xbc8a55b4	-0.01688657
89	0xbd2d7f6d	-0.04235785
90	0x3d320c57	0.0434688
91	0x3d023d20	0.031796575
92	0x3cd76859	0.026294874
93	0xbd43172a	-0.047629513
94	0xbb7234a0	-0.0036957636
95	0xbc6aa666	-0.014321899
96	0xbd35a72c	-0.04434888
97	0xbd0b9d99	-0.034085844
98	0x3d7a3c01	0.06109238
99	0x3d449c00	0.048000336
100	0x3cd14e6c	0.02555009
101	0xbb529340	-0.0032131225
102	0x3cd1ba90	0.025601655
103	0xbd6f5de6	-0.058439158
104	0xbc1d2c3e	-0.009593068
105	0x3d5fd5bf	0.054647204
106	0xbce99118	-0.028511569
107	0x3cbbd4ec	0.022928677
108	0x3c676c78	0.014124982
109	0xbc0d5460	-0.008626074
110	0x3ccb8551	0.024843844
111	0xba825e48	-0.0009946311
112	0xbd0ab8e1	-0.03386772
113	0xbc812c30	-0.01576814
114	0xbca97933	-0.020687675
115	0xbcf6f2ef	-0.030145137
116	0xbd55f614	-0.05223663
117	0x3ca6def9	0.020369994
118	0x3c240d18	0.010012887
119	0xbc8849a0	-0.01663667
120	0xbd409ba4	-0.04702343
121	0x3c57d11b	0.013172413
122	0x3cbdb0eb	0.02315565
123	0xbb3cf233	-0.0028830885
124	0xbbf6d08e	-0.007532186
125	0xbc1024dc	-0.00879785
126	0x3cad6d46	0.02117027
127	0x3a04682b	0.00050509226
128	0xbc3a491a	-0.011369968
129	0x3d0c0b2e	0.03419035
130	0x3d408563	0.047002207
131	0xbd708b8b	-0.05872683
132	0x3b36f441	0.0027916583
133	0xbc449ef8	-0.012000792
134	0xbd5983f6	-0.053104363
135	0xbd323ef2	-0.04351706
136	0x3d1282cf	0.03576928
137	0xbd29f67c	-0.04149483
138	0xbbf0e49b	-0.0073514706
139	0x3cdb6cdf	0.026785312
140	0x3ac11c7c	0.001473322
141	0x3d480eba	0.04884217
142	0x3cb7f308	0.022454754
143	0xbd3b68d4	-0.04575427
144	0x3c81872f	0.01581153
145	0x3c97ebb4	0.01854501
146	0x3cfffea9	0.031249361
147	0x3d21c5ec	0.039495394
148	0x3d64a7c0	0.05582404
149	0x3d3f9250	0.046770394
150	0xbc3914fd	-0.011296508
151	0xbcbc06cc	-0.02295246
152	0xbd5f4c8e	-0.054516368
153	0x3cf2d0ce	0.029640581
154	0xbd555904	-0.052086845
155	0xbd645452	-0.055744477
156	0xbbaa8d54	-0.005204836
157	0xbd3de2e2	-0.04635895
158	0xbc812f71	-0.015769692
159	0x3cb35650	0.021891743
160	0x3d6a541c	0.05720912
161	0x3c827ff3	0.015930152
162	0x3cce1f94	0.025161542
163	0xbcbfe43a	-0.023424257
164	0xbc93be58	-0.018035099
165	0xbd0baaef	-0.03409856
166	0x3a740089	0.0009307941
167	0xbd6b7ef0	-0.057494104
168	0x3d2ec6f3	0.0426702
169	0x3d184266	0.037172697
170	0xbaf58040	-0.0018730238
171	0x3cc54cdd	0.024084503
172	0xbd5424e0	-0.05179298
173	0x3d03d762	0.032187827
174	0xbd004ddc	-0.031324252
175	0x3d439122	0.04774583
176	0x3d5b8b9a	0.05359993
177	0xbc6bf5e0	-0.014401883
178	0xbd1fd0fc	-0.039017662
179	0xbc338900	-0.010957956
180	0xbb701720	-0.0036634877
181	0xbd599bc6	-0.053127073
182	0x3cdca2ee	0.02693316
183	0x3c9a5be9	0.018842654
184	0x3d53b0ba	0.05168221
185	0xbd7f06d4	-0.06226237
186	0x3d01d5de	0.0316981
187	0x3c0840c8	0.008316226
188	0x3cfb70c8	0.030693427
189	0xbbc95c50	-0.0061450377
190	0xbbf20c90	-0.0073867515
191	0x3b0dbfc0	0.0021629184
192	0x3b0d1020	0.0021524504
193	0xbd75fa0f	-0.060052928
194	0xbd374706	-0.044745468
195	0xbc95b175	-0.018273095
196	0xbd7ee350	-0.0622285
197	0xbc7a9f87	-0.015296823
198	0xbc34aea8	-0.011027969
199	0x3c96b91c	0.018398814
200	0x3d780dd8	0.060560077
201	0xbd5013f0	-0.050800264
202	0xbd094d36	-0.0335209
203	0xbd0816f0	-0.033225
204	0xbbba6cdb	-0.005689246
205	0xbd3002f8	-0.04297158
206	0x3ce8f251	0.028435858
207	0xbc98c5ac	-0.018648945
208	0x3ce699e1	0.028149547
209	0x3c574518	0.013139032
210	0xbd517d2e	-0.05114477
211	0x3d202346	0.03909614
212	0xbc4233c8	-0.011853166
213	0xbd6176e1	-0.055045012
214	0x3cafafc5	0.021446118
215	0xbd3983b2	-0.04529161
216	0xbd6069ad	-0.05478828
217	0x3b9bcaa0	0.0047543794
218	0x3cd916a0	0.026500046
219	0xbca058f0	-0.019573659
220	0xbb1fb482	-0.0024369066
221	0xb9f24c6b	-0.00046214773
222	0x3d50448e	0.05084663
223	0x3d0ca0e5	0.03433313
224	0x3c893245	0.016747603
225	0x3cdfcdb8	0.027319774
226	0xbc7cfe18	-0.01544144
227	0x3ce53a38	0.027981862
228	0xbcd44010	-0.025909454
229	0xbd6c612a	-0.05770985
230	0xbce8ae7c	-0.028403513
231	0x3d2121ee	0.039339
232	0xbd24f185	-0.040269393
233	0x3d1e93b4	0.03871508
234	0xbd7d7924	-0.061883107
235	0x3c2c9a20	0.010534793
236	0x3c034710	0.008012548
237	0xbd2557b1	-0.040366832
238	0xbd3f550a	-0.04671196
239	0x3d0b5166	0.034013174
240	0xbcd01128	-0.025398806
241	0x3c80c184	0.015717275
242	0x3d33f4ce	0.043934636
243	0x3cd2330c	0.025659107
244	0x3cc6a87c	0.024250261
245	0x3cf4c314	0.029878177
246	0x3d7d7344	0.061877504
247	0xbd163052	-0.036667176
248	0x3d058f6d	0.032607485
249	0xbd45ce44	-0.048292413
250	0xbbb534b0	-0.0055299625
251	0x3bf50ca0	0.0074783117
252	0xbc6a5ba5	-0.014304076
253	0xbd0cf1aa	-0.034410156
254	0x3d60ae0a	0.054853477
255	0x3cdea924	0.027180262

fc2.bias f4 [256]
0	0xbc836045	-0.016037116
1	0x3d79a408	0.060947448
2	0x3c18d150	0.009327248
3	0xbbf88ca0	-0.007585123
4	0xbd76a818	-0.0602189
5	0x3c52bdb0	0.012862608
6	0x3d3ed922	0.046593793
7	0xbcaa0a08	-0.020756736
8	0x3aa6bed9	0.0012721672
9	0x3cfd613b	0.030930152
10	0xbd1f3c06	-0.038875602
11	0xbd50e5ea	-0.051000513
12	0x3d2f0704	0.0427313
13	0x3d0bc4e0	0.0341233
14	0x3c371b24	0.011175904
15	0xbd018c28	-0.031627804
16	0xbd4872a4	-0.048937455
17	0x3d645fe3	0.055755507
18	0x3c624658	0.013810717
19	0x3ccdcf60	0.025123298
20	0x3c427b05	0.01187015
21	0x3ad7b089	0.001645581
22	0xbca733d0	-0.020410448
23	0x3b784e66	0.0037888526
24	0x3cbdad73	0.023153996
25	0xbd3ca7a3	-0.04605831
26	0x3d05cbff	0.03266525
27	0x3d563448	0.052295953
28	0xbcb1f89f	-0.021724997
29	0xbc7be9cb	-0.015375565
30	0xbd213b84	-0.0393634
31	0x3c94fcf1	0.018187018
32	0x3c848aac	0.016179405
33	0xbcff59ac	-0.031170689
34	0x3d59fdd4	0.053220585
35	0xbc65a894	-0.014017243
36	0x3d21e05d	0.03952061
37	0xbd7f7fd8	-0.06237778
38	0x3d688c49	0.05677441
39	0x3d587994	0.05285032
40	0xbbb29814	-0.005450258
41	0x3d40bdf8	0.04705617
42	0xbd4979bd	-0.049188364
43	0xbd7a8544	-0.06116225
44	0xbd6101d1	-0.054933373
45	0x3a87a212	0.0010347983
46	0x3d602dac	0.054731056
47	0x3d41444d	0.047184277
48	0x3d12ae22	0.035810597
49	0x3c27512a	0.010212222
50	0xbd633c2e	-0.055477314
51	0x3d7c027d	0.06152581
52	0xbccfe5cc	-0.02537813
53	0x3cc3c76d	0.023898805
54	0xbd32fb9e	-0.043696992
55	0x3b9614f4	0.0045801345
56	0x3d61ec07	0.055156734
57	0x3d6b390a	0.057427444
58	0x3d652211	0.05594069
59	0x3d801449	0.06253869
60	0xbc2c4da8	-0.010516562
61	0xbd34f360	-0.044177413
62	0x3cb92108	0.022598758
63	0xbd3ff09e	-0.04686033
64	0x3cfa8244	0.030579694
65	0x3d34d15d	0.044144977
66	0x3bc363a0	0.005962804
67	0xbc625b88	-0.013815768
68	0x3d5af177	0.053452935
69	0xbd3facd0	-0.046795666
70	0x3d2aafee	0.041671686
71	0x3d3aba18	0.04558763
72	0x3d4b8950	0.0496915
73	0x3c6857e4	0.014181111
74	0xbcc12e95	-0.023581782
75	0xbcfb6b7f	-0.030690907
76	0x3d0a29a4	0.033731118
77	0x3ca3872b	0.019961914
78	0x3c9ec228	0.01937969
79	0xbd5d70a3	-0.054062497
80	0x3d42f7e5	0.047599692
81	0x3d38649d	0.045017827
82	0xbce26baa	-0.027639229
83	0x3c0c0b2f	0.008547588
84	0x3ce17c44	0.027525075
85	0xbc27b0e0	-0.010235041
86	0x3d6a4d0c	0.057202384
87	0xbbc03982	-0.0058662305
88	0x3c761b2d	0.015021128
89	0x3d45d3c6	0.048297666
90	0x3d7008bc	0.05860208
91	0xbc9482f8	-0.018128857
92	0x3d04c306	0.03241255
93	0x3b1c6fe0	0.0023870394
94	0x3bfe0468	0.00775199
95	0xbd2e6708	-0.042578727
96	0x3d05b376	0.03264185
97	0xbd19e646	-0.03757312
98	0x3cd0e723	0.02550084
99	0xbc90d9ba	-0.017681945
100	0x3d35cf2b	0.044387024
101	0xbcb7bd39	-0.022429096
102	0xbd58bc7a	-0.05291412
103	0xbd344b18	-0.044016927
104	0x3d5d7991	0.054071013
105	0xbcd7155b	-0.0262553
106	0x3bf70950	0.007538952
107	0xbc981a04	-0.018567093
108	0x3beac965	0.0071651214
109	0x3d169b6e	0.036769323
110	0xbc2f853c	-0.010712918
111	0x3c89f53c	0.01684057
112	0xbd381b14	-0.0449477
113	0x3cc61aa9	0.024182634
114	0x3d18d500	0.037312508
115	0xbd47c600	-0.048772812
116	0xbb5c0a15	-0.0033575345
117	0xbbcf1e63	-0.006320761
118	0xbd5b19f6	-0.053491555
119	0x3d80e5c7	0.062938266
120	0xbd1f9835	-0.038963515
121	0x3d19e64a	0.037573136
122	0x3d3f7099	0.04673824
123	0xbd12b143	-0.03581358
124	0xbd512ba6	-0.051067017
125	0xbd768336	-0.060183726
126	0xbd04d34c	-0.03242807
127	0xbd6689f2	-0.0562839
128	0x3c4b2824	0.012399707
129	0xbc423f90	-0.011855975
130	0x3cf1fbe0	0.029539049
131	0xbc4fa536	-0.012673667
132	0x3d1aeed0	0.037825406
133	0x3d69818a	0.057008304
134	0x3d55f242	0.05223299
135	0x3c7bd987	0.015371687
136	0xbd0d80b0	-0.034546554
137	0xbcb8483d	-0.022495383
138	0x3d500492	0.05078561
139	0xbb821ca0	-0.0039706975
140	0x3c8d4e27	0.01724918
141	0x3d61cd0e	0.055127196
142	0x3cb17080	0.02166009
143	0xbd694a0b	-0.05695538
144	0xbd059e2f	-0.03262156
145	0x3d27ef40	0.04099965
146	0xbd05a500	-0.03262806
147	0x3d6b4ec4	0.057448164
148	0xbd5e0130	-0.05420035
149	0x3d5ec10b	0.05438332
150	0xbd58316d	-0.05278151
151	0xbd1684e2	-0.03674782
152	0x3d741abb	0.059595805
153	0x3cab4a76	0.02090953
154	0x3d6b85b6	0.057500564
155	0xbc14a1f0	-0.009071812
156	0xbd53375c	-0.051566467
157	0x3d41c584	0.047307506
158	0xbc79b9bf	-0.015242039
159	0xbd6c497c	-0.057687268
160	0x3c0585ca	0.008149574
161	0x3d1cf7cc	0.038322255
162	0xbd3f15cd	-0.04665165
163	0xbd4adc5e	-0.049526565
164	0xbb88473a	-0.0041588815
165	0xbd1348a2	-0.03595794
166	0xbd6d7946	-0.057976983
167	0xbd73d36e	-0.059527807
168	0xbd66e189	-0.05636743
169	0xbd7fb5da	-0.062429287
170	0x3c39951b	0.011327053
171	0xbc5ab8c5	-0.013349717
172	0xbccc4250	-0.024933964
173	0x3c58a08c	0.013221871
174	0xbc245960	-0.010031074
175	0x3b761447	0.0037548707
176	0x3d39d689	0.045370612
177	0x3d01958a	0.031636752
178	0xbd02b31a	-0.031909086
179	0x3d0a3878	0.03374526
180	0xbaebc418	-0.0017987518
181	0xbd396de0	-0.0452708
182	0x3d5f6b13	0.054545473
183	0xbc8c95fa	-0.017161358
184	0xbc8a4dbb	-0.016882768
185	0xbbc45935	-0.0059920796
186	0x3cfce154	0.030869164
187	0x3d4826c2	0.048865087
188	0xbd23c7a9	-0.039985333
189	0xbcde354a	-0.02712502
190	0x3cf0336c	0.029321395
191	0x3d75c2cd	0.06000023
192	0x3d757099	0.059921835
193	0xbceb352c	-0.028711878
194	0x3d01fd67	0.031735804
195	0x3d603ac8	0.05474356
196	0xbd6cd674	-0.057821706
197	0x3ce803bf	0.028322099
198	0xbc9030c0	-0.01760137
199	0xbd6b51cc	-0.057451054
200	0x3cb71cf4	0.022352673
201	0xbd5e13d1	-0.054218117
202	0xbc7185c0	-0.014741361
203	0xbd706232	-0.058687396
204	0x3ae6f0a7	0.0017619327
205	0xbd62cf14	-0.055373266
206	0xbb41b64a	-0.0029558116
207	0xbc9d20c4	-0.019180663
208	0xbd3dfe77	-0.046385255
209	0x3d05840a	0.032596625
210	0x3ba3c92d	0.0049983473
211	0xbb9526cc	-0.004551744
212	0xbb55ad1b	-0.00326044
213	0xbd003ba6	-0.031306885
214	0x3d67ade3	0.056562316
215	0xbd0d80cb	-0.034546655
216	0x3d1c9a7f	0.038233276
217	0xbb64a740	-0.0034889728
218	0xbca0f47f	-0.019647835
219	0x3d45a39b	0.04825173
220	0xbc44dc00	-0.012015343
221	0x3c4cba66	0.012495613
222	0x3d1c677a	0.03818462
223	0xbcb1aabc	-0.021687858
224	0x3952df8a	0.00020110435
225	0x3d3c74e4	0.046009913
226	0xbcb8652b	-0.022509178
227	0x3c6514c4	0.013982002
228	0x3d063414	0.03276451
229	0x3c303b88	0.010756381
230	0xbcfbb7fc	-0.030727379
231	0xbc78c593	-0.015183824
232	0xbabe5a00	-0.0014522672
233	0x3b5656b2	0.0032705483
234	0x3d62e040	0.055389643
235	0xbd157240	-0.03648591
236	0xbd57b9aa	-0.052667297
237	0xbd0e3a5c	-0.034723625
238	0xbc9e3bd7	-0.019315643
239	0x3d2d8e61	0.04237211
240	0x3d17b098	0.037033647
241	0x3cc4f891	0.024044307
242	0xbd20bd26	-0.039242886
243	0xbd675e99	-0.0564867
244	0xbd3aca80	-0.045603275
245	0xbd0c7e57	-0.034300175
246	0x3beb7f50	0.0071868077
247	0x3b918fe5	0.0044422024
248	0xbc664747	-0.01405508
249	0x3b316d02	0.002707303
250	0x3d06424c	0.03277807
251	0x3d1345dc	0.035955295
252	0xbd34d776	-0.044150792
253	0xbc9d886c	-0.01923009
254	0x3bc55171	0.0060216715
255	0x3d3ab774	0.04558511

fc3.weight f4 [128, 256]
0	0xbd08a766	-0.03336277
1	0x3ca70334	0.02038727
2	0x3cfc6eb4	0.030814506
3	0xbd3a622c	-0.04550378
4	0x3a4ec100	0.00078870356
5	0xbc0b2220	-0.008492023
6	0xbd72d856	-0.059288345
7	0x3c79fef8	0.015258543
8	0x3ce64d3c	0.028113
9	0x3d719d0c	0.058987662
10	0x3d0442a2	0.03229011
11	0xbd709990	-0.0587402
12	0xbd73e916	-0.05954846
13	0x3ccbb5ec	0.02486702
14	0xbd1ecfbe	-0.038772337
15	0xbc39e1a0	-0.011345297
16	0x3d32c8ec	0.043648645
17	0x3d7b9abe	0.06142687
18	0xbcf2fc18	-0.029661223
19	0x3d7c4cc2	0.06159664
20	0x3d40d976	0.047082387
21	0x3b5974e0	0.0033181235
22	0x3d0004ba	0.031254508
23	0xbbe4d690	-0.0069835857
24	0xbd395d46	-0.045254968
25	0xbc403f48	-0.011733837
26	0xbcf3425c	-0.029694729
27	0xbb9576d0	-0.0045612827
28	0x3ce6b6a0	0.028163254
29	0xbce9030c	-0.028443836
30	0xbcaf0894	-0.021366395
31	0x3d55800c	0.05212407
32	0x3ce14570	0.02749893
33	0x3d7d68fa	0.06186769
34	0xbd540906	-0.051766418
35	0xbd41281a	-0.047157384
36	0xbd1b38f8	-0.037896127
37	0xbce0e2b4	-0.02745185
38	0x3d15a008	0.03652957
39	0x3c06afc8	0.00822062
40	0x3cb17d2c	0.021666132
41	0xbd294aa6	-0.041330956
42	0x3d6ddbba	0.058070876
43	0x3d68fb2a	0.056880154
44	0xbd2cc39c	-0.042178735
45	0xbd6a5798	-0.057212442
46	0x3cc553c8	0.024087802
47	0xbb8ffae0	-0.0043939203
48	0xbc4e1f58	-0.012580715
49	0xbcb04254	-0.021516003
50	0xbd4ce130	-0.050019443
51	0xbd29f33e	-0.04149174
52	0xbc8019d0	-0.015637308
53	0xbd532f32	-0.05155868
54	0xbd39f316	-0.04539784
55	0xba472c80	-0.00075978786
56	0x3d1d9f24	0.038481846
57	0x3d304692	0.04303605
58	0xbd394cfe	-0.04523944
59	0xbc5ee790	-0.0136050135
60	0xbd18a118	-0.037263006
61	0x3be9f640	0.007139951
62	0xbd599526	-0.053120755
63	0x3d233cc4	0.039852872
64	0xbd682780	-0.056678295
65	0x3d6b793a	0.057488658
66	0xbc997404	-0.018732078
67	0xbc3b5590	-0.011433974
68	0xbb9b8ec0	-0.0047472417
69	0xbcf1ea4c	-0.029530667
70	0x3ce18400	0.027528763
71	0x3d5eb710	0.0543738
72	0xbc251ff0	-0.010078415
73	0x3ad87840	0.001651533
74	0xbb8a9170	-0.0042287633
75	0xbd77148a	-0.060322322
76	0x3d6ea60c	0.058263823
77	0x3d51874a	0.051154412
78	0x3d736510	0.059422553
79	0xbd6ffc04	-0.05858995
80	0xbd53f712	-0.051749296
81	0xbba62680	-0.0050705075
82	0x3d0c5f96	0.034270845
83	0x3be751c0	0.007059306
84	0xbcfac528	-0.03061159
85	0x3c70e0f0	0.014702067
86	0xbcec3dd0	-0.028838068
87	0xbcd341ec	-0.02578827
88	0xbd535eac	-0.051603958
89	0xbd299d66	-0.041409872
90	0xbd363304	-0.044482246
91	0x3cffb4f4	0.031214215
92	0xbbf1a820	-0.0073747784
93	0x3cc3a81c	0.023883872
94	0x3d7fd798	0.062461466
95	0xbd134a16	-0.035959326
96	0x3d07a148	0.033112794
97	0xbd6e676e	-0.058204107
98	0xbcf44240	-0.029816747
99	0xbbf59d80	-0.007495582
100	0xbc0e42a8	-0.008682884
101	0x3cadaaac	0.021199547
102	0xbc358c68	-0.011080839
103	0x3d1244a8	0.035710007
104	0xbcdf5970	-0.027264327
105	0xbd280570	-0.04102081
106	0xbd1f43b4	-0.038882926
107	0x3cf7d6c0	0.030253768
108	0xbd70f5a4	-0.05882801
109	0xba79d380	-0.0009530112
110	0xbd0309b2	-0.031991668
111	0x3cb974d0	0.022638708
112	0x3c106d18	0.0088150725
113	0x3d1c3fde	0.038146846
114	0xbcd1e484	-0.02562166
115	0x3d7be29a	0.0614954
116	0xbcbdfe88	-0.023192659
117	0xbcd205a4	-0.025637455
118	0xbd36b2ba	-0.04460404
119	0xbcc294dc	-0.023752622
120	0xbd46bbd8	-0.048518986
121	0xbd681880	-0.05666399
122	0xbd3bfcf0	-0.045895517
123	0x3c922190	0.01783827
124	0xbd7bd092	-0.061478205
125	0xbc2d2558	-0.0105679855
126	0xbcbebfec	-0.023284875
127	0xbc6832e0	-0.014172286
128	0x3c60d560	0.013722748
129	0x3cf74004	0.030181892
130	0x3d6bad12	0.0575381
131	0xbd08ba38	-0.033380717
132	0xbbc34110	-0.005958684
133	0x3cdf8190	0.02728346
134	0xbd025d3e	-0.031827204
135	0x3d646ae8	0.055766016
136	0xbd0be6e0	-0.034155726
137	0x3d2884a6	0.04114213
138	0xbcf47dc8	-0.029845133
139	0xbd14f7a0	-0.036368966
140	0xbd252c8e	-0.040325694
141	0x3b29a900	0.0025888085
142	0xbd74852a	-0.059697308
143	0x3d4b7e74	0.049681142
144	0x3b8cb600	0.004294157
145	0xbd173680	-0.03691721
146	0xbcf2e9d4	-0.029652514
147	0x3c67fdd8	0.014159642
148	0xbbc631b0	-0.0060484037
149	0xbc138df8	-0.009006016
150	0x3c051688	0.008123048
151	0xbd5687f2	-0.05237574
152	0x3cd6a4a4	0.026201554
153	0xbd501468	-0.05080071
154	0x3d62b65a	0.055349685
155	0xbd3a41c0	-0.04547286
156	0x3bb36870	0.0054750964
157	0xbcb87298	-0.02251558
158	0x3d7d8336	0.06189271
159	0xbcff3260	-0.03115195
160	0xbcd6c6d0	-0.026217848
161	0xbca636a4	-0.020289727
162	0xbbe0a060	-0.0068550557
163	0x3cb125e0	0.021624506
164	0x3d0ecdf4	0.03486438
165	0x3d363a90	0.044489443
166	0xbd1ce3e6	-0.03830328
167	0x3ce6ce40	0.02817452
168	0xbd171ba4	-0.036891595
169	0x3b72a4c0	0.0037024468
170	0x3cc0ccc8	0.023535147
171	0xbd1f8f4e	-0.038955025
172	0x3d336828	0.043800503
173	0x3d00c6e6	0.031439684
174	0x3c37b5b8	0.011212759
175	0x3c95269c	0.018206887
176	0x3d6e5cca	0.05819396
177	0x3c6c4ea8	0.01442305
178	0x3b924cf0	0.004464738
179	0xbaaa4200	-0.001298964
180	0x3d6b2664	0.05740966
181	0xbcae0f1c	-0.02124744
182	0xbca30164	-0.019898124
183	0x3d661c98	0.056179613
184	0xbd117212	-0.035509177
185	0x3ca1e17c	0.01976084
186	0x3cf01f14	0.029311694
187	0xbc28b290	-0.010296479
188	0xbc3f66a8	-0.01168219
189	0x3c8c17a0	0.017101109
190	0x3c1a13d0	0.009404138
191	0xbd018b86	-0.0316272
192	0x3d613cda	0.054989673
193	0xbc71b4c8	-0.014752574
194	0x3cbb6a40	0.022877812
195	0x3c2b5410	0.010457054
196	0x3d59200c	0.053009078
197	0xbd5f87b2	-0.05457277
198	0x3d0ad39a	0.033893205
199	0xbd595db4	-0.053067878
200	0xbd52e1e2	-0.05148495
201	0xbd57a4b8	-0.052647322
202	0xbd40a0f6	-0.047028504
203	0xbd0a259c	-0.033727273
204	0x3cb98ff8	0.022651657
205	0x3d19b804	0.037529007
206	0x3b825df0	0.0039784834
207	0xbc3d28b0	-0.011545345
208	0xbcacb5f0	-0.021082848
209	0x3c4ec2a0	0.012619644
210	0x3d795216	0.0608693
211	0xbd7ce67a	-0.061743237
212	0xbcdc62ec	-0.026902638
213	0x3d535642	0.051595934
214	0xbc04edb0	-0.00811331
215	0x3cbffcc4	0.023435958
216	0x3d6d61ca	0.057954587
217	0xbcb5dbec	-0.022199593
218	0xbc1dafe0	-0.009624451
219	0x3d49152e	0.049092464
220	0xbad305c0	-0.0016099736
221	0x3c3895f0	0.011266217
222	0x3c960710	0.018313915
223	0xb95d5800	-0.00021108985
224	0x3ce74144	0.028229363
225	0xbc7421b0	-0.01490061
226	0xbd2cc594	-0.042180613
227	0xbc8849a4	-0.016636677
228	0x3d609af4	0.054835275
229	0xbbb026b0	-0.0053757057
230	0x3c9929a8	0.018696621
231	0xbb268ba0	-0.0025412813
232	0xbc0bb668	-0.008527376
233	0xbc5fdea8	-0.013663925
234	0xbd195210	-0.037431777
235	0x3d60ace6	0.05485239
236	0x3d1fb34c	0.03898935
237	0x3d28ed34	0.04124184
238	0xbd6ee796	-0.058326326
239	0x3cf414b8	0.029795036
240	0xbcf18914	-0.02948431
241	0xbd33566c	-0.04378359
242	0xbbc55cc0	-0.0060230196
243	0xbd46f2e4	-0.048571482
244	0x3d18efb2	0.037337966
245	0x3d5984d8	0.053105205
246	0x3b694900	0.003559649
247	0xbacc9040	-0.0015606955
248	0xbbf8d1a0	-0.0075933486
249	0x3cc7de0c	0.024397872
250	0x3bffc930	0.007805966
251	0xbcef4414	-0.029207267
252	0x3cbb8604	0.022891052
253	0x3d3837d0	0.044975102
254	0x3d743c1e	0.059627645
255	0x3ab3ff00	0.0013732612

fc3.bias f4 [128]
0	0x3ca6c9a4	0.020359822
1	0xbd30f43d	-0.043201674
2	0x3d4c9162	0.049943335
3	0x3c9c01d2	0.019043837
4	0xbd504fd0	-0.050857365
5	0x3bd3986a	0.006457378
6	0xbd39f265	-0.04539718
7	0xbcc0bad4	-0.023526587
8	0xbc36e688	-0.011163361
9	0x3d89f6ba	0.067365125
10	0xbd4cc692	-0.04999406
11	0xbd781c3e	-0.06057381
12	0xbd024eb8	-0.031813353
13	0x3c85ab09	0.016316907
14	0xbbedaab0	-0.0072530136
15	0xbd2780ec	-0.040894434
16	0x3d621bd1	0.05520231
17	0xbbd15d80	-0.00638932
18	0x3c46397a	0.012098664
19	0x3d739b1c	0.059474096
20	0xbd284bbe	-0.04108786
21	0xbd4cb266	-0.04997482
22	0x3cf4962a	0.02985676
23	0xbd55aea3	-0.0521685
24	0x3d3f3093	0.046677183
25	0x3d1ece1e	0.038770787
26	0x3d3c0ab8	0.04590866
27	0xbc2016f0	-0.009771094
28	0x3d07b85b	0.0331348
29	0xbd30b7dc	-0.043144092
30	0xbd007076	-0.03135725
31	0x3d124a7d	0.03571557
32	0xbcc7b549	-0.024378436
33	0x3d10fcd3	0.035397362
34	0xbca54850	-0.020176083
35	0x3d03fbce	0.03222256
36	0x3d2e1024	0.04249586
37	0xbd020638	-0.031744212
38	0xbc930924	-0.017948695
39	0xbcfc90f0	-0.03083083
40	0x3d7bb6c7	0.061453607
41	0x3d17f656	0.03710016
42	0x3cdb293c	0.02675306
43	0xbb93a313	-0.004505524
44	0xbc2d9722	-0.010595115
45	0xbcd02a7d	-0.025410885
46	0xbca74f14	-0.02042345
47	0x3cc47cbe	0.023985263
48	0x3c241c60	0.010016531
49	0x3d4d468a	0.0501161
50	0xbb5c3afb	-0.003360449
51	0x3aa162ae	0.0012312734
52	0xbd3e41a3	-0.046449315
53	0xbd0e9e0b	-0.03481869
54	0xbb5738fd	-0.0032840364
55	0x3cbd0d92	0.02307776
56	0xbd10d746	-0.03536155
57	0xbcd3100a	-0.025764484
58	0x3c6ce26f	0.014458283
59	0xbcf318c4	-0.029674895
60	0xbd3c9d35	-0.04604836
61	0x3d15283c	0.036415324
62	0xbd0b4979	-0.034005616
63	0x3c8eb7b4	0.01742158
64	0xbcf62218	-0.030045554
65	0x3d87a815	0.06623856
66	0xbcb495e0	-0.022044122
67	0xbcf739d2	-0.030178938
68	0x3d8fe4b1	0.07026041
69	0x3d56c80e	0.05243688
70	0xbad7fbce	-0.0016478242
71	0x3cecd87e	0.028911825
72	0xbcf15d5a	-0.029463459
73	0x3d13b2b1	0.036059085
74	0xbd048cec	-0.032360956
75	0xbbba7710	-0.005690463
76	0x3d4e1de4	0.050321475
77	0x3caee39c	0.021348767
78	0x3d2cfa8c	0.042231128
79	0xbd276817	-0.040870752
80	0x3d460008	0.048339874
81	0xbd11b74f	-0.035575207
82	0x3c030a1e	0.007998018
83	0xbd52198e	-0.051293902
84	0x3d4d8578	0.050176114
85	0xbb430379	-0.0029756709
86	0x3d8e780f	0.06956493
87	0xbd2f44be	-0.042790167
88	0xbd605c8f	-0.05477577
89	0xbca5d53f	-0.020243285
90	0xbc03b233	-0.0080380915
91	0xbb1a6b8a	-0.0023562633
92	0x3d4073af	0.046985324
93	0xbd1ad7b4	-0.037803367
94	0xbd137ddb	-0.036008697
95	0xbcd6b490	-0.026209146
96	0x3d1fb138	0.03898737
97	0x3cb2a6a7	0.021807982
98	0x3d647fe7	0.05578604
99	0x3d0f357f	0.034963127
100	0xbbf5f114	-0.0075055454
101	0x3d04f9be	0.032464735
102	0x3d5de6dc	0.054175243
103	0x3c5af1c5	0.013363306
104	0x3d664350	0.056216538
105	0x3d799934	0.06093712
106	0x3d663761	0.056205157
107	0xbca8fa90	-0.02062729
108	0x3cebb46c	0.028772555
109	0x3cdc8f60	0.026923835
110	0xbce72078	-0.028213724
111	0xbd4a2c2e	-0.04935854
112	0xbd4bb934	-0.04973717
113	0x3d79d958	0.06099829
114	0x3d857b59	0.06517667
115	0x3d94e4f3	0.07270231
116	0xbd75fb62	-0.06005419
117	0x3bb0c615	0.005394707
118	0x3d429774	0.04750772
119	0x3d424e44	0.04743792
120	0x3d643fa0	0.05572474
121	0x3cda6fbc	0.026664607
122	0x3d7a4f5a	0.06111083
123	0xbb5b4026	-0.0033454983
124	0xbd0bde4a	-0.03414754
125	0xbd124a0f	-0.03571516
126	0x3d211abe	0.039332144
127	0xbd24acfc	-0.040204033

fc4.weight f4 [6, 128]
0	0x3d0cf702	0.034415253
1	0xbca2927f	-0.019845245
2	0xbd1a54b2	-0.037678428
3	0x3d57e474	0.052708104
4	0x3d847057	0.064667396
5	0xbd263cbc	-0.040585265
6	0xbd17e3a5	-0.037082333
7	0x3d30179f	0.042991277
8	0xbd992696	-0.07478063
9	0x3d45da15	0.048303682
10	0xbc7a9c3d	-0.015296039
11	0xbd5a4492	-0.05328805
12	0x3dae86b0	0.08521783
13	0xbd2b22d2	-0.041781254
14	0xbd1b3fe6	-0.037902735
15	0x3c60722e	0.013699098
16	0xbc66464d	-0.014054847
17	0x3d276b39	0.04087374
18	0xbc88f2ba	-0.016717304
19	0x3ccb3388	0.024804845
20	0x394dd734	0.00019630493
21	0xbdbcced0	-0.09219134
22	0x3da98f92	0.08279337
23	0x3d1f3991	0.03887326
24	0xbd06c580	-0.032903194
25	0xbdaca6c8	-0.084302485
26	0xbd947c4e	-0.07250272
27	0x3d2be3b5	0.041965205
28	0xbc85efd1	-0.016349705
29	0x3c51a0d5	0.012794693
30	0xbdcabe88	-0.09899622
31	0x3c6d660f	0.014489665
32	0x3d4b2c84	0.049603
33	0x3da5c727	0.08094626
34	0x3a036a05	0.00050130516
35	0x3d0047c0	0.031318426
36	0xbca7660d	-0.020434404
37	0x3d1f4de4	0.03889264
38	0xbd46017c	-0.04834126
39	0xbd3f58d5	-0.046715576
40	0x3d690a87	0.056894805
41	0xbcbc04a6	-0.022951435
42	0x3d93667e	0.07197283
43	0xba4bf710	-0.00077806506
44	0xbd470eb7	-0.048598018
45	0x3d7682df	0.060183402
46	0x3daaea74	0.083455
47	0x3cf93df2	0.030425046
48	0x3d67a6e5	0.056555647
49	0x3d8d47c0	0.06898451
50	0xbd58fd0b	-0.052975696
51	0x3d810413	0.06299605
52	0x3d4a14b4	0.04933615
53	0xbd6d914e	-0.0579999
54	0x3d561a34	0.052271083
55	0xbc898212	-0.016785655
56	0xbcace8b8	-0.021107063
57	0x3c8b1d22	0.016981665
58	0xbc41218f	-0.011787786
59	0x3cb028eb	0.021503886
60	0x3d072f1a	0.033003904
61	0xbcdbafa0	-0.026817143
62	0x3d63754f	0.055531796
63	0x3d22bc5e	0.039730422
64	0x3d030369	0.031985674
65	0xbd3b0e73	-0.045668077
66	0x3aebd631	0.0017992911
67	0x3c8c49a6	0.017124962
68	0xbd25d9e5	-0.040491004
69	0xbd51626e	-0.05111926
70	0x3d9cc7c4	0.0765529
71	0xbc2c69cd	-0.010523272
72	0xbd006f38	-0.031356066
73	0x3da046ff	0.078260414
74	0x3cf0c1bf	0.02938926
75	0xbd8f3fcb	-0.069945894
76	0x3da90089	0.08252055
77	0xbcf444b9	-0.029817926
78	0xbcf25c44	-0.029585011
79	0x3d94a02d	0.072571136
80	0xbdadb842	-0.0848241
81	0x3d9ae25f	0.07562708
82	0xbdab97f6	-0.083785936
83	0xbc3b921e	-0.011448411
84	0x3cf920bd	0.030411119
85	0xbdabd65c	-0.08390495
86	0x3d0e5ed4	0.034758404
87	0x3db283f5	0.08716575
88	0xbd520a00	-0.051279068
89	0xbdaafdb4	-0.08349171
90	0x3c8fb74d	0.01754346
91	0xba114828	-0.0005542063
92	0xbdc443a9	-0.09583218
93	0xbbf53d89	-0.007484142
94	0xbd18dcad	-0.037319828
95	0xbdaa63f0	-0.08319843
96	0xbb8a5f8d	-0.0042228163
97	0xbda109c8	-0.07863194
98	0xbcfbaa0c	-0.030720733
99	0xbc7ada1b	-0.015310789
100	0x3dc32325	0.09528188
101	0x3d414ed6	0.047194324
102	0xbd13f7c7	-0.03612497
103	0x3c45fee0	0.012084693
104	0xbcbe52af	-0.023232786
105	0xbd4cb581	-0.049977783
106	0x3d9a7694	0.07542148
107	0xbd2326d2	-0.039831944
108	0x3c879dc6	0.016554724
109	0xbae61948	-0.0017555142
110	0xbc38539f	-0.011250406
111	0x3d5038a6	0.050835274
112	0xbcdd3921	-0.02700478
113	0x3d8b33e1	0.067970045
114	0xbcc9c5ca	-0.024630446
115	0xbdac2a9e	-0.08406566
116	0xbd69d255	-0.057085354
117	0x3c7dcb9e	0.015490441
118	0xbd61220e	-0.054964118
119	0x3bf35ed3	0.0074270754
120	0xbd07bf7b	-0.033141594
121	0x3cc0ff97	0.023559375
122	0xbcb37a08	-0.021908775
123	0x3c9670e7	0.018364383
124	0xbd86e87e	-0.06587313
125	0xbcbb8118	-0.022888705
126	0xbd158a79	-0.03650901
127	0x3d335129	0.043778572
128	0xbda95252	-0.082676545
129	0x3d4fb12a	0.050706066
130	0x3b481962	0.0030532707
131	0xbd4a70ac	-0.04942386
132	0x3d203289	0.039110694
133	0xbc206a27	-0.009790934
134	0xbd851267	-0.064976506
135	0xbdce98d5	-0.10087744
136	0xbd78fe98	-0.060789675
137	0xbc2e93ac	-0.010655325
138	0xbd44f45c	-0.0480846
139	0x3d35e19a	0.044404604
140	0x3c1cd62b	0.009572546
141	0x3c9947f5	0.01871107
142	0xbd29cf69	-0.041457567
143	0xbbd0cdf8	-0.0063722096
144	0xbc155721	-0.009115011
145	0xbd8193b0	-0.06326997
146	0xbdb23ef2	-0.08703412
147	0xbd98da9b	-0.07463571
148	0x3b903664	0.004401015
149	0x3d94f993	0.07274165
150	0xbd96a462	-0.07355572
151	0x3c926f1a	0.017875243
152	0xbd49c5b2	-0.049260803
153	0xbdaa041b	-0.08301564
154	0xbd96b52c	-0.073587745
155	0x3d50a02f	0.050934013
156	0xbd9a859a	-0.07545014
157	0xbd60997d	-0.054833878
158	0x3dcefb42	0.101065174
159	0x3d75820a	0.059938468
160	0x3da3a910	0.079912305
161	0x3cef1eb2	0.029189441
162	0xbda00e4a	-0.078152254
163	0x3db4536a	0.088049725
164	0x3d45a3c4	0.048251882
165	0x3d521bf3	0.051296186
166	0x3d04776f	0.032340463
167	0x3d603641	0.05473924
168	0x3d9c0cdb	0.076196395
169	0xbd2fb896	-0.042900644
170	0x3cb80085	0.022461185
171	0xbd2455b2	-0.040120788
172	0xbdd03922	-0.10167147
173	0x3d8edf18	0.069761455
174	0x3d8955ec	0.067058414
175	0x3c82bf88	0.01596047
176	0x3da372c9	0.07980878
177	0xbc5c31e4	-0.013439629
178	0x3d0435ef	0.032277998
179	0xbcd50e04	-0.02600766
180	0xbd2cd2b7	-0.04219314
181	0xbbdd1ea6	-0.0067480383
182	0x3cc18a8c	0.023625635
183	0xbd638b59	-0.055552814
184	0x3d9ff819	0.07810993
185	0xbdbc39a8	-0.091906846
186	0xbcbc746d	-0.023004735
187	0xbdc8605b	-0.09784003
188	0x3d3f093f	0.046639677
189	0xbc1e85e5	-0.009675478
190	0x3c0a4136	0.008438399
191	0x3cc6c0ff	0.02426195
192	0xbc9b6e6c	-0.018973552
193	0xbcecc44a	-0.028902192
194	0xbd213411	-0.039356295
195	0xbcf4f421	-0.029901566
196	0x3dbdc052	0.09265198
197	0xbce5066d	-0.027957166
198	0xbd979a95	-0.07402531
199	0xbd8b1b44	-0.0679231
200	0xbd65ad87	-0.05607369
201	0x3c5cb8bb	0.013471778
202	0xbcaf59ca	-0.02140512
203	0x3c6c4a6c	0.01442204
204	0xbd4c2066	-0.049835585
205	0x3da40fb0	0.08010805
206	0x3d8f1c72	0.069878474
207	0x3be45c7b	0.0069690323
208	0xbd323a6b	-0.043512743
209	0xbddbe165	-0.1073635
210	0x3bea73e3	0.007154928
211	0xbd534e47	-0.051588323
212	0xbd4c496d	-0.04987471
213	0xbd9f7656	-0.07786243
214	0x3db0db71	0.08635605
215	0xbd4c6ba8	-0.049907357
216	0x3d842459	0.06452245
217	0xbd70462b	-0.058660667
218	0xbd8ae486	-0.06781869
219	0xbd86bfa1	-0.06579519
220	0x3d4de510	0.05026728
221	0xbdae3ea0	-0.085080385
222	0x3b8f7a68	0.0043786056
223	0x3d3ce746	0.046118997
224	0xbd7fbc3a	-0.062435366
225	0x3d6457ba	0.055747725
226	0x3c4ef657	0.012631974
227	0xbc93cd9c	-0.018042378
228	0xbcba5180	-0.02274394
229	0xbda49681	-0.08036519
230	0x38ebc6a2	0.000112426715
231	0x3b96cb4d	0.004601872
232	0xbd49a586	-0.04923012
233	0x39144852	0.00014141321
234	0xbd45d334	-0.048297122
235	0xbd0528c1	-0.03250957
236	0xbc9bb75f	-0.019008337
237	0x3cbbc772	0.022922251
238	0x3d68a874	0.056801274
239	0xbc5d05ef	-0.013490184
240	0x3d703476	0.05864378
241	0x3d886733	0.06660309
242	0xbd8b5992	-0.068041936
243	0x3d8d4ef1	0.068998225
244	0x3cdc9c6b	0.026930055
245	0x3ba08f1c	0.0048998725
246	0x3d22a5d2	0.03970892
247	0xbda23896	-0.07920949
248	0x3d28bd0b	0.04119591
249	0xbdc12e8d	-0.09432707
250	0x3d3834e0	0.0449723
251	0x3bd6b195	0.006551931
252	0xbd8aa683	-0.06770041
253	0xbd5eb3c2	-0.05437065
254	0x3de87530	0.11350477
255	0xbadfa4ab	-0.0017062625

fc4.bias f4 [6]
0	0xbce4a77f	-0.0279119
1	0xbd80108c	-0.06253156
2	0x3cc2c9d4	0.02377788
3	0xbd07745a	-0.033069946
4	0xbd9f8a5d	-0.077900626
5	0xbdeac620	-0.114635706
