checkpoints/model_0.1_200.pth (torch, 25220 bytes, 6 tensors)

fc1.weight f4 [64, 16]
00000000: 9dec 523d 6846 27bf 8048 5fbb 54e2 f9bd
00000010: 148a 043e 0b00 e0be 578a e8be 50bc 21bd
00000020: 827b 07bf a3a8 ddbe 1a74 27bf a41e 28bf
00000030: f9c1 36c0 1711 06c1 a96e be40 80b1 33be
00000040: 4c5d e8be 0e8d 59be 30fe 3cbd d2f5 50be
00000050: 1000 313e fcd9 4cbe a5c2 fabe 40e5 4d3c
00000060: 2090 efbd 1394 adbe 2e47 acbd 3675 05be
00000070: 2128 63be eae3 83be aff1 05bd 4732 38be
00000080: 5014 02bd a60e 46be e6bd 1fbe 4a63 2bbe
00000090: ae0f 463e f039 da3c e0fb 65bd ccc9 09be
000000a0: d0e4 793d d47b f3bd 8029 293c 5008 ea3d
000000b0: 84c7 53be c030 163e b49b 9e3d 00ef bb3b
000000c0: 71b8 103e f5b2 943c 649d dc3d 3007 37bd
000000d0: a023 a93c fb73 a2be 3651 a2be c8ce 033e
000000e0: d127 133d 416b 173d 53d9 713c 35c4 0cbe
000000f0: 267d b1be f45f ebbd 480b 04be ab13 943d
00000100: d400 e5be 92f1 a0be c85b 143e 0000 c0bd
00000110: 007a 26bd 68ee 01bd 3665 dfbd dcb1 3cbe
00000120: cbd9 15be 7dda febc 092a ba3d 52f3 c8be
00000130: f216 83be 04b5 36be ed12 34be 7905 d3bb
00000140: 2062 bfbe 9058 03bf a48a 4fbe 9e50 05be
00000150: c831 07bd 3401 afbe 5cd0 acbe de3b 42be
00000160: fc0e 60bd 76ed bcbe 68a9 083f 91ac 21be
00000170: f4b8 d6bd a6e9 b8be 506f 40bd 34d1 303e
00000180: b436 6dbe b0e8 903c 8cb8 70be cc7e f83d
00000190: 8c7c 5b3e 3409 fdbd 407d ea3c bc80 593e
000001a0: 00c0 ddbc 4033 273c 0072 c2bc 0ed1 2dbe
000001b0: bc2d dabd ce07 4b3e 2056 533c 1c48 593e
000001c0: fd7f a8be 6948 9fbd e897 ca3d e0c5 143d
000001d0: 2898 2a3d 3470 3fbe a1cf 6c3d f260 42be
000001e0: dcd6 b3bd 72db 9bbd 205d f63c 0477 aebe
000001f0: f4ad b03c fc9c 30be e88d 90be 764f 863c
00000200: 7f36 d4be 5947 27be c813 55bd 044f ee3d
00000210: 6816 683e 0dc9 503d 605b 4cbe 3840 33bd
00000220: 0f5c 68bd 9d91 5ebe 3aff 24be 5a7f 73be
00000230: 34ed b3be 2eea f7bc c0af 4cbe e139 d4be
00000240: 27fb c4be 0cd0 20bd 986c 4d3e 706a 69bd
00000250: 5e54 5a3e 75e8 e5be bb0a c6bd a4a3 cc3d
00000260: a24d 99be f657 91be 428f 11bf d499 da3e
00000270: f010 43be cc93 f8bd 9a75 b9be d786 a2be
00000280: d520 b0be 4330 76bd 5261 5fbe 2ab9 22be
00000290: 2416 9c3d 923d 46be c981 d53d a8ee 8dbd
000002a0: 97a3 9abe acb5 af3c 77e5 6d3e 1f5a f3be
000002b0: 94cd d6bd c758 0cbe f870 10be 4f2d bfbe
000002c0: 9f59 3e3f 0783 96bd 60c1 813d f0dc e6bc
000002d0: 52cf 003e f8cc 34bc 0a79 b0be ac06 543e
000002e0: d730 dbbd 62f9 e0be ba46 9dbf 5f3d 43bf
000002f0: 4e50 9e3f 1bc0 30bf 3549 843e 1812 a4bf
00000300: 2fa7 10bf 6d42 35be 46b3 413e 20cc 143c
00000310: 0686 3abe 59b5 54be edf9 9dbe 847c 893d
00000320: 7a39 70be 2ba7 4cbe 3d36 9ebe 5e3a 96be
00000330: fc73 04bf 03ea c1bd 5f5c 08bf 3047 5fbe
00000340: 202b 613c 94bc aabd f8ed cfbd c0d9 313e
00000350: 52c7 1abe f431 e03d 70ed 773d 7034 a93d
00000360: f0b3 bfbc 6837 7cbe ecfd a9bd 8e2f 6dbe
00000370: 08b8 4abd 56b6 4c3e 4008 b8bb 7e68 363e
00000380: 3467 3ebe 04cd 8cbe 0e33 293e 688c 4d3d
00000390: 64ae 8dbd a726 a53c 032e 44be 6ca6 493e
000003a0: 1f53 74be d191 6abd e8b3 7abe a8b2 b8be
000003b0: 4f7e 9abd d609 b8bd a00b 5ebe e621 cebe
000003c0: e946 863e 9ff5 393f 189d fbbd d0cf b3bd
000003d0: 300c 92bc ecbf 10bf bbd3 b9be 9a5b 1dbe
000003e0: ba13 23bf d9c9 babe a9f0 f7be 7888 cc3f
000003f0: f73a 82c0 0ee3 85bf 38b4 a73f 7bef ccbe
0.051495183 -0.65341806 -0.0034070313 -0.12201372 0.12943298 -0.43750033 -0.45418045 -0.03948623
-0.5292283 -0.43292722 -0.6541153 -0.65671754 -2.8555892 -8.379172 5.9510083 -0.1754818
-0.4538368 -0.21245214 -0.04614085 -0.20406273 0.1728518 -0.2000503 -0.48976627 0.0125668645
-0.116974115 -0.33902034 -0.08412014 -0.13032994 -0.22183277 -0.25759822 -0.03270119 -0.1798793
-0.031757653 -0.19341525 -0.15599784 -0.16737095 0.19341919 0.026638955 -0.05614841 -0.13455886
0.06100923 -0.11888853 0.010324836 0.11427367 -0.20681578 0.14667034 0.07744542 0.005735278
0.14132859 0.01815174 0.107722074 -0.04468459 0.02064687 -0.3172911 -0.31702584 0.1287185
0.035926644 0.03696752 0.014761287 -0.13746722 -0.34665793 -0.11492911 -0.12894928 0.07230314
-0.44727194 -0.31434304 0.14488137 -0.09375 -0.040643692 -0.031721503 -0.10907976 -0.18427223
-0.14633863 -0.031110043 0.09090049 -0.3924814 -0.25603443 -0.1784249 -0.17585345 -0.0064398614
-0.3737955 -0.5130701 -0.20267731 -0.13019034 -0.03300646 -0.34180605 -0.33752716 -0.1896815
-0.05470179 -0.36899918 0.53383493 -0.15788485 -0.10484496 -0.3611576 -0.046981156 0.17267305
-0.23165399 0.017689079 -0.23507899 0.121335596 0.2143423 -0.12355271 0.028624177 0.21240515
-0.027069092 0.01020509 -0.023736 -0.1697428 -0.106532544 0.19827196 0.012898952 0.21218914
-0.32910147 -0.07777483 0.09892255 0.03632152 0.041649014 -0.18695146 0.057815198 -0.18982294
-0.087812155 -0.07610215 0.030073702 -0.34075177 0.021567322 -0.17247385 -0.28233266 0.016395312
-0.41447827 -0.1633581 -0.052020818 0.11636165 0.22664797 0.050972987 -0.19956732 -0.043762416
-0.05672842 -0.21735235 -0.16112986 -0.2377905 -0.3514191 -0.030263033 -0.19988918 -0.41450408
-0.38472864 -0.03926091 0.20060956 -0.056986272 0.21321246 -0.44903913 -0.096700154 0.099921495
-0.29942042 -0.2838742 -0.5685922 0.42695487 -0.1904943 -0.12137565 -0.36222535 -0.317435
-0.3440005 -0.06010462 -0.21814469 -0.15890947 0.076214105 -0.19359425 0.10425145 -0.06930286
-0.30202934 0.021448933 0.23232065 -0.47529694 -0.1048843 -0.13705741 -0.14105594 -0.37339255
0.743555 -0.0734921 0.063357115 -0.028181523 0.12579086 -0.0110351965 -0.34467345 0.2070567
-0.10702675 -0.43940264 -1.2287209 -0.7626552 1.2368257 -0.6904313 0.25837103 -1.2818022
-0.565051 -0.1770112 0.18916044 0.00908187 -0.18215188 -0.20772304 -0.3085474 0.067132026
-0.23459426 -0.19985645 -0.30900756 -0.29341406 -0.5173948 -0.09468462 -0.5326595 -0.218045
0.013743192 -0.0833675 -0.10152811 0.17368221 -0.15115097 0.10947028 0.060529172 0.08261955
-0.02340123 -0.24630511 -0.08300385 -0.23162672 -0.049491912 0.1999143 -0.005616218 0.17813298
-0.18594056 -0.27500165 0.16523382 0.05018273 -0.06918028 0.020160032 -0.19158177 0.19692391
-0.23859833 -0.057267968 -0.24482691 -0.36073804 -0.07543623 -0.08986251 -0.21684122 -0.40260237
0.26225975 0.72640413 -0.12285823 -0.087798715 -0.017828077 -0.5654285 -0.3629435 -0.15366974
-0.63701975 -0.36482123 -0.48425797 1.5979147 -4.069698 -1.0459917 1.3101873 -0.4002646

fc1.bias f4 [64]
00000000: 9e1c 02bf 9022 5dbe ac9c 64be 8e85 6cbe
00000010: 93dc 4fbe 3d2b 81be 48e0 14bd 6975 14be
00000020: 3ebe 2ebe c932 52be a4e4 0e3e e32c b7be
00000030: 981c e2be 98ff 91bd f976 35bd 4387 43bf
00000040: b047 933d eb55 98bd 302f 44be 9c05 c73d
00000050: ffc2 59be 533c 9bbf 6814 51bf 94a2 1c3e
00000060: 9037 6f3e 5ca5 633c e4ba 15be 749f c7bd
00000070: c0f0 38be 4537 99be 90dd 13be ba6a 513e
00000080: 3aa0 03bb 7274 02c0 c23e c0be bee3 1dbe
00000090: 8061 c23d 1caa 8ebd c2fc 3bbe 4c03 09bf
000000a0: 01aa 6fbf 9186 17be f0a9 f2bc 549f 99be
000000b0: 4c0e 5dbe e8eb 6a3d a665 1dc0 f5fa c3be
000000c0: 5212 9abe 985c 8bbe 088d 0dbf ae20 76be
000000d0: 2b86 58bf 6e1e bcbe 3c16 64be b479 0abe
000000e0: 7fe8 96be b3bb f3bd b75b 3abe 800f b33c
000000f0: dcb5 d0bd 0254 be3e 1aff 433e 6ef4 08bf
-0.50824916 -0.21595216 -0.2232539 -0.23097822 -0.20298986 -0.252283 -0.036346704 -0.14497913
-0.17064759 -0.20527185 0.13954407 -0.35776433 -0.4416244 -0.07128829 -0.044302914 -0.7637827
0.07191408 -0.074382626 -0.19158626 0.09717867 -0.21265791 -1.2127784 -0.8167176 0.15296394
0.23361039 0.013894405 -0.14622074 -0.0974721 -0.18060589 -0.2992498 -0.14439988 0.20450869
-0.0020084516 -2.0383573 -0.3754788 -0.15418908 0.09491253 -0.069660395 -0.18358138 -0.53520656
-0.9361878 -0.14797427 -0.029622048 -0.3000437 -0.21587485 0.057353884 -2.4593291 -0.38277403
-0.30092102 -0.2721908 -0.5529332 -0.24035904 -0.84579724 -0.36741966 -0.22274107 -0.13522989
-0.29474255 -0.11901035 -0.18199049 0.021857977 -0.10190937 0.37173468 0.19140282 -0.5349797

fc2.weight f4 [64, 64]
00000000: bdcd b33e ec41 333d 62b5 a8bd b664 86bd
00000010: fc22 98bd a0ac 6fbc e68d eb3d c806 a83d
00000020: 1804 c33c 98a2 b73d bcde ccbd 7047 283e
00000030: 70be 28bd b8d6 fa3d eaa2 d2bd 06f8 213b
00000040: 0c9d 93bd b65b a33d 0496 42bd 72b9 cdbd
00000050: d0f8 be3d 67e6 dcc1 b639 8ebd 603c 4c3c
00000060: 400c 663b dd85 93bf 607a 0ebd 80a1 d8bc
00000070: 5028 153c d488 06bd e06e fc3c e47c 60bd
00000080: e00c a33b b7c6 963d f4b8 eebd dee8 b73d
00000090: 14c7 cd3d 4909 adbe 5601 aebe d075 cbbc
000000a0: bdc3 c33d bc72 073d 1cc0 14bd 8f7f 3bbf
000000b0: d20b be3d 781d c1bd 93c0 6abf 790b b23e
000000c0: 34a7 a4bd 7242 bcbe e499 e1be f82e f6bd
000000d0: 76ba 9e3e f16c 87bd 6cd0 803d e25a ddbc
000000e0: 27b8 00bf 3454 963d 2868 aa3d bc09 d0bd
000000f0: 5004 2cbc 18c1 9ebe e067 e9bc 8a60 933d
00000100: ed40 c0be 0c4b 80be 603a c83d 1633 82be
00000110: 6b5d 96be 7e8b a4bd e4ea 1cbd 0967 40be
00000120: 12ab b7be 4869 40be 1ed2 9abe 6e30 b5be
00000130: b0d9 13be 60f4 99bc b107 91be 8dc1 5abe
00000140: 3c7d c93d 1c12 abbd 88b4 a33d 5027 033c
00000150: a87c 6b3d c270 cebe d97d 30be 3806 dabd
00000160: 3c9b 253d 4801 b5be 08c1 ebbd 12cc f4bd
00000170: 6cae 7b3e 8073 a8bc d7db ccbe 2077 2fbd
00000180: e983 b7be 7477 6cbe b9ce 65be b8c0 a8be
00000190: a8f4 bfbd 0acd 68be 9ead 99be debf aa3d
000001a0: 94b6 b2be 7775 b73e c0a8 ee3d b8d4 58be
000001b0: 80e0 a73c 0c37 7cbd cb00 66be 5ba3 9cbe
000001c0: 30f7 203e 41c5 53be 29f0 acbe a958 43be
000001d0: 389e efbd a793 39be 6a81 f23d 53f1 a4be
000001e0: 0f33 3dbe 4895 a33d e1c1 563e 28fd a1bc
000001f0: f8cf e33c 342a cabe 427d d0bd f380 a0be
00000200: 386f 77bf d135 4cbe 10ec 1a3d 81de d7be
00000210: 53f5 99be db9a 82be 787a 96bc 92dc 82be
00000220: 7705 85be e83e 82be 82e3 62be aafb 78bf
00000230: ba0a d4be c085 ccbb 295a 8bbe 7353 3dbf
00000240: aa70 b6bd 6cdd d23e f0e9 c23c 1431 a0bd
00000250: 3d3f 91be e6af 56bf 78a6 06bf bceb 983d
00000260: f8b9 c73c 74d8 81be 70b2 f03c de77 afbd
00000270: 5374 d3be d8de a6be efb6 4d3e f85e 30bd
00000280: 2ed9 793e 25b3 00bf d29a 99be a56f 5cbe
00000290: e07c 593d 484d a4be 8c9b 8ebf 5554 6b3e
000002a0: 13f8 1ebf f058 b5be b6dc b23d d1b8 95be
000002b0: 1632 b1bd 207a f13c e350 d9bd c8cc 9bbe
000002c0: aef2 46be 84e1 56be 9655 85be 6274 c0be
000002d0: 1c1d d7bd 9b3d f4be 5653 9cbe bbf9 4bbf
000002e0: 295d 42be e573 883e 2b5f 63be 00bf 80bd
000002f0: de4b d03d 8f6b c6bf 2808 133d 5ae0 4dbe
00000300: d6ca b4be c092 bd3e f496 eb3d f287 38be
00000310: 2c6c b4be 8081 ebba c8a5 a53c 8536 96be
00000320: a5fa 25be 48bb b4be 7570 79be 469e b7be
00000330: 816c 92be 9ec4 8cbd cb2c 82be c222 5abe
00000340: 64cf b13d 9870 313d 9850 63bd d48f 353d
00000350: 0090 543c 6442 9fbe 8ad3 7dbe a2a5 b3bd
00000360: 9889 b2bd 891b 9abe 0017 37bc 6083 90bb
00000370: 190d 8ebe 5cdb bdbd f71d 473e c49b 513d
00000380: 56a7 97be 2099 4dbe 8bff 61be d398 413e
00000390: e85e c7bd 6e60 27be 7967 67be 4065 dfbc
000003a0: 5086 97be 1fe6 45be 30b5 3abd 96b0 99be
000003b0: 40ca 3cbd 46c5 913d 6434 2dbe db34 cabe
000003c0: 5127 a2be 3a7a 7ebe 6a2b c0be 4e19 44be
000003d0: 4286 90bd 08b9 30be 42b7 d7bd c325 a4be
000003e0: 5454 20be 60bd d43b 39aa a5be d664 c43d
000003f0: 9867 bfbc 7294 9ebe 323f edbd 5ad5 47be
0.35117903 0.04376404 -0.08237721 -0.06562178 -0.07428548 -0.014628559 0.11501674 0.082044184
0.023805663 0.08966559 -0.10003421 0.16433501 -0.04119724 0.122479856 -0.1028498 0.0024714484
-0.07207689 0.07976477 -0.047506347 -0.100451365 0.09324801 -27.612501 -0.06944601 0.012465566
0.0035102516 -1.1525227 -0.034784675 -0.026444197 0.0091038495 -0.032845333 0.030814588 -0.054806605
0.0049759 0.073621206 -0.11656371 0.08979963 0.10047737 -0.33796147 -0.33985394 -0.02483645
0.095588185 0.033068404 -0.036316022 -0.73241514 0.09279598 -0.09429449 -0.91700095 0.34774378
-0.08039704 -0.36769444 -0.44062722 -0.12020677 0.31001633 -0.06612576 0.06289753 -0.027020875
-0.50280994 0.07340279 0.083206475 -0.10158107 -0.010499075 -0.31006694 -0.028491914 0.07196148
-0.37549534 -0.25057256 0.09776759 -0.254296 -0.29368147 -0.080344185 -0.038309947 -0.18789305
-0.35872704 -0.18790162 -0.30238432 -0.3538851 -0.1443851 -0.018793285 -0.2832618 -0.21362896
0.0983834 -0.083530635 0.07993418 0.008004978 0.05749193 -0.40320402 -0.17235507 -0.106457174
0.040431246 -0.3535254 -0.11511427 -0.11952986 0.24578255 -0.020562887 -0.40011474 -0.042838216
-0.35842827 -0.23092443 -0.2244214 -0.32959533 -0.09372836 -0.22734466 -0.30015272 0.08337377
-0.3490492 0.35831806 0.1165328 -0.21174896 0.020492792 -0.061575934 -0.2246124 -0.3059338
0.15719295 -0.20680715 -0.33776978 -0.1907679 -0.117001 -0.18122731 0.1184109 -0.32215366
-0.18476509 0.079874575 0.20972396 -0.019774035 0.027809128 -0.39485323 -0.10180141 -0.3134838
-0.9665408 -0.19942404 0.037822783 -0.42161945 -0.3006998 -0.2550877 -0.018368945 -0.25558907
-0.25980732 -0.2543862 -0.221571 -0.9725901 -0.41414434 -0.00624153 -0.27217224 -0.7395546
-0.08908208 0.41184556 0.02379319 -0.07821861 -0.2836856 -0.8386215 -0.5259776 0.07466838
0.024380669 -0.25360453 0.02938196 -0.08567785 -0.41299686 -0.3259189 0.20089315 -0.04305932
0.24399254 -0.5027335 -0.3000093 -0.21526964 0.053097606 -0.3209021 -1.1141219 0.22981389
-0.6209728 -0.35419416 0.087335035 -0.29242566 -0.08652131 0.029477179 -0.10611131 -0.30429673
-0.19428512 -0.20984465 -0.2604186 -0.37588793 -0.10503599 -0.4770325 -0.3053233 -0.79677933
-0.1898085 0.2665092 -0.22204272 -0.0628643 0.101707205 -1.5501574 0.03589645 -0.20105115
-0.35311002 0.37026024 0.115034014 -0.18020609 -0.3523878 -0.0017967671 0.020220652 -0.2933847
-0.16208895 -0.35299134 -0.24359305 -0.3586294 -0.28598407 -0.06873439 -0.254248 -0.21302322
0.08682135 0.04332027 -0.055496782 0.04432662 0.012973785 -0.3110534 -0.24787727 -0.08771826
-0.0871765 -0.30099133 -0.011174917 -0.0044101924 -0.27744368 -0.09270355 0.19445024 0.05117394
-0.29619855 -0.20077944 -0.22070138 0.18905954 -0.09734899 -0.16345379 -0.22598065 -0.02726996
-0.2959466 -0.19326065 -0.04558295 -0.30017537 -0.046091318 0.07117705 -0.16914517 -0.3949345
-0.3167062 -0.24851313 -0.37533122 -0.19150278 -0.07056858 -0.17258084 -0.105330005 -0.3206006
-0.15657169 0.006492302 -0.32356432 0.095895454 -0.023364827 -0.3097263 -0.11584319 -0.19514981

fc2.bias f4 [64]
00000000: b29d 58bd 3736 97be 0852 81bf 436b 93be
00000010: 4871 f1bf 31e0 3dbf 9724 babe e8d3 aabe
00000020: 25cc e5c0 6777 debd 2fa9 59be 99ba 9cbe
00000030: e7f2 0dbf 8665 01bf 90ed c1be c78a 8dbe
00000040: e6ac d9bc f28d 58be b913 94be e20c 2fbe
00000050: e39c d2bc 1069 08bb f3e4 cdbe b74d 7bbe
00000060: 1fc8 4fbe 9c71 8fbe 3735 34be 53f9 7cc0
00000070: 4537 a7be 7b8c 11bf bfc1 acbf 6a77 91be
00000080: cbfa 0dbf 9174 c3bd 42bc 6bbe 58da 8dbe
00000090: c83b 1bbf 3404 bd3f b153 89be ca45 79bd
000000a0: d68b 97bd 8956 42bf a775 96be 9aba b9be
000000b0: c662 47be e855 b5be f55c e6bf 2784 4fbe
000000c0: 1568 c0be 7980 87be f162 42be 4f20 3bbe
000000d0: dd16 91be 1c09 f6be f990 64bf 4da5 17be
000000e0: 326d d9bd 560e 76be 9092 15c0 c747 34be
000000f0: 2001 96be c3d8 00c0 7144 36bf 9401 3cbf
-0.052884765 -0.2953355 -1.0103159 -0.28792772 -1.8862696 -0.74170214 -0.3635604 -0.33364797
-7.18117 -0.10862618 -0.21255945 -0.30611113 -0.55448765 -0.5054554 -0.37876558 -0.2764494
-0.026571702 -0.21147898 -0.28921297 -0.17094758 -0.025709575 -0.0020814575 -0.40213737 -0.24541365
-0.20291184 -0.28016365 -0.17598425 -3.9527175 -0.32659355 -0.5685498 -1.3496627 -0.28411418
-0.55460805 -0.09543718 -0.23021033 -0.27705646 -0.60638094 1.4766908 -0.26821664 -0.06085757
-0.073997185 -0.7591329 -0.29386637 -0.36275178 -0.19471273 -0.35417104 -1.7997118 -0.20265256
-0.37579408 -0.26465204 -0.18983056 -0.18274044 -0.28337756 -0.48053825 -0.8928371 -0.14809151
-0.106165305 -0.24028906 -2.3370705 -0.17605506 -0.29297733 -2.01323 -0.71198183 -0.7343991

fc3.weight f4 [6, 64]
00000000: f4db af3c bbc8 203b e320 b93f 643b 993e
00000010: dc3c 91bf 7f41 67bd 9aa7 c5bd 9939 89be
00000020: e8a9 b13d b503 943d b121 803d 0054 cb39
00000030: 3bf2 d7be 7cc7 c03d 8f76 0abf e48f f23d
00000040: b12c 16be acef c43e 1c9b 4cbd fed2 aabe
00000050: e200 093e 20a4 86bf 6be1 45be 72ac 8fbe
00000060: 4d69 13bd ec83 453e 963e 623e 3bbc 24be
00000070: b483 b8be 4b33 86be cde9 363f 16cf 7fbe
00000080: 6f57 7ebd fad4 86be 6c69 6abe 7587 a93e
00000090: 7c8a 313d f888 09bf 8dc3 1a3d f55b d8bd
000000a0: 187f 0a3e 8256 293f 270e d1be 1fe2 82be
000000b0: 5547 7cbe ecbc d13e fc60 a33d 9d88 12bd
000000c0: bbca 9e3e 63fd ca3e 81db b23e fdab d2be
000000d0: 4ab2 453e 487c 49bf 00c5 793b 02d5 c83c
000000e0: d595 ad3d 801d 73be 55eb b43f f2cc 96be
000000f0: 2927 c1bd 9aaf a9be 6435 b43e 5f65 503f
00000100: de14 173f 4e30 64be beed 473f de73 4b3e
00000110: 3641 a0bf fe56 5b3d f835 30bd 4fdb 57be
00000120: 7972 66bd 979b 2dbd dd88 efbd 3049 2fbd
00000130: 6a68 073f 5c93 e13d ab4e f83c 407e 813d
00000140: 88fe 7f3d 2eec bfbe 6c5e ddbe 9d42 a1be
00000150: ccf7 5cbe 3855 3a3e 3f8e 4bbe 00d7 b63e
00000160: 258d 8abd c8c0 3bbe ea1e cabc 6323 60bd
00000170: d649 bebe 3ec1 eabc 33c9 6fbf 2531 82be
00000180: abb1 463d 54b5 83bd 73b3 d93e b026 953e
00000190: 90ab 08bf 3223 5d40 6c83 9dbe 36f2 35be
000001a0: 8b89 653e 5adf 22bf 976c b5be 2f6e d3be
000001b0: cedd 7c3e 9401 b1be 8a38 173f 3e66 7fbe
000001c0: bf4f 8cbe c94c c23e a980 503e 8679 c6be
000001d0: 9447 263e 71a1 69bd 4e1e e23d f2a5 09be
000001e0: d502 2b3e 5249 3bbe 2111 1240 0b40 89be
000001f0: c1b6 183e cac1 583f 661e 7e3c ceb4 3d3f
00000200: 506b 443e 5a8a c13c a22f d83e 2cab 4f3e
00000210: 3f98 e0bf 25b0 36bf 5dbe 87be ba72 cbbe
00000220: 26b5 043f fa36 a4bd e7bc 37bc 1d84 b5be
00000230: 12d2 cf3b 4016 a5be a187 87be 4bd9 873e
00000240: 9c91 abbd 61e9 99be f7c7 bc3e ef95 a83d
00000250: 670f 91bd 8a14 efbe c1b7 8a3e cbd1 1abf
00000260: a960 063e 51c5 a3be 69a0 17bf 9040 0cbe
00000270: 43f8 4fbe f2f3 90be 7dc8 2ebf b51e 78be
00000280: 2251 2d3e e212 7fbd 0242 54be f458 41be
00000290: b6a9 993d c6c5 b93c adf5 703d 6f6a 10bd
000002a0: 3862 2c3e 3ad8 253f 5706 b0be e9a0 4bbe
000002b0: 08ce 17bf 8464 bebe 63f6 92be e923 d1bc
000002c0: 6a26 65be 9f65 83be f302 36be 658e 63be
000002d0: 790d ed3d 0450 56bf a04a d1bd 3cc8 2cbe
000002e0: ecb3 5c3d 86b5 b4be d879 8dbf 9b31 abbe
000002f0: c680 37bd 366f bd3e d59e e13e e016 393f
00000300: 95c6 f93e 462f 0bbe 31ba 393f 1740 803e
00000310: cbc6 cbbf 1764 d73d bc4d c93d efc5 a1be
00000320: 982d 03bf 3b29 e5bd 24f4 9cbd 8488 f6be
00000330: 2a47 e4be 48fe c2be 3dc0 c93e 8a1d c5bd
00000340: 9e4f 453e 683f b63e b3ec a1be dfe5 35be
00000350: d44c 19be a466 06bd 2f1f bfbe 90c7 7c3e
00000360: a8e5 ddbd 2d09 94be bc08 683e 08e0 9c3e
00000370: fe8a 8abe e69a 2e3f c680 143f f18e d1be
00000380: a6fc 50be d130 063d 1bb5 a0be 23c4 b63e
00000390: 07c6 22bf 1b8e 913d 883c a0be ec72 89be
000003a0: 18f3 a1bd 10c3 3dbf 11e9 95be a671 c5be
000003b0: 3bf8 a7bd de43 8a3e f35b a9bf 0b58 8bbe
000003c0: f1c4 453e a7ef 9b3e b281 85be 64a0 a0be
000003d0: 6be4 863e f3d5 e7bd 3e59 41bf 75ef 51bd
000003e0: 61a7 be3d 9cdb b6be 86eb b63f b1ae 93be
000003f0: a721 e3be 45a1 e33e 935d 0c3c c034 f93e
0.021467187 0.0024533707 1.4463161 0.29928124 -1.1346698 -0.056458946 -0.09651108 -0.26801756
0.08674985 0.072272696 0.06256426 0.00038781762 -0.42176995 0.094130486 -0.54087156 0.11843851
-0.14665486 0.38464105 -0.04995261 -0.333641 0.13379243 -1.0518837 -0.19324271 -0.28061253
-0.035989095 0.19288605 0.22094187 -0.16087429 -0.36037982 -0.26211008 0.714505 -0.24981341
-0.062095102 -0.26334363 -0.22891778 0.33111158 0.04334496 -0.5372462 0.037784148 -0.105644144
0.13525045 0.66147625 -0.4083111 -0.25563142 -0.24636586 0.40964448 0.07977483 -0.035774816
0.31014046 0.39646444 0.34933093 -0.41146842 0.19306293 -0.78705263 0.0038111806 0.024515633
0.08475844 -0.23741722 1.4134318 -0.29453236 -0.09431297 -0.33141786 0.35196984 0.8140468
0.59016216 -0.22284052 0.7809714 0.19868419 -1.2519901 0.05354976 -0.04302022 -0.21079753
-0.056261513 -0.04238471 -0.116960265 -0.042794406 0.528937 0.11014435 0.03031095 0.063229084
0.0624986 -0.37484878 -0.432361 -0.31496134 -0.21578902 0.18196571 -0.19878481 0.35710907
-0.067652024 -0.18335259 -0.024672944 -0.054721247 -0.37165707 -0.028656598 -0.9366638 -0.2542812
0.04850928 -0.0643107 0.4251972 0.2913108 -0.53386784 3.4552732 -0.3076433 -0.17768177
0.2241575 -0.6362206 -0.3543441 -0.41295 0.24693987 -0.34571517 0.59070647 -0.24941346
-0.2740459 0.37949207 0.2036158 -0.3876459 0.16238242 -0.05703873 0.110409364 -0.1344221
0.16700299 -0.18289688 2.2822955 -0.26806673 0.14913465 0.846707 0.015510177 0.7410401
0.19181561 0.023625541 0.4222384 0.2028014 -1.7546462 -0.71362525 -0.26512423 -0.39735967
0.5183891 -0.080182984 -0.011214471 -0.35452357 0.006342181 -0.32243538 -0.26470664 0.2653297
-0.08377382 -0.30060866 0.3687131 0.082317226 -0.07083016 -0.46695358 0.27093318 -0.6047637
0.1312281 -0.31986478 -0.5922914 -0.13696504 -0.20309548 -0.28311116 -0.6827467 -0.24230464
0.16925481 -0.062273867 -0.20728305 -0.18881589 0.07503073 0.022677314 0.058828045 -0.035257753
0.16834342 0.6478306 -0.34379837 -0.19885601 -0.59298754 -0.37186062 -0.28703603 -0.025529819
-0.22377935 -0.25663468 -0.17774563 -0.22222288 0.11574835 -0.83715844 -0.10219312 -0.16873258
0.053882524 -0.3529474 -1.1052809 -0.33436283 -0.044800542 0.3699891 0.44066492 0.7230053
0.4878432 -0.13592252 0.7254973 0.25048897 -1.5920042 0.105171375 0.0982928 -0.31596324
-0.51241446 -0.11189505 -0.07663754 -0.48151028 -0.44585544 -0.38084626 0.3940448 -0.09624775
0.19268653 0.3559525 -0.316259 -0.1776347 -0.14970714 -0.03281273 -0.3732848 0.24685502
-0.10834819 -0.2891325 0.22659582 0.30639672 -0.27059168 0.68205106 0.5800899 -0.40929368
-0.20408878 0.0327614 -0.31388173 0.35696515 -0.63583416 0.071071826 -0.31296182 -0.2684549
-0.079076946 -0.74125767 -0.29279378 -0.3856327 -0.08201643 0.27004904 -1.3231186 -0.2721561
0.19313408 0.30456278 -0.26075512 -0.31372368 0.26346144 -0.113201044 -0.755268 -0.051253755
0.09309269 -0.35714424 1.4290626 -0.28844216 -0.44361612 0.44458976 0.008567232 0.48673058

fc3.bias f4 [6]
00000000: 3f2a fdbd 5a1f 9ec0 84c4 c7bf 5090 5fbf
00000010: 55bb 24c1 2d6f 2cc1
-0.123615734 -4.941327 -1.5606847 -0.8732958 -10.295735 -10.777143
