checkpoints/model_0.1_500.pth (torch, 25220 bytes, 6 tensors)

fc1.weight f4 [64, 16]
00000000: 76f5 58be 5564 d4be f824 13be e496 85bd
00000010: c8c0 5a3d f640 dbbe 4584 51be c06c aebb
00000020: 33f7 18be cdf1 e1be 60f0 23bf de52 0ebf
00000030: 9f78 1ec0 1139 c13f 6550 a93f 5c20 77bf
00000040: 5586 d7be 77ce 33be 2ae1 403e b00c bbbd
00000050: 82f6 4a3e 3784 1ebf fd7f 48be 3ea1 143e
00000060: a9f4 43be 1d3e 97be b562 cfbe 3dfd 67be
00000070: 0b8a adbe a323 11be 26d0 35be 57ba b53d
00000080: 8cdc 64bd 84ac 62be 8097 0f3e c824 64be
00000090: 0850 883d 39d1 20be 4563 13bf 4a38 533e
000000a0: c837 0abf 1ab6 fbbd 2cef de3e 8aba 803d
000000b0: b426 99be 5836 cdbe e02e d23d 9c37 8e3e
000000c0: 11f4 1bbe ae2d 86be 200c 34bd 4094 8fbb
000000d0: be70 46be 67c9 f2be 75ef e6bd e481 4e3e
000000e0: 305d 6dbe ea7b d7be 1ca0 03be 3c36 32be
000000f0: 5bd1 12bf 631e 53be 4e27 56be 778d 293e
00000100: c0e5 b8bd 40a5 1d3c ee87 723e 3088 bfbc
00000110: 24b9 63be c05a ffbb 0807 b6bd 0023 e03c
00000120: dae4 76be 387c 38bd 4864 4f3d 6ccf 9dbd
00000130: 08df 83bd c4a4 9f3d b875 1e3d e845 4bbd
00000140: bce8 823d 3cb0 c7bd 9ae5 703e 1274 0bbe
00000150: 40d7 7bbd e403 6ebe 80f2 4cbe 8cfd 88bd
00000160: d892 063d e433 59be c86a bfbd 50af 873d
00000170: c6f8 02be a08e 39bc e029 0ebc 3ed1 51be
00000180: 0118 d9be 32db fdbe 00c0 8cbc 1a75 1ebe
00000190: 826d 1bbe 71f3 92be 0dd7 91be 7ea5 10be
000001a0: 61d1 7bbe d256 53be e478 8e3d c629 a5be
000001b0: a2b5 023e 2402 05be a05b a8bc 5af4 40be
000001c0: 614a 5abe 3fab 9fbe 6835 b03d 9085 3f3d
000001d0: 58a2 1bbd 0462 ebbe a43b edbe 7850 053d
000001e0: dcf0 a2be 3185 54be 765e 6cbe c075 85be
000001f0: 0a2c 13bf 2606 91be 7eb1 05bf 832a 343e
00000200: ded2 97be d952 b6be 8020 b5bc 005e e63d
00000210: 48b6 31be c519 7fbe daea efbe c0ff 7ebc
00000220: 32f0 cebe 333c 65be 1c66 7ebe 097b d3be
00000230: 0c69 56be abf3 f2be c55f 14bf b2cd c3be
00000240: 5b76 b33d 2ff4 61bd 1ecc 55be 860d 033e
00000250: 5408 923d 7bb9 b5bd 6309 30be 70a4 a73c
00000260: a303 6b3d 688b 38be f6b0 97bf b1d2 493e
00000270: ca20 b1bf 63d7 4ebf 4066 60be 1bac ca3e
00000280: 932a 43be 7621 60bf 0cf5 243e 587f 5f3d
00000290: 4cbd 2b3e b244 17bf 66d2 1bbf 309a 04bd
000002a0: d549 3fbf 401f 36bf c2e2 4cbf a6e5 1ac1
000002b0: 389b 643d 1695 a73f 3648 743e 04e8 94be
000002c0: 26f1 56be ae81 00bf b060 d63d b8e9 51bd
000002d0: 106c 393e 5108 86be b646 bcbe 34ed 7ebe
000002e0: bd79 d8bd 2205 b2be 51b2 7dbd 6123 d2be
000002f0: 42bb 32be 4292 cabe a824 71be ac00 d2bd
00000300: c0b7 c3bf d03a 5cbe 60e5 753c f28a 30be
00000310: 50be 493e 942e c5bf 6a2e e8bf 8029 083d
00000320: b7ac dabf 4a5d b9bf 841e e43d c0dc 33be
00000330: daba 683e 05c5 b0bf db11 b2bf 5832 b5bf
00000340: 447a e9be fbb0 41be c8ad 273e e0da 40be
00000350: e02a 54bd 0168 debe 17bf 23be 66d4 66be
00000360: 3e84 24bf cbe5 2fbe eccb 4dbe 4396 f0be
00000370: a323 77be 0715 76be d29f 043d d7bb 0ebe
00000380: c61e cebe 3660 e23d be3a 113e 2eda 32be
00000390: 90ff 8f3d f5e9 78bd 81aa 4a3d 2045 443e
000003a0: c8ef 92be 7bdc f6bd 3bc5 25bf 06e3 d4be
000003b0: f4cf 6dbe 3ed0 f7be f5ec 0abe c0c1 3fbe
000003c0: 0035 2abd 6091 01be a6dc 2bbe 6441 633e
000003d0: d608 433e 11ac 00be c17c 2c3e b477 f23d
000003e0: f417 4bbe 4e5a 143e 0c37 88bf e33d cb3d
000003f0: 5f64 6fbd f16f 1cbf 8f78 d2bc 6e50 71be
-0.21187386 -0.41482797 -0.14369571 -0.06522921 0.053406507 -0.42823 -0.20460613 -0.0053230226
-0.14938049 -0.44129792 -0.6403866 -0.55595195 -2.4761121 1.509554 1.322766 -0.9653375
-0.42094675 -0.17559229 0.18835893 -0.09133279 0.19820598 -0.61920494 -0.19580074 0.14514634
-0.19136299 -0.29539576 -0.40504995 -0.22655196 -0.3389438 -0.1417375 -0.17755184 0.08873432
-0.055874392 -0.22136122 0.14022636 -0.22279656 0.0665589 -0.15704812 -0.5757335 0.20626941
-0.53991365 -0.122905925 0.4354185 0.062855795 -0.2991234 -0.40080523 0.10262847 0.27776802
-0.15229823 -0.26206726 -0.043956876 -0.0043816864 -0.19378945 -0.47419283 -0.112761416 0.20166737
-0.2318008 -0.42086726 -0.12854046 -0.17403501 -0.573507 -0.2061706 -0.20913431 0.16557871
-0.09028196 0.009621918 0.23684666 -0.023380369 -0.22238594 -0.0077928007 -0.0888806 0.02736044
-0.24110737 -0.04504034 0.050632745 -0.07705578 -0.06439024 0.077950984 0.038686484 -0.049627215
0.06392047 -0.09750411 0.23525086 -0.13618496 -0.061484575 -0.23243672 -0.20014381 -0.06688985
0.032854885 -0.21211201 -0.09346539 0.06625235 -0.12790212 -0.011325508 -0.008676976 -0.20489976
-0.42401126 -0.49581295 -0.017181396 -0.15474358 -0.15178493 -0.28701356 -0.28484383 -0.1412563
-0.2459159 -0.20638588 0.06956652 -0.32258433 0.127646 -0.12989098 -0.020551503 -0.18843213
-0.21317436 -0.31185338 0.086039364 0.046758235 -0.03799662 -0.45973217 -0.46334565 0.032547444
-0.31824386 -0.20753933 -0.23082909 -0.260664 -0.57489073 -0.28325003 -0.52223957 0.17594342
-0.29653066 -0.35610083 -0.022110224 0.11248398 -0.17354691 -0.24912174 -0.46858865 -0.015563905
-0.4041763 -0.22386245 -0.24843639 -0.41304806 -0.2093851 -0.4745153 -0.5795863 -0.3824287
0.08762809 -0.055164512 -0.20878646 0.12798128 0.07130495 -0.08873268 -0.17191081 0.020464152
0.057376515 -0.1802193 -1.1850879 0.19709279 -1.3838131 -0.80797404 -0.21914005 0.3958443
-0.1905921 -0.8755106 0.16109103 0.054564804 0.1677143 -0.59089196 -0.6086792 -0.032373607
-0.74722034 -0.71141434 -0.80033505 -9.6810665 0.05581209 1.3092372 0.23855671 -0.29083264
-0.20990428 -0.50197875 0.104676604 -0.051248282 0.18107629 -0.2617822 -0.36772698 -0.24895173
-0.10570095 -0.3476954 -0.061937634 -0.41042617 -0.17454246 -0.3956471 -0.2354914 -0.102540344
-1.5290451 -0.2150681 0.015008301 -0.17240503 0.19701505 -1.540484 -1.8139164 0.033242702
-1.7083958 -1.4481595 0.11138633 -0.17564678 0.22727528 -1.3810126 -1.3911699 -1.4155989
-0.45601094 -0.18915169 0.16374886 -0.18833494 -0.0517987 -0.43438724 -0.15990864 -0.22541961
-0.64264286 -0.17177503 -0.20097321 -0.4698964 -0.24134688 -0.24031459 0.03237898 -0.13938843
-0.40257853 0.11053507 0.14182565 -0.17466041 0.070311666 -0.060769994 0.04947901 0.19166994
-0.28698564 -0.12053772 -0.64754075 -0.41579455 -0.23223859 -0.48401064 -0.13566954 -0.18726254
-0.04155445 -0.12653112 -0.1678339 0.22192913 0.1904634 -0.12565638 0.16844465 0.11839238
-0.19833356 0.14487574 -1.0641799 0.09923913 -0.05844533 -0.6110831 -0.025692252 -0.23565838

fc1.bias f4 [64]
00000000: b4a3 21be 1e3e e8be 574a 93be 2345 c3be
00000010: 701e 903c 58b0 1dbe 04d6 0cbf cf68 08be
00000020: f80e 9bbe 93c5 98bc 8454 60bf 7dbc 6cbe
00000030: 73fd afbf bcba 0ebf 5aba 8e3d da02 3bbe
00000040: 7ce1 f7bd 1e3c 1dbe e40d 96bd c309 46bd
00000050: b2d3 66bf 32f7 afbe 542d e3bd 9153 e9be
00000060: 3c21 36be b0b2 2b3e d82b 58bf 7794 0c3d
00000070: 9c89 f53d 86c0 64bf e00e e3bd 063e 4dbe
00000080: 1ed3 ecbf e5b6 63be bdf3 08bf 46bf b5be
00000090: dd64 4abe 185a ffbd c9c1 2bbf 8254 dcbe
000000a0: 0a41 9ebe 0e6d 53be 787b 79be 187a 00be
000000b0: ad2d 45be abf2 023e eeca 563c a3ac e1be
000000c0: 863f 51be 36ad 353e d0eb 78be ed4c 55be
000000d0: 885c 42be dce7 0bbf f41d 16bd 86ed 62be
000000e0: 7770 6e3f c5d9 b5be 3eb2 8d3f 9f5c dcbe
000000f0: 0590 65be 9297 b6bd eb80 a2be d377 4cbe
-0.15785104 -0.45359892 -0.28767654 -0.38138685 0.017592639 -0.15399301 -0.5501406 -0.13321231
-0.30284858 -0.018648898 -0.8762896 -0.23118778 -1.3749222 -0.55753684 0.069691375 -0.18262807
-0.121035546 -0.15354964 -0.07326868 -0.048349153 -0.9016677 -0.34368283 -0.1109263 -0.4557157
-0.17786115 0.16767383 -0.844419 0.034321275 0.119891375 -0.8935627 -0.110868216 -0.20043191
-1.8501928 -0.22237737 -0.53496915 -0.35497493 -0.19765039 -0.12468356 -0.6709257 -0.43033224
-0.30908996 -0.2064707 -0.24363506 -0.12546575 -0.19255705 0.12787883 0.013109906 -0.44077024
-0.20434389 0.17741856 -0.24308705 -0.20830126 -0.1898061 -0.54650664 -0.03664966 -0.2216092
0.9314036 -0.35517707 1.107002 -0.43039414 -0.2241822 -0.089156285 -0.31738982 -0.19967584

fc2.weight f4 [64, 64]
00000000: e14a d7be 6ff9 44be 710e 6fbe 3bdc 43be
00000010: c834 c0bd a0df 0c3c 8c4b b7be bab6 bfbe
00000020: f1d0 81be 831c 41be cda5 40be 5656 7ebe
00000030: 0079 f9ba 3093 5cbe 2568 79be e26e cebe
00000040: 9021 efbd 788b 97bd d82c cc3d c027 9ebe
00000050: 06da 5ebe 9e5b d7be c0b7 393c df3c a0be
00000060: 2497 a5be 18d9 943d 1cff d1bd c303 bebe
00000070: 88a6 b7bc 1035 28bd 624b ccbe ed9c 9abe
00000080: e1f8 d6be da6b bbbe f2fc 34be 4f7a b3be
00000090: e517 c0be 84e3 393d b921 6cbe 2e42 d2be
000000a0: a891 b9be 4832 953d 9011 1cbd c8e4 98bd
000000b0: 7f56 b6be e802 d5be 7cc5 b0be 7e33 87be
000000c0: de35 f6bd fc8f 9e3d 3a13 8d3d bc6a 51be
000000d0: 5c19 203d 9707 4fbe a14a 77be 4062 b33c
000000e0: 7753 58be da3b 6abe 369e d7be 3d8a c0be
000000f0: 6d72 d7be 6b5a a4be 1ed9 9bbe 4ec3 96be
00000100: 49d4 cebe 524d bdbe a6b4 33be 6c5b cebe
00000110: 0099 eebb c057 3dbb 1ae3 d13d 840f f0bd
00000120: 6ec7 afbe 5ae9 bfbe 457a 9bbe 2bc6 94be
00000130: d4cd 09bd 9a34 88be 8971 babe 8abb cebe
00000140: 12c5 f43d 1078 513d 70f3 3f3c 3685 c0be
00000150: 6dd7 42be 684d debd 62cb b1bd e773 aabe
00000160: 5f88 c3be a0c4 8cbb 0037 e53a 533c a9be
00000170: dc2a c7bd e022 62bc 6275 94bd a425 b0be
00000180: 5cdf 3cbe 6ca7 a4be 88d4 c8be b2b6 ec3d
00000190: 128d b0be b0b1 65bd a92e 68be c889 f93d
000001a0: d8a6 26bd 7e89 d3bd 4a08 d0bd 20da aebd
000001b0: 6105 44be 117f cdbe cabe 6bbe 5707 8abe
000001c0: 3483 cdbd 0e1c b93d 4cd3 253d a459 8cbe
000001d0: b252 9cbd 9a92 aebe 50ee 7abe 721f 983d
000001e0: e8d1 54be 1807 c93d 5827 98be 5c70 ffbd
000001f0: 99af d8be 649d aebd 97a5 b6be 2011 b9be
00000200: 9ed1 c4be 9515 a4be 7b3c b0be 567c 7bbe
00000210: 5a17 b6bd e009 633c e8b4 d6be c0dc a33c
00000220: 3627 c4be 6bd6 8dbe d8f3 d5bf e4b4 a5be
00000230: 46d9 f9bd 8dbd a0be f11a cdbe 63b5 d5be
00000240: ac35 2f3d 0060 53b8 dadb e7bd 6fdd cfbe
00000250: 183f e1bf 6a51 adbe 7436 b2bd 0cc1 acbe
00000260: 2316 c2be 4470 6bbd 90ab f7bc 88cb a1be
00000270: b0d2 a43d 98eb d0bd 8082 913a 6561 cebe
00000280: 49d2 b3bf a0dc b3be dbdd 8cbe efbf a7be
00000290: 8697 58be f068 c0bc 5929 99be fad3 b4be
000002a0: d039 b9bf b091 753c 5063 bb3c 40e8 cfbd
000002b0: 37e0 c3be f21a 9dbe 4fc0 c5be 5c56 cdbe
000002c0: a88f 933d 8055 843d 5058 08bd af64 a4be
000002d0: 68c4 143d a38d 5fbe 7afb 51be b6c4 82bd
000002e0: c595 fdbf 13d7 5bbe 10de efbf 3435 5b3d
000002f0: 48bc 64be 7830 fb3d c8d3 76be 3489 23bd
00000300: 379b 37bd 063b 2f3e 3add ba3e 059d 783e
00000310: 9895 cdbd ea6b b8bd f002 653e 9e68 16be
00000320: 193d cd3e ad67 033e 79e0 073e e44e 813e
00000330: 054a b63f 4377 b93e a118 5cbd 2d3a b5bc
00000340: 969d f33d e090 bfbd f6eb ce3d 6c77 153c
00000350: db3c 07c0 1258 ac3d e0dd f73b ac95 9f3e
00000360: eb8d 843e ea90 a8bd a191 2f3f d726 33bd
00000370: 20e3 bc3b fe86 303f 6aa8 bcbe a88b 7e3e
00000380: 3d70 263d e630 703e 0da0 813e fd4d db3d
00000390: 0a1c 9a3d 8072 f43c e875 683e f30f 713e
000003a0: e248 b2bf 7eea fcbd cce7 28bd 96a2 bbbd
000003b0: b6bc 753e fe79 343e 4af5 1fbb 2cd1 d13e
000003c0: 7a17 ecbd c482 99bd 90f1 0cbc 98d9 af3e
000003d0: 906e 853c 397d 873e 84aa 803e 94dc ea3d
000003e0: a2e9 febe b7f5 3a3e 8927 29c1 46d7 9c3e
000003f0: 9510 783d f952 413e 3e5a c13e 411f 6c3e
-0.42049316 -0.19235776 -0.23345353 -0.1912698 -0.09385067 0.008598238 -0.35799825 -0.37444097
-0.25354722 -0.18858533 -0.18813248 -0.24837622 -0.0019033253 -0.21540523 -0.24356134 -0.40318972
-0.116763234 -0.073996484 0.09969491 -0.30889702 -0.21762857 -0.42062086 0.011335313 -0.3129644
-0.32341874 0.0726797 -0.102537364 -0.37112245 -0.022418275 -0.04106623 -0.39901263 -0.3019785
-0.41986755 -0.36605722 -0.17674616 -0.35054252 -0.3751823 0.04538299 -0.23059739 -0.41066116
-0.3624394 0.07284981 -0.038102686 -0.074655116 -0.35612866 -0.4160378 -0.3452567 -0.26406473
-0.12021993 0.077423066 0.06888433 -0.20450872 0.039086685 -0.20217739 -0.24149562 0.021897435
-0.2112559 -0.22874394 -0.42112893 -0.37605467 -0.42079487 -0.32100233 -0.30439085 -0.2944588
-0.40396336 -0.36973053 -0.1754938 -0.40304124 -0.0072814226 -0.0028891414 0.10248394 -0.11721709
-0.3433184 -0.3748272 -0.30366722 -0.2905744 -0.03364356 -0.26602632 -0.36414745 -0.40377456
0.11951651 0.05113989 0.011715755 -0.37601632 -0.19027491 -0.10854608 -0.0868137 -0.3329155
-0.3818998 -0.0042959005 0.0017487705 -0.33053836 -0.09724972 -0.01380226 -0.072489515 -0.34403718
-0.1844458 -0.32158983 -0.39224648 0.11558284 -0.34482628 -0.05607766 -0.2267405 0.12184483
-0.04068646 -0.10328959 -0.10157831 -0.08537698 -0.19142677 -0.40136006 -0.23021999 -0.26958725
-0.10034791 0.09038554 0.04048471 -0.2741214 -0.076329604 -0.34096223 -0.24504972 0.07427873
-0.20783198 0.09815806 -0.29717517 -0.12472603 -0.4232147 -0.08526114 -0.3567321 -0.36145878
-0.38441175 -0.32047716 -0.34421143 -0.24559149 -0.08891173 0.013857335 -0.41934896 0.020002723
-0.38311166 -0.2770265 -1.671504 -0.3236457 -0.12199645 -0.31394616 -0.40059617 -0.4173995
0.042775795 -5.0395727e-05 -0.1132123 -0.40598628 -1.759738 -0.33851177 -0.08701792 -0.33741033
-0.37907514 -0.05748011 -0.030233175 -0.31600595 0.08047998 -0.10201186 0.0011101514 -0.4030868
-1.4048549 -0.3512926 -0.27513012 -0.3276362 -0.21151552 -0.023487538 -0.29914358 -0.35317975
-1.4470768 0.014988348 0.022874504 -0.1015172 -0.38257 -0.3068462 -0.38623282 -0.4010495
0.07205135 0.0646162 -0.033287346 -0.32108065 0.03632012 -0.21831374 -0.20506087 -0.06385176
-1.9811331 -0.21468763 -1.8739643 0.053517535 -0.22337449 0.12265104 -0.24104226 -0.03992577
-0.04482576 0.1711236 0.36496907 0.24278648 -0.10038298 -0.09004958 0.22364402 -0.14688346
0.40085676 0.12832518 0.13269223 0.252555 1.4241339 0.36223802 -0.053734425 -0.022122467
0.118952915 -0.093538046 0.101036 0.009122711 -2.1130893 0.084152356 0.0075642914 0.31168878
0.25889525 -0.08230765 0.6858159 -0.043738212 0.00576438 0.6895598 -0.3684724 0.24857962
0.040634383 0.23456153 0.25317422 0.107082345 0.07524879 0.029839754 0.22701228 0.2354124
-1.3928492 -0.12349413 -0.041236684 -0.0916187 0.23997769 0.17624661 -0.0024407678 0.40979898
-0.11527915 -0.07495645 -0.008602515 0.34345698 0.016288072 0.26462725 0.25130093 0.11467853
-0.49787623 0.18257795 -10.572152 0.3063299 0.06056269 0.18879308 0.37764162 0.23058797

fc2.bias f4 [64]
00000000: a09c 80be 71fd 53be d18d 02c0 e4bd 91bd
00000010: 0b06 5cbe 6330 d8be 4338 b9be 21f2 84be
00000020: fc84 a0be 5d56 a3be 6dc3 c6bc 3fa3 a13f
00000030: 3ea2 00bd e5bb 2bbd 9330 b0bf c870 2ebe
00000040: 1346 e0bd 2350 1fbe 0eeb 93be 1bf6 08be
00000050: 519c fac0 ebd0 59be c386 82bd 3246 75be
00000060: 4cf2 dabd 2151 3fbe cbf9 cfbe 1ccd c4be
00000070: d5ce b1be e43e 22bf 1c2f 50be e85a afbe
00000080: d246 11c0 6226 25bf 0b34 96be b4f2 1cc0
00000090: c5cc d2be 2bfb 94be 9d23 adbe c729 e4bc
000000a0: 9ed2 49bf 593e eebd 40b1 c9be f48b e4bb
000000b0: 50e5 85bf 3760 adbe 5142 a1be bbf7 adbe
000000c0: 4948 aabc ea3e e4bc 2924 22bc e267 c5be
000000d0: 7cf5 50be 77ff b6be e36b cabd c438 acbe
000000e0: a70b a5be fc2e c2be d7f2 cdbe 1270 82bf
000000f0: e942 99be dc87 05bd 6336 80be 4f5f 8ebf
-0.25119495 -0.20702149 -2.0399058 -0.07116297 -0.2148668 -0.42224416 -0.36175737 -0.2596598
-0.3135146 -0.31901827 -0.024263108 1.2627944 -0.031404726 -0.041927237 -1.3764824 -0.1703521
-0.109508656 -0.15557913 -0.2889027 -0.13375132 -7.8315816 -0.21271102 -0.0637336 -0.23952559
-0.10690746 -0.18683292 -0.40620264 -0.38437736 -0.34728113 -0.63377213 -0.20330471 -0.34249043
-2.2699475 -0.6451169 -0.2933658 -2.4523134 -0.41171852 -0.29097876 -0.33816233 -0.027851952
-0.78837 -0.116329856 -0.39393044 -0.0069746915 -1.0460606 -0.3386247 -0.31495908 -0.33978066
-0.020786421 -0.027862031 -0.009896317 -0.3855582 -0.20406145 -0.3574178 -0.09883859 -0.3363706
-0.32235453 -0.3792647 -0.40224335 -1.0190451 -0.2993386 -0.03260027 -0.25041494 -1.1122836

fc3.weight f4 [6, 64]
00000000: da49 6fbe b275 b43d d1b0 c43f 2438 a13e
00000010: 568d d7be 9e91 893e a7de c63d 9525 96be
00000020: 49b7 de3d d32b 403f d47c 263e 510c 1d40
00000030: 8b35 29be 2c38 cfbe 49b6 fbbf 4443 443e
00000040: 145d 7ebf c0d0 5cbd da10 b8be d217 4f3e
00000050: 28a2 8ebf 80fb cb3d eb4f 9a3e da23 6dbe
00000060: 3abf 423e 8bcc 96be a067 833e 4140 e23a
00000070: 74d4 88be c7eb cebe be44 acbe 0165 c4be
00000080: 74d5 5fbf cad4 4dbe 451f f5be 6fa3 753f
00000090: 6925 8fbe 0b9c 27bf 7aee f3bd 2d87 9c3e
000000a0: c67e 5cbf 8b3f 0e3d 209e 4f3e c9d3 5c3d
000000b0: 2185 1abf 64b5 89be ff12 453e de28 82be
000000c0: c892 ce3c 61cf 593d 746b 66bd d9dd 8c3e
000000d0: f64b 50be ee1f 8bbe ddc2 213e c462 4ebf
000000e0: 5e83 c83e 1389 89be ed6e aabe f42d f9bd
000000f0: 956f a53c 0356 073c bf4d 76be c82a d2bd
00000100: fcac b13e 069a d73d 5f66 013f cb7e 8cbf
00000110: 616b 583e 6701 20bd c218 e5bd 204f c23c
00000120: 1a0a b0be 7583 a73e 9055 07be b8b7 fabf
00000130: 7fe5 083f 3194 633d f6e6 8ebf e76c e6bd
00000140: 0d08 37bd 7e2f fbbd ac3d 833e 5904 b5be
00000150: 3dd1 0440 38c5 95be 1420 1c3e 6c75 a53c
00000160: 35ad 14be 800e b93e b643 81be 5ce0 9fbe
00000170: 5627 8d3e 45fe 0c3f 0999 843e 5130 063e
00000180: 9adf b6bc 1290 9b3e bf79 613f 0563 e7be
00000190: 1a65 86bd 2e77 0abf 4019 283e efbc 373e
000001a0: fc81 cabd f3b0 82be 6cae 433e 40bd 243d
000001b0: dcd6 d0bd c89f 6a3e 9f08 3abe b5ea be3e
000001c0: 30e1 7fbe 71f9 9ebf 3839 ca3d 2829 68be
000001d0: 7fa6 a33e 8ffe 533e 8246 873d 7fcd 7a3f
000001e0: 8ec3 5dbe bf96 af3e c75d 3a3e ec9c a03e
000001f0: 6745 14be 47b1 e93d afbf c93e 7cf6 6d3d
00000200: b96f 55be fe21 55be 1302 babf 7443 413e
00000210: 63e7 7ebe c8a9 40bf d4c2 cc3d 7837 9cbe
00000220: c53f a83d 593a 9a3f 4897 dc3d 1caf 923e
00000230: c5a5 9e3c a34d 173a 4b6a fdbe 13a5 213e
00000240: 1af0 a43e 0024 943e 99d4 d1be 0c43 30be
00000250: 7b88 02c0 989d 713e 8688 cfbc c5f0 a9bd
00000260: d6ef 823d 7cc1 bbbe e237 153e ff08 833e
00000270: 2bc0 a6be 5bde dfbd 3d6f 3ebe 6841 a0be
00000280: 561d 97be 8f86 e23b e2d9 4f3e c643 b83f
00000290: b0c5 b3bd 43b5 913f 4d0f 763e e4f2 ebbe
000002a0: 51eb 523f 2c8c 043e 8c34 5bbe 07f6 823d
000002b0: 1a66 643f 21d4 d6be cc80 2c3e 337b d3be
000002c0: 4b9f 753c 6fdc f2bd a968 823b 4ea9 853e
000002d0: f2ff bbbe 0486 aebe 675b 1b3e 4482 643f
000002e0: db51 5f3e 0e7c c0be d8dc 8dbe be87 ef3e
000002f0: 9ae0 593e 44de f2be 657f 40be 8634 a5be
00000300: e62a 54be 1c59 0f3d ecdc b33f 9693 13bf
00000310: 9590 66be b949 2d3f d14a 953e fcba 933d
00000320: 6728 2f3e 0a4e 90bf c914 60be 7785 0e3f
00000330: cea9 883d a2f2 7a3e 33cb 673e 3fd0 223e
00000340: 3c4a 253e d0a4 b1bd 860e 54be aaaf e53d
00000350: 302b 36c0 ac81 8a3e 7531 623c 200b 45bd
00000360: ebb9 0e3e 64c4 c9be 1cff 1c3e ca4b e6bd
00000370: 1b4d 9ebe db57 783e 9910 aebe 469f d9be
00000380: d62f f83e 38b3 bfbe 50fc f63f e735 443f
00000390: 00a3 bebb d3fd 74be 8ded b8be 640b 403f
000003a0: eaad 9e3d 0647 253e 89d5 9ebe 9b11 4a3d
000003b0: 4b28 563f f334 d3be 8c60 573e d6a9 c1be
000003c0: c449 f03d 18bc 4fbd b131 263e 085c 673e
000003d0: 71a0 9bbe 2cf6 9bbe 1132 553f 2f90 b53d
000003e0: 137e 913e e0f1 d3be f94f 6fbe aba7 9dbe
000003f0: 781c 643e caa4 4cbd cc46 71be 19f4 683e
-0.23368016 0.08811511 1.536646 0.31488144 -0.42100018 0.2686891 0.09710436 -0.29325548
0.108748026 0.7506687 0.16258556 2.4538767 -0.16524331 -0.40472543 -1.9665004 0.19166285
-0.99360776 -0.053910017 -0.35950357 0.2022393 -1.1143236 0.09960079 0.30139098 -0.23158208
0.1901826 -0.2945293 0.25664997 0.0017261581 -0.2672459 -0.4041426 -0.33646196 -0.3835831
-0.8743508 -0.20100704 -0.4787542 0.95952505 -0.2795823 -0.6547248 -0.1191072 0.3057188
-0.8613094 0.034728568 0.20275164 0.05391291 -0.6035939 -0.26896203 0.19245528 -0.25421804
0.025216475 0.053176288 -0.05625482 0.27513006 -0.20341477 -0.27172798 0.1579699 -0.80619454
0.39162725 -0.26862392 -0.33287755 -0.12166968 0.020194808 0.008260253 -0.24053095 -0.10262066
0.3470229 0.105274245 0.5054683 -1.0976194 0.21134712 -0.039063837 -0.11186363 0.02371937
-0.34382707 0.3271748 -0.13216233 -1.9587317 0.53475183 0.05556125 -1.1164234 -0.1125124
-0.044685412 -0.12264918 0.2563299 -0.3535488 2.075271 -0.29252028 0.15246612 0.020197593
-0.14519198 0.36143875 -0.25246972 -0.3122586 0.27569073 0.55075485 0.25898007 0.13104369
-0.022323418 0.30383354 0.88076395 -0.45192733 -0.06562252 -0.54088104 0.16415882 0.17943166
-0.09888074 -0.25525627 0.19109505 0.040219545 -0.10197231 0.22912514 -0.18167351 0.37288442
-0.24988246 -1.2419873 0.09874195 -0.2267195 0.31962964 0.20702575 0.06605245 0.9796981
-0.2165663 0.34294698 0.18199836 0.31369722 -0.144796 0.11410766 0.39404055 0.058096394
-0.208434 -0.20813748 -1.4531883 0.18873388 -0.24892955 -0.75259066 0.09998098 -0.3051107
0.08215288 1.2049056 0.10771042 0.28649223 0.019366154 0.00057717616 -0.49495158 0.15785627
0.32214433 0.28933716 -0.40982512 -0.17213076 -2.03958 0.23595273 -0.025333654 -0.08297876
0.06393401 -0.36671054 0.14572099 0.255928 -0.32568488 -0.10931083 -0.18597122 -0.312999
-0.2951457 0.0069130133 0.2029796 1.4395683 -0.0877794 1.1383442 0.24029274 -0.46083748
0.82390314 0.12944096 -0.21406764 0.06394582 0.89218295 -0.41958717 0.16846007 -0.4130493
0.014991592 -0.118584506 0.0039797616 0.26105732 -0.36718708 -0.3408662 0.15171586 0.8926127
0.21808569 -0.37594646 -0.27707553 0.4678325 0.21277085 -0.474352 -0.18798597 -0.32266635
-0.2071949 0.03499709 1.4051795 -0.57647073 -0.22516091 0.67690617 0.29158643 0.07213399
0.17105256 -1.1273816 -0.21882929 0.556724 0.06673013 0.2450662 0.22636108 0.15899752
0.161416 -0.086740136 -0.20708665 0.11215146 -2.846386 0.27052057 0.013805737 -0.048106313
0.1393811 -0.39407647 0.15331692 -0.11244924 -0.30918202 0.24252264 -0.33997038 -0.42504328
0.48473996 -0.3744142 1.929575 0.7664475 -0.005817771 -0.23924951 -0.36118737 0.7501738
0.07748015 0.16140375 -0.3102229 0.049333196 0.8365523 -0.41251335 0.21032923 -0.37824887
0.1173282 -0.05071649 0.16229893 0.22593701 -0.30395845 -0.30461252 0.8327952 0.088653915
0.284165 -0.41395473 -0.23370351 -0.30791983 0.22276485 -0.049961843 -0.23562163 0.22749366

fc3.bias f4 [6]
00000000: 25fd 5cc0 3083 55c0 6d16 6ec0 541c 5ec0
00000010: e827 1dc1 c866 2cc1
-3.4529507 -3.336132 -3.7201188 -3.470479 -9.822243 -10.775093
