checkpoints/model_0.3_50.pth (torch, 25210 bytes, 6 tensors)

fc1.weight f4 [64, 16]
000000 75 60 b0 be c8 22 06 bf 20 54 c2 bc 2c 09 a5 bd
       -0.3444859 -0.5239682 -0.023721755 -0.0805839
000010 80 68 e5 bc 0e ff b4 bd e0 af 6a be 54 a3 d8 3d
       -0.028003931 -0.0883771 -0.22918653 0.10578027
000020 af fa 8b bc e4 8a ac be 98 bc bf 3e c5 31 e0 bd
       -0.017087309 -0.33699715 0.37448573 -0.10946993
000030 11 e8 92 be 06 a6 0c 3c 1e 1b fc be 78 77 81 be
       -0.28692678 0.008584505 -0.4923944 -0.2528646
000040 75 12 a2 bd d4 33 54 c1 9c ae 63 be dc 59 e7 bd
       -0.07913677 -13.262653 -0.22234577 -0.11296436
000050 52 8a 53 3e 62 72 97 be a0 6b 30 bf 5a 2e 3d 3e
       0.20658234 -0.29579455 -0.6891422 0.18474713
000060 55 af ea be 4c a2 da be 49 54 20 bf 7f 52 0f 41
       -0.45836893 -0.42701948 -0.6262861 8.957641
000070 b3 05 b1 bd ad 76 c4 40 1e ea 06 3f e0 22 4f bd
       -0.08643665 6.139487 0.52700984 -0.05057037
000080 88 cc 94 be 7d 48 58 be b0 aa a5 3d da b1 10 be
       -0.29062295 -0.21121402 0.08089197 -0.14130345
000090 f8 7f 59 bd 8d e5 be bd c0 d1 af be 24 69 59 be
       -0.053100556 -0.09321127 -0.34339714 -0.21231514
0000a0 2c ec a2 bb 36 7d 32 3d e7 85 c8 3f ad 45 dc 3e
       -0.0049720015 0.04357644 1.5665864 0.43021908
0000b0 f5 22 ed bf ce e0 42 bf 0c 1c 11 c0 ac 19 bc bf
       -1.8526293 -0.76124275 -2.2673368 -1.4695334
0000c0 b9 9e cc be eb cb a9 3c 98 57 cf bd 82 bd 0e be
       -0.39964846 0.020727118 -0.10124129 -0.13939479
0000d0 a8 0a 5e 3e 94 a5 9a be a5 ef cb be b0 47 21 3d
       0.21683753 -0.3020445 -0.39831272 0.039375007
0000e0 d7 80 5a 3d be 03 89 be 9c d0 0d 3e 04 e2 55 bd
       0.053345527 -0.26760668 0.1384911 -0.0522175
0000f0 bc 7c 1a bf 85 bf a1 3b 60 af ea be 80 0c 99 be
       -0.6034658 0.004936161 -0.45836926 -0.2989235
000100 b6 a9 4b 3e 80 7b 5b 3b 30 f4 fe 3d 64 ac 5e be
       0.19888958 0.003349036 0.12448919 -0.2174545
000110 ea 6d 0a 3e ba ef 59 be e4 b3 13 be 84 85 03 3e
       0.13518491 -0.21282855 -0.14424092 0.12843901
000120 c4 31 09 be 5a 4e 68 be 18 ed ae bd 40 dd 43 bd
       -0.1339789 -0.22686139 -0.08541316 -0.047818422
000130 2c 22 78 3e 62 20 0f be 2c f0 fe bd 7c 1c b4 3d
       0.24231786 -0.13977197 -0.12448153 0.087944955
000140 fa 5d 01 bf 3f 85 9d be 0a e0 49 be f8 7a 26 3d
       -0.5053402 -0.3076572 -0.1971437 0.040644616
000150 d0 c9 3f bd ea e3 3f be 89 a6 d6 be 90 33 3f 3d
       -0.046823323 -0.18739286 -0.4192393 0.046680033
000160 94 a2 a8 be 75 ab f1 be ca 95 48 be df 7a 4a 3e
       -0.32936537 -0.47201124 -0.1958839 0.19773434
000170 ae f0 8b be 44 ea 43 be 04 89 b6 be a5 34 17 be
       -0.27332062 -0.19132334 -0.3565141 -0.14766176
000180 81 b5 55 bf a6 54 c1 be b0 8c 5e bd 94 d1 be 3d
       -0.8348008 -0.37759894 -0.05433339 0.093173176
000190 50 67 dc bd eb 02 32 bf 77 28 6a bf 82 e6 2b be
       -0.10761893 -0.695357 -0.91467994 -0.1678715
0001a0 7a 08 10 bf a9 cd 07 bf 09 04 cb c0 af c9 50 c0
       -0.56262934 -0.5304819 -6.3442426 -3.2623098
0001b0 2e 7b 1f 41 ba 62 fd 40 4c 34 00 c1 16 1f 4a be
       9.967573 7.9183016 -8.012768 -0.19738421
0001c0 10 55 d4 bc ec f1 5b 3e d2 c0 2f 3e 6c 0a 9a 3d
       -0.025919467 0.21479005 0.17163399 0.07521519
0001d0 36 16 0d be 80 24 00 bb 96 08 36 be 02 17 33 be
       -0.13778004 -0.0019553006 -0.17776713 -0.17489246
0001e0 80 dc 9b bc 4e 95 3e be 30 82 05 3e 98 52 56 3d
       -0.019026041 -0.18611643 0.13037944 0.05232486
0001f0 48 ff 6e be 8e 3c 0c 3e 84 f4 9a bd a8 cf 17 be
       -0.2333957 0.13694975 -0.07566169 -0.14825308
000200 8d 6b 08 be 74 5a 34 be a8 86 ce 3d ce 31 26 be
       -0.13322277 -0.1761263 0.100842774 -0.16229936
000210 50 8d 31 bd 0b 11 83 bd c9 29 aa bc d0 00 96 3d
       -0.043347657 -0.06399735 -0.020771878 0.07324374
000220 d1 c4 45 be 35 be 0a 3e 14 f3 59 bf f7 02 76 3e
       -0.19313361 0.1354912 -0.8513653 0.24024568
000230 0c 84 2d bd e9 94 16 bf ff d4 cc be 61 10 59 3f
       -0.042362258 -0.5882097 -0.40006253 0.8479062
000240 ac 55 60 bf df 20 a5 bd 78 41 30 3e 20 ac 91 bc
       -0.87630725 -0.0806291 0.17212474 -0.01778227
000250 40 af 0f 3e c6 8a eb be 77 1c 5d bf 0c 1e 79 3e
       0.14031696 -0.46004313 -0.8637156 0.24327868
000260 a8 e1 28 bf f2 b8 f8 be 44 b3 bc 3f 68 3b 47 40
       -0.65969324 -0.48578602 1.4742208 3.1130009
000270 bd eb 82 3f c6 54 74 bf 14 5a aa 40 2e 7f ce 3f
       1.0228192 -0.95441854 5.323496 1.6132562
000280 40 b1 ca be 0f 87 9f bd 10 88 04 3d 58 f1 f1 3d
       -0.39588356 -0.07789432 0.03235632 0.11813611
000290 a8 00 c0 bd 22 8c 0d be c9 79 7c be 64 f2 dd bd
       -0.09375125 -0.13822988 -0.24655832 -0.10837248
0002a0 a8 2a 83 be 76 10 fc bd f9 44 0c bf 12 f7 b5 be
       -0.25618482 -0.12307827 -0.54792744 -0.35540062
0002b0 47 37 30 be 6a 89 09 bf 4c 5f 18 bf 5c a6 dd be
       -0.17208587 -0.537253 -0.5952041 -0.43290985
0002c0 c4 7b b4 3d ae 72 58 3e 8e 3f 4a be 6c f0 ec bd
       0.08812669 0.21137497 -0.19750807 -0.11569294
0002d0 00 e0 4e 38 4c 4e d4 bd e4 56 b1 bd d0 63 b6 bc
       4.9322844e-05 -0.103664964 -0.08659151 -0.022264391
0002e0 90 68 f0 bc b4 3d 4d be 70 6c 6c 3e 4c ce d5 bd
       -0.029346734 -0.20043069 0.2308824 -0.10439739
0002f0 a4 00 14 3e ac 94 f5 3d 18 b9 bb bd f8 95 1a bd
       0.1445337 0.119912475 -0.09166163 -0.037740678
000300 da 0c 0a bf e2 d5 6e be 8c 6c 70 be a0 ab b4 3c
       -0.5392586 -0.23323777 -0.23478907 0.022054493
000310 78 f8 77 be 2f 46 a6 be 5e fe c2 be c8 ce a0 bd
       -0.24215877 -0.3247542 -0.38084692 -0.078519404
000320 90 f4 cd bd f3 5e 9d be f8 97 ef be b4 3c 0d 3e
       -0.10056412 -0.30736503 -0.4679563 0.13792688
000330 df 3f b5 be 12 98 d2 be cf 27 8b 3e 02 8f 0c bf
       -0.35400292 -0.41131645 0.2717881 -0.5490571
000340 65 fa d4 be 71 d7 85 be 36 3d 3f be 64 f4 b1 bd
       -0.41597286 -0.2614093 -0.18675694 -0.08689192
000350 40 09 e6 3b 49 31 ff bd de dd 5b be e8 42 b0 bd
       0.0070201457 -0.12460572 -0.21471354 -0.08606511
000360 3c 55 89 be 31 8d f8 bd 35 77 76 bd ed 1c f2 be
       -0.2682284 -0.12136305 -0.06017228 -0.47287694
000370 53 04 d0 be c4 bd fc 3e 0f b5 14 3f d9 7f 19 be
       -0.406283 0.4936353 0.58088773 -0.14990176
000380 7a a4 02 bf bd e3 a8 be c6 bd 78 3e bc a5 77 be
       -0.5103222 -0.3298625 0.24291143 -0.24184316
000390 30 d1 3a bd 9d f3 f7 bd d4 f3 f8 be c0 3e 27 bc
       -0.045609653 -0.121070124 -0.48623526 -0.010207832
0003a0 59 e8 16 be 73 a8 c8 be be c1 4d be b4 61 fd bd
       -0.14737071 -0.39191017 -0.20093438 -0.12372151
0003b0 6e 53 2c be dd c8 e0 be ff 04 e8 bd 0c 4e eb be
       -0.16828701 -0.43903247 -0.11329078 -0.45957983
0003c0 3b aa 0b bf 37 8c b1 be 88 83 0c bd e0 f5 05 3d
       -0.54556626 -0.34677288 -0.034305125 0.032705188
0003d0 d8 e5 92 3d 1d 12 08 bf 4a 61 15 be 0c 63 45 be
       0.071727455 -0.5315264 -0.14587894 -0.19276065
0003e0 f1 50 87 be 5f 42 86 bd 56 bf bd be b0 56 86 bc
       -0.2642894 -0.06555628 -0.3706004 -0.016398758
0003f0 b0 f2 01 be 90 59 72 bd 5d a5 43 be 95 20 05 bf
       -0.12690234 -0.059167445 -0.1910605 -0.5200284

fc1.bias f4 [64]
000000 da 04 37 be 86 a3 1b bf ab a5 5b be dd 26 6d 3d
       -0.17872944 -0.6079639 -0.21449916 0.05789839
000010 b4 fb d8 bd 7f 3e 11 bf 47 54 34 bf ac 73 d5 bd
       -0.105948836 -0.56735986 -0.704411 -0.10422453
000020 6d 01 d4 3d 1f e0 34 bf ca 90 96 be f0 6d 40 3e
       0.103518344 -0.7065448 -0.2940734 0.18791938
000030 65 6a 9e be b7 8e 1c be 36 5d 31 be 9c 41 08 bf
       -0.30940548 -0.15288816 -0.17320713 -0.5322511
000040 78 88 10 bf 64 39 01 bf 81 54 8b 3d ae 1c 74 be
       -0.56458235 -0.50478196 0.06803227 -0.23839065
000050 27 a2 9b be cb e8 e3 be cb 63 81 be ee 95 32 3e
       -0.3039715 -0.44513544 -0.25271448 0.17440006
000060 09 c3 ec be 56 46 f9 bf 89 03 2b 3b 34 e5 6f be
       -0.4624255 -1.947459 0.0026094636 -0.23427278
000070 8a 80 c8 be 63 e4 9a bd c0 8a 1e be 41 f4 f3 be
       -0.39160568 -0.075630926 -0.15482616 -0.47647288
000080 30 0e e3 3d f6 88 d0 bc 34 f6 11 be af de fa be
       0.110866904 -0.025455933 -0.14254075 -0.4899802
000090 e4 6b 9f bd 72 15 00 bf 3a 35 a0 bc 40 a9 01 be
       -0.077842504 -0.5003272 -0.01955663 -0.1266222
0000a0 76 26 00 bf 5a 6a 12 3e dc 94 21 be c8 44 ce bf
       -0.50058687 0.14298382 -0.15779442 -1.611474
0000b0 95 17 cb bd f7 a7 00 bf c6 15 ad be 40 0c 68 be
       -0.09916607 -0.50256294 -0.33805674 -0.22660923
0000c0 5f ee 01 bd a9 11 67 be 60 36 64 3d eb 32 9f be
       -0.03172147 -0.2256533 0.05571592 -0.31093535
0000d0 80 6f b2 bd c3 6a 28 bf 17 25 d6 be d8 ae 05 bf
       -0.08712673 -0.65787905 -0.41825172 -0.52219915
0000e0 ae f9 92 be cf e3 55 be 00 48 94 be 11 13 09 3e
       -0.28706115 -0.20887683 -0.28961182 0.1338618
0000f0 9a 0b 05 be 32 f9 4b be 3b 1d 34 bf 86 6c 6a bf
       -0.12992707 -0.19919279 -0.703571 -0.91571844

fc2.weight f4 [64, 64]
000000 24 70 bb 3d fb d5 e6 be f9 0a 2e bf 6a be d3 3d
       0.091522485 -0.4508513 -0.6798549 0.10339053
000010 34 2b ea bd 00 57 5f bd ee 32 37 bf a8 90 39 3d
       -0.114340216 -0.05452633 -0.7156209 0.04530397
000020 2a a9 19 bf e1 cb 08 c0 96 01 a1 bd fc fd 0a 3d
       -0.6002375 -2.1374438 -0.078616306 0.033933625
000030 62 25 fe bd 78 51 be bc 16 93 f3 bd d4 be 27 3d
       -0.12409474 -0.023232207 -0.11893289 0.040953472
000040 dc 29 85 be fa d9 13 bf 30 11 72 3d 66 9b ad bd
       -0.260085 -0.5775448 0.059098423 -0.084769055
000050 0c 88 86 3d 20 3c c5 bb 28 2a f5 bd 1c eb 5b 3d
       0.06568918 -0.0060191303 -0.11970931 0.053691015
000060 c5 2b 43 bf 12 c5 9d bf 4d e4 71 bf c0 d6 47 3b
       -0.7623866 -1.2325766 -0.94488984 0.0030492991
000070 d8 64 76 bd a6 49 c7 bd 0c a3 6a bd 08 f2 9a bc
       -0.060154766 -0.09730844 -0.0572844 -0.018914238
000080 80 80 43 3b 82 a4 c3 3d 4b 36 ad be 34 5d b2 bd
       0.002983123 0.09552862 -0.33830485 -0.08709183
000090 b0 72 ed 3d 40 a5 35 bd 00 cd 87 bf 9a 39 a8 bd
       0.115941405 -0.044347048 -1.0609436 -0.082141116
0000a0 30 86 9b 3d d8 d7 3f bd c6 bf ea 3d 95 e3 a0 be
       0.075939536 -0.046836704 0.11462359 -0.3142363
0000b0 94 83 05 3d 88 d7 fb be 6e b8 c6 bd 5c 5b 13 3d
       0.032596186 -0.49187875 -0.09703146 0.0359758
0000c0 a0 1f 5f 3c c0 7e 00 3b 0e c9 a3 bd 70 f5 a6 bf
       0.01361838 0.00196068 -0.079973325 -1.3043652
0000d0 80 19 e1 3a 5a 48 88 bf ac 79 ef bd 20 6b 03 3d
       0.0017173737 -1.064708 -0.11693129 0.032084584
0000e0 a8 8c f1 3c 94 4a 54 3d bc cb e3 bd 2e cc 97 bd
       0.029486015 0.051828936 -0.111228436 -0.07411991
0000f0 4e c0 92 bd 24 03 5a bf 59 f8 1a c0 b9 4f 9a be
       -0.071655855 -0.8516104 -2.421408 -0.3013895
000100 e9 9e 93 3e 7d 07 c7 be a8 81 84 be 21 51 09 be
       0.28832176 -0.388729 -0.2588017 -0.13409854
000110 7e f6 e4 3d 2f db 1d be 33 f1 5f be 2c 00 56 bd
       0.11179827 -0.15415643 -0.21869354 -0.052246258
000120 3e 5c ab be 27 1d 1b be a5 a3 89 be cc cc 54 3d
       -0.33468813 -0.1514784 -0.26882663 0.051953122
000130 1e 52 a8 3d b1 64 85 3e f4 51 39 bd 82 c0 ac 3d
       0.082187876 0.26053384 -0.045244172 0.084351555
000140 ed 3b 49 be 43 a1 ad be ab 49 78 be de 6a 91 3d
       -0.19651766 -0.33912095 -0.24246852 0.071004614
000150 74 53 9b be 80 04 52 3c bb e8 13 be 5a 53 b3 bd
       -0.30337107 0.012818456 -0.14444248 -0.087561324
000160 4d 62 6d be 09 2e c7 be 2d cd c0 be b0 a4 57 3c
       -0.2318203 -0.3890231 -0.37656537 0.013161823
000170 7b 60 97 be 3c b3 96 3d ff 93 a1 be 04 f3 3a 3d
       -0.29565796 0.07358405 -0.31558225 0.045641914
000180 08 63 ac 3c bd 91 e6 be e0 0b 95 be dc 66 c1 3d
       0.021043316 -0.45033064 -0.29110622 0.09443447
000190 68 a2 fb bc 06 fe 50 be d4 21 32 bd a6 ea ee bd
       -0.03071709 -0.20409402 -0.043489292 -0.116658494
0001a0 b4 97 99 bd 20 db be bb 18 07 9c 3d b9 19 4f be
       -0.07499638 -0.0058244616 0.076185405 -0.20224656
0001b0 44 dc 09 be ea 35 67 be 66 96 5e be 30 c2 ba 3d
       -0.13462931 -0.2257916 -0.2173706 0.091190696
0001c0 e8 45 af be a2 b0 d2 bd 28 1a af bd 03 08 83 be
       -0.34233022 -0.10287596 -0.08549911 -0.2559205
0001d0 e0 53 4d bd 66 a8 66 be 78 95 58 3d d0 f4 11 3c
       -0.050128818 -0.22525176 0.05287692 0.0089084655
0001e0 08 30 bd bc 20 98 38 bd 4e 39 7f be 61 c2 ac be
       -0.023094192 -0.045066953 -0.24924204 -0.3374205
0001f0 11 40 ae be 4e ae ac be 39 2e 96 be ef d7 5e be
       -0.34033254 -0.33726734 -0.2933214 -0.2176206
000200 f5 a7 5f be a6 8c 88 be f4 c3 76 be 1d 53 c9 be
       -0.21841414 -0.26669806 -0.24098188 -0.39321223
000210 10 c6 59 3d 85 7a c5 be 60 5a 90 be 10 29 26 bd
       0.053167403 -0.38570037 -0.2819395 -0.040566504
000220 16 fe 42 be b2 f7 9d be cd 50 3f be 7e b5 f2 3d
       -0.19042239 -0.3085304 -0.18683167 0.11851023
000230 08 00 3a 3d f3 3e 1f 3e c8 70 a9 3d c0 a8 2b 3d
       0.045410186 0.15551357 0.082734644 0.04190898
000240 94 a3 6c be c3 5b 80 be d5 80 b7 be e4 d6 01 bd
       -0.23109275 -0.2507001 -0.3584048 -0.031699076
000250 cb 32 b7 be 2a 35 88 3d e6 24 b2 be 68 0e a8 bc
       -0.3578094 0.06650765 -0.34793776 -0.020514682
000260 b3 2d 87 be 5b e4 a2 be 00 37 9e be 10 cc 7a bc
       -0.26402053 -0.31814846 -0.30901337 -0.015307441
000270 2e 45 ba be c0 a6 65 3b 00 d8 ac be 8a 7c ab 3e
       -0.36380905 0.0035042018 -0.33758545 0.33493453
000280 fa b1 b1 bd c7 fe a8 be 64 ad 9d be 90 78 1d bc
       -0.086765245 -0.3300688 -0.3079635 -0.009611264
000290 4c 7b 99 bd 72 35 51 be c7 7f c0 bf 14 f5 1e be
       -0.0749422 -0.20430544 -1.5038995 -0.15523177
0002a0 30 00 6b bd a8 4d 5d bd ce 94 da 3d 0f 71 82 be
       -0.057373226 -0.054029137 0.106729135 -0.25476882
0002b0 b4 67 90 be b0 1f a4 be 04 40 a9 be 9c a8 92 3d
       -0.2820412 -0.32055426 -0.33056653 0.07161066
0002c0 34 8e 2f be 40 31 5c 3c 6c c1 99 bd 80 43 6c be
       -0.1714409 0.0134394765 -0.075075954 -0.23072624
0002d0 50 ed 79 3c ca ea 48 be 22 8d dd 3d 80 be b3 3a
       0.015254334 -0.19620815 0.108179346 0.001371339
0002e0 89 6a b5 be 58 ac 32 3d 11 48 b0 be 36 de 7c be
       -0.35432842 0.04362139 -0.34429982 -0.24694142
0002f0 26 3b 7a be 8b 3e 9a be 75 c0 bb be 58 1d 2a be
       -0.24436626 -0.30125841 -0.3667027 -0.16612756
000300 b8 5e 44 bd 16 56 87 bd ad 2d f4 be 16 86 f9 3d
       -0.047941893 -0.066082165 -0.47691098 0.12183778
000310 80 ec ed 3a 08 d3 36 3d 02 52 e7 be 4c 75 5e 3d
       0.0018152148 0.04463485 -0.45179754 0.05431108
000320 2c 6e e1 be 18 6f 05 bf 32 44 d6 3d 00 e6 42 3a
       -0.44029367 -0.5212264 0.10462226 0.00074347854
000330 66 c9 cd 3d 02 fb 80 3d 60 09 7e 3c 4c be 40 bd
       0.10048179 0.06297876 0.015505165 -0.04705648
000340 b4 b2 ec be e2 e5 d1 3d 00 54 11 39 92 29 be 3d
       -0.4623009 0.10248925 0.0001385957 0.09285273
000350 b6 be a2 bd fa ce bc 3d 20 74 d2 3b f0 57 57 3c
       -0.079465315 0.09219165 0.0064225346 0.0131435245
000360 f1 39 f4 be c0 5b e5 be a8 16 db be 9c 16 eb bd
       -0.47700456 -0.44796562 -0.42790723 -0.11478922
000370 48 ee 61 bd cc c0 a2 bd c0 d7 c4 3d 2c 1d e3 3d
       -0.055158883 -0.07946929 0.096114635 0.110895485
000380 44 62 00 3d 1a 4b a8 bd 8c 57 d1 bd e0 45 af bb
       0.031343713 -0.082174495 -0.10221776 -0.005348906
000390 60 bd 36 bd 87 25 fd be ae 03 9a bd c4 96 90 bd
       -0.044614196 -0.49442694 -0.07520233 -0.07060006
0003a0 20 8e 7a bd e4 d0 ff 3d 9c 52 87 3d 8f c9 f5 be
       -0.061170697 0.124910146 0.06607553 -0.4800534
0003b0 b2 9e d1 bd 41 47 21 bf ec 0a 63 3d 98 74 40 bd
       -0.10235347 -0.6299935 0.055430338 -0.046986192
0003c0 06 ee c8 bd e0 9a 1c bd 4a d6 b6 3d 1f 1e 12 bf
       -0.09811024 -0.038233638 0.08927591 -0.5707721
0003d0 10 c5 a7 bd 01 aa 18 bf 60 70 4e bd a0 0d cc 3c
       -0.081918836 -0.59634405 -0.050400138 0.02490884
0003e0 74 0c 6b bd ac a8 a2 bd 04 9b 2e bd 80 c3 f4 ba
       -0.057384923 -0.07942328 -0.042628303 -0.0018673986
0003f0 4c 03 cf bd a0 a5 1f bf 30 3c 08 bf 99 a1 cf be
       -0.10108051 -0.623621 -0.5321684 -0.40552977

fc2.bias f4 [64]
000000 5e 98 e5 bf 5e e0 66 be 5a 7b 46 bf c2 5d 1b bf
       -1.7937124 -0.22546527 -0.7753197 -0.6068994
000010 06 7b 02 bf d4 55 b9 bf 4f 25 59 be c9 bd c0 bf
       -0.5096897 -1.4479318 -0.21205638 -1.5057918
000020 80 20 7e be 6c 3b 4f bf 4c a2 26 bf 68 ea b1 bf
       -0.24817085 -0.80950046 -0.65091395 -1.389966
000030 d0 81 87 c0 c3 7e a0 bf e5 87 94 bd 58 24 91 bf
       -4.2345963 -1.2538685 -0.07252482 -1.1339216
000040 3b c8 84 bf 7c 6d bc bf 84 14 96 bf b4 a3 5c bd
       -1.0373605 -1.4720912 -1.1725011 -0.053867057
000050 1a c3 cf bf 44 24 63 be 5d 31 c0 bd 1b b1 bc be
       -1.6231415 -0.22181803 -0.09384415 -0.3685387
000060 a1 91 34 bf 64 4b b8 be d5 d6 a8 be 22 c2 66 bf
       -0.7053471 -0.35995018 -0.32976404 -0.90139973
000070 3a e3 a8 be 3f 6a ff be 92 72 67 be c3 b8 f0 bd
       -0.3298586 -0.49885747 -0.22602299 -0.117539905
000080 63 3e bf bd 4b ea 21 bf 6e e8 75 be 7c 9f c3 be
       -0.09338071 -0.6324813 -0.24014446 -0.38207614
000090 ed 5c e7 c0 8d 11 51 be 0a 3c 5e be c3 52 04 be
       -7.2300935 -0.20416851 -0.2170259 -0.12922196
0000a0 7f 8a 83 bf da 36 01 bf 6b 8b 69 be 44 f2 85 be
       -1.0276641 -0.5047432 -0.2280709 -0.26161397
0000b0 e4 ca a4 be b7 13 a2 bf 81 a7 59 bf 4c 9a 88 be
       -0.32186043 -1.2662266 -0.85021216 -0.2668022
0000c0 f6 6a 4c be 35 24 55 bf cd c0 ab bf 1e 40 da bf
       -0.19962677 -0.8325837 -1.3418213 -1.7050817
0000d0 31 ef 95 bf f2 d4 3a bf 72 ed 7c be 95 75 1e c0
       -1.171362 -0.7298118 -0.24699953 -2.4759266
0000e0 aa fa 97 be a6 ad b3 bf 22 b5 3c bf 63 90 52 be
       -0.2968343 -1.4037368 -0.73713887 -0.20562892
0000f0 d6 06 99 be 74 84 8b be 76 b3 f2 bf aa 79 9c be
       -0.29888028 -0.2724949 -1.8961017 -0.30561572

fc3.weight f4 [6, 64]
000000 c3 26 63 3f 25 f5 bf 3e 90 c7 69 3e f0 8e 9a 3d
       0.8873102 0.37491718 0.22830033 0.075467944
000010 52 5a 97 3f 32 fa 87 bf 15 79 b9 be 5b d4 b5 be
       1.1824439 -1.0623229 -0.3622519 -0.35513577
000020 56 9f 93 be 25 6b 34 be d2 d8 df 3e cb 24 10 3f
       -0.288325 -0.17618997 0.43720108 0.5630614
000030 88 68 6a 3f 5b 06 97 3e dd 6a 28 3e d5 96 97 be
       0.9156575 0.29497036 0.16447015 -0.29607263
000040 df dd 8d 3f 51 6e 04 bf 4f bd b1 be 4a e6 04 3e
       1.1083335 -0.5173083 -0.34714743 0.12978473
000050 24 60 21 3f 0d 7f 6e be d9 77 06 bf 12 18 45 be
       0.63037324 -0.23290654 -0.52526623 -0.19247463
000060 76 68 0c 3e 55 87 3e 3e 5a 45 cd be 0d 38 a1 3f
       0.13711724 0.18606313 -0.40091974 1.259523
000070 8b 89 21 3e 31 5f 42 bc f2 15 79 be 5d b2 f6 be
       0.15775125 -0.011863516 -0.24324778 -0.48182955
000080 61 a5 81 3d 75 3e 1b bf 3b e6 33 be 88 85 4f 3e
       0.06330372 -0.60642177 -0.17568295 0.20265782
000090 4c 39 87 be 1b 41 0d bf be 86 30 bf 50 4f 90 be
       -0.26410902 -0.5517747 -0.689556 -0.2818551
0000a0 80 fc 9b 3d 14 70 e8 be 9e ed 78 3e f6 0f d7 bf
       0.0761652 -0.4539801 0.24309394 -1.6801746
0000b0 40 bf 84 be f9 a4 7c bd ef e2 79 3e 94 d3 84 be
       -0.25927162 -0.061680768 0.24402975 -0.2594267
0000c0 86 60 0d 3e e0 4e 35 3f c8 15 47 bd 37 eb d2 bd
       0.13806352 0.7082348 -0.048604757 -0.1029877
0000d0 d8 a4 a9 3b d6 3e 66 3f be fd 7e be 30 a9 ba bf
       0.0051771216 0.8993963 -0.24901482 -1.4582882
0000e0 78 62 af 3e 52 81 99 3f e0 ec 36 be b6 19 45 be
       0.34254813 1.199259 -0.17863798 -0.19248089
0000f0 c9 d7 9f 3d d3 6e 90 be aa df b0 be e5 25 66 3f
       0.078048296 -0.28209552 -0.34545642 0.8990157
000100 88 d9 26 bf 6a 35 52 be 78 0f 9f 3e af 55 e7 3e
       -0.65175676 -0.20528188 0.3106649 0.4518256
000110 6c fc e5 be 42 a3 bc 3f 40 02 b4 3e 1d 98 85 3f
       -0.44919145 1.4737322 0.35157967 1.0437046
000120 86 75 a4 be 91 59 68 be 43 b9 4a 3f d9 26 19 bf
       -0.32120913 -0.22690417 0.79188937 -0.598249
000130 83 77 4c 3e ee 6d 9d 3e b6 fb 33 be 54 05 d0 3f
       0.19967465 0.30747932 -0.17576489 1.6251626
000140 6e ae 9c 3f 0c c0 c1 be 35 e6 b7 be eb a9 96 be
       1.2240732 -0.37841833 -0.35917822 -0.29426512
000150 31 de a2 bf 2a 84 90 bd 91 51 e0 3f be 3e 73 be
       -1.2724057 -0.07056458 1.7524892 -0.23754403
000160 af 26 12 bf 03 1c 9f 3e 7a 2b 4c be 83 ce 06 bd
       -0.57090276 0.3107606 -0.1993846 -0.03291179
000170 75 d5 a8 be d4 7c 8a be bd 80 60 be 82 d2 c4 3f
       -0.32975355 -0.2704836 -0.2192411 1.5376742
000180 b3 2d f3 bc e8 4a c4 bc 14 8c 5e be dd eb a3 3e
       -0.029684877 -0.0239615 -0.21733123 0.32015887
000190 bd ec 05 3f 65 c6 40 c0 62 7a 81 be eb ea 49 3f
       0.5231436 -3.012109 -0.25288683 0.7887408
0001a0 0e ad 79 3f 07 1b ea 3e b2 a1 45 be ab 0b 7b 40
       0.97529685 0.45723745 -0.19299963 3.9225872
0001b0 e3 51 af be eb 94 04 3f c7 37 53 be 3d 53 b6 be
       -0.34242162 0.5178973 -0.20626746 -0.3561038
0001c0 63 1f 4d 3e a4 86 2d 3d fb e4 41 be ef 2a a9 be
       0.20031504 0.04236473 -0.18935005 -0.33040568
0001d0 8e 5a 23 bf 77 e0 40 bf 59 5e 86 be de 6c a7 bf
       -0.6381005 -0.75342506 -0.26243857 -1.3080099
0001e0 89 f5 b8 3e 1f ad b8 bf 64 a0 89 be 07 fb 3d be
       0.36124828 -1.4427832 -0.2688018 -0.1855279
0001f0 54 6d 06 3c 94 24 30 bd a6 4d e8 3e e4 00 90 be
       0.008204777 -0.043003634 0.4537174 -0.2812568
000200 b7 a7 3d 3f b0 a2 41 3e 59 be b0 be 54 d9 0a bd
       0.7408404 0.18909717 -0.34520224 -0.033898667
000210 f6 96 98 be 2a 99 cd 3f 46 f4 85 be d6 22 8e bf
       -0.29802674 1.6062367 -0.26162928 -1.1104381
000220 67 ed c7 be 27 d8 eb 3e ec c1 a7 3e 90 2b f8 3e
       -0.3904831 0.4606335 0.32765138 0.48470736
000230 6d 95 0e 3e f8 79 1e be 3e 48 68 3f f8 b5 d0 3f
       0.13924189 -0.15476215 0.9073523 1.6305532
000240 5e b7 35 3f d7 9d fb bd 48 bc 97 be 56 da 9e 3e
       0.7098292 -0.12285965 -0.29635835 0.31025952
000250 d4 7b 8c bf e0 6a 81 bb fe 5b 04 40 15 17 83 be
       -1.0975289 -0.003949508 2.0681148 -0.25603548
000260 92 6c 15 be c4 8f 9a 3e 31 c9 b4 be 06 81 82 bf
       -0.14592198 0.3018781 -0.35309747 -1.0195625
000270 a9 be 1d 3e 01 02 cd bb ba 99 97 be 70 ee fc be
       0.15404762 -0.0062563424 -0.29609472 -0.49400663
000280 02 30 01 3e b0 38 28 bc cc 2e 6e be 16 bc 8e be
       0.1261597 -0.010267422 -0.23260039 -0.27877873
000290 d1 4e 22 be 21 b6 52 bf 59 cf a7 be 6e 71 33 be
       -0.15850379 -0.82309157 -0.3277538 -0.17523739
0002a0 be 2c 91 3d b1 9d 1c bf 9f a3 d2 3e 65 f4 ae be
       0.07088612 -0.6117812 0.41140458 -0.34170833
0002b0 ee 0d d3 be e0 d0 c8 be 85 d3 b3 3e 12 86 43 be
       -0.41221565 -0.3922186 0.35122314 -0.19094113
0002c0 8a af 20 3e bc c9 16 bd ee 0a b9 be f3 0a d6 be
       0.15691963 -0.036813483 -0.3614115 -0.4180523
0002d0 d7 43 0f bf 7c 68 43 bf 18 ef 8b be 73 5e da bf
       -0.5596289 -0.76331306 -0.27330852 -1.7060074
0002e0 37 69 30 be 0b 40 ee 3e 0b 76 d7 be 32 b6 ab be
       -0.17227636 0.46533236 -0.42082247 -0.33537441
0002f0 0e 00 8e 3e a8 90 20 bd b5 8a a3 3e 33 f0 86 3e
       0.27734417 -0.039200455 0.31941763 0.26355132
000300 00 9e 37 3f 09 e9 5d 3e 6b 98 58 3e 00 a1 42 bb
       0.71725464 0.21670927 0.21151893 -0.0029698014
000310 57 56 05 3f 07 63 8d bf 7b 69 7e 3e 74 17 63 3f
       0.5208487 -1.1045846 0.24844925 0.8870766
000320 9a 3d 8f be eb b5 f4 3b 69 e7 0c be 49 ae a1 3e
       -0.27976686 0.0074679754 -0.13760151 0.31578282
000330 4a 45 ed bd 33 7c 37 3e 68 39 84 3f 9b d9 c7 bf
       -0.115854815 0.17918472 1.0330019 -1.5613283
000340 93 6a 57 3f 45 8f 6e 3e c4 9a 96 be f7 47 17 3d
       0.84146994 0.2329684 -0.29414952 0.036933865
000350 3e ce 8d 3f 7e 93 9a 3d 53 a7 34 40 88 91 83 be
       1.1078565 0.07547663 2.8227127 -0.2569697
000360 0f 8b ee 3e cc 0e c5 3e 5a 3c d8 be 7d 24 64 3f
       0.46590468 0.38487852 -0.42233545 0.89118177
000370 74 52 3b 3e 06 3e 13 be 01 1d 83 be 1d b3 a5 be
       0.18293172 -0.14379129 -0.25608066 -0.32363215
000380 bc b5 36 3d fc 6c d2 3d 96 bd 98 3e 2d 3f 34 3e
       0.04460691 0.10274693 0.29832143 0.17602225
000390 04 9e 1b 3f 64 e4 8a be 68 d4 8a be 58 47 48 be
       0.6078799 -0.27127373 -0.27115178 -0.19558465
0003a0 3e 93 eb 3d fe 0b f0 be bb 09 45 3e 53 8e 79 bf
       0.115026936 -0.4688415 0.19241993 -0.97482795
0003b0 3c 75 79 be 12 17 d9 3e 5c f9 82 3d d3 30 34 be
       -0.24361128 0.42400414 0.06395218 -0.1759675
0003c0 bd 06 0b 3e 48 14 f4 bd e6 f6 a6 be 9c 31 83 be
       0.13576789 -0.11917931 -0.32610244 -0.25623786
0003d0 b2 71 3b be e4 04 2c 3f 0c a5 2f be 4c 28 e5 3e
       -0.1830509 0.6719496 -0.17152804 0.44757307
0003e0 c3 e2 80 3e b4 ef b0 3e d1 d0 90 be 56 1b 92 be
       0.25173005 0.3455788 -0.28284314 -0.2853648
0003f0 fd 73 20 3e a8 29 9f 3d b1 d3 8d 3e 3e 9c 70 3e
       0.15669246 0.07771617 0.2770057 0.23497102

fc3.bias f4 [6]
000000 35 08 11 c3 d8 0a 11 c3 e5 e9 10 c3 c6 91 11 c3
       -145.03206 -145.04236 -144.91365 -145.56943
000010 c0 a0 16 c3 a9 c2 15 c3
       -150.62793 -149.76039
