checkpoints/model_0.3_200.pth (torch, 25220 bytes, 6 tensors)

fc1.weight f4 [64, 16]
000000 f1 2b 74 be d4 2b f6 be 50 e0 63 bd fc e8 a0 bd
       -0.23844887 -0.48080313 -0.055633843 -0.07856938
000010 00 ba b7 bc 10 13 a1 be 3c d0 ce be c0 63 5a be
       -0.022427559 -0.31459856 -0.40393245 -0.21327114
000020 ab e2 51 be dc 0f d6 be 6b 3e f3 bd 4c 82 68 be
       -0.20496623 -0.41808975 -0.1187714 -0.22705954
000030 dc 68 e5 bd 2b 0f 90 bd 98 bf 93 bd 68 4e 85 bd
       -0.11201641 -0.07034143 -0.07214278 -0.065090954
000040 48 a6 05 be de db 09 be 50 c0 54 3e 38 ff 56 3e
       -0.13051713 -0.13462779 0.20776486 0.20995796
000050 b2 42 38 be 14 c9 cd bd 2e c3 18 3e f4 ea 07 3e
       -0.17994192 -0.10048118 0.14918205 0.13273221
000060 38 b2 01 be 00 f6 e4 3b cc 4d 53 be a0 01 60 3e
       -0.12665641 0.0069873333 -0.20635146 0.2187562
000070 32 ee 75 be 10 90 52 3d d0 34 88 3d 40 1d c4 bd
       -0.24016646 0.05140692 0.06650698 -0.095758915
000080 68 8b bc bd dc 5b 27 3e a2 ba 21 be 36 ae 11 3e
       -0.09206277 0.16343635 -0.15793851 0.14226612
000090 40 fe 09 3e 5a 74 2b be 22 9c 1b be 86 a0 66 be
       0.13475895 -0.16743603 -0.15196279 -0.22522172
0000a0 00 04 81 3a 90 ae 07 bd a6 eb 32 3e da a3 0d 3e
       0.0009843111 -0.03312546 0.17472705 0.13832036
0000b0 78 4a 74 3e f4 db f6 3d b0 10 ef bd 52 e6 61 be
       0.23856533 0.120536715 -0.11673105 -0.22060516
0000c0 9c cc 33 3e e8 36 2e 3d 8c 41 e1 bd 84 08 fa 3d
       0.17558521 0.04253283 -0.1099883 0.122086555
0000d0 2c 2c 9d bd 56 e9 48 3e 38 8e 79 be 4e ea 3d be
       -0.07674441 0.1962026 -0.24370658 -0.18546411
0000e0 ec 2f 7a be 70 46 64 3d 72 10 23 be a8 bf a8 bd
       -0.24432343 0.055731237 -0.15924242 -0.082396805
0000f0 2e 15 0b 3e fe 76 43 be e8 31 8d 3d 76 94 56 be
       0.13582298 -0.1908836 0.068942845 -0.20955071
000100 ab 79 9f bd a6 42 fe 3e bc 91 16 3e fc e0 72 be
       -0.07786878 0.49660224 0.14704031 -0.23718637
000110 bc e6 bc bd 8b 27 09 bf c1 46 98 be a0 ec b5 3d
       -0.092236966 -0.5357596 -0.2974148 0.08883023
000120 5e 2f 93 be 7a d5 26 bf e3 ac b5 bf 30 0c 95 3e
       -0.28747076 -0.6516949 -1.4193386 0.2911086
000130 a4 16 70 40 6c bb 87 bf fe 00 9a c0 bd 9f 57 3f
       3.7513819 -1.0604072 -4.812621 0.84228116
000140 6e a1 32 c0 5b 38 26 c0 00 14 55 bd 60 c4 72 be
       -2.791103 -2.5971897 -0.052021027 -0.23707724
000150 bc 52 ad bd 54 22 a3 bf e3 d8 b9 bf 40 cf fb bb
       -0.08463046 -1.2744851 -1.4519314 -0.0076846182
000160 4a 5f c8 bf bf 2f b8 bf 7e 52 c3 3e b5 a8 22 c0
       -1.565408 -1.4389571 0.38148874 -2.541547
000170 2e bd 1a c0 c3 d9 e7 3e 60 75 19 3f a1 73 c2 3f
       -2.4177966 0.45283327 0.59944725 1.5191537
000180 0c 62 65 be 8c 05 ba be f0 40 9b bc 9c c5 41 3e
       -0.22400683 -0.36332357 -0.018951863 0.18923038
000190 f8 7e 1f be a9 1f d8 bd c8 f5 98 be 48 ba 71 3e
       -0.15575778 -0.10552914 -0.29875016 0.23606217
0001a0 0e f7 6f be 5e de ef be 4f 3d f2 bd af 16 8f be
       -0.23434088 -0.4684934 -0.118281 -0.27946994
0001b0 bd fa be be 63 fe 69 be a2 23 da be 41 d7 5d bd
       -0.37300673 -0.22850947 -0.4260531 -0.05416036
0001c0 33 65 b0 bf 61 51 c0 bf 40 52 4a bd 4e e9 73 be
       -1.3780884 -1.5024835 -0.049394846 -0.23819467
0001d0 d0 24 5b bd e7 82 50 be 78 8f 30 be 70 69 f0 bd
       -0.053501904 -0.20362435 -0.17242229 -0.117388606
0001e0 51 78 8b be 84 6c 8c be d1 5a 21 40 79 da 8f 3e
       -0.27240232 -0.2742654 2.521168 0.2809637
0001f0 d4 80 5f c0 d2 13 69 c0 f1 23 de 3f 2b 8b 2d c0
       -3.492238 -3.6418347 1.7354718 -2.7116191
000200 1c 9d 61 be 7a 08 07 be 9c 82 3f be ec dc c3 3d
       -0.22032589 -0.13186827 -0.18702167 0.09563622
000210 6e 86 48 be f4 81 50 be 54 2d f4 bd ec 38 ba 3d
       -0.19582531 -0.20362073 -0.11922708 0.09092888
000220 f6 6c 07 be fc 65 f0 3d d4 b4 83 bd 9c ef 32 3e
       -0.13225159 0.11738202 -0.064309746 0.17474216
000230 50 b9 3a bd 12 c4 00 be 58 ab 4a 3d a2 a9 3a be
       -0.045586884 -0.12574795 0.049479812 -0.18228772
000240 34 55 f5 bd 8c fb 70 be 38 5e ed 3d 80 ce 11 bd
       -0.11979142 -0.23533458 0.115902364 -0.035597324
000250 e4 0e 0a be 68 11 3a 3d 8c 94 8a bd 18 bc 55 3e
       -0.13482243 0.045426756 -0.06766614 0.20872533
000260 78 57 e6 bd 56 11 1b be 1a 44 07 3e 78 28 fb bd
       -0.11247152 -0.15143332 0.13209572 -0.12263578
000270 44 07 ba 3d b4 9f 38 be 18 a6 fe bd c8 c0 b2 bd
       0.09083417 -0.18029672 -0.124340236 -0.08728176
000280 2c 28 82 be e5 be d6 be 48 b0 4b bd b0 30 2f 3e
       -0.25421274 -0.41942516 -0.04972866 0.17108417
000290 76 bd 75 be ee f5 d8 bd b3 c7 63 be 68 1e 2a be
       -0.23998055 -0.10593782 -0.22244148 -0.16613162
0002a0 56 ba 07 bf bc 10 50 be 97 1c e9 be ec 2c a4 3e
       -0.530187 -0.20318884 -0.45529625 0.32065523
0002b0 20 3c 63 bc 75 8b d4 be d0 5f 5f 3d 6b ba a4 3e
       -0.013869315 -0.41512647 0.054534733 0.32173476
0002c0 2d ba 93 bd 2d 8b ae be 30 29 81 bc 6c 8b 80 3d
       -0.072132446 -0.34090558 -0.01576671 0.062765926
0002d0 f4 47 61 3e 7a 74 03 bf 4e be 80 be 58 e5 54 3d
       0.22000104 -0.51349604 -0.2514519 0.05197653
0002e0 10 52 1d be d2 44 f7 be be 7e 71 3e 29 1e a4 be
       -0.15363336 -0.48294693 0.23583505 -0.3205426
0002f0 24 94 33 3e 62 5b 88 be 6e 12 43 be 9d 4a 01 bf
       0.1753698 -0.2663222 -0.19049999 -0.50504476
000300 1c f5 b8 3d f6 b8 19 be 54 57 bb bd b6 dc 3c 3e
       0.09031126 -0.15011963 -0.09147516 0.1844357
000310 20 17 ab bd c4 af c2 bd bd 43 72 bd aa 33 08 be
       -0.0835402 -0.09506181 -0.05914663 -0.13300958
000320 b6 6e a2 be 02 9b ff bd fc 22 70 bf c2 c3 7b 3e
       -0.3172509 -0.12480737 -0.9380338 0.24586394
000330 f8 c7 96 bf dc 82 07 c0 be 0f dc be 7c 31 0b c0
       -1.1779776 -2.117362 -0.4298076 -2.1748953
000340 f0 83 68 bd c8 75 72 bd d0 47 f9 bc d8 ad 5e be
       -0.05676645 -0.059194356 -0.03042975 -0.21746004
000350 08 c1 78 3d 90 ab ec 3c 60 83 7b be 42 4a 64 be
       0.060730964 0.028890401 -0.24561834 -0.22293952
000360 ea 53 0b 3e dc 77 f9 bd 96 ca 72 be 38 81 12 be
       0.1360623 -0.121810645 -0.23710093 -0.14307106
000370 88 f0 93 bd 80 47 06 bb 70 ad b0 3d fc 1c f0 bd
       -0.07223612 -0.0020489395 0.086268306 -0.11724278
000380 8c aa 20 3e 68 71 6a be 68 91 13 3e d8 f1 7b 3d
       0.15690058 -0.22894824 0.14410937 0.061509937
000390 ee e5 72 be 34 d7 e1 bd cc a3 8f bd b0 d3 3b 3e
       -0.23720524 -0.11027375 -0.07013664 0.18342471
0003a0 d8 a2 f9 bd 28 68 65 be 36 5d 65 3e 8c 3b 91 bd
       -0.12189263 -0.22403014 0.22398838 -0.07091436
0003b0 82 b0 66 be fc 01 22 be 82 8b 75 3e 1c 65 1e be
       -0.2252827 -0.1582107 0.23979 -0.15468258
0003c0 f4 0b 5b be 72 47 91 be 80 e3 1b bd 7c 2e b8 bd
       -0.21391279 -0.2837482 -0.038058758 -0.08993241
0003d0 70 8d cd bc 5e e3 86 be dd 10 07 bf 38 8e 13 3e
       -0.025091857 -0.26345342 -0.52760106 0.14409721
0003e0 e7 bf 54 be 44 10 90 be 30 16 f8 bc 64 a7 f0 bd
       -0.2077633 -0.2813741 -0.030284017 -0.11750677
0003f0 ba 39 bb be 60 9b 93 be 85 3d f9 bd ed 54 a2 be
       -0.3656748 -0.2882948 -0.12169937 -0.31705418

fc1.bias f4 [64]
000000 cf 36 e2 bd 30 cc 1e 3e 88 cb 5c bd 30 43 0d be
       -0.1104561 0.15507579 -0.05390504 -0.13795161
000010 c1 37 92 be 0a 31 b9 bf 7c 24 f5 be 88 0f ea be
       -0.28558162 -1.446809 -0.47879398 -0.45714974
000020 66 7c 06 be 84 42 8b bd 73 0b f2 be 97 d6 0b be
       -0.13133392 -0.06799796 -0.4727436 -0.13656078
000030 bf 94 a0 3d d8 31 23 3e 9a 22 60 3e 89 4d 6a be
       0.07840871 0.15936983 0.218882 -0.2288114
000040 14 8f d6 be 0f 4d b9 be 8b d0 18 be 75 16 6c 3e
       -0.41906035 -0.36191604 -0.14923303 0.23055442
000050 bc f6 3a be 5f 61 2f bf 80 2b ad 3b 68 c4 a7 be
       -0.18258184 -0.6850795 0.0052847266 -0.32767034
000060 ef 63 c4 be a0 65 69 3e 0d d1 16 bf e6 e1 53 be
       -0.38357493 0.22792673 -0.58912736 -0.20691642
000070 f3 eb 1f bd 3c 64 f8 be 2f ca 15 3f 62 0c 1c 3e
       -0.039043378 -0.48513973 0.5851163 0.15239099
000080 a8 cb 02 be 32 ef 9b be ee 10 19 be b8 83 85 be
       -0.12773001 -0.3045593 -0.14947864 -0.26077056
000090 64 43 e7 bd 64 9f 7d be 94 66 7f be fa 76 2e 3e
       -0.112921506 -0.24767834 -0.24941474 0.17037573
0000a0 9e a1 20 bf a6 1c d4 be af 9d b6 be f0 62 cf bf
       -0.6274661 -0.41428107 -0.35667178 -1.6202068
0000b0 70 e2 ea bd c6 b0 74 be 70 f4 a9 bc 2d 49 8b bf
       -0.11468971 -0.23895559 -0.02074644 -1.0881706
0000c0 7a 91 01 bf c6 90 35 3e e8 8b 73 bd db a1 6e be
       -0.50612605 0.17731008 -0.059459597 -0.2330393
0000d0 14 44 36 bf ea 07 55 bc 04 fe 89 be 89 02 0b bc
       -0.7119763 -0.013002375 -0.2695161 -0.008484491
0000e0 e7 90 8b be d2 a9 87 be a4 96 8d 3d a4 fd fe be
       -0.2725899 -0.2649675 0.06913498 -0.49802887
0000f0 58 1b 65 3d 0c 64 0d be 6e 22 c8 bc 25 87 13 bf
       0.05593428 -0.13807696 -0.02443048 -0.5762809

fc2.weight f4 [64, 64]
000000 16 c1 b7 bd 28 5f db 3c 08 52 f4 bd 8c 26 af 3d
       -0.08972375 0.026778772 -0.11929709 0.08552274
000010 b5 ae 31 3e 71 e4 ca 3f c0 b3 1d 3d f4 8b a6 bf
       0.17351802 1.5850965 0.0385015 -1.301146
000020 72 22 df bd 00 80 f9 b9 b8 4c fe 3d d4 4d 76 3d
       -0.10895242 -0.00047588348 0.12416977 0.060132816
000030 f8 0a a8 be 8a c1 b9 3d a0 cf c2 bb 88 32 cb 3d
       -0.32820868 0.09070118 -0.005945161 0.099217474
000040 a0 d2 d9 3d 48 91 b2 bd 20 bf af bb 9b 61 ff be
       0.10635877 -0.087191164 -0.00536336 -0.49879155
000050 6a 41 b8 3d 48 d6 06 c0 12 c5 dc bd aa 08 b0 3d
       0.08996852 -2.1068287 -0.10779776 0.085954025
000060 88 79 9a 3d 44 53 88 bd 97 41 9f bf 08 78 a7 bc
       0.075427115 -0.06656507 -1.2441891 -0.020442978
000070 80 be c9 bd 80 3d 31 3b 5e f1 88 bf 04 e7 d3 bd
       -0.09850788 0.0027044713 -1.069866 -0.10346797
000080 c2 49 b9 bd 8a 2f a9 be 00 ff e5 3d 40 f8 a9 bd
       -0.09047271 -0.33044082 0.11230278 -0.08299303
000090 f0 bb 1a 3d 44 6d ba 3d 4c 78 0f bd a0 02 36 3c
       0.037776887 0.09102872 -0.035026833 0.011109024
0000a0 28 39 82 3e a0 52 48 bd 34 54 cb 3d e8 44 8b 3d
       0.25434232 -0.048906922 0.0992817 0.06800252
0000b0 4e be 9e 3d 20 a2 ba 3c 28 f8 82 bd 63 db 47 bf
       0.077511415 0.022782385 -0.06394988 -0.7806913
0000c0 a0 a9 b1 bf 78 62 ff 3d 34 67 bd 3d 00 ff ca 3b
       -1.387989 0.12469953 0.092482 0.006194949
0000d0 22 c1 27 be 58 a4 de be 80 8b fa 3a 53 bb de 3d
       -0.16382268 -0.4348476 0.001911506 0.10875573
0000e0 e4 89 6a bd c5 d5 2c bf 00 b2 96 bb 8a 7f 61 bf
       -0.05726041 -0.67513686 -0.004598856 -0.88085234
0000f0 d0 bd e0 3c 8c e1 11 3d 1c 41 25 bd fe 2d 2d bf
       0.02743426 0.03561549 -0.040345296 -0.67648304
000100 86 6a b7 bd a4 69 47 bd 12 b8 c3 3d 08 6b 5c bd
       -0.089558646 -0.04868473 0.09556593 -0.05381301
000110 90 c3 07 bf 8e fe ae bf 34 ca ce bd 0c 9f a2 3d
       -0.5303278 -1.3671434 -0.10097161 0.07940492
000120 10 2f d7 bd b4 ca 95 bd 40 87 cb bc 9a bf ae 3d
       -0.10507023 -0.07314053 -0.024844766 0.08532639
000130 dc f4 70 3d c6 a0 a2 3d b4 2b 04 3d c4 1a 2d bd
       0.058827266 0.07940821 0.03226824 -0.042261854
000140 58 b7 93 bd e0 05 b2 3d d0 76 fc bc 78 68 62 bd
       -0.072127044 0.08692527 -0.030818373 -0.05527541
000150 90 69 4a 3d d4 34 d7 be 22 d5 96 3d f4 dc 2d bd
       0.04941708 -0.42032492 0.073648706 -0.042447045
000160 28 3c fa bc d4 81 0f bd 60 e9 cb be f6 ad e3 bd
       -0.030546263 -0.035035923 -0.39826488 -0.11117165
000170 ac 73 4b 3d 80 35 e0 bc 18 95 8a 3d 98 01 8b 3d
       0.04967086 -0.02736926 0.067667186 0.06787413
000180 40 46 90 bc 3f 33 0a bf f2 9e 86 bd cc 3c 64 3d
       -0.017611623 -0.53984445 -0.06573285 0.055722043
000190 56 2d ae 3d 1c 5c 61 3d 7a b2 8d 3d 28 92 21 3d
       0.08504741 0.055019483 0.06918807 0.039446026
0001a0 57 73 14 bf 14 b3 f1 3d 08 fa 29 bd a2 dc f9 be
       -0.57988495 0.118017346 -0.041498214 -0.48801142
0001b0 f0 60 69 bd ac 41 3b 3d c0 46 85 3b 94 1a a8 bd
       -0.056977212 0.045716926 0.004067272 -0.082081944
0001c0 fc 77 21 bf 12 64 e2 3d d8 e5 79 bd 30 ad e7 bc
       -0.63073707 0.11054243 -0.06101021 -0.028280824
0001d0 06 f0 f5 be 34 77 01 bf e0 6f 25 bd ed a9 23 bf
       -0.48034686 -0.50572515 -0.040389895 -0.6393116
0001e0 8c c6 5b bd 42 c4 12 bf ec 74 a8 3d 76 ac f9 be
       -0.053656146 -0.57330716 0.08225426 -0.4876439
0001f0 d4 59 af bd 38 09 48 bd 06 9a c1 3d 9b 55 20 bf
       -0.08562055 -0.048836917 0.09453206 -0.62630624
000200 ac cb 55 3e c0 1f f6 3d fe da 93 3d 10 67 07 3d
       0.20878476 0.120177746 0.07219504 0.033057272
000210 03 73 36 3d bd 32 e2 3f b9 ba c7 3e 90 39 cc bf
       0.044543277 1.7671734 0.39009646 -1.5955067
000220 24 9f 56 3d de 37 e7 3d 09 bc 41 3e 83 d5 80 3e
       0.052397862 0.11289953 0.18919386 0.25162897
000230 98 f5 4c be 26 69 9a bd 8e 8d e5 3d d7 32 5e 3e
       -0.20015562 -0.07539587 0.1120864 0.21699081
000240 f7 da b2 3e b9 fb 23 be 22 76 66 3e 8f aa a3 3d
       0.34932682 -0.16013993 0.22506002 0.07991516
000250 34 87 79 3d 99 c3 96 be a4 b9 df bd 50 71 43 3e
       0.060919955 -0.29446104 -0.1092408 0.19086194
000260 6c 9d 6e 3e 00 27 c1 ba 59 80 a5 bf 7c 0b 82 3c
       0.23302239 -0.0014736354 -1.2929794 0.015874617
000270 29 75 94 3e 8d e3 aa 3e 6d 2e 01 bf 68 0a 7d bd
       0.28995636 0.33376732 -0.50461465 -0.061777502
000280 8e 02 be 3d 76 40 ce be 68 0c d9 3d 14 92 a2 3e
       0.09277831 -0.40283555 0.105980694 0.31752074
000290 52 12 97 bd 64 c9 75 3d d8 f0 b9 bd 08 9e ad bc
       -0.07376541 0.060006514 -0.090791404 -0.02119352
0002a0 46 64 53 be 1b 1e 5e 3e 26 be 90 3e e3 e9 35 be
       -0.2064372 0.21691172 0.28270072 -0.17765002
0002b0 4a 9f bc bd 8c d4 dc 3d 80 63 d7 3b 26 c0 55 3f
       -0.092100695 0.107827276 0.0065731406 0.8349632
0002c0 15 7c 83 bf 1c 8f 08 bd 80 a9 b1 bd 96 ed 4c bd
       -1.0272242 -0.033339605 -0.08674908 -0.050031267
0002d0 7c 0f 70 bf 30 b0 3e bf 2b 73 13 be 5d 16 e2 3e
       -0.9377363 -0.7448759 -0.14399402 0.44157687
0002e0 8d 23 34 bd ca b9 ad bd c8 70 d1 3c 30 9f cd be
       -0.043979216 -0.08482702 0.025566474 -0.40160513
0002f0 60 f1 ff 3d 92 f9 8d 3d 33 2b c6 3e b9 57 0b 3f
       0.124972105 0.069323674 0.38704833 0.5443073
000300 7e 05 f6 3d 12 0d ce bd 38 4b c2 bc 00 3e ed b9
       0.12012766 -0.10061087 -0.023717508 -0.00045250356
000310 f3 6d 3c bf da b2 f5 bd 6a 9a f5 bd 80 f9 02 c0
       -0.7360527 -0.11997004 -0.11992343 -2.0464783
000320 08 be e1 bc 1c 41 e0 3d 8c 94 6c 3d d6 98 93 bd
       -0.027556434 0.10949919 0.057758853 -0.072068855
000330 29 c9 8d be 60 5f 70 bd 0c 82 aa bd 40 c9 4a bb
       -0.27692536 -0.058684707 -0.08325586 -0.0030942708
000340 d7 3f a5 be 8a 0b bf 3e 00 0a 2f 3a 52 43 86 be
       -0.32275268 0.3731349 0.00066772103 -0.26223236
000350 e8 67 6c bd 53 eb 75 bf 32 6d 9f 3d b6 ca 69 3e
       -0.05771628 -0.960622 0.07784499 0.22831234
000360 a4 aa f4 bd 68 fa c3 3d f5 dc 15 bf 7d 1f 4f 3e
       -0.119466096 0.095692456 -0.5854028 0.20226856
000370 b2 09 bc 3e 8c 85 a1 bd 3d c5 93 bf fc 3c 91 bd
       0.36726147 -0.078868 -1.1544567 -0.0709171
000380 56 52 ea 3d 11 e4 db bf c2 dd 96 bd c6 fb ac bd
       0.114414856 -1.7178975 -0.07366516 -0.084464595
000390 5e bb c5 be 62 4a b9 3d 00 14 61 3b 70 2b 16 3d
       -0.38619512 0.090473905 0.0034344196 0.03666252
0003a0 1e d2 25 bf b2 d9 8c bd f5 d7 46 be 36 f7 90 bf
       -0.6477374 -0.068774596 -0.19418319 -1.1325443
0003b0 ba 18 94 bd 5c 9f 80 3d 5e 9e dc bd 06 d9 0f bf
       -0.07231279 0.062803954 -0.10772394 -0.56190526
0003c0 3f 71 77 be 58 bc 16 3d e6 d7 8c 3d 02 ad 85 3e
       -0.24164294 0.036800712 0.06877117 0.26108557
0003d0 e9 25 33 bf 16 ab da bf ab f8 58 3e 3a 12 a3 bf
       -0.6997972 -1.7083461 0.2118861 -1.2739937
0003e0 8f 36 34 3e ab f4 99 bf 3c 57 92 bd ae 54 5a bf
       0.17598937 -1.2027792 -0.07145545 -0.8528546
0003f0 e0 eb 27 3c 04 ed 9e 3d bc 0b 39 3e eb 7b ba bf
       0.010249108 0.07760051 0.18070883 -1.4569067

fc2.bias f4 [64]
000000 52 ca 97 bf 1e ca 04 c0 e7 e4 11 be 9c 16 3e c0
       -1.1858618 -2.0748363 -0.14247476 -2.97013
000010 99 b2 1f bf 84 bb 47 be b6 d5 c3 bc a2 e0 53 be
       -0.62381893 -0.19505125 -0.023905616 -0.2069116
000020 93 e7 83 bf c5 93 a9 be 95 7d 7b bd 08 60 db bf
       -1.0305046 -0.33120552 -0.06139906 -1.7138681
000030 52 d6 ae be 83 36 58 be ff d3 0e be ca 8b 69 be
       -0.34147888 -0.21114545 -0.13948058 -0.22807232
000040 06 f6 d3 bd 28 2d 89 be 58 fa 32 be 65 2f 94 be
       -0.103496596 -0.26792264 -0.17478311 -0.2894241
000050 3a 44 d3 be ea 34 90 be 47 aa 05 c0 bb 80 a1 be
       -0.4126299 -0.2816537 -2.088518 -0.31543526
000060 65 99 94 be 20 b0 e9 be a5 b2 c4 bf b6 97 ad bf
       -0.2902328 -0.45642185 -1.5367018 -1.3561924
000070 f5 4d ad bf c2 f1 6c be ea 13 18 bf 2f 5d 6b bf
       -1.3539416 -0.23139098 -0.59405386 -0.9193906
000080 27 18 b5 be 1a 16 5d bf c7 9e b5 bf fe 86 96 bd
       -0.3536999 -0.8636185 -1.418908 -0.073499665
000090 45 07 b3 be bb 0f 86 bf 29 09 c6 bf 58 fc 8d be
       -0.34966484 -1.047355 -1.5471545 -0.27731586
0000a0 dc 1b c0 bf a6 88 86 3f eb 96 d6 bd 00 61 96 bf
       -1.5008502 1.0510452 -0.10478004 -1.1748352
0000b0 8d 0d b7 be 75 27 80 bf 59 10 da bf ee b2 bd bf
       -0.35752526 -1.0012041 -1.7036239 -1.482023
0000c0 d4 e0 e0 bf 81 a8 80 bf 5e 7e e2 bf b9 61 fd bf
       -1.7568612 -1.0051423 -1.7694814 -1.9795448
0000d0 0c 8f bf bf 9d f2 4a bf ad 0c 79 be 1f 78 b2 be
       -1.496553 -0.7927645 -0.24321242 -0.3485727
0000e0 bd 73 84 be f6 91 e7 bf a0 33 08 be 38 19 21 bf
       -0.2586955 -1.8091419 -0.13300943 -0.62929106
0000f0 1c 17 4e be 9d 19 d8 be 18 e2 bc be 27 fd e9 be
       -0.20126003 -0.4220704 -0.36891246 -0.45700952

fc3.weight f4 [6, 64]
000000 59 bc 84 3d 07 b3 ba 3f ce 3b 61 3d b0 1d b7 bf
       0.06481237 1.4585885 0.054988675 -1.4305935
000010 d2 5a c0 be 50 e8 55 be bb 6f 95 bd 46 ae 5b be
       -0.3756929 -0.20889401 -0.072967015 -0.21453199
000020 b8 18 7a bf 00 7f 8b be 45 e7 88 be 99 d3 9c 3f
       -0.9769397 -0.2724533 -0.26738945 1.2252074
000030 bc a9 99 3f f9 e6 36 be 66 50 cd 3e 79 33 92 be
       1.2004924 -0.17861547 0.40100402 -0.28554896
000040 d2 64 38 3d 70 ac ba 3e 85 a5 fb 3f b5 db aa be
       0.045018025 0.36459684 1.9659888 -0.33370748
000050 40 02 6b be e5 50 c5 3e 5d 63 cb 3e 00 69 c0 be
       -0.22950077 0.3853828 0.39724246 -0.3758011
000060 ec 19 b0 3d 5d 63 cd 3e 5a 3c 91 3d c3 e2 85 be
       0.08598694 0.4011487 0.07091589 -0.26149568
000070 64 2d cb 3f ec a0 84 be de 1d 20 3e 79 52 68 be
       1.5873227 -0.25904024 0.15636393 -0.22687711
000080 26 e7 6d be 2e 64 dc be cb 80 3a 3f ff f4 43 3d
       -0.23232707 -0.4304518 0.7285277 0.04784107
000090 3c b9 2e be 86 cb 26 bf e6 2f 9d be 50 47 70 be
       -0.17062849 -0.651543 -0.30700606 -0.23464704
0000a0 6b ff 23 be f1 0f 15 bf c4 b0 b7 3f f8 39 6c be
       -0.16015403 -0.5822745 1.435082 -0.23068988
0000b0 92 30 c9 be af 2e 79 bf ac da 4b bf c6 6e 46 bf
       -0.3929487 -0.9733686 -0.7963054 -0.77512777
0000c0 df a1 32 be 84 fa 7c 3e d8 c6 6d be c4 49 66 bd
       -0.17444561 0.24704939 -0.23220384 -0.056222692
0000d0 bc 2f 78 be 02 9f 89 be 0f a3 1d 40 19 c4 ca be
       -0.24236959 -0.26879126 2.4630773 -0.39602736
0000e0 48 ba 98 be 84 89 72 be 7b f7 73 be e4 4f 0f 3e
       -0.2982962 -0.2368527 -0.23824875 0.1399532
0000f0 aa 55 58 be 71 b9 7a be 19 40 c7 be c8 d5 9c be
       -0.21126428 -0.24484803 -0.3891609 -0.30631852
000100 9e e8 8a bc 80 5b 97 3a 54 ff b2 3e e3 d1 c2 bf
       -0.016956624 0.0011547655 0.34960425 -1.5220302
000110 c3 86 ac be 82 76 bc be 06 d4 94 bd bf 4c e6 3e
       -0.33696565 -0.36809164 -0.07267003 0.44980428
000120 18 08 6a 3d f5 72 d2 be 32 5d 91 be 5f fd 70 3d
       0.057136625 -0.4110333 -0.28391415 0.058835384
000130 65 e7 3d be 5c e5 5a 3d c3 cb c3 be 0b c2 6a be
       -0.18545301 0.05344139 -0.38241395 -0.22925584
000140 48 4c 30 bf 17 85 2a 3e 31 58 91 bf 83 b9 d1 be
       -0.68866396 0.16652332 -1.1355039 -0.40961847
000150 f9 4d 56 be db f6 8d 3d b5 c7 93 bf a0 22 a6 be
       -0.20928182 0.069318496 -1.1545321 -0.32448292
000160 5d 6e 18 3d 64 26 ed 3e 66 f2 d8 3d 17 9c 86 be
       0.037214626 0.46318352 0.10593109 -0.26290962
000170 3e 61 90 be 1b 7d d9 be 69 4e 7c be c1 fc fa bc
       -0.2819919 -0.4247826 -0.24639286 -0.0306381
000180 05 5c a1 be a3 2c 58 3f 3a 2c 9b 3e b7 63 e7 3b
       -0.31515518 0.8444311 0.3030718 0.0070614475
000190 6b fb 6e be ec e1 bb 3f 58 d1 c9 3c f0 b1 56 be
       -0.23338096 1.4678321 0.024635956 -0.20966315
0001a0 28 16 4e be d3 1b 47 c0 dc 46 00 bf ca c3 99 bf
       -0.2012564 -3.1110733 -0.5010812 -1.2012875
0001b0 0a 78 9c 3e ab 0c 08 3e bd 2d 8c bf 99 a2 8e 3f
       0.30560333 0.13286082 -1.0951458 1.1143371
0001c0 89 4b 41 be e7 42 98 3e 28 c5 a2 3e 68 fa 78 bd
       -0.1887647 0.29738542 0.31791043 -0.06078568
0001d0 f1 a0 a5 be 1d ac d0 be 09 2b 34 3c a1 e3 b3 be
       -0.3234935 -0.40756312 0.0109965885 -0.35134605
0001e0 cc 19 76 be c2 ec 99 bf 3c 4c 3d bd fb f1 63 3e
       -0.24033278 -1.2025378 -0.04621528 0.22260277
0001f0 53 25 96 be 18 82 62 be 8b 0b 37 be c4 ef bd b9
       -0.2932535 -0.2211994 -0.17875497 -0.00036227528
000200 1d 8e a7 be f4 0a c9 be 00 2b c9 be 9f b8 1b 3f
       -0.3272561 -0.3926617 -0.3929062 0.60828584
000210 c1 9b cb 3e e1 9e c3 3e f7 68 88 3e cf c5 25 be
       0.39767268 0.38207152 0.26642582 -0.16188739
000220 5b bd 67 bf e9 63 90 be dd 6e 55 be 38 31 d4 3f
       -0.9052331 -0.28201225 -0.20843072 1.657752
000230 56 52 ee 3d 62 68 85 be 2b 6c 7e be f5 82 3e 3e
       0.11636798 -0.260562 -0.2484595 0.18604644
000240 ab 53 42 be 14 c6 7f 3e 54 e4 9f 3f 72 f1 a9 be
       -0.1897723 0.24977905 1.2491555 -0.3319202
000250 68 e4 44 be da 78 61 bd 3c a9 81 3d d8 97 b1 3e
       -0.19227755 -0.055046894 0.06331107 0.3468616
000260 6d 63 52 bc db 9d d7 3e 3b a3 1d be 68 a2 83 be
       -0.012841088 0.42112622 -0.15394299 -0.25709844
000270 f4 6b 36 be 25 d7 c8 be 3b 78 19 3f af 1c 2c bf
       -0.17814618 -0.39226642 0.5994908 -0.6723127
000280 0d 0b a0 3e e9 3a bf 3e 71 48 96 3e 05 df e1 bd
       0.3125843 0.37349632 0.29352143 -0.11028866
000290 dc a5 46 be b1 48 e3 bf a5 f2 2b bd 5e 25 41 3e
       -0.19399208 -1.7756559 -0.04197945 0.1886191
0002a0 b3 56 82 3e e0 a9 42 c0 10 f7 d4 3f a6 a1 3f 3f
       0.2545677 -3.0416183 1.6637897 0.7485603
0002b0 f6 af 75 3e bb 6e f3 bf b5 55 32 bf 54 53 b2 be
       0.23992905 -1.9018167 -0.6966203 -0.348292
0002c0 7a 4a ab be 63 24 5a 3e 39 63 cf bd 99 9f 0c bf
       -0.3345526 0.21302943 -0.10126347 -0.54931027
0002d0 cc da 58 be d1 f6 41 3e a0 1f bc 3f 3b c9 9c 3e
       -0.21177214 0.18941809 1.4697151 0.30622277
0002e0 15 90 cb be 40 ad 71 bf 69 59 14 3e 29 63 4b 3e
       -0.39758363 -0.94404984 0.14487232 0.19862045
0002f0 1f bd bb be 57 83 46 be 69 29 83 3e e5 85 ce 3e
       -0.36667725 -0.1938604 0.2561753 0.40336528
000300 c0 1c 02 3d dc 35 8a 3d ac e9 61 bd 32 e3 c9 3f
       0.0317657 0.06748554 -0.055154487 1.577246
000310 f9 07 45 be 04 90 b8 be 26 0b 2d 3d 3e 1d 22 3d
       -0.19241323 -0.36047375 0.04224696 0.03957867
000320 48 0f 5d bf e4 50 d9 3e 69 19 15 be 3b ba 8a bf
       -0.8635144 0.42444527 -0.14560474 -1.0838083
000330 d6 58 64 3e 57 4b 27 3e 04 68 43 bf 09 d5 a5 be
       0.22299513 0.16337334 -0.7633059 -0.32389095
000340 ba dd f3 be ea 83 3e be 29 95 a0 3c 47 9c be be
       -0.476301 -0.18605009 0.019602375 -0.37228605
000350 77 e2 93 3e a8 39 6c be 40 3e 19 3b d2 4e b7 3e
       0.28883716 -0.23068869 0.002338305 0.35802323
000360 3a e2 6b bd 34 6d c5 be 64 d4 61 be 01 7b a6 3e
       -0.057588793 -0.38559878 -0.22053677 0.3251572
000370 02 2d aa bd b9 9c ae be d4 2b 8f be 46 24 74 3d
       -0.08309366 -0.34103945 -0.27963126 0.059604906
000380 ee 67 3d be b6 17 8c 3e 3b 38 6f 3e 67 51 be bd
       -0.18496677 0.2736184 0.23361294 -0.0929287
000390 65 64 8e 3e 73 49 95 bf 06 48 d1 be 34 d3 71 be
       0.2781097 -1.166304 -0.40875262 -0.23615724
0003a0 ba b0 c7 be dc 45 09 c0 f3 dc a7 be 6e 7f e0 3e
       -0.3900202 -2.1448889 -0.32785758 0.4384722
0003b0 8c 99 b3 3e e5 5e 30 40 57 00 5f bf e9 0d 0f bf
       0.35078084 2.755792 -0.87109894 -0.558806
0003c0 3e 24 98 be 76 81 37 be a1 15 ad bf c8 cf a6 3d
       -0.2971515 -0.17920479 -1.3522226 0.081451
0003d0 9e d5 d2 be a5 7e 9b be be 2c 17 40 a4 10 a5 be
       -0.41178602 -0.3037006 2.3621058 -0.32239258
0003e0 3b 67 a3 3e c3 ce 87 bf d4 d3 ef bb 49 df b8 be
       0.31914696 -1.0609974 -0.007318953 -0.36107853
0003f0 5f 71 90 be e3 78 ab be 74 88 35 be 25 44 31 bf
       -0.28211495 -0.33490667 -0.17727834 -0.69244605

fc3.bias f4 [6]
000000 7e 50 24 c0 e3 83 a9 bd a0 af 9b bd 09 71 1d bf
       -2.5674129 -0.082771085 -0.07601857 -0.615006
000010 f3 8f 25 c1 f3 64 23 c1
       -10.347644 -10.212146
