checkpoints/model_0.9_250.pth (torch, 25220 bytes, 6 tensors)

fc1.weight f4 [64, 16]
0	0xbe36be10	-0.1784594
1	0x3e65adb8	0.2242955
2	0x3d91b448	0.07114464
3	0xbd23ac90	-0.03995949
4	0x3e564458	0.20924509
5	0x3e7a401e	0.24438521
6	0xbd9fcaf0	-0.07802379
7	0x3d8052b4	0.06265774
8	0x3dd58de4	0.10427454
9	0x3def5f08	0.11688048
10	0xbd11b880	-0.035576344
11	0x3df18db8	0.11794609
12	0xbde69ca0	-0.112603426
13	0x3dad25d4	0.08454481
14	0xbde7f7ac	-0.113265365
15	0x3e23a292	0.15979984
16	0xbe59c42e	-0.21266243
17	0xbc82c270	-0.015961856
18	0x3e1f8cfe	0.15581128
19	0xbb91d0c0	-0.004449934
20	0x3df585d4	0.11988416
21	0x3e652036	0.22375569
22	0x3e5c9b10	0.21543527
23	0x3e0ba2f2	0.13636377
24	0x3dbe3a1c	0.09288427
25	0x3e1cdd92	0.15318897
26	0xbe62b41c	-0.22139019
27	0xbcc5e590	-0.024157315
28	0x3d0fb6e0	0.035086513
29	0x3e4571ee	0.19281742
30	0x3dd05638	0.10172695
31	0xbe09d5e6	-0.13460502
32	0x3e317ae0	0.1733203
33	0xbe78ab3c	-0.2428407
34	0xbdd5873c	-0.104261845
35	0xbe044762	-0.12917855
36	0x3c7c7d40	0.015410721
37	0x3d83f7cc	0.06443748
38	0x3e79ee9a	0.24407426
39	0x3dbfcf94	0.09365764
40	0xbc0db220	-0.008648425
41	0xbd14cda0	-0.03632891
42	0xbc213b20	-0.009840757
43	0x3e004216	0.1252521
44	0x3b92fd00	0.0044857264
45	0xbe336d68	-0.17522204
46	0x3dc30d5c	0.095240325
47	0xbe423faa	-0.18969598
48	0xbd2cd7d0	-0.042198002
49	0x3c2c7060	0.010524839
50	0x3d9cb4e0	0.07651687
51	0xbe5572e2	-0.20844606
52	0x3dc1daac	0.094655365
53	0xbe241ea8	-0.1602732
54	0xbe6ab12e	-0.22919151
55	0xbe422610	-0.18959832
56	0xbd68b828	-0.05681625
57	0x3d5d4470	0.054020345
58	0xbd88e488	-0.06684214
59	0x3cd60b50	0.026128441
60	0x3e5ca6cc	0.21548003
61	0xbcbeca30	-0.02328977
62	0xbe219a3c	-0.15781492
63	0xbe44c89a	-0.19217148
64	0xbc496080	-0.012291074
65	0x3df966f8	0.12177843
66	0xbe5b235c	-0.21400207
67	0x3e582436	0.21107563
68	0x3d9a8130	0.07544172
69	0x3e39e7de	0.18154857
70	0x3e3bd320	0.18342257
71	0x3e58af8e	0.21160719
72	0x3dcfa828	0.10139495
73	0x3e4bac02	0.19889835
74	0xbde98588	-0.11402422
75	0x3d1d97e0	0.038474917
76	0xbdfd0700	-0.12354851
77	0xbd9fbd64	-0.07799795
78	0xbe37e0d6	-0.17956862
79	0x3b803180	0.003912151
80	0xbdd4ee98	-0.10397071
81	0x3cd06f90	0.025443822
82	0xbd5ec288	-0.05438474
83	0x3cf58be0	0.029973924
84	0xbe5e1602	-0.21688083
85	0xbcb8a040	-0.02253735
86	0xbe059cb4	-0.13048059
87	0x3e759d18	0.23985708
88	0x3e674bce	0.22587511
89	0xbe108a3c	-0.14115232
90	0x3ae3ff00	0.0017394722
91	0xbe1d9c60	-0.15391684
92	0x3cc4d210	0.024025947
93	0x3e6998fc	0.22812265
94	0x3e15fef4	0.14648038
95	0xbe1737fe	-0.14767453
96	0x3ddcd4c8	0.10782772
97	0x3e4a1278	0.19733608
98	0x3e0418ea	0.12900129
99	0x3dc02b4c	0.09383258
100	0x3d6f22d8	0.05838284
101	0x3e2821be	0.16419122
102	0xbd175ff0	-0.036956728
103	0xbe5c38be	-0.2150602
104	0xbe42cff8	-0.19024646
105	0xbe238970	-0.15970397
106	0x3d01f0a8	0.03172365
107	0x3c7fddc0	0.015616834
108	0xbe0b6fe8	-0.13616908
109	0xbe2d65ce	-0.16933367
110	0xbd942a38	-0.07234615
111	0xbd953c7c	-0.07286927
112	0x3d449b98	0.04799995
113	0xbc51d460	-0.012806982
114	0x3de61398	0.11234206
115	0x3d47b4f0	0.04875654
116	0xbe300dc6	-0.17192754
117	0xbe0ca8a2	-0.13736203
118	0x3db1a450	0.08673918
119	0xbe5857c8	-0.21127236
120	0x3cb58bf0	0.022161454
121	0x3e4318cc	0.19052428
122	0x3c970550	0.01843515
123	0xbe0fc39c	-0.14039463
124	0xbce29b80	-0.027662039
125	0xbdb8fbcc	-0.090324014
126	0x3de0885c	0.109635085
127	0xbbe78640	-0.0070655644
128	0xbe644aba	-0.22294131
129	0x3dc44ed4	0.09585348
130	0xbe2f2dc2	-0.17107299
131	0xbe760daa	-0.2402865
132	0xbe273404	-0.16328436
133	0x3ccd5450	0.025064617
134	0x3e5cc564	0.21559674
135	0x3cf1c8a0	0.02951461
136	0x3e061c56	0.13096747
137	0xbe63b368	-0.22236407
138	0xbda9c5c4	-0.08289674
139	0xbc8c72b0	-0.017144531
140	0xbe6efb58	-0.23338068
141	0xbe1c5a30	-0.15268779
142	0xbc91b250	-0.017785221
143	0x3e15da6e	0.14634106
144	0x3e523178	0.20526683
145	0xbda8d384	-0.082434684
146	0xbe623b3e	-0.22092912
147	0xbddddf7c	-0.10833642
148	0x3e2dd208	0.16974652
149	0x3da17654	0.078838974
150	0x3e153d36	0.14574131
151	0x3e553e6c	0.20824593
152	0x3e66a5ec	0.22524232
153	0x3e1a2e08	0.15056622
154	0xbe3a0b2e	-0.18168327
155	0x3e4a10a0	0.19732904
156	0x3e2358f4	0.15951902
157	0x3e5121ac	0.20423001
158	0x3c893f10	0.016753703
159	0x3df21ffc	0.11822507
160	0xbe715380	-0.23567009
161	0x3e21cdac	0.15801114
162	0xbe78bb96	-0.24290308
163	0x3c1c2bc0	0.009531915
164	0xbc8f1f00	-0.017470837
165	0x3e777cd2	0.24168709
166	0xbe3d9ee8	-0.18517649
167	0xbdc02fa4	-0.09384087
168	0x3e449268	0.19196475
169	0xbdb26a80	-0.087117195
170	0x3d20a208	0.039217025
171	0x3e5c5c3a	0.21519557
172	0x3e2545a6	0.1613985
173	0x3e2f6e76	0.17131981
174	0x3e4d4bca	0.20048442
175	0xbe17acc8	-0.14812005
176	0x3e6dbabe	0.23215768
177	0x3e7b81ec	0.2456128
178	0xbe50252c	-0.2032668
179	0x3cf09580	0.029368162
180	0x3e0b11de	0.13581035
181	0xbe35217e	-0.17688558
182	0xbe3bb34a	-0.18330112
183	0xbe0cad82	-0.13738063
184	0x39dc5400	0.00042024255
185	0xbe69a99c	-0.22818607
186	0xbde58600	-0.11207199
187	0x3d8a7e7c	0.06762406
188	0xbe67a848	-0.22622788
189	0xbdb8ca64	-0.09022978
190	0x3e4ef728	0.2021147
191	0x3e34b924	0.1764875
192	0xbe05fe32	-0.13085249
193	0xbe6d9836	-0.23202595
194	0xbe4a0cf0	-0.19731498
195	0xbe6bc376	-0.23023781
196	0x3e7ec8be	0.24881265
197	0x3d2b52d8	0.041827053
198	0xbdb60f78	-0.08889669
199	0x3e005cbc	0.12535375
200	0xbe3cba7e	-0.18430516
201	0x3d9dd380	0.07706356
202	0x3e0dbad8	0.13840806
203	0xbc609fc0	-0.013709962
204	0x3e3b3cf6	0.18284974
205	0x3e0e4bc0	0.13896084
206	0xbe59df74	-0.21276647
207	0x3e4d1f12	0.20031384
208	0xbe546924	-0.20743233
209	0xbe0631b4	-0.13104898
210	0x3e5d4992	0.21610096
211	0xbceaf270	-0.028680056
212	0x3e5adbf6	0.21372971
213	0x3e6a362c	0.22872227
214	0x3e593a2e	0.212136
215	0xbe16fcea	-0.14744917
216	0xbda162f0	-0.07880199
217	0xbdac5554	-0.084147125
218	0x3e4f4234	0.20240098
219	0xbe39ea26	-0.18155727
220	0xbd674558	-0.056462616
221	0x3e22862a	0.15871492
222	0x3e191f7e	0.1495342
223	0x3e02ddb0	0.1277988
224	0x3dbc340c	0.09189615
225	0xbc7de580	-0.015496612
226	0x3e08aaee	0.13346455
227	0xbe497d7e	-0.19676778
228	0xbd81e85c	-0.06343147
229	0x3dfe2e38	0.12411159
230	0xbda5cc98	-0.08095664
231	0xbd831b74	-0.06401721
232	0xbe01ce18	-0.12676275
233	0xbe0ec258	-0.13941324
234	0xbe0b78e6	-0.13620338
235	0xbdea21e0	-0.114322424
236	0xbdcd13f8	-0.10013574
237	0xbc5ca600	-0.013467312
238	0xbd08d7f8	-0.03340909
239	0xbe2ad80a	-0.16683975
240	0x3e765bea	0.240585
241	0xbd385ad8	-0.04500851
242	0x3c0a09e0	0.008425206
243	0xbdb67c98	-0.08910483
244	0x3d6f0718	0.058356375
245	0xbd8f7e30	-0.0700649
246	0x3db3bdb4	0.087764174
247	0xbb88ebc0	-0.004178494
248	0x3e7d5d2c	0.24742573
249	0xbdbc0570	-0.091807246
250	0xbc2fcda0	-0.010730177
251	0xbd8e0588	-0.06934649
252	0xbe2110be	-0.15729043
253	0xbda5e95c	-0.081011504
254	0x3d9be004	0.07611087
255	0xbdd69fec	-0.104797214

fc1.bias f4 [64]
0	0x3d53ab20	0.05167687
1	0xbdae2e18	-0.085048854
2	0xbe766bcc	-0.24064559
3	0xbd99156c	-0.07474789
4	0xbe4c3df4	-0.19945508
5	0xbe48c9aa	-0.19608179
6	0xbe421638	-0.18953788
7	0xbe5708c6	-0.2099944
8	0xbe75f77c	-0.24020189
9	0xbe26c7b0	-0.16287112
10	0x3a424800	0.00074112415
11	0xbb274a80	-0.0025526583
12	0x3de79810	0.113083005
13	0x3e2d97b4	0.16952401
14	0x3dd5891c	0.10426542
15	0xbd8f5398	-0.06998366
16	0x3e010dba	0.12602893
17	0x3e7d910e	0.24762365
18	0xbe689998	-0.22714841
19	0x3e112a66	0.1417633
20	0xbe183b1c	-0.14866298
21	0x3e5adfe0	0.21374464
22	0x3e407668	0.18795168
23	0x3e73b12e	0.23798057
24	0xbdfc6f1c	-0.1232588
25	0x3daf10d8	0.085481346
26	0xbd3e9828	-0.046531826
27	0x3db3aa7c	0.08772752
28	0xbe43e21e	-0.19129226
29	0xbe507296	-0.20356211
30	0xbd230428	-0.039798886
31	0xbe702d96	-0.2345489
32	0xbe36994a	-0.17831913
33	0xbe400cde	-0.18754908
34	0xbe628836	-0.22122273
35	0x3de716ac	0.11283621
36	0xbe37ab0e	-0.17936346
37	0x3ce37b40	0.027768731
38	0xbd693998	-0.05693969
39	0xbe2a1588	-0.16609776
40	0xbc3286c0	-0.010896385
41	0xbc622dc0	-0.013804853
42	0x3e2ee280	0.1707859
43	0x3e532914	0.20621139
44	0xbe3dfb14	-0.1855281
45	0x3e58b314	0.21162063
46	0x3cf4c240	0.029877782
47	0xbe6ddfc8	-0.23229897
48	0x3e09eaaa	0.13468423
49	0xba216400	-0.0006156564
50	0xbdf65020	-0.120270014
51	0xbd3f6b50	-0.0467332
52	0xbe451a56	-0.19248328
53	0xbe6b7f4e	-0.22997782
54	0xbb873100	-0.0041257143
55	0xbdd8cc5c	-0.105858535
56	0x3e65df58	0.2244848
57	0x3e10f57a	0.14156142
58	0xbdc94da0	-0.09829259
59	0x3e3d400e	0.18481466
60	0xbe1a4fdc	-0.15069526
61	0xbdecc4b8	-0.115609586
62	0xbe5bc148	-0.2146045
63	0x3dc4fa98	0.096181095

fc2.weight f4 [64, 64]
0	0x3db2336e	0.08701216
1	0x3caa8900	0.02081728
2	0xbd8c14fa	-0.068399385
3	0xbd98351e	-0.07432006
4	0x3d1aa074	0.037750676
5	0x3d624544	0.055241838
6	0xbd0667d0	-0.032813847
7	0xbc0a1ea0	-0.008430153
8	0xbd631364	-0.055438414
9	0x3d97c4e6	0.07410602
10	0xbd2fa094	-0.04287775
11	0x3ddc1f3c	0.10748145
12	0x3dbe9672	0.09306039
13	0x3d8ce512	0.06879629
14	0xbd95a5e4	-0.07307032
15	0xbdaccd00	-0.08437538
16	0x3da2627a	0.07928939
17	0x3c93f368	0.018060401
18	0x3df1a8ae	0.11799751
19	0xbd89f808	-0.06736761
20	0xbd01b984	-0.031671062
21	0x3d2591a8	0.04042211
22	0xbdac921a	-0.08426304
23	0x3daa7580	0.083231926
24	0xbd5222b0	-0.05130261
25	0x3dc7eb06	0.09761624
26	0x3ddca6d2	0.10774006
27	0xbcb525b0	-0.022112697
28	0x3df5a11e	0.11993621
29	0xbcaf7aa8	-0.021420792
30	0x3d199fec	0.03750603
31	0x3c64f860	0.013975233
32	0x3d484250	0.048891366
33	0x3da40676	0.08009045
34	0x3de3f702	0.111310974
35	0xbde70c42	-0.11281635
36	0xbce70448	-0.028200284
37	0xbd23cc48	-0.03998974
38	0x3d1fbce8	0.038998514
39	0x3ddd9106	0.10818677
40	0x3dabe146	0.08392577
41	0x3d6da3a4	0.058017388
42	0x3cda87b0	0.026676029
43	0x3d696a34	0.05698605
44	0x3dcf2fb0	0.101165175
45	0x3c960680	0.018313646
46	0x3d341ff0	0.04397577
47	0x3d24401c	0.040100202
48	0x3d52c67c	0.05145882
49	0x3d75359c	0.05986558
50	0xbd70c5d0	-0.0587824
51	0xbca45d58	-0.020064041
52	0x3d371c74	0.04470487
53	0x3dc33262	0.09531094
54	0x3d93ee12	0.07223143
55	0x3d7c4168	0.061585814
56	0x3d892ef4	0.06698409
57	0x3dd1d37a	0.10245414
58	0xbce613b8	-0.028085575
59	0xbda80562	-0.08204152
60	0x3d8148e6	0.063127324
61	0x3c8cce08	0.017188087
62	0x3d8f6dc6	0.070033595
63	0xbdc61f92	-0.0967399
64	0xbc8ca540	-0.017168641
65	0x3c5cf2e0	0.01348564
66	0x3d5fc974	0.05463548
67	0x3ddfb3d4	0.10922971
68	0x3c79a0d0	0.015236095
69	0xbcd13498	-0.025537774
70	0xbd73da28	-0.059534222
71	0xbcd6c600	-0.02621746
72	0x3ca122b8	0.019669876
73	0x3c259030	0.010105178
74	0x3dac9d86	0.08428483
75	0x3cf17f60	0.029479682
76	0x3d61d070	0.055130422
77	0x3d186040	0.037201166
78	0xbccc7910	-0.02496007
79	0xbd9d9450	-0.07694304
80	0x3d84be96	0.06481664
81	0x3dffd5c0	0.124919415
82	0x3dee2a5a	0.11629172
83	0xbdc90714	-0.09815803
84	0x3da5e254	0.08099809
85	0xbcd24230	-0.025666326
86	0x3b2bc400	0.0026209354
87	0xbdcfa1b2	-0.10138263
88	0x3dba202a	0.09088166
89	0xbde9ee82	-0.11422445
90	0xbdc7501e	-0.09732078
91	0xbd169be8	-0.036769778
92	0xbd9f5de8	-0.07781583
93	0xbd8fba6a	-0.070179775
94	0x3d747094	0.059677675
95	0xbdd089e2	-0.10182549
96	0xbdc76840	-0.09736681
97	0xbc1b5f60	-0.009483188
98	0x3d9424ac	0.07233557
99	0xbdb1a83e	-0.08674668
100	0x3d6d1e04	0.057889953
101	0x3b849360	0.004045889
102	0xbd4fd9d8	-0.05074486
103	0x3de29606	0.11063771
104	0xbda00c80	-0.07814884
105	0xbd8dfe64	-0.06933287
106	0xbce208a0	-0.027592003
107	0xbdbb3f6e	-0.09142958
108	0xbd956a70	-0.07295692
109	0xbcc91dd8	-0.024550363
110	0xbbc5b040	-0.0060329735
111	0x3d5ac20c	0.053407714
112	0xbcd791c0	-0.026314616
113	0xbda20796	-0.07911603
114	0xbdb4b0ce	-0.08822785
115	0xbd863bc4	-0.06554368
116	0x3ddffd16	0.10936944
117	0xbdebb4f6	-0.11509125
118	0x3dced346	0.10098891
119	0xbd20531c	-0.03914176
120	0xbb6fbfc0	-0.0036582798
121	0x3a6f4200	0.0009126961
122	0x3cd6aee0	0.026206434
123	0xbdb8095c	-0.0898616
124	0x3d92ef88	0.07174593
125	0xbde142da	-0.10999079
126	0xbda82380	-0.08209896
127	0x3d2e9ad4	0.042628124
128	0xbd0b756c	-0.03404753
129	0x3d10bb1c	0.03533469
130	0xbce5c6c0	-0.028048873
131	0xbd077ab0	-0.03307599
132	0x3c97d700	0.018535137
133	0x3cfdc828	0.030979231
134	0x3cf5aaf8	0.02998875
135	0x3dcc7f0a	0.09985168
136	0x3dfa9562	0.12235524
137	0xbc9ba018	-0.018997237
138	0xbce86a70	-0.028371066
139	0x3de64166	0.112429425
140	0xbd8d01f0	-0.06885135
141	0xbd859dbe	-0.065242276
142	0xbdb45c9a	-0.08806725
143	0xbd0f2864	-0.03495063
144	0x3da56518	0.08075923
145	0xbdbccef8	-0.09219164
146	0xbbea9d60	-0.007159874
147	0x3d5cc4c0	0.053898573
148	0x3ca4fb78	0.02013944
149	0x3db77c8c	0.08959302
150	0x3c977638	0.018488988
151	0xbc75d440	-0.015004218
152	0x3d861d00	0.065485
153	0xbd57d1a0	-0.05269015
154	0xbd8b29d2	-0.06795086
155	0xbdc73992	-0.097277775
156	0x3db9756c	0.090555996
157	0xbd69062c	-0.05689065
158	0xbdf80804	-0.12110904
159	0x3dc63576	0.096781656
160	0x3d49c720	0.049262166
161	0xbcdae3f8	-0.026720032
162	0x3d083298	0.033251375
163	0xbdd43f10	-0.10363591
164	0x3a8e2980	0.0010846108
165	0x3d8378de	0.06419538
166	0xbd0ac930	-0.033883274
167	0x3d97354c	0.073832124
168	0xbc867d38	-0.01641713
169	0x3b0e0fc0	0.0021676868
170	0xbd860c24	-0.065452844
171	0x3dcacdcc	0.09902534
172	0xbd7a7140	-0.06114316
173	0xbde4773c	-0.11155555
174	0xbd1fbd94	-0.038999155
175	0x3d344fb8	0.04402134
176	0x3cdd3fb8	0.027007923
177	0x3d7fabb4	0.06241961
178	0x3cd0d2c0	0.025491118
179	0x3db86276	0.09003155
180	0x3dd0f6a2	0.102032915
181	0x3de3453a	0.11097188
182	0x3dfbefda	0.123016074
183	0xbda0af2e	-0.07845913
184	0xbd92cf70	-0.07168472
185	0xbd2d1aac	-0.042261764
186	0x3cb8e020	0.022567809
187	0xbd894e40	-0.06704378
188	0x3d6409dc	0.055673465
189	0xbdc8ffcc	-0.098144144
190	0x3da5976e	0.080855235
191	0xbdff15dc	-0.12455341
192	0xbd22ca08	-0.039743453
193	0x3dc88f1e	0.097929224
194	0xbd3cc324	-0.046084538
195	0xbdeb2e26	-0.114834115
196	0xbc80bd58	-0.015715286
197	0xbd501048	-0.050796777
198	0xbc3a0e10	-0.011355892
199	0xbd1677c8	-0.036735326
200	0x3db16452	0.08661713
201	0x3d8bf2da	0.0683343
202	0xbdbd4ca8	-0.09243137
203	0xbdfcef64	-0.12350348
204	0xbdc3d62c	-0.095623344
205	0x3c9ea998	0.019367978
206	0x3ce414b8	0.02784191
207	0xbca6dcc0	-0.020368934
208	0x3cd41778	0.025890097
209	0xbdd0c824	-0.10194424
210	0x3d903650	0.07041609
211	0x3df9ad0e	0.12191211
212	0xbbf15f20	-0.007366076
213	0x3d0ec468	0.034855276
214	0xbd9fb05e	-0.07797311
215	0xbdb5c6a0	-0.08875775
216	0xbd7c9c84	-0.061672702
217	0x3d039ef8	0.032134026
218	0x3dcda14a	0.10040529
219	0x3dcc822c	0.09985766
220	0x3d2e3a34	0.042535976
221	0x3d9d42a8	0.07678729
222	0x3debd76c	0.11515698
223	0x3c7b64b0	0.01534383
224	0x3cba2858	0.022724316
225	0x3b76ef80	0.0037679374
226	0xbc9864f0	-0.018602818
227	0x3d80fd6a	0.06298335
228	0xbd836fc0	-0.06417799
229	0xbdf28a46	-0.1184278
230	0xbda5b63c	-0.08091399
231	0xbdc6d6f2	-0.09708966
232	0xbd54886c	-0.051887915
233	0xba6fc800	-0.0009146929
234	0xbd864e2e	-0.0655788
235	0xbc6274d0	-0.013821796
236	0x3dd4808c	0.10376081
237	0xbda9f136	-0.082979605
238	0x3d168608	0.036748916
239	0xbdc97904	-0.09837535
240	0x3de441aa	0.11145337
241	0x3db81e22	0.089901224
242	0x3d8d27f2	0.068923846
243	0xbc0477b0	-0.008085176
244	0xbc89bc60	-0.016813457
245	0xbd5323ec	-0.05154793
246	0x3dad1684	0.0845156
247	0x3d8027c8	0.06257588
248	0xbda02c62	-0.07820965
249	0x3da65d5a	0.08123274
250	0x3d7ca8f0	0.06168455
251	0x3d577c2c	0.052608654
252	0x3cbe56d8	0.02323477
253	0xbdea6228	-0.11444503
254	0xbc3cd010	-0.011524215
255	0xbb3a5a40	-0.002843514

fc2.bias f4 [64]
0	0xbdf893e6	-0.121375844
1	0xbddf81a4	-0.10913399
2	0xbd862d52	-0.06551613
3	0x3da335ec	0.07969269
4	0x3dd5ad2a	0.10433419
5	0x3d5ab17c	0.05339192
6	0x3dc63ebe	0.09679936
7	0x3dc43b86	0.09581666
8	0x3d9726fc	0.073804826
9	0xbc760760	-0.015016407
10	0x3d96088c	0.07325849
11	0xbb486240	-0.003057614
12	0xbd87eb42	-0.06636669
13	0x3d1d0eb8	0.038344115
14	0xbc92b418	-0.017908141
15	0xbd2f5ec8	-0.042815
16	0x3d64ed0c	0.055890128
17	0x3d9327d0	0.07185328
18	0xbde32138	-0.1109032
19	0xbd317edc	-0.043333873
20	0xbda5ce18	-0.0809595
21	0xbdcae65a	-0.09907217
22	0x3dfc4734	0.123182684
23	0xbc527220	-0.012844592
24	0xbda1dc9e	-0.079034075
25	0xbd1785fc	-0.03699301
26	0x3d91da50	0.07121718
27	0xbdab4e8a	-0.083645895
28	0xbcdaf8c0	-0.026729941
29	0xbdb76068	-0.08953935
30	0xbdabf2e2	-0.083959356
31	0x3d13df24	0.036101475
32	0xbd946038	-0.07244915
33	0x3d8d1bb2	0.06890048
34	0x3dbe462c	0.09290728
35	0xbde95dc4	-0.113948375
36	0xbd9ceff2	-0.076629534
37	0x3de78d4c	0.11306247
38	0x3de40ce6	0.11135273
39	0x3d59585c	0.05306278
40	0x3d87c8c0	0.06630087
41	0x3db089c0	0.08620024
42	0x3d995c3a	0.07488294
43	0xbdd9bbae	-0.106315
44	0xbdb108c4	-0.0864425
45	0xbc3a0f00	-0.011356115
46	0x3df63b4e	0.1202303
47	0x3da4275a	0.08015318
48	0x3daf205c	0.08551094
49	0x3dec44c2	0.11536552
50	0xb91a4c00	-0.00014714897
51	0xbdc9e8b4	-0.09858838
52	0xbd4c829c	-0.049929246
53	0xbc806d10	-0.015677005
54	0x3de44dd6	0.111476585
55	0x3dc2ae8e	0.0950595
56	0x3dc61af0	0.09673107
57	0x3db0567a	0.08610244
58	0xbc05aa20	-0.008158237
59	0x3d944faa	0.07241757
60	0xbca0eac8	-0.019643202
61	0x3da73bc6	0.08165698
62	0x3bdfacc0	0.0068260133
63	0xbd85dcae	-0.06536232

fc3.weight f4 [6, 64]
0	0x3da2c65a	0.07947989
1	0xbc1cc4f0	-0.009568438
2	0x3caff2f0	0.021478146
3	0x3cbf2270	0.02333185
4	0xbbc69180	-0.0060598254
5	0x3d43f710	0.04784304
6	0xbd1c6c80	-0.03818941
7	0xbc396fc0	-0.011318147
8	0xbdbc67d4	-0.09199491
9	0xbd48c924	-0.049019948
10	0x3d807b98	0.06273574
11	0x3da3e0dc	0.08001873
12	0x3db72048	0.08941704
13	0xbd2a3578	-0.041554898
14	0xbd9a3bba	-0.07530923
15	0xbd80f688	-0.06297022
16	0xbdf44ff2	-0.11929311
17	0x3d0c0a84	0.034189716
18	0x3dcd11a6	0.10013132
19	0x3dfa3264	0.122166425
20	0x3dc58792	0.096449986
21	0xbdf2e6b4	-0.118604094
22	0xbdbc9e4c	-0.0920988
23	0x3d8f16a0	0.06986737
24	0xbd080518	-0.033207983
25	0xbdcffcba	-0.10155626
26	0x3c90d428	0.017679289
27	0xbcf22cd8	-0.029562399
28	0x3dde6a42	0.10860111
29	0x3d344230	0.044008434
30	0x3c9a0f88	0.018806234
31	0x3ca89478	0.020578608
32	0x3d45a714	0.04825504
33	0xbd2ef678	-0.04271552
34	0x3baff5e0	0.0053698868
35	0xbdef1f7c	-0.11675927
36	0xbcfce3b0	-0.030870289
37	0x3dfba8de	0.12288068
38	0xbd004c10	-0.03132254
39	0xbdf95f4c	-0.121763796
40	0xbdd8ac28	-0.10579711
41	0xbd91f0aa	-0.07125981
42	0x3c01b8e0	0.007917613
43	0x3df80c2e	0.12111698
44	0xbdee10c2	-0.1162429
45	0xbdc640ba	-0.09680314
46	0xbdc5d878	-0.09660429
47	0xbcde1908	-0.027111545
48	0xbd999658	-0.07499379
49	0x3d4f1f2c	0.050566837
50	0x3dce55b6	0.10074942
51	0x3d6b9464	0.057514563
52	0xbdbdb13c	-0.092623204
53	0x3d16d040	0.036819696
54	0x3d23402c	0.03985612
55	0xbd855640	-0.065105915
56	0x3cd124a0	0.02553016
57	0xbc9b74e0	-0.018976629
58	0xbd2e7650	-0.0425933
59	0xbdefcf3a	-0.11709447
60	0x3ce08558	0.027407333
61	0xbdd1a244	-0.10236028
62	0xbdbe0986	-0.0927916
63	0xbc1de350	-0.009636715
64	0xbdbad014	-0.09121719
65	0xbda38c24	-0.07985714
66	0x3cd42628	0.0258971
67	0xbd507280	-0.050890446
68	0xba47b700	-0.00076185167
69	0xbde14604	-0.109996825
70	0xbd670390	-0.05639988
71	0x3c96da20	0.018414557
72	0x3de7fff6	0.113281175
73	0xbdd1fc14	-0.10253158
74	0xbdb186a4	-0.08668259
75	0xbdd39a9a	-0.10332222
76	0xbce561d0	-0.028000742
77	0xbc5dc980	-0.013536811
78	0x3d7a5ffc	0.061126694
79	0xbdf5a9f2	-0.11995305
80	0xbd8ece46	-0.06972937
81	0x3deb5378	0.1149053
82	0x3dad397c	0.0845823
83	0x3d7dab54	0.06193097
84	0x3c4af530	0.012387559
85	0x3da5579c	0.08073351
86	0x3db203ae	0.08692108
87	0x3d4534cc	0.048146054
88	0xbd0c5854	-0.034263924
89	0xbd9f5b5a	-0.07781096
90	0x3db8be0c	0.090206236
91	0xbd985f54	-0.074400574
92	0xbdbfdec8	-0.09368664
93	0x3db287d6	0.08717315
94	0xbccb8f60	-0.02484864
95	0xbdca49b4	-0.09877339
96	0xbcda1d80	-0.026625395
97	0xbd328bc4	-0.043590322
98	0x3dc1e5f8	0.09467691
99	0xbd80193e	-0.062548146
100	0xbca25bb0	-0.01981911
101	0xbd6ae33c	-0.057345614
102	0xbde7c968	-0.11317712
103	0x3bdebd20	0.006797448
104	0xbcea47c8	-0.028598681
105	0xbd8fc6fa	-0.07020374
106	0x3d1d51d0	0.0384081
107	0xbc85d890	-0.016338617
108	0x3c458cf0	0.012057528
109	0xbdf1014e	-0.11767827
110	0x3d8dd798	0.06925887
111	0xbd9a8efa	-0.07546802
112	0xbcd523f8	-0.026018128
113	0xbd39fb00	-0.045405388
114	0xbc9d41b8	-0.019196376
115	0x3d75f4ac	0.06004779
116	0x3dd3c26e	0.10339819
117	0xbb855380	-0.004068792
118	0x3d3e9358	0.046527237
119	0xbd7e4dc4	-0.06208588
120	0x3d201d50	0.039090455
121	0x3de833fe	0.11338042
122	0x3d89e306	0.067327544
123	0x3d4427a8	0.04788938
124	0x3b94eaa0	0.004544571
125	0xbdc19dba	-0.09453912
126	0x3d5e66f4	0.054297403
127	0xbd78c3fc	-0.06073378
128	0x3d84ce0a	0.06484611
129	0xbdbb97b0	-0.091597915
130	0xbc7eb2b0	-0.015545532
131	0x3d347c38	0.044063777
132	0x3dd8791e	0.10569976
133	0x3cf5c150	0.029999405
134	0xbda7f646	-0.0820127
135	0x3cc3b0f8	0.023888096
136	0x3d1090e4	0.03529443
137	0x3d4c3744	0.049857393
138	0x3da2de2c	0.07952532
139	0xbc5b3980	-0.013380408
140	0xbcd5d518	-0.026102588
141	0x3d9fe8de	0.07808088
142	0x3ddbe0ca	0.107362345
143	0x3c027790	0.007963076
144	0x3d8e60e2	0.06952073
145	0x3cbb6eb8	0.022879943
146	0x3d76a488	0.060215503
147	0xbd334434	-0.043766215
148	0xbd2fb684	-0.04289867
149	0x3db9c48e	0.09070693
150	0xbbe85120	-0.007089749
151	0xbd92cb7c	-0.07167718
152	0xbd80c3b4	-0.062873274
153	0x3d64f19c	0.05589448
154	0x3d7d1900	0.06179142
155	0xbdbeba94	-0.09312931
156	0xbd600bb0	-0.054698646
157	0x3d12aa88	0.035807163
158	0xbd48548c	-0.048908755
159	0xbdadba46	-0.084827945
160	0xbddd407e	-0.108033165
161	0x3c69d950	0.014273003
162	0xbdd5b7ae	-0.10435425
163	0xbd807c4c	-0.06273708
164	0xbdd50468	-0.10401231
165	0xbd5f0434	-0.054447368
166	0x3dae0066	0.0849617
167	0xbc8ca840	-0.017170072
168	0xbdf4d02a	-0.11953767
169	0xbcd58638	-0.026064977
170	0x3db61bbc	0.08892009
171	0xbdcf38a2	-0.10118224
172	0xbcd77f88	-0.026305929
173	0xbdd5ca14	-0.10438934
174	0x3cb093f8	0.021554932
175	0x3db23354	0.08701196
176	0xbc826980	-0.015919447
177	0xbd859e90	-0.06524384
178	0x3d3264f4	0.043553308
179	0xbd9c9452	-0.07645477
180	0xbc4c5150	-0.012470558
181	0xbdc06664	-0.093945295
182	0x3c800660	0.01562804
183	0x3d26add0	0.040693104
184	0x3d2bed58	0.041974396
185	0x3ddc7b7a	0.10765739
186	0x3de0f9ec	0.10985169
187	0x3d15a788	0.036536723
188	0xbd884df4	-0.066554934
189	0xbd613eb4	-0.05499144
190	0xbb15a8c0	-0.0022836179
191	0xbd307208	-0.0430775
192	0xbcb1bba8	-0.021695927
193	0x3c8c06b8	0.017093047
194	0xbc62c540	-0.013840973
195	0xbdc88f08	-0.09792906
196	0x3c8ecbc8	0.017431155
197	0xbd511a58	-0.051050514
198	0x3d3026ec	0.04300587
199	0xbdd537b2	-0.10411014
200	0xbdd73b8a	-0.10509403
201	0xbd9740e2	-0.07385422
202	0xbcee04a0	-0.02905494
203	0x3bd02d40	0.0063530505
204	0x3d603284	0.054735675
205	0x3db952c4	0.090489894
206	0xbaef9d80	-0.0018281192
207	0x3c535dd0	0.012900785
208	0x3d9c6130	0.076357245
209	0xbc0c3200	-0.008556843
210	0x3db71776	0.08940022
211	0xbc38c750	-0.011277989
212	0xbd62426c	-0.055239126
213	0xbd3df570	-0.046376646
214	0xbd4e89e4	-0.05042447
215	0x3c1da690	0.009622231
216	0xbdf333e6	-0.11875133
217	0x3bfeb820	0.0077734143
218	0xbbf3d380	-0.0074409842
219	0xbbef9420	-0.007311359
220	0xbd99a3ae	-0.075019225
221	0xbd622b34	-0.055216983
222	0x3bf2dc20	0.007411495
223	0x3c0fa780	0.008767962
224	0xbdcd31e6	-0.10019283
225	0x3cb885c8	0.02252473
226	0xbd5d0200	-0.053956985
227	0x3d1c82e4	0.038210765
228	0xbd8c9ee2	-0.06866242
229	0x3d92aee4	0.07162264
230	0xbd387274	-0.045031026
231	0xbd727714	-0.059195593
232	0xbd33e5b0	-0.04392022
233	0xbdcf167a	-0.10111709
234	0x3b8323c0	0.0040020645
235	0xbddc3d78	-0.10753912
236	0xbdb27efa	-0.08715625
237	0x3d9b249c	0.07575342
238	0x3d38e800	0.045143127
239	0xbd0121f0	-0.031526506
240	0xbda49e86	-0.080380484
241	0xbcf6d1b0	-0.030129284
242	0xbdd839dc	-0.10557911
243	0x3d94e73c	0.07270667
244	0xbd6d2398	-0.057895273
245	0x3d8120d8	0.063050926
246	0x3d671fa4	0.05642666
247	0xbd083da4	-0.03326191
248	0xbd836782	-0.06416227
249	0xbd55355c	-0.05205284
250	0x3cab0c28	0.02087982
251	0xbdb7122e	-0.089390144
252	0xbbf712e0	-0.007540092
253	0xbdf6d072	-0.120514765
254	0x3dec7706	0.115461394
255	0x3d6449d0	0.055734456

fc3.bias f4 [6]
0	0x3dca5afc	0.09880635
1	0xbdcf1d8c	-0.101130575
2	0x3dc4631a	0.095892146
3	0x3d1d9ca4	0.038479462
4	0xbd7ae6cc	-0.06125526
5	0x3d47e19c	0.048799142
