checkpoints/model_0.1_20.pth (torch, 25210 bytes, 6 tensors)

fc1.weight f4 [64, 16]
00000000: ece1 e1bf dea7 a8be f063 26bd 7abc 023e
00000010: e0f7 48bc 8d0c 33bf e737 65bf d826 0f3e
00000020: d87c 12bf 9c67 68bf 93b2 2840 400f 0ec0
00000030: f838 de3e b61e b93e 46a4 7e40 cfff 8d40
00000040: 8b53 d4bd 90b6 7f3d bc0c b93d 94fd 8abd
00000050: ca3b 25be c1f6 44be 5bad 54be 8e79 013e
00000060: 0527 463e c6a1 96bc edbd 1bbd 73d6 cd3e
00000070: 16f9 a33d 4f14 d83d 019f 74bf 599b ee3c
00000080: 98a7 6fbe d047 a8bc e28f 27be d0af d7bc
00000090: a891 22bd ae44 40be 6447 05be 80eb 88bd
000000a0: 80f8 783d 5089 95bd 86dc 7cbe 1402 ff3d
000000b0: a833 63be 189c 453d 84ff 11be 841a 603e
000000c0: 921a 0abf e170 0cbf 7410 ef3d 7604 64be
000000d0: 007c 0cbe e133 5bbe 9b6c fcbe 2e32 2a3e
000000e0: 0816 97bd e7de 8fbe 3b3d c1be 6c95 b23d
000000f0: 6a73 383e 05cc efbd cac1 4a3e 584a 2fbd
00000100: 52d0 38be 288a 7fbd b068 4f3d 50e9 f83d
00000110: 923e 513e 8265 133e cd1d 5fbe 8278 0a3e
00000120: ad50 20be a2c3 133e 2bf4 0fc0 63dc 40bf
00000130: 2a9a 27bd 4efc ed3e 3308 e7bf 465b 10bf
00000140: ace9 53be a78e 08bf 9e9a 0f3e 00e0 49bb
00000150: 82d1 4b3e 990d 99be 0e7e 67be e4d5 a73d
00000160: 320a 4fbe 4421 43be 7cd0 c6be 7c8e e0bd
00000170: ec5a b3be 47d0 f8bd a396 be3e 9874 b4be
00000180: d4ae ac3d 0a87 2fbe 408f 873b c04c a93c
00000190: d4ea 2d3e c880 133e 3adb 76be 9464 98bd
000001a0: f48c 2dbe 185d 2bbe 0062 f8ba c02f 3a3e
000001b0: a8d2 ee3d 62b0 1c3e d853 85bd f2bd 663e
000001c0: 479c 8d3d 57e7 13be e0ed c2bc 9010 c9bd
000001d0: 180f 2f3e e04a 97be 19a0 6cbc 6817 bcbd
000001e0: bdf0 c0bd b3f6 6e3c 08b9 93bc b289 70be
000001f0: 1ad0 a5be 0d81 9ebd be4a 09bf 5638 04bd
00000200: 696d 4cbd af75 54be 70b8 433d d041 79bd
00000210: c05d fe3c cb49 31be d8ff a9be 5a51 06be
00000220: e824 81be d3a3 cbbd cd6f bdbe 32e7 9abd
00000230: d581 c8be be6b 8fbc 6647 22bf 6b1f c4be
00000240: a79b 983e e3a3 4e40 d4e1 ddbd 4068 823c
00000250: 5e6a 0abe d11b eebf 6577 dcbf 2c05 263e
00000260: 9216 cfbf 8dab cebf ccce 9440 c348 ac40
00000270: 5df5 c241 83d6 ae3f df45 4fc0 be56 8c3f
00000280: b090 9abe 5cc1 2ebe 181f 84bd 8612 74be
00000290: 644c bb3d b913 25be 850a 04be c4a9 78be
000002a0: d908 23be 6d78 69bd b07a 08bf 43a7 b4be
000002b0: aac7 f2be 8de3 d6be 49d4 43be 2892 c8be
000002c0: 20fc b6bc 5a16 0dbe 7ce4 213e 14d6 083e
000002d0: 20a7 9b3c 8103 3cbf 1310 43bf 068f 053e
000002e0: b7e9 4abf 73e7 68bf f60a 3fbf c4d4 c2bd
000002f0: c288 1d3e a66b 51bf 40e6 863d e090 2fbf
00000300: 5d0f 0cbf 7fcf 04bf 0600 3c3e 64fb 18be
00000310: ceda 36be cfb1 67be c9a1 d4be 1002 063e
00000320: 8bc8 7fbe a373 44be 8636 8abe 9036 25bd
00000330: 1c70 d2bd 7133 8dbe 1426 c4be 1c3d c43d
00000340: d71d 0cbf 4c10 80be 8e81 19be f04a 2bbd
00000350: d8d0 2dbd b06e debe 0987 dbbe c66f 52be
00000360: cebb 0abe 3073 f9bd 25be bdbd 8c05 f8bd
00000370: a4f7 f4be d3a7 a2bd 9bbc 5f3e 540e a9bd
00000380: 1837 41be 9e6b 3f3e 0803 003e 749f 483e
00000390: 0843 8c3d 54a2 03be f801 8abd f843 c0bd
000003a0: 584b 43be 4015 d93b d0a6 a3bc 2cd4 ad3d
000003b0: 006f ee3d c041 1ebe 4a21 603e 1801 893d
000003c0: 7cd2 ea3d 0c34 f13d 9cdc 75be 1c4a babd
000003d0: ba07 613e ac62 48be 48b6 56bd 5421 9fbd
000003e0: a07d 23be d095 0fbd 28ab 963d c811 98bd
000003f0: 9c22 a6bd b06d 51be 40b6 c23b f4cb c93d
-1.7647071 -0.32940573 -0.04062265 0.1276721 -0.012266129 -0.69941026 -0.89538425 0.13979661
-0.57221746 -0.90783095 2.6358993 -2.2196808 0.4340284 0.36156243 3.9787765 4.4374766
-0.10367497 0.062429965 0.09035632 -0.067866474 -0.16136089 -0.19234754 -0.20769255 0.12644026
0.19350822 -0.018387686 -0.038022924 0.40202674 0.08006494 0.105507486 -0.9555512 0.02912681
-0.23403776 -0.020542055 -0.1636348 -0.026328951 -0.03968969 -0.18776199 -0.13015515 -0.06685543
0.060783863 -0.07301581 -0.24693498 0.12451568 -0.22187674 0.048244566 -0.14257628 0.21885115
-0.53946793 -0.5485974 0.1167306 -0.22267327 -0.13719177 -0.21406509 -0.4930161 0.16620705
-0.07377249 -0.28099748 -0.37742028 0.08719906 0.18012777 -0.117088355 0.19800487 -0.04279551
-0.18048218 -0.062387615 0.050636947 0.12153876 0.20434025 0.14394191 -0.21788712 0.13522533
-0.15655775 0.14430097 -2.2492778 -0.75336283 -0.040918507 0.46481556 -1.8049377 -0.5638927
-0.20694607 -0.5334267 0.14023826 -0.003080368 0.1990414 -0.29893187 -0.2260668 0.08195093
-0.20218733 -0.19055659 -0.38830936 -0.10964677 -0.35030305 -0.12149101 0.37224302 -0.35245204
0.08431783 -0.17141357 0.00413695 0.02066648 0.16984111 0.14404595 -0.24107066 -0.07441059
-0.169483 -0.16734731 -0.0018950105 0.18182278 0.11661273 0.1530166 -0.065101326 0.22533396
0.06914573 -0.14443718 -0.023795068 -0.09817612 0.17095602 -0.29549313 -0.014442467 -0.09184152
-0.09420917 0.014585185 -0.018032566 -0.23490027 -0.3238533 -0.07739458 -0.5362967 -0.03228029
-0.04990903 -0.20748018 0.047783315 -0.06085378 0.031050563 -0.17313306 -0.33203006 -0.1311697
-0.2522347 -0.09943356 -0.3699936 -0.07563628 -0.39161554 -0.01750743 -0.63390195 -0.3830522
0.29806253 3.2287529 -0.10834089 0.01591885 -0.13517138 -1.8602239 -1.7223936 0.1621291
-1.6178763 -1.6146103 4.6502438 5.383882 24.369806 1.3659214 -3.2386396 1.0963972
-0.30188513 -0.17065948 -0.06451243 -0.23835191 0.0914543 -0.16120805 -0.12894638 -0.2428351
-0.15921344 -0.056999613 -0.53312206 -0.3528386 -0.47417957 -0.41970482 -0.19123949 -0.39174008
-0.02233702 -0.13778058 0.15809816 0.13362914 0.01900059 -0.73442847 -0.761964 0.1304284
-0.7926287 -0.90978163 -0.746261 -0.09513238 0.153842 -0.81804883 0.065868855 -0.68580437
-0.5471094 -0.51879114 0.18359384 -0.14939648 -0.17856905 -0.22626422 -0.41529682 0.13086724
-0.24978845 -0.19184737 -0.26994723 -0.040335238 -0.102752894 -0.2757831 -0.383103 0.09581968
-0.5473303 -0.25012434 -0.14990827 -0.041819513 -0.042435497 -0.43443823 -0.4287646 -0.2055045
-0.13548204 -0.121801734 -0.09264783 -0.12110433 -0.47845185 -0.07942166 0.21849291 -0.08254686
-0.18868673 0.18693396 0.12501156 0.19592077 0.06848723 -0.12854892 -0.06738657 -0.09387964
-0.1907171 0.0066248477 -0.019977003 0.08487734 0.11642265 -0.15454769 0.21887699 0.06689662
0.11465928 0.11777505 -0.24009937 -0.090961665 0.21975604 -0.1956889 -0.05241993 -0.07770029
-0.15965891 -0.03505498 0.07356864 -0.074252665 -0.0811207 -0.20451999 0.005942136 0.09853354

fc1.bias f4 [64]
00000000: 9552 65bf 316a c43d 5247 1abe 3c39 89be
00000010: 955f 1ebe 2293 c8bd 5cb0 05be 1c28 2fbd
00000020: 0e70 9bbe c929 c5bf 9ccb b5bd 5757 30bf
00000030: 2a7c 56be 0e14 80be 60fe 183c 38fa 5b3e
00000040: e834 9ebf 51e0 5fbe dab2 63be cce7 babe
00000050: 91d7 d4bf 9a0c 163e d64f 5bbe 896b df3d
00000060: 7d6b 0dbf 205e 6ebc e0a3 01bf d2e3 eabd
00000070: 8c34 8cbd c33e a7be 24fb 42be eaa6 6c3e
00000080: 00bd 28bd 98f8 2e3d e575 f3bf 6131 f5be
00000090: 760a 8abd 81df 493e 20b0 babc 8bd5 733d
000000a0: 7f9c d9be 084c 0e3e 7039 8cbc 091b cfbf
000000b0: 0356 08bf 020d dfbf c6e1 37bf e988 dcbe
000000c0: 70cd 27be a575 8dbe d273 7cbe fcdc 1ebd
000000d0: bf53 303e b77f 00bf 2e33 40bf e802 59bd
000000e0: 2764 21be 9e19 b5bf 16e5 ebbf 4608 14be
000000f0: 06a6 23be 603a 703d 805f 9bbe ea52 96be
-0.89579135 0.09590567 -0.15066269 -0.2680148 -0.15466149 -0.09793688 -0.13055557 -0.04276286
-0.30358928 -1.5403377 -0.08876726 -0.6888327 -0.20945802 -0.250153 0.0093379915 0.2148217
-1.2359896 -0.21862914 -0.22236195 -0.36504972 -1.6628286 0.14653245 -0.21417174 0.109091826
-0.5524214 -0.014548808 -0.5064068 -0.114692345 -0.0684596 -0.3266507 -0.19041115 0.23110548
-0.04119587 0.042717546 -1.9020354 -0.47889236 -0.067402765 0.19714166 -0.022789061 0.059529822
-0.4250221 0.13896191 -0.017117232 -1.6180125 -0.53256243 -1.7425845 -0.7182888 -0.43073204
-0.16386962 -0.27628818 -0.24653557 -0.038784966 0.17219447 -0.5019488 -0.75078094 -0.052981287
-0.15760861 -1.4148443 -1.8429286 -0.14456281 -0.15981302 0.05864942 -0.30346298 -0.29360133

fc2.weight f4 [64, 64]
00000000: db27 d6bf 4e3e 4d3d b8c6 3a3d 6835 9e3e
00000010: c384 86be b395 973e 8c8a c5bd e637 3bbd
00000020: cbec 083e 9c8b eebf 4b9f ac3e efa4 3ebf
00000030: 79d4 c23e 07f6 b53e d078 b43c 30f4 9e3d
00000040: d0a9 dabe 95bf 803e 2c67 f0bd 2154 8abe
00000050: 4e27 ecbd 889f 3bbd 701a 1fbd d43e 633e
00000060: 5fc5 ca3e 5413 973d 25a8 94be f261 aa3e
00000070: 3e77 e23d 0919 983e 5893 d83d 7486 4ebd
00000080: 8c35 113d e294 9ebd a415 84c0 6695 0ebe
00000090: c245 bbbf 1084 e13d fc73 65bd 8765 92bb
000000a0: 8b12 61be f049 b23c 6236 c9bd ce3e 1040
000000b0: ff63 d53e 401f b43c 654f c3bf 791f 433e
000000c0: 5e17 94bd deea 5a3e 8bd9 c33e 38b6 d7be
000000d0: eccb 0dbc 90b5 ca3e 230a 64bf 4282 d23d
000000e0: 359d a43d 7e2d 0d3f a512 32c0 1149 573e
000000f0: 7049 27be 269c af3d ba38 5e3e 5d3f 863d
00000100: 3e6f 31bf a49e 003f 80de 29bc c480 d6bd
00000110: 61d8 0e3e 8074 253d d424 f83d ee9e b9be
00000120: e097 ac3c 74f9 ddc0 206f 163c 2486 2cbf
00000130: 34dc 1d3d 40e5 71bb 94a8 903d 00f5 e2bc
00000140: e6ba e9bc 2c04 68bd 6c1a c33d 09e6 353e
00000150: 86ba 99bd b8c2 16bd 9ca3 403d 3111 d33d
00000160: 747d d4bd 309e 7c3c 97d5 73bf d215 f5bd
00000170: c876 c33c 50dc 1dbc 301e 8e3d e85a 963d
00000180: 4659 8fbd e0b7 b93c 08b4 71c1 ee22 9d3e
00000190: 9fa0 663d af7f df3d bc88 3d3d fc0c 483d
000001a0: b873 0e3d 20ce 763d a446 63bd 92d3 e53f
000001b0: 0e3c dd3d f893 61bd 0ad0 903c 240e 293d
000001c0: 6228 86bd a89c 193d fc72 83bd faf2 a73d
000001d0: 2062 7e3e f013 7dbc e40e 51bf 10a3 313d
000001e0: a88e 12bd 5aec 3cc0 36d5 2bbf ea0b 99bd
000001f0: 05d9 98be 8cbf fcbd 0437 5cbd 4ceb aebd
00000200: 5faa 17bf 4498 51bc d032 583c 85de 833e
00000210: 9ff8 883d 3526 aebb a00a 02bc b94d 803d
00000220: ae41 08be 95e1 4abf 64c8 8f3e 3113 2abf
00000230: 7be1 643e d073 76be 0097 e13c dcc0 603d
00000240: 8d8b 08c0 651e 593e c06b 343c e292 203e
00000250: 9a51 b0bf 6a99 9ebd 7ca4 413d 98ba 06be
00000260: 37ad a93e 2410 31bd c6d7 843e a4e7 c73e
00000270: 429f c5bd 6c2f c5be e256 a33d eeda a73d
00000280: 0c83 d23d 8047 dcba 5a8f 91bf 0aa8 7f3d
00000290: 307d afbe 5ed6 88be 6aa4 b4bd ef6b bcbd
000002a0: eff6 4fbe 94cf cebd fe91 f63d c901 2f3c
000002b0: cf18 823e 5069 303c d850 96bd 01b5 9a3e
000002c0: 1c2f f8bd 6736 5f3e cf14 a73e 64f2 3cbd
000002d0: 8a6e 3dbe c1d4 9dbe e18d 373f 80a9 073c
000002e0: 4365 05be 0790 40be f69e a4bf e638 49be
000002f0: b9f7 a2bd 4af3 e53d 768d 5e3e b40e 863a
00000300: 57a3 13c0 56ee 0fbe facf d3bd 54ce 933e
00000310: c3e8 94bd 89de 1cbd 7038 8c3d ba80 213c
00000320: d040 53be 016a e0be e45e 843e 70f5 5abf
00000330: 26ca a23e 81d4 cc3e a0a8 7bbc 54d1 1ebd
00000340: 50c8 cbbf 5b1a 9b3e a23a e8bd b56e 62bf
00000350: 90e3 8cbc 0a87 eebd d4a1 dcbd 3786 bfbf
00000360: 176e f83d 6003 44bd f4d3 04bf 6666 763e
00000370: 70ba 903c b59a b83e 4c89 563d a488 ef3d
00000380: 2cf4 eb3d 60cf 6f3c 5be1 f2bf 0aa8 683d
00000390: 1e54 76bf 3af3 56bf 2475 823d 0d8f 56be
000003a0: 1d2a cb3e b8bf a53c b233 b0bd 082c 763e
000003b0: 70fc 49bd f6f9 d7bd 0371 8bbf f298 c73e
000003c0: b218 e43d c483 df3e ed21 983e 49d6 2abf
000003d0: c534 eebc 4074 483c ce7f 123f e239 ffbd
000003e0: e4be 5ebe 3cf7 65bf 7eea e7be c7d1 8c3e
000003f0: 6614 0c3e bac9 cb3d 941f 633e 35f6 0b3d
-1.6730913 0.050108247 0.04559967 0.3090012 -0.26273164 0.296064 -0.09645566 -0.045707606
0.1337158 -1.8636355 0.3371528 -0.7447042 0.3805273 0.35539266 0.022030264 0.07761419
-0.42707682 0.25146165 -0.117384285 -0.2701731 -0.11530934 -0.045806438 -0.038843572 0.22191936
0.39603707 0.073767334 -0.29034534 0.3327785 0.110579 0.297066 0.105749786 -0.050421193
0.035451457 -0.07743241 -4.1276417 -0.13924178 -1.4630663 0.11011517 -0.056018814 -0.0044676694
-0.2197973 0.021763772 -0.09824826 2.2538333 0.41677853 0.021987557 -1.5258604 0.19054975
-0.072310194 0.21378657 0.3825191 -0.4213121 -0.008654576 0.39591646 -0.8907797 0.10278751
0.08037797 0.5514754 -2.782388 0.21023966 -0.16336608 0.08574705 0.21701327 0.06555054
-0.6931037 0.50242066 -0.01036799 -0.10473779 0.1394973 0.040394306 0.121163994 -0.36254066
0.021068513 -6.936701 0.009181768 -0.6739218 0.03854008 -0.0036910325 0.07063404 -0.027704716
-0.028531503 -0.056644604 0.09526524 0.17763533 -0.0750628 -0.036806792 0.04703103 0.103060134
-0.10375491 0.015418574 -0.9524779 -0.119670525 0.02386035 -0.009635046 0.069393516 0.07341558
-0.069994494 0.022670686 -15.106453 0.30690712 0.056305524 0.109130256 0.04627298 0.048840508
0.034778327 0.06025517 -0.05548729 1.7955191 0.1080247 -0.055072755 0.017677326 0.04127325
-0.06550671 0.037502915 -0.06418416 0.08200641 0.24842119 -0.015446648 -0.81663346 0.0433684
-0.03578058 -2.9519258 -0.6712221 -0.074729756 -0.29853073 -0.12341222 -0.053763404 -0.08540973
-0.5924434 -0.012792651 0.013195708 0.25755706 0.06688046 -0.005314613 -0.0079371035 0.062648244
-0.13306305 -0.7925046 0.28082573 -0.66435534 0.22351639 -0.24067616 0.027537823 0.054871425
-2.1335175 0.21203001 0.011012018 0.15681031 -1.3774903 -0.07744105 0.047276005 -0.13157117
0.33139965 -0.043228284 0.25945872 0.39043915 -0.09649517 -0.38512743 0.07975556 0.081960544
0.102789015 -0.0016805977 -1.1371872 0.062416114 -0.34275198 -0.2672605 -0.08820422 -0.09200274
-0.20309041 -0.10098186 0.120395645 0.010681578 0.25409552 0.010767296 -0.073396385 0.3021622
-0.121183604 0.21798097 0.32633063 -0.0461296 -0.18499199 -0.3082638 0.71700865 0.008280158
-0.1302691 -0.18804942 -1.2861011 -0.19650611 -0.079574056 0.11228044 0.2173365 0.001022777
-2.3068445 -0.14055762 -0.10342403 0.28868353 -0.07270958 -0.038298164 0.06846702 0.009857351
-0.20630193 -0.43830875 0.25853646 -0.8553076 0.31794852 0.40005878 -0.015360028 -0.03877385
-1.5920506 0.30293545 -0.11339308 -0.88450176 -0.017198354 -0.116468504 -0.10773054 -1.4962834
0.12130373 -0.04785478 -0.51885915 0.240625 0.017667025 0.36055532 0.05237703 0.11695984
0.115211815 0.014636844 -1.8975023 0.05680088 -0.962221 -0.83964884 0.06369999 -0.20953007
0.39680567 0.02023302 -0.0860361 0.24040234 -0.04931301 -0.10545723 -1.0893863 0.38983876
0.11137523 0.43655217 0.29713383 -0.66733223 -0.029077897 0.012234747 0.57226264 -0.12462212
-0.21752506 -0.89830375 -0.4529609 0.27503797 0.13679656 0.09950586 0.22180015 0.03417035

fc2.bias f4 [64]
00000000: 21b1 cfbf 69af 0dbf 9f86 b6bd cdd1 adbf
00000010: 09d1 3fbf 8401 88be bb4a bfbe 4751 90be
00000020: 1202 c2be 15fe 45c0 e11a 31c0 d169 05bf
00000030: 2926 81be e752 90bf 3733 cabe 0757 c4be
00000040: c27f 48c0 5618 d3be dd82 e8bf 7188 febf
00000050: 0d88 cabe 65c5 a53e 7ae9 50bf 23d3 0ebf
00000060: 2b3f 88bf d6e8 c9be 2c57 7ebf a47f dfbf
00000070: 9980 42c0 91f6 92be 163a 2bbf a952 03c0
00000080: 0512 d3bf c8b0 f5bf e58f 56be 2b70 fdbc
00000090: ac70 55bf 4ebf a7bf 7438 a5bd 85e6 78bf
000000a0: ad6a 12bf 3afe 5bbf ddb8 e8bf 0308 92bf
000000b0: b134 99be adb4 65c0 50ec bebf 4153 38bf
000000c0: 9a6a 8bbe 31e2 1fbf 25f6 9abd 43f1 a1be
000000d0: e3e6 08bf bf58 87bd dcad 25be 1f8d f9be
000000e0: 50fc 32bf 2552 a6bd 2bff 53be 7064 35be
000000f0: 922c cfbf afc1 6fbe b240 00be 3c3d b2be
-1.622593 -0.5534578 -0.08912396 -1.3579651 -0.7492834 -0.26563656 -0.37361702 -0.2818701
-0.37892205 -3.093633 -2.7672656 -0.5211459 -0.25224426 -1.12753 -0.394922 -0.38347647
-3.1327977 -0.41229504 -1.8164936 -1.9885389 -0.39556924 0.32377163 -0.81606257 -0.5579092
-1.0644277 -0.39435452 -0.99351764 -1.7460828 -3.039099 -0.2870374 -0.6688551 -2.0519202
-1.6489874 -1.9194574 -0.20953329 -0.030937275 -0.8337505 -1.3105257 -0.08067408 -0.97226745
-0.57194024 -0.85934794 -1.8181416 -1.1408695 -0.29923013 -3.5891526 -1.4915867 -0.72002035
-0.27229768 -0.62454516 -0.075664796 -0.3162938 -0.53477305 -0.06608724 -0.16179603 -0.4874048
-0.6991625 -0.081211366 -0.20702808 -0.17714095 -1.6185477 -0.23413728 -0.1252468 -0.34812343

fc3.weight f4 [6, 64]
00000000: 34a1 6abf 3e45 f73e f136 dc3e 4b05 5a3e
00000010: a78c 52be 78ff 5d3e a1c7 babe 3a28 b1be
00000020: d949 99be b775 173f 2709 c7be ae88 d1be
00000030: b1a8 bbbe 0d52 043f 1fca 84be b6b9 abbe
00000040: b931 5f3f a51e 5dbe f56c fcbf 09e6 abbe
00000050: 36da 99be 601d 793f 1452 883f 5729 063f
00000060: 731e 383e 41a7 81be 9e57 84be 08d6 9dbf
00000070: 15de 7cbe c150 c1be ce9a f03f 1490 193f
00000080: 870a 14bf a096 93be 9d6f d73e 209f 093e
00000090: de40 4d3f 09c7 c6bd a291 213e 1cfc 1d3e
000000a0: a65f 363e 56da 95be 9fcc adbd 2bcc aabc
000000b0: 1025 a93e c749 1fbe 73fb a6bf 7678 d4bd
000000c0: 8868 babe 19c4 66be f032 b1bd a7df cabe
000000d0: 6b15 ae3e db64 f03e dde9 45be 3b62 1f3d
000000e0: 109a 623c 36bd 8bbd 3135 c5be f8f5 7abe
000000f0: c021 f13f e46d b2be e6d3 f53c a231 a0be
00000100: e61a ed3f efae 983f f9f5 acbe 75e8 993e
00000110: 4c2e 8c3e 906e 5e3e a827 3b3e 0e71 883e
00000120: ec8c 523e e413 5b3f e8dd 98be 4694 ab3d
00000130: 913a f4be 1266 efbe 0f92 4c3f b4ad 773d
00000140: c528 d4be 0b10 d03e 5f90 92bf 61b6 c13e
00000150: 2631 843e 2cba b0be ca28 5abf f41c fb3d
00000160: e4c2 9d3d 3ab6 823e 39f2 b2be 7af8 0740
00000170: 4c72 22be f20d ac3e fbd9 9e3f 68d6 1a3f
00000180: 1b3f ba3d 96a5 9a3e cff7 6c3e d666 ba3d
00000190: 585f 993f 9977 bcbe 28d2 9a3d 5fe4 7abe
000001a0: 8285 633e a986 babe 6552 f83f f8fe ed3e
000001b0: 5920 7f3e 134a a43f d3f5 b23f 4858 e3bc
000001c0: 7f5c d03e 3f7c 2b3e b13c 01be ad4b c23e
000001d0: 258b 55be 25b2 d33e e2cf 553e 6591 7a3c
000001e0: 3dea 27bf dc19 f53c 365f b53e fd81 a53e
000001f0: f68d c63f b5fb b43e b4d3 1cbf 66e8 3a3e
00000200: 5594 cebf 8588 e3bf 40c2 2cbe fbd5 afbf
00000210: 7fde 4f3e ea73 0e3e 12bf 8abe b310 4fbe
00000220: 02af b4be 167a 2040 7d7f f0bf 13f2 d63e
00000230: 084b cf3e 56b2 c83f 9f0e a83e f46e e1bd
00000240: 74f1 debe d43d 50be 696a a83f c772 bfbe
00000250: 778d d3be 704b 7841 58dd 20be 8b80 ee3e
00000260: c6b0 03bf 657b 9bbe a193 993e 4870 abbf
00000270: 051f b4bf 011a 41be 8d4f 4e3f a490 fc3d
00000280: 054a 2bbd 07b8 80be e13f 48be 80c1 213d
00000290: 6979 1e3f 30ce 0ebe a89d 593e 3410 813e
000002a0: 6388 a2bf 30df 8a3d ecde 89bf 1bb6 8fbe
000002b0: ed7c 8fbe 558d 973f c12b bfbf 5403 273f
000002c0: 1e4c b1be cc09 35be bf7f 923f 13d7 683e
000002d0: 8df4 88be af58 473d 3c69 043e 4229 7cbe
000002e0: f598 4d3f bbd7 bd3e caca c5be f0e6 8dbe
000002f0: 1740 bebf 0023 67be a150 133f 6599 5abe
00000300: 8984 cc3f 6eb4 9bbe bc84 813d 11ab 8ebe
00000310: 54d8 34be e90c babe 9290 40be 5cc7 bebe
00000320: c3b3 87be 3aef 69bf 9655 43be ecc2 d5bd
00000330: 032f ec3e 5c04 62be a902 85be 2438 1b3d
00000340: c26e 9cbf ec01 babe cc8c ab3f 4b21 9d3f
00000350: 8709 053f 9acc c9bf 33c8 383f 1b29 ef3e
00000360: 1f94 d63d 045b d5bd 125a c73e 89d3 c63f
00000370: bc3e 403c d9c7 80be 2928 84be 8e93 a03f
00000380: 8da7 0fc0 3a2e bcbd c643 a4be cde0 5f3d
00000390: 990a 65bf 69a4 573c 92e4 0ebe 3ef1 2bbe
000003a0: ea03 6abe 57da 013f fa70 193e 71d6 493e
000003b0: 24c2 a7be 655f acbf ff7d f53f c0ba 0abb
000003c0: ffe7 3b3e 1e44 913e ff4c 573e cb19 803e
000003d0: eeb3 c4be c83d cbbe 4e75 e7bd e280 d73e
000003e0: 8091 a93b 8cc4 0b3f afdc 2cbe 78cf 47be
000003f0: 3179 cd3f 161a 96be 410a 863f ccee 89be
-0.91652226 0.48295015 0.43010667 0.21291082 -0.20561467 0.21679485 -0.3648043 -0.34601003
-0.29939154 0.59163994 -0.3887417 -0.4092459 -0.3665214 0.516877 -0.25935456 -0.33540124
0.87185246 -0.21593721 -1.9720751 -0.3357394 -0.30049294 0.9731045 1.0650048 0.5240683
0.17980365 -0.25322917 -0.25848097 -1.2330942 -0.24694093 -0.37756923 1.8797243 0.5998547
-0.57828563 -0.28825855 0.42077342 0.13439608 0.80177104 -0.09705932 0.15778211 0.15428203
0.17809924 -0.2926814 -0.08486294 -0.020849308 0.3303609 -0.15555488 -1.3045486 -0.103745386
-0.36407876 -0.22535743 -0.08652294 -0.39623758 0.34000716 0.46951947 -0.19327493 0.03891204
0.013830677 -0.068231985 -0.38517144 -0.24507892 1.8838425 -0.34849465 0.030008268 -0.31287867
1.8523834 1.1928385 -0.33781412 0.30060163 0.27379072 0.21721864 0.18276846 0.26648754
0.2056157 0.85577226 -0.298568 0.0837789 -0.47700933 -0.4675756 0.7991037 0.06046839
-0.41437355 0.4063724 -1.1450309 0.37834457 0.25818747 -0.34517038 -0.8521849 0.12261382
0.07703188 0.25529653 -0.34950426 2.1245408 -0.15863913 0.3360439 1.2410272 0.6048341
0.09094068 0.30204457 0.23141406 0.09101646 1.1982222 -0.36809996 0.075596154 -0.24501179
0.22218898 -0.36430863 1.9400145 0.46483588 0.24914683 1.2835106 1.398127 -0.027752057
0.4069557 0.16746615 -0.12620808 0.3794836 -0.2085386 0.4134685 0.20880082 0.015293454
-0.65591794 0.029919557 0.35424203 0.32325736 1.5512073 0.35348287 -0.61260533 0.18252715
-1.6139017 -1.7776037 -0.16870975 -1.3737177 0.2029972 0.13911405 -0.270989 -0.20221214
-0.3528977 2.5074515 -1.8788906 0.41981563 0.40486932 1.5679424 0.32823655 -0.11007491
-0.4354359 -0.20336086 1.3157474 -0.37392256 -0.41318867 15.518417 -0.15709436 0.46582446
-0.5144161 -0.3036758 0.29995444 -1.339364 -1.4071966 -0.18857576 0.80590135 0.123322755
-0.041818637 -0.25140402 -0.19555618 0.039491177 0.6190401 -0.13945842 0.21251547 0.25207675
-1.2697872 0.06780851 -1.0771155 -0.28068623 -0.28024998 1.1840006 -1.4935228 0.65239453
-0.34628385 -0.17679518 1.1445235 0.22738294 -0.26749077 0.04866856 0.12930769 -0.24625114
0.8031152 0.37078652 -0.38631278 -0.27715254 -1.4863309 -0.22571945 0.57544905 -0.21347578
1.5977947 -0.30411094 0.06324145 -0.27864888 -0.17660648 -0.36337975 -0.18805149 -0.37261474
-0.26504335 -0.91380656 -0.19075617 -0.10437569 0.46129617 -0.22071975 -0.25978592 0.037895337
-1.2221301 -0.3632959 1.3402343 1.2275785 0.5196766 -1.5765564 0.7218048 0.46711048
0.104774706 -0.104177505 0.38935906 1.5533305 0.011733707 -0.25152472 -0.2581189 1.254503
-2.2446015 -0.091885045 -0.32082957 0.054657746 -0.89469296 0.013161757 -0.1395438 -0.16791245
-0.22853056 0.50723785 0.14984503 0.19710709 -0.32765305 -1.3466612 1.9179076 -0.002116844
0.18350218 0.28372282 0.21025465 0.25019678 -0.38418525 -0.39695573 -0.11301671 0.42090517
0.0051748157 0.5459678 -0.16881059 -0.19512737 1.605261 -0.29316777 1.0471879 -0.2694

fc3.bias f4 [6]
00000000: 7c18 2bc1 8618 2dc1 0aea 70c1 3c6b 20c1
00000010: 7fdc 93c1 6a5b a0c1
-10.693478 -10.818487 -15.057138 -10.02618 -18.482664 -20.044636
