checkpoints/model_0.9_200.pth (torch, 25220 bytes, 6 tensors)

fc1.weight f4 [64, 16]
00000000: a85f 8c3e f77b 03bf a8cf 633d 125c 193e
00000010: d0e0 b23c 9da4 37be 2561 a0be a091 ff3c
00000020: 5094 d8be d13a f1bd f8d9 08be d863 09be
00000030: 1297 233e 9e30 803e 8e0d 2abe ce05 a0be
00000040: 0280 80be 0ae6 a5be 8030 613c d4db 3ebe
00000050: 00a6 5f3b c58b 40be d8f6 34bd 70f8 a2bd
00000060: a323 a5bc a852 0f3e 0ee3 94bc 16f8 653e
00000070: 0d9e 25be 5fbd 86bd 6167 00bf 8d52 36bd
00000080: d2cf fbbd 1055 23be 601a 38bd 0061 23be
00000090: 54af fb3d c600 05bf 3863 7cbe 1807 613d
000000a0: dc4c b9be a1b7 d6bd 1ca0 343e 6c0a 62be
000000b0: 6242 313e 011d 84be 74be c53d 4caf c83d
000000c0: 7287 203f 6333 27c0 525d 27be 38da 633e
000000d0: 905d 5f3e c99d a4bf 4022 51bf 3a97 163e
000000e0: df52 8abf 5d98 7cbf 49f7 8cc0 0bea 8140
000000f0: 04db 843d fbab 45bf 4dc5 bfc0 aae1 4b40
00000100: 80cd 9d3b 941a 10be 14c5 de3d f0e7 fc3c
00000110: 1619 463e fe10 10be ee41 7b3e ee7c 2d3e
00000120: c6c0 6dbe 0030 f53b 2082 4bbe f898 e5bd
00000130: 60b8 2ebc 107a 20bd 7292 12be 0c49 d0bd
00000140: 00a9 f3bd 3c92 acbd 3001 293e d064 143e
00000150: 4c0e 86bd 1c7a 3dbe 00f7 97bd a0e4 80bd
00000160: 44aa 99bd d024 03bd 9607 07be 0cde 4dbe
00000170: f8ee dd3d 7060 f4bd c4b7 8fbd de7f 62be
00000180: c6b5 0fbe 6089 2bbc 9e91 113e 3806 693d
00000190: d8a2 413d 4690 193e ba92 56be d868 28bd
000001a0: 2c67 133e 2416 26be 2eb2 45be c036 a8bc
000001b0: 0cfd b9bd ecd4 733e 6c7c e63d 36a7 0d3e
000001c0: 116b a0be 7fb7 823c 3468 dc3d 2854 a7bd
000001d0: 20ed 5bbc 40b2 94be 8096 39be a0f1 25bd
000001e0: 41f3 ddbe 03c2 74bc 0fbe 87bd 1053 10be
000001f0: b301 31be a6c1 d3be c9a5 76be d534 87be
00000200: 953a eabe 6406 a3be 040a 00be e03e cabd
00000210: 40a0 91bb cb2b 8cbd a112 0ebe 7ca2 5e3e
00000220: c592 aabe 73c5 febe f8a9 9cbe 4028 ad3d
00000230: b8fa 71be d20f b6be 721c 0bbf af08 a2be
00000240: 4281 a3bd d9c7 96be 40db a6bb 809e b73b
00000250: 60a9 0f3e 9627 babd bdc7 853d 08be 62bd
00000260: e3ad 52be 365a 583c b3f6 b4be b4e6 cfbd
00000270: 9dc7 f9be 8907 bf3d 76a1 82be ee13 9bbe
00000280: 9ad0 cabe 0ac1 b2be 2eab 2bbe a00e 233c
00000290: 7412 6cbe b1b4 20be 2360 9fbd b0a6 01bd
000002a0: 3fe7 e0bd fcc6 c4be c7f2 d8be d4a8 183e
000002b0: ec89 d1be 5ccb 743e 6ecd 51be 2dd1 3abe
000002c0: 4c01 94be 54a4 adbd 4401 76be 801a 0ebd
000002d0: 0837 c33d 5001 d8bd b59b b0be 626c 1b3e
000002e0: 52a8 eeba 6226 d7be 5abf bd3c a0cf eb3d
000002f0: 631d 23be dc72 acbd aa92 c3be 454a aebe
00000300: f00c b13c c0a0 11bd ba98 5dbe 32b4 3c3e
00000310: e2b3 2f3e e00a 363d 8454 7ebe 3659 3b3e
00000320: f498 c2bd 042c eebd 001c 9439 fc74 b63d
00000330: 308d 82bc 8601 023e fefd 603e a022 41bd
00000340: 853e 4bbf 891b 51bf e016 fa3d 0092 b9bb
00000350: 0002 363a d090 0a3c 0141 9bbe 56b2 3fbe
00000360: 5f20 093d 7cca 883d 73d2 5a3f 0515 00c0
00000370: c9b2 e1bf 95c9 1bc0 31f5 a33d 6503 4a3f
00000380: c642 c23d 5e98 1ebe a09d a5bd 00f6 aebd
00000390: 2c46 0d3e 6999 ecbe a8cb cabe fe50 1ebe
000003a0: 3f37 aabe 3571 00bf 0e20 313f 3b11 2140
000003b0: f2d8 f43f 56e1 743f 834e 5fc1 7e25 febe
000003c0: 6d36 4abe 080e f4be 8013 acbd a0e2 c4bc
000003d0: bc9d e83d 0971 32be 667a aabe 2091 073e
000003e0: b04c aabc 4411 b4be 9769 c3bd 307f e1bd
000003f0: da2d d6bd 7ea3 913d 12c6 e9be cc2c d3bd
0.2741673 -0.5136103 0.05561796 0.14976528 0.021835715 -0.17933889 -0.31324115 0.03119737
-0.42300653 -0.117787965 -0.13364398 -0.13416994 0.15975598 0.25037092 -0.16606733 -0.3125443
-0.25097662 -0.32402068 0.013744473 -0.18638545 0.0034126043 -0.18803318 -0.04418072 -0.07957542
-0.020158594 0.13996375 -0.018174674 0.22457919 -0.16173573 -0.065790884 -0.50157744 -0.04451232
-0.12295498 -0.15950418 -0.04494703 -0.15954971 0.122893006 -0.51954305 -0.24647224 0.054938406
-0.36191452 -0.10484243 0.17639202 -0.22074288 0.1731048 -0.25803378 0.09655467 0.0979906
0.62706673 -2.6125114 -0.16344193 0.22251213 0.21813035 -1.2860652 -0.81692886 0.14706126
-1.080654 -0.9866999 -4.405186 4.0598197 0.064870864 -0.77215546 -5.9928346 3.1856484
0.0048157573 -0.14072639 0.108774334 0.030872315 0.19345507 -0.14068982 0.24536869 0.16942188
-0.23218068 0.0074825287 -0.19873857 -0.11210817 -0.010664076 -0.039178908 -0.14313677 -0.101701826
-0.118974686 -0.084263295 0.16504359 0.14491582 -0.06545696 -0.18503612 -0.074201584 -0.06293607
-0.07503179 -0.03201753 -0.13186488 -0.20104235 0.10836595 -0.119324565 -0.070174724 -0.2211909
-0.14034185 -0.0104697645 0.14215705 0.056890696 0.04727444 0.14996442 -0.20954409 -0.04111561
0.14394826 -0.16219383 -0.19306251 -0.02053392 -0.09081468 0.23811692 0.112542 0.13833317
-0.31331685 0.015956638 0.10762063 -0.081703484 -0.013423234 -0.29042244 -0.18123817 -0.040513635
-0.4334965 -0.014938834 -0.06628048 -0.14094186 -0.17285804 -0.4135868 -0.2408668 -0.26407495
-0.4574782 -0.31840813 -0.1250382 -0.09875274 -0.004444152 -0.0684429 -0.13874294 0.2174167
-0.333151 -0.49760017 -0.30598426 0.08454943 -0.23630798 -0.35558945 -0.5434028 -0.3164725
-0.07983638 -0.29449347 -0.0050920546 0.0056036115 0.14029455 -0.09089582 0.06532238 -0.05535701
-0.20574145 0.013205102 -0.35344467 -0.10151425 -0.48785105 0.09327609 -0.2551381 -0.30288643
-0.39612275 -0.34912902 -0.16764519 0.009952217 -0.23053914 -0.15693928 -0.077820085 -0.031653106
-0.10981607 -0.38433063 -0.42372724 0.14908153 -0.4092554 0.239057 -0.20488521 -0.18243857
-0.2890724 -0.08478609 -0.2402392 -0.03469324 0.09531981 -0.10547125 -0.34493795 0.15178064
-0.0018208122 -0.4202147 0.023162533 0.11514211 -0.15929179 -0.08420345 -0.38197833 -0.34041038
0.021612614 -0.035553694 -0.21640292 0.18428114 0.17158464 0.044443965 -0.24836928 0.1829575
-0.0950183 -0.11629489 0.0002824962 0.08909032 -0.015936464 0.12695894 0.2197189 -0.04715216
-0.7939227 -0.8168264 0.12211394 -0.0056631565 0.0006943047 0.008457378 -0.30323032 -0.18720374
0.033478137 0.06679246 0.8547737 -2.001283 -1.7632686 -2.4341786 0.08005751 0.7891143
0.09485392 -0.15487811 -0.08086705 -0.085430145 0.137963 -0.46210793 -0.39608502 -0.15460584
-0.33245274 -0.5017274 0.69189537 2.5166767 1.9128706 0.95656335 -13.956668 -0.4963798
-0.19747324 -0.47666955 -0.08402157 -0.024033844 0.113582104 -0.17425932 -0.33296508 0.13238955
-0.02078852 -0.35169423 -0.09541624 -0.11010587 -0.10457964 0.07111262 -0.45658928 -0.10311279

fc1.bias f4 [64]
00000000: 28f3 eabe 00ad 96be 3ccc e0be 8440 82bf
00000010: 6ca5 eb3d 0ced 8b3d b009 debd e715 a7be
00000020: 5514 3abe 90a5 fd3c 8f21 eabe 1d0b 01bd
00000030: ecaf 763e 19b6 89be 4e6a 08bf 0134 b9bc
00000040: 00dc 8d3b 19cf 9fbd 1c08 58be f6dd 41be
00000050: a571 3e3d 8a1d 7ebe 79c3 8ebe 7c80 8bbe
00000060: c13f 2dbf ab5f e9be 7206 84be 5815 c7be
00000070: 201f e5bd 0f0e e8be 7395 c3be 427d 43be
00000080: 9092 a53c a7ef cebf b595 d1bd 50e0 bfbe
00000090: 5cf9 46bf 8f60 9cbe 0ada 70be 19c2 acbd
000000a0: 14a8 37be 4dc5 06bf 2cc6 47be 034a a03d
000000b0: 275b 2cbe 7a9f 78bf cfcf d8be ea05 01bf
000000c0: 90a8 bebd 10a7 3dbe 607d 183d 0939 2abf
000000d0: b793 9abe 63bf d1bf 7cfe 30bf c952 cdbe
000000e0: ff6c 73be 42bb 0ebe 5e4d 67be 1652 a7be
000000f0: 84f9 23bf 34eb 9d3f 9032 94bd a07c cabd
-0.45888638 -0.29428864 -0.43905818 -1.0175939 0.11506161 0.068323225 -0.108416915 -0.32633898
-0.18171819 0.030962735 -0.45728728 -0.03150474 0.24090546 -0.26896742 -0.5328721 -0.022607805
0.0043292046 -0.078031726 -0.21096843 -0.18932328 0.0464951 -0.24815956 -0.2788351 -0.27246463
-0.67675406 -0.455808 -0.25786167 -0.3888347 -0.11187577 -0.45323226 -0.38199958 -0.19090751
0.020211488 -1.6166886 -0.102336325 -0.37475824 -0.7772424 -0.30542418 -0.23520675 -0.08435459
-0.1793521 -0.5264481 -0.1950919 0.078266166 -0.16831647 -0.9711834 -0.42346045 -0.5039965
-0.093094945 -0.1852076 0.037228942 -0.6649328 -0.30190822 -1.6386532 -0.6913831 -0.40102223
-0.23772047 -0.1393862 -0.22588107 -0.32679814 -0.64052606 1.2337403 -0.072362065 -0.098870516

fc2.weight f4 [64, 64]
00000000: f750 c8be 2d94 97be 6c5e b83e dd27 cdbe
00000010: f0a6 33bd fce7 0dbd de9a e9bd 7e02 8bbe
00000020: 30dc bdbe ee0c 51be ade9 60be 495c 68be
00000030: f27c ed3d a1aa 68be 271f 53be c908 b7be
00000040: 4c7b 2fbd df8b b5be e83c 9e3e 852a 4abe
00000050: 72f5 653e c88e 34bd dbaa 513e 664e 89be
00000060: 1489 b0be 4e26 573e 8101 8c3e 94a8 81be
00000070: 3818 a03d 8f36 b9be f498 69be 4c91 a6bd
00000080: d024 b3bd 8772 35be 03e5 8ebe 0fa8 a33e
00000090: 6ccd a0bd 0bb1 a23e d2db fdbd a688 a8be
000000a0: 24cf acbd a7ba 6abe ac8c 8abd 37a2 c3be
000000b0: 1168 aabe e2da a3be b52c d2be ec0d 8cbe
000000c0: e8d5 913c c03d 023c 60ee 22bc aeea b0bd
000000d0: 38ce a1be 2272 7abe 309e 6abe d516 69be
000000e0: ec58 d4be be41 86bd 9c2e 3ebd ff0f 75be
000000f0: c1b2 75be a65a 8fbe 587b d9be 88f8 a1bc
00000100: 60d2 c53b f9bd a1be 7e93 cc3d cb04 abbe
00000110: e027 a63c e874 ebbd e0ee 00bc a823 aebe
00000120: 700a 6b3c 518a 45be 289d dd3c d0ac bfbe
00000130: 6858 ed3d dbb7 83be 322e c4be 701b 7ebc
00000140: 7a2d f23d 2343 c7be 7096 e13d 6004 43bc
00000150: f94d 49be 04fe 6ebe 3994 cbbe fe1b 8fbe
00000160: 853e 81be 888d 63bd d78f 21be 00ed 06bb
00000170: f49a 9cbd f3c1 36be 3c0a 28be 3a7c 92bd
00000180: ae6c 9cbd 7cfa 84be 95f4 65be 8e42 91be
00000190: 84d8 6cbd 5016 933c c4f9 16bd 1a42 46be
000001a0: 786d adbd b485 4e3d b8ed b2bd 2a78 1ebe
000001b0: 4093 1d3b adef 9dbe 0423 aabe 773d 1fbe
000001c0: 609e ccbb 70b7 15bd 2a18 8b3d 786e 283d
000001d0: 8eb1 a6be bbc0 48be 09e9 2dbe dfa8 7dbe
000001e0: a9d9 76be 8038 59bb 7825 cdbc 804c 313c
000001f0: 67ed b8be dc71 87be 9cb8 c8be 8a9e ff3d
00000200: 57ce 393e ba7e 583d df4d 6f3e a6d6 413e
00000210: c04d c2bd 18d2 0bbd c085 6e3b 0b72 b0bd
00000220: 32dd ca3e 23b4 3fbd b923 843e 8362 16be
00000230: c0f7 23bb b3af d83d b0f6 2e3e 7ff2 7d3e
00000240: 8a83 cc3d 085a 093e 004e 6b3e f9be 8f3e
00000250: 4ac2 56be 4ba2 51be c25a 3ebe 2067 7a3e
00000260: 3eb2 38c0 3b49 423e c43e 93be 1cee ae3e
00000270: c248 b93d 24fc 9dbe 8c0a a1bd 6088 803b
00000280: bc30 ce3d 30ef 43bf d970 8bbd 9fdc 7bbe
00000290: 3da0 fdbe 059b cb3e f29a bb3d 872f 4fbe
000002a0: 44c4 7cbd d366 6b3e a2f8 dc3d bdee a83d
000002b0: 4e81 d33e 293c a0c0 d9aa b7ba acd7 42bd
000002c0: ca65 95bd 4c1b da3d 087c 8dbd d1d5 34bf
000002d0: e4b5 bdbd bd59 d5be 8978 b5be d8d4 353e
000002e0: f1f8 493d 727e d03d 4072 9ebb 17c3 863e
000002f0: a98d 843f c99d 18bf 459c dd3d a45c c73d
00000300: 108b 9dbe 1b9c 84be 3487 8dbe 21d9 6ebe
00000310: 909a c2bc 00fe ad3c e099 7ebc c43b cbbe
00000320: 71d9 cebe 18dc 77be 1250 a1be e75b acbe
00000330: 84bc 193d e24e 6cbe 4236 55be aa67 bdbe
00000340: 608f d9bb 67ce a0be b77c cabe 0c67 8fbe
00000350: ec5f 7cbe 4f21 cebe 34df bebe e05e 56be
00000360: 8a6b 8dbe 7853 43be 1955 bfbe 3ebe a5be
00000370: 9e9f d0bd 0f2b 4d3e 4016 c9be 80c6 a83c
00000380: 200c ecbd 8707 7cbe e990 7ebe 5ec5 97be
00000390: 3ca2 5abd a408 59be fc56 d53d 304a 80be
000003a0: 9c40 503d 237a 80be 74c2 513d 346a 76be
000003b0: 8540 90be d9d0 5cbe e93e d5be e2f3 c5be
000003c0: 5cbd 43bd 62ff 97bd d048 f0bc c491 0ebd
000003d0: d237 3ebe 5dd4 d1be 1dec acbe d7bd 5abe
000003e0: 1db0 9bbe e059 d0bd a43f f6bd 009e aabe
000003f0: ec3e 87be f5b4 94be dfc4 b6be 60ad a93b
-0.3912427 -0.29605237 0.36009538 -0.40069476 -0.043860376 -0.034645066 -0.11406492 -0.2715034
-0.37082052 -0.20415089 -0.2196414 -0.22691454 0.11596097 -0.2272134 -0.20617352 -0.3574889
-0.042842194 -0.35458276 0.30905843 -0.19742782 0.22456911 -0.04408148 0.20475332 -0.26817626
-0.34479582 0.21010706 0.27344897 -0.25323927 0.07817119 -0.36174437 -0.22812253 -0.08133182
-0.08747256 -0.1771947 -0.27909097 0.31964156 -0.07851681 0.31775698 -0.12395443 -0.32916754
-0.084379464 -0.22922765 -0.06765112 -0.38209698 -0.3328252 -0.32002932 -0.41049734 -0.27354372
0.017802194 0.007949293 -0.009944528 -0.086385116 -0.31602645 -0.244576 -0.22911906 -0.22762616
-0.41474092 -0.06555508 -0.04643117 -0.23931883 -0.2399397 -0.27998847 -0.42476916 -0.01977183
0.0060370415 -0.3159025 0.099890694 -0.33402094 0.020282686 -0.114969075 -0.007869452 -0.3401158
0.01434575 -0.19291045 0.027052477 -0.37436533 0.11589128 -0.25726208 -0.38316494 -0.015509471
0.1182508 -0.3891841 0.11015022 -0.011902899 -0.1965865 -0.23339087 -0.39761522 -0.27951044
-0.2524301 -0.055554897 -0.15777527 -0.002058804 -0.076467425 -0.17847423 -0.16410154 -0.071526006
-0.076379165 -0.25972354 -0.22456582 -0.2837109 -0.057823673 0.017954975 -0.03685929 -0.19361153
-0.08468145 0.050420478 -0.087367475 -0.15475526 0.0024044067 -0.3084692 -0.3322984 -0.1555079
-0.0062444657 -0.036551893 0.06791718 0.041120976 -0.32557338 -0.19604771 -0.16983427 -0.2477145
-0.24106468 -0.003314525 -0.02504228 0.010821462 -0.36118624 -0.26454055 -0.39203346 0.12481411
0.18145119 0.05285523 0.23369549 0.18929538 -0.09487486 -0.034135908 0.003639564 -0.08615502
0.39621884 -0.04680265 0.25808504 -0.14686017 -0.0025019497 0.10580387 0.17086291 0.24799536
0.099860266 0.1341325 0.22978973 0.28075388 -0.20972553 -0.20472066 -0.18589309 0.24453402
-2.885879 0.18973248 -0.28758824 0.34166038 0.090470806 -0.3085643 -0.0786334 0.003922507
0.10067889 -0.76536846 -0.06808633 -0.24595879 -0.49536315 0.39766708 0.09160413 -0.20232974
-0.06171061 0.22988443 0.107896104 0.08248661 0.4130959 -5.007344 -0.0014012709 -0.047568962
-0.07294805 0.10649738 -0.06908423 -0.7063876 -0.092632085 -0.41670027 -0.35443524 0.17756975
0.049309675 0.101803675 -0.004835397 0.26320717 1.0355731 -0.5961576 0.10820822 0.09734467
-0.3077016 -0.2590035 -0.27642214 -0.23325016 -0.023755342 0.02123928 -0.015539616 -0.39694035
-0.4040027 -0.24205053 -0.315064 -0.33663866 0.037533298 -0.23076966 -0.20821479 -0.36993152
-0.006639406 -0.31407472 -0.39548275 -0.28008306 -0.24645966 -0.40259787 -0.37279665 -0.2093463
-0.27621108 -0.1907481 -0.37369612 -0.32371706 -0.101866946 0.20035957 -0.39274788 0.020602465
-0.1152575 -0.24612246 -0.24859966 -0.29642767 -0.053377375 -0.21194702 0.104169816 -0.250566
0.050842866 -0.25093183 0.051210836 -0.24063951 -0.28174224 -0.21564044 -0.4164956 -0.3866263
-0.04778801 -0.07421757 -0.029331595 -0.03480698 -0.18575981 -0.40982333 -0.3377389 -0.2136148
-0.304078 -0.10173392 -0.12023857 -0.3332367 -0.26415193 -0.2904431 -0.35697076 0.0051781386

fc2.bias f4 [64]
00000000: f65d d6be 54ef 8fbe 6332 c2c0 51b9 b5be
00000010: 1542 8cbe 89b0 b2be 87ce a6be 6c8b 813f
00000020: 90af 15bf de83 bebe d86e 45be e2a9 f8be
00000030: 60e2 6b3f 827b a5be c464 58be bfc1 54be
00000040: e7aa 85be a5f9 39bf 2f25 7cbd 0f5d 6fbe
00000050: 95e6 87bd 7a03 bfbe f04b 8bbe 1175 6fbf
00000060: 408d 18bf f5a1 3dbc 4f46 37bf a30f 23be
00000070: 706a afbe 53ff 50be 3ca6 46bf a328 89be
00000080: a894 97be a039 a5bf 9438 a9be 5411 e8be
00000090: d7f6 f0bd 1340 14bc a694 26bf 4eb2 23be
000000a0: 0aa6 d5be e6f5 12bf 3385 f5be a72c 93bb
000000b0: a41f c2be cab0 4bbe 48d8 86be f722 17bf
000000c0: c6d4 a6be 40ee 2bbf 7c39 adbe 103e 7ac0
000000d0: 9851 a7bf a8b5 66be c3bf 5ebe f149 a1be
000000e0: 18b7 87be cb77 1ebf ef4e 10be b8ab 58bd
000000f0: 6031 3cbf 6e66 63bf f95a 9bbf 1f59 25bf
-0.41868562 -0.2811228 -6.0686507 -0.35492948 -0.27394167 -0.3490031 -0.32579443 1.0120673
-0.5847101 -0.37209982 -0.19280565 -0.4856711 0.92142296 -0.3232079 -0.21132189 -0.20777033
-0.2610695 -0.7264655 -0.0615589 -0.23375343 -0.06635777 -0.3730734 -0.27206373 -0.93538004
-0.5959053 -0.011574258 -0.7159166 -0.15923934 -0.34260893 -0.20409898 -0.77597404 -0.26788816
-0.29605603 -1.2908211 -0.33050978 -0.4532572 -0.11765831 -0.00904848 -0.6507057 -0.15985987
-0.4172824 -0.5740646 -0.47953185 -0.004491407 -0.37914765 -0.19891658 -0.26336884 -0.5903773
-0.32584208 -0.67160416 -0.3383292 -3.910038 -1.3071775 -0.22530234 -0.21752839 -0.31501725
-0.26506877 -0.6190154 -0.14092611 -0.05289814 -0.7351284 -0.8882817 -1.2137138 -0.64589113

fc3.weight f4 [6, 64]
00000000: d0f5 90be 3c10 a13e c63f 9cbc 5468 cfbe
00000010: 8d5b 81be 1742 82be da7c 57be 57c3 12bf
00000020: e25d 283b f232 b03d 129a 433e 58fe 92be
00000030: e691 e8bf 69f6 8e3e d59f 7c3e f31c 5dbe
00000040: 1e24 bbbe 641e a7bd 6fe1 f4bc 0fd6 6f3f
00000050: d38a 63be 2857 9abe 73d0 83be a12b 3a3f
00000060: 4b2a bcbd 7150 87be 27b5 f73e eab6 e33d
00000070: ddfa a5be c940 31be 7a33 0b3f e732 59be
00000080: a1db 9bbe 54c0 113f 1a80 88be f8da d9be
00000090: eb38 99bc 7586 8bbb f052 afbd ec0c 7b3e
000000a0: 4e17 ee3e 4bef 3c3e 2cbc 85be e2e3 3dbe
000000b0: e6fd 2abe 5177 c0be 419a d4be 83ad 3abe
000000c0: f0d0 b1be 07d6 03bf 4ac4 553e 50ec 5f3e
000000d0: a041 e43d 65c4 5c3e 8dd7 f63d 52ad 44be
000000e0: 6e57 863e 1782 83be 15db 0f3f 701b 91bf
000000f0: 7c1b 3c3f 28dc e93c 65cc 913f d27f 1c3f
00000100: 8725 b2be 30bc 353e 8552 ebbd 86d3 80be
00000110: b5f0 64bd 14d5 7dbe a974 c0be d039 83bf
00000120: 65de a2bd 937a 7d3f f539 0e3e 3701 d63f
00000130: 267a 24c0 eedd 6fbe fed5 493e be68 34be
00000140: b7ac 67be b65a 90bd d88f ca3c b769 a93e
00000150: 89b0 313e 69df a4be fa41 b5be a62c 3abf
00000160: 6e4f edbe 1a48 a3be 8354 14bf 1454 8bbd
00000170: 5e1b a6bb 09b6 a83e ee11 113f e761 77be
00000180: fdb6 62be c592 d2bd e560 d4be 2804 a4be
00000190: 3915 a73e d594 29be 0a6e c4bd c742 2e3e
000001a0: 2dd9 eb3e 9c79 b4be a305 7dbe e35b dcbd
000001b0: 13c6 bd3e 3b96 cebe 27f3 98be 7c37 95be
000001c0: 9561 66be 5a85 c3be c8dd e93c ca49 7bbc
000001d0: 876c a73f d46e fe3d a7a8 45be e24f 9bbe
000001e0: 52e2 18be 99e0 823f d379 1040 d175 993f
000001f0: 4d5e 263f 4cb3 23be 7870 92bf 553e 1cbf
00000200: 5463 c0be 6b7a 433e 2923 bcbe 58ca 3ebe
00000210: e0d1 1bbe aceb c0be cdec cabe 084e afbc
00000220: 8347 08bd 67c7 f43d 4911 0d3e 9bd2 0cbf
00000230: c9ab 8fbd 5971 4cbe 182e 7c3e b901 c3be
00000240: 5c34 c0be f6af da3d 9308 3c3d c159 ddbd
00000250: fb29 debf 4bf2 3cbe 0a76 81be 3409 2ebf
00000260: 56a2 3a3e 63a0 d0be d8d0 a23d 67cb aabe
00000270: bbd3 23be bb0f 92be b2b5 10be c85b c8be
00000280: a4c0 8ebe 39e4 c53e 4251 c2be 239f 93be
00000290: 915e 9dbd 22d9 41bf 916a acbd 59e3 813e
000002a0: aa3e 023f 2bb6 b0be 4b08 543e 8c35 a9be
000002b0: db93 ef3e 43f1 99be 545f 77be c369 92be
000002c0: 39ea bcbe b78b e7be 1839 9c3d f6a0 1bbe
000002d0: 5021 cf3d 3bd7 533e 6eeb ff3d 6f54 8dbe
000002e0: 6d52 c83e 3480 f9be 4dc7 21bf 75ac d53e
000002f0: 3573 283f 03cc af3e 1065 ce3c 7cf1 19bd
00000300: 05fe b2be 68bf 8a3e e2cb 45bd 5b0b 88be
00000310: 420b 03bf 6266 3abe b742 50be 1068 e7bf
00000320: 154c 063e 6cf5 ea3d 0014 623d 71f0 aabd
00000330: 669a 3940 57ad bebe 9644 ba3e b79d d4be
00000340: 04af c9be ce2f d4bd f863 e2bd 7ae2 d1be
00000350: 9047 543e 23b2 94be 62f8 3bbe 2553 4c3f
00000360: e59b 92bd 01e8 c93e cc02 71bd 5300 9f3e
00000370: 07a2 b93d 2865 143e 7e2d e7be a673 92be
00000380: fa08 bdbe d15b 983e 74b3 c9be 5c06 873d
00000390: be6d 1e3c 090a 81be 42be f2be c089 0f3e
000003a0: 8e9c 0a3f cec8 063e 539e afbe b015 84bb
000003b0: bdae 0b3f cd77 81be 0a6d c3be 42f0 63be
000003c0: 5160 8dbe 3c89 0b3f 5ca1 f9bd b9bf 233f
000003d0: 88b3 8ebc be3e d1be c50c 87be 7f76 c4be
000003e0: 3e71 a4be 461d f4be 86a4 69be 86f3 ea3f
000003f0: be40 3cbf d3dd 3ebd 520f dcbd f6d7 8b3d
-0.2831254 0.31457698 -0.019073378 -0.40509284 -0.2526516 -0.25441048 -0.21043721 -0.57329315
0.0025690724 0.08603467 0.19101742 -0.28709674 -1.8169525 0.2792237 0.24670346 -0.21593075
-0.36550993 -0.081600934 -0.029892651 0.93686 -0.22220926 -0.3014462 -0.25744972 0.7272282
-0.09187754 -0.2642856 0.48380396 0.111188725 -0.32417956 -0.1730987 0.5437542 -0.21210824
-0.30441 0.56934094 -0.26660234 -0.42549872 -0.018703898 -0.004257972 -0.08560741 0.24516648
0.46502155 0.18450658 -0.26120126 -0.18543962 -0.16698417 -0.3759103 -0.41523936 -0.18230252
-0.3472972 -0.51498455 0.2087566 0.2186749 0.111453295 0.21559294 0.12052832 -0.19206741
0.2623858 -0.25685188 0.5619367 -1.1336498 0.7347944 0.028547361 1.1390501 0.6113254
-0.34794256 0.17747569 -0.11490349 -0.2516138 -0.05589362 -0.24788314 -0.37589005 -1.0252018
-0.07952575 0.9901516 0.13889296 1.6719121 -2.5699553 -0.23424503 0.19710538 -0.17618081
-0.22624479 -0.07048552 0.024726793 0.33088467 0.17352499 -0.32201698 -0.354019 -0.7272438
-0.46349663 -0.31890947 -0.57941455 -0.06803146 -0.0050691804 0.32951382 0.56667984 -0.2415844
-0.22140117 -0.102819 -0.41480175 -0.3203442 0.3263338 -0.16560681 -0.09591301 0.17017661
0.4606413 -0.3524903 -0.24709181 -0.107597135 0.3706518 -0.40348992 -0.2987301 -0.29143894
-0.22498162 -0.38187677 0.028548136 -0.015337417 1.3079995 0.124234825 -0.19302617 -0.30334383
-0.14930084 1.0224792 2.2574356 1.198908 0.6498764 -0.15986365 -1.1440573 -0.6103261
-0.3757578 0.19089667 -0.36745575 -0.18631876 -0.1521678 -0.37679803 -0.3963379 -0.021399513
-0.033271324 0.119520955 0.13776125 -0.5500886 -0.07015187 -0.19965114 0.24626958 -0.38087252
-0.37539947 0.10678093 0.045906615 -0.10808135 -1.7356561 -0.18451802 -0.2528537 -0.6798279
0.18225989 -0.40747365 0.0794999 -0.3335831 -0.15998738 -0.28527626 -0.14131811 -0.39132524
-0.27881348 0.38650683 -0.3795262 -0.2883235 -0.07684053 -0.75721943 -0.084187634 0.25368765
0.5087687 -0.34513983 0.20706289 -0.33048666 0.46792492 -0.3006688 -0.24157459 -0.28596315
-0.36897448 -0.4522378 0.07628077 -0.1519812 0.10113776 0.20687573 0.124960765 -0.2760348
0.39125386 -0.48730624 -0.63194734 0.41733137 0.6580079 0.34335336 0.025194675 -0.037583813
-0.34959427 0.27099156 -0.04829014 -0.26571164 -0.51189053 -0.18203118 -0.2033795 -1.8078632
0.1311496 0.11472592 0.055194855 -0.08346642 2.9000487 -0.37241623 0.36380452 -0.41526577
-0.3939134 -0.103606805 -0.11054224 -0.409931 0.20730424 -0.29042158 -0.1835647 0.7981437
-0.07158641 0.39434817 -0.058840558 0.31054935 0.090641074 0.14491713 -0.45151895 -0.28603858
-0.3692091 0.2975755 -0.39394724 0.0659301 0.009669719 -0.2520297 -0.4741078 0.14017391
0.54145133 0.13162538 -0.3430048 -0.0040309057 0.54563504 -0.25286713 -0.38169128 -0.2225962
-0.27612546 0.5450628 -0.1218898 0.6396442 -0.017419592 -0.4086818 -0.2637693 -0.38371655
-0.32117647 -0.47678584 -0.22816667 1.8355567 -0.7353629 -0.046598267 -0.107451096 0.06828301

fc3.bias f4 [6]
00000000: 99e6 82c0 6367 7ec0 761b 7fc0 80e7 7ec0
00000010: 0a61 0dc1 9abe 21c1
-4.090649 -3.9750602 -3.986051 -3.9828796 -8.836191 -10.109034
