checkpoints/model_0.1_250.pth (torch, 25220 bytes, 6 tensors)

fc1.weight f4 [64, 16]
0.09066096 0.07373047 0.1014297 -0.01579684 -0.24599335 -0.18247914 0.16686213 -0.10746536
-0.13792086 -0.19053158 -0.096429944 -0.19676346 0.07367766 0.23040289 -0.04436016 -0.12554136
-0.002738297 -0.046202898 -0.12525263 -0.23658451 0.24422982 -0.049179018 0.055912703 0.070993036
0.21593714 0.10838041 0.0038515031 0.14015603 0.058399588 -0.1918678 -0.23400372 0.18801188
-0.07077432 0.14446291 -0.20451835 -0.23040402 0.020916462 0.21934408 -0.22781065 -0.06002447
0.23364052 0.06952056 -0.16595837 0.14551917 0.02064386 0.14838144 0.13097408 -0.05357337
0.13302484 0.12846258 0.0045047402 -0.049583614 0.17437878 -0.22544643 0.1884169 0.24367458
-0.22309148 -0.14956382 0.21660441 -0.19490194 -0.2495788 0.13980266 -0.22004399 0.08553356
-0.21669048 -0.022492975 0.051012248 -0.10426709 -0.15671656 0.0011981726 -0.17328236 -0.23149788
0.14204755 -0.1613676 0.047155708 -0.24618411 -0.13784742 -0.10459173 0.23831397 0.03077063
-0.0022433102 -0.029389352 0.057201415 -0.083912045 -0.23665836 -0.24725759 -0.13235286 0.18738085
0.10070044 0.1290502 -0.078323364 0.18269667 0.058811992 0.056747735 -0.059208542 -0.17833379
0.08856949 -0.034800857 0.225194 -0.24198094 0.12794611 0.07609323 -0.11560163 -0.08615577
0.019247383 -0.10538897 0.22387418 0.029932797 -0.12029049 0.16190353 0.1771268 0.1669921
-0.12433323 -0.17620659 0.038921982 -0.019563317 0.17769867 -0.13260758 0.02526772 0.20651537
0.23884264 -0.13830882 -0.19210258 0.14908493 0.083106935 -0.034724265 0.20203856 -0.08116987
-0.013851911 0.13733661 0.24982634 -0.04063371 -0.17494288 0.1404877 -0.16588679 -0.1348489
-0.05535409 0.24743322 0.16832477 0.05220771 0.19689608 0.060789943 0.24942535 0.11679086
-0.046037763 0.14961115 -0.21460557 -0.09110865 0.13039911 0.09067139 -0.04970312 0.11957115
-0.0053472817 -0.014274389 -0.075769156 0.09631774 -0.20166555 0.11078566 -0.026878864 -0.075229526
-0.1521708 0.0163728 -0.21826372 -0.2078228 -0.08454257 -0.11898133 0.029300451 0.036967278
0.14223787 -0.24815118 -0.049336463 0.17779589 -0.024075449 0.1853925 0.08144429 -0.07331452
0.017792434 0.13202092 0.07065889 -0.036784083 0.175435 -0.048321456 0.057660133 -0.05282837
0.19279137 0.22512296 -0.10263637 -0.010009825 0.060115308 -0.04403153 -0.029855818 0.07134932
0.23861864 0.15004379 -0.06377694 0.21508473 -0.13912243 -0.1403662 0.18733206 -0.09712434
0.13089952 -0.19151124 -0.054340184 0.23286545 -0.12803215 0.014406562 0.21346581 0.052118033
0.14558205 -0.13135687 0.153231 0.23740286 0.007979184 0.2489672 -0.1597937 0.14484522
0.19276804 -0.18934661 0.110930055 -0.1497041 0.22649625 -0.06914601 0.05534926 -0.036955416
0.14368832 -0.20503247 0.07073173 0.024326444 0.18114704 -0.11867386 -0.119128495 0.18779454
-0.13350904 0.0935981 0.16171774 0.23126799 0.18102208 0.19862425 -0.053750783 -0.24924931
-0.030807555 -0.21565223 0.08164376 -0.18677112 0.16823673 0.1366196 -0.007560879 -0.0483146
-0.14587063 0.082098484 -0.112152725 0.012957841 0.15305057 0.1385594 0.090461016 0.15568697
00000000: 74ac b93d 0000 973d 60ba cf3d 6068 81bc
00000010: aee5 7bbe d0db 3abe e8dd 2a3e cc16 dcbd
00000020: 203b 0dbe b61a 43be 107d c5bd 5c7c 49be
00000030: 50e4 963d bcee 6b3e 00b3 35bd ea8d 00be
00000040: 0075 33bb 403f 3dbd 3a42 00be 3643 72be
00000050: 6217 7a3e f06f 49bd b804 653d cc64 913d
00000060: a01e 5d3e 8cf6 dd3d 8069 7c3b 1085 0f3e
00000070: 6834 6f3d fe78 44be ac9e 6fbe 3086 403e
00000080: 20f2 90bd 16ee 133e 426d 51be 08ef 6bbe
00000090: 0059 ab3c bc9b 603e 3247 69be 38dc 75bd
000000a0: 763f 6f3e cc60 8e3d fef0 29be fa02 153e
000000b0: 501d a93c 4ef1 173e 121e 063e c06f 5bbd
000000c0: aa37 083e b28b 033e 809c 933b 3018 4bbd
000000d0: 5a90 323e 6edb 66be 5cf0 403e d485 793e
000000e0: 1872 64be 4227 19be 8ccd 5d3e 6094 47be
000000f0: 9691 7fbe 6e28 0f3e 3653 61be 382c af3d
00000100: 1ce4 5dbe 3043 b8bc 38f2 503d fc89 d5bd
00000110: 4e7a 20be 000c 9d3a ee70 31be c80d 6dbe
00000120: ea74 113e 8c3d 25be 5826 413d b017 7cbe
00000130: e027 0dbe 3034 d6bd 9408 743e b012 fc3c
00000140: 8004 13bb f0c1 f0bc 084c 6a3d 14da abbd
00000150: 9256 72be 1831 7dbe 8287 07be c4e0 3f3e
00000160: 083c ce3d bc25 043e 0068 a0bd d614 3b3e
00000170: d8e4 703d 5070 683d a884 72bd 229d 36be
00000180: ec63 b53d 588b 0ebd 4299 663e dac9 77be
00000190: 4e04 033e c4d6 9b3d 8cc0 ecbd 7072 b0bd
000001a0: b0ac 9d3c 2cd6 d7bd 463f 653e a035 f53c
000001b0: dc5a f6bd 0aca 253e ba60 353e faff 2a3e
000001c0: 6ca2 febd 806f 34be a86c 1f3d 4043 a0bc
000001d0: a4f6 353e 48ca 07be 40fe ce3c c478 533e
000001e0: 2a93 743e d4a0 0dbe 8ab6 44be b8a9 183e
000001f0: f833 aa3d 083b 0ebd 32e3 4e3e 643c a6bd
00000200: 20f3 62bc f8a1 0c3e 7ad2 7f3e 886f 26bd
00000210: 3a24 33be 02dc 0f3e 3ade 29be d415 0abe
00000220: f8ba 62bd 225f 7d3e 545d 2c3e c0d7 553d
00000230: 209f 493e e0fe 783d 5c69 7f3e 0c30 ef3d
00000240: 1892 3cbd aa33 193e 90c1 5bbe 2c97 babd
00000250: 5887 053e ecb1 b93d 8095 4bbd b8e1 f43d
00000260: 4038 afbb 20df 69bc dc2c 9bbd 3c42 c53d
00000270: 6a81 4ebe 98e3 e23d 1031 dcbc f011 9abd
00000280: aad2 1bbe 4020 863c 8680 5fbe 80cf 54be
00000290: a824 adbd 7cac f3bd 8007 f03c 006b 173d
000002a0: cea6 113e 581b 7ebe 0815 4abd 2010 363e
000002b0: e039 c5bc 88d7 3d3e 44cc a63d ec25 96bd
000002c0: 70c1 913c 7e30 073e 9cb5 903d e8aa 16bd
000002d0: 3ca5 333e b8ec 45bd 082d 6c3d 9062 58bd
000002e0: 1a6b 453e a286 663e 0433 d2bd 4000 24bc
000002f0: 783b 763d 685a 34bd 3094 f4bc 981f 923d
00000300: 7258 743e 14a5 193e 7c9d 82bd 2c3f 5c3e
00000310: 1c76 0ebe 28bc 0fbe fad3 3f3e 20e9 c6bd
00000320: 860a 063e 861b 44be d093 5ebd 4874 6e3e
00000330: dc1a 03be 8009 6c3c c896 5a3e b879 553d
00000340: 7613 153e 6a82 06be 96e8 1c3e bc19 733e
00000350: 20bb 023c 42f1 7e3e f6a0 23be 4e52 143e
00000360: fc64 453e 14e4 41be 4c2f e33d 084c 19be
00000370: a2ee 673e 6c9c 8dbd e8b5 623d 905e 17bd
00000380: 0823 133e 08f4 51be ccdb 903d 4048 c73c
00000390: 9c7e 393e 480b f3bd a4f9 f3bd 364d 403e
000003a0: 98b6 08be 5cb0 bf3d 5699 253e 84d1 6c3e
000003b0: da5d 393e 2864 4b3e c829 5cbd 363b 7fbe
000003c0: 2060 fcbc f0d3 5cbe d834 a73d ee40 3fbe
000003d0: 4046 2c3e 02e6 0b3e 40c1 f7bb 88e5 45bd
000003e0: 1c5f 15be 4023 a83d 54b0 e5bd 204d 543c
000003f0: 4ab9 1c3e 84e2 0d3e a043 b93d 686c 1f3e

fc1.bias f4 [64]
0.23207855 0.22923145 -0.11398953 0.17084658 0.18699029 0.15796405 -0.23147959 -0.025231034
-0.23172617 -0.18093356 0.04540935 -0.060510814 -0.02216497 0.011942118 -0.095799774 0.058182746
-0.103363454 0.11463219 -0.15155554 -0.002561152 0.21061936 -0.23168722 0.121919006 -0.19462481
-0.24880081 0.0123978555 -0.24505776 0.184942 -0.2419334 -0.13319293 0.0045693815 -0.0046595037
0.18574062 -0.21361038 -0.046645314 0.03617114 -0.17668831 -0.071748346 -0.15834317 -0.21313295
-0.016068995 -0.15094331 0.014586091 0.07884246 -0.038452476 0.0013343096 -0.036622256 -0.114845574
0.07590723 0.15355146 0.24680391 -0.12829265 -0.116166264 -0.015831351 -0.20059636 -0.2312688
-0.08038062 -0.0011274815 -0.14418018 -0.01127857 -0.08847678 -0.15384933 0.09975976 0.2106201
00000000: 00a6 6d3e a6bb 6a3e 5873 e9bd 68f2 2e3e
00000010: 627a 3f3e 54c1 213e fc08 6dbe 50b1 cebc
00000020: a049 6dbe a646 39be 28ff 393d 30da 77bd
00000030: 5093 b5bc e0a8 433c ac32 c4bd 0851 6e3d
00000040: 38b0 d3bd 48c4 ea3d 6031 1bbe 00d9 27bb
00000050: 9aac 573e 6a3f 6dbe acb0 f93d ba4b 47be
00000060: a4c5 7ebe 6020 4b3c 6cf0 7abe 7061 3d3e
00000070: 64bd 77be ba63 08be c0ba 953b c0ae 98bb
00000080: ca32 3e3e aebc 5abe 280f 3fbd 3028 143d
00000090: c8ed 34be ccf0 92bd b624 22be 863f 5abe
000000a0: 20a3 83bc e290 1abe 80fa 6e3c 2878 a13d
000000b0: 5880 1dbd 00e4 ae3a 3801 16bd 2834 ebbd
000000c0: 4075 9b3d 983c 1d3e 2aba 7c3e 265f 03be
000000d0: 94e8 edbd c0b0 81bc 2269 4dbe bad1 6cbe
000000e0: 989e a4bd 00c8 93ba f8a3 13be c0c9 38bc
000000f0: 5033 b5bd ae8a 1dbe d84e cc3d ccac 573e

fc2.weight f4 [64, 64]
0.052923426 -0.058978498 -0.08182271 0.05897127 0.029444546 0.0096987635 0.096238405 0.032767877
0.05500281 -0.01353851 -0.03996201 0.017011255 0.11749053 0.041322798 -0.04080668 0.06634639
-0.01881814 0.08407374 0.10962589 0.1091512 0.12100385 0.106906146 0.11710285 0.061252072
-0.011195689 -0.07364574 0.081545085 -0.025568038 -0.103660986 0.03710416 0.007942244 0.06540726
0.05481851 0.10807793 0.038733274 -0.0105692 -0.12281023 -0.0015908331 -0.060968444 -0.10925855
-0.11029585 -0.07460116 -0.08992803 0.06604244 0.042070687 -0.05097437 -0.07991612 0.11409822
-0.09876087 0.024606436 -0.11209446 -0.010223642 0.023682266 -0.064861774 0.12085424 0.084399596
-0.03697084 -0.0035289824 0.03156461 0.071615145 -0.045286193 -0.033182964 -0.051220387 0.09496012
0.05392076 -0.09597537 -0.027754217 -0.0033569783 -0.05192271 0.10126859 -0.047378138 -0.0077292174
-0.0553841 0.02175419 -0.05564332 -0.0657582 0.10095365 -0.09021518 -0.10196601 -0.04465194
0.08469994 -0.046678185 0.042672247 -0.01226674 0.0680812 -0.044406638 0.12189652 -0.037734598
0.10733764 0.023373678 -0.10254662 -0.015563309 -0.07367191 0.11329082 0.035253406 0.08050473
0.11293462 -0.10145114 -0.020725802 -0.010333866 0.036632553 -0.10983251 -0.11848508 -0.09785019
-0.0028501898 0.08961393 0.11557001 -0.115702644 0.021479845 0.07150777 -0.019358546 -0.0016815662
-0.008593142 -0.005332142 0.10196258 0.05988297 -0.07251039 -0.07305652 -0.123625994 0.026071593
-0.112195075 0.06628084 0.09623502 -0.12225777 0.0044828355 -0.027597785 0.093502164 -0.0745385
-0.08504763 -0.109392434 0.027428716 -0.0041652024 0.05257888 0.07386407 0.073146805 0.10336782
-0.014157176 -0.02202472 0.07710326 0.06377669 -0.04561092 -0.05711542 0.06798643 0.049890682
-0.09627557 0.10337351 0.07383102 -0.08680725 -0.08843672 -0.069122136 0.114206314 0.03389001
-0.06614518 0.11189461 0.06336591 -0.022664994 0.09631805 0.047405794 -0.04941757 -0.06067443
-0.06992389 -0.062529474 -0.05952096 -0.057846293 -0.11959703 -0.053045556 -0.10456063 -0.096209034
-0.07914944 0.0031128973 -0.06784946 0.038041055 0.057564765 -0.11531837 0.026174575 -0.045246795
0.10888401 -0.088616714 0.10642038 0.07941437 0.06054163 0.037176445 -0.09864029 -0.060902998
-0.07297407 -0.119846314 0.042347893 0.017462805 0.07263793 -0.06003958 0.062388673 -0.024980575
0.105011374 0.0847587 0.051241994 -0.12143481 -0.013314202 0.0026764125 -0.012314722 0.11229728
-0.045375586 0.025065899 0.09692602 0.059371725 0.11165875 -0.1020309 -0.060392916 -0.10353327
0.042349055 0.07952219 -0.0149564445 -0.09115401 -0.076603934 0.08647992 -0.04869537 0.0009827763
-0.08583695 0.025218517 -0.12208544 0.10387541 0.045184582 0.03496349 0.086531624 0.11993669
-0.053588286 0.09254345 -0.014561474 0.053499877 0.017248228 -0.048335835 0.025147766 0.07766497
-0.0143062025 0.013810828 0.011844218 -0.06516904 -0.022430167 0.051298603 -0.047925323 -0.09022856
0.005227864 -0.0029902756 0.061498806 -0.09136826 0.09377769 -0.04531461 -0.032621697 -0.0997629
-9.3489885e-05 0.03946604 -0.0069229454 0.10803668 -0.034774393 -0.07092589 -0.09569192 0.019072115
00000000: 3cc6 583d 7093 71bd aa92 a7bd dc8b 713d
00000010: b035 f13c 90e7 1e3c a418 c53d 9c37 063d
00000020: a04a 613d a0d0 5dbc 34af 23bd 305b 8b3c
00000030: e09e f03d 1842 293d e824 27bd 9ee0 873d
00000040: 8028 9abc da2e ac3d 8a83 e03d aa8a df3d
00000050: ded0 f73d 9cf1 da3d 9ed3 ef3d 74e3 7a3d
00000060: 206e 37bc 94d3 96bd 1c01 a73d 1074 d1bc
00000070: 364c d4bd 88fa 173d 3020 023c 3ef4 853d
00000080: 6089 603d f657 dd3d c8a6 1e3d 702a 2dbc
00000090: ee83 fbbd 8083 d0ba 0cba 79bd f2c2 dfbd
000000a0: cae2 e1bd 7ec8 98bd 302c b8bd 4241 873d
000000b0: 5052 2c3d 80ca 50bd 10ab a3bd 54ac e93d
000000c0: 2443 cabd 7093 c93c c891 e5bd 1081 27bc
000000d0: 5001 c23c 40d6 84bd 6e82 f73d b2d9 ac3d
000000e0: bc6e 17bd 8046 67bb e449 013d f6aa 923d
000000f0: 047e 39bd dcea 07bd 78cc 51bd 747a c23d
00000100: 04dc 5c3d bc8e c4bd d05c e3bc c000 5cbb
00000110: e8ac 54bd e865 cf3d 940f 42bd 6045 fdbb
00000120: 70da 62bd d835 b23c 40ea 63bd 3cac 86bd
00000130: cac0 ce3d bcc2 b8bd 8ed3 d0bd f4e4 36bd
00000140: 2a77 ad3d a031 3fbd 18c9 2e3d 70fa 48bc
00000150: 286e 8b3d bce3 35bd e2a4 f93d 988f 1abd
00000160: d6d3 db3d 287a bf3c f603 d2bd 40fd 7ebc
00000170: 4ce1 96bd 0405 e83d e065 103d aadf a43d
00000180: 444a e73d 9ec5 cfbd 28c9 a9bc 604f 29bc
00000190: 040c 163d deef e0bd 4ea8 f2bd ae65 c8bd
000001a0: 40ca 3abb 8287 b73d f8af ec3d 82f5 ecbd
000001b0: 80f6 af3c aa72 923d d095 9ebc 0068 dcba
000001c0: 40ca 0cbc 40b9 aebb c2d1 d03d d847 753d
000001d0: 5480 94bd a89e 95bd a02f fdbd 1894 d53c
000001e0: 88c6 e5bd 40be 873d de16 c53d 4862 fabd
000001f0: c0e4 923b c014 e2bc 107e bf3d a4a7 98bd
00000200: 742d aebd 2409 e0bd 30b2 e03c 407c 88bb
00000210: f45c 573d 0c46 973d fecd 953d 82b2 d33d
00000220: 80f3 67bc 306d b4bc 50e8 9d3d 5a9d 823d
00000230: 84d2 3abd dcf1 69bd 783c 8b3d 2c5a 4c3d
00000240: 202c c5bd 7eb5 d33d b834 973d 00c8 b1bd
00000250: 501e b5bd e88f 8dbd 00e5 e93d 40d0 0a3d
00000260: 2077 87bd 0029 e53d fcc5 813d f0ab b9bc
00000270: 6642 c53d 942c 423d 146a 4abd c085 78bd
00000280: 4234 8fbd 740f 80bd 40cc 73bd 3cf0 6cbd
00000290: 4aef f4bd 4c46 59bd e223 d6bd 3e09 c5bd
000002a0: 1a19 a2bd c001 4c3b a8f4 8abd f0d0 1b3d
000002b0: 08c9 6b3d 0a2c ecbd 106c d63c b454 39bd
000002c0: 94fe de3d ae7c b5bd eef2 d93d 00a4 a23d
000002d0: 80fa 773d 5446 183d ec03 cabd 6c75 79bd
000002e0: 6e73 95bd fc71 f5bd fc74 2d3d 280e 8f3c
000002f0: 32c3 943d 10ec 75bd 448b 7f3d 10a4 ccbc
00000300: 3410 d73d f895 ad3d 20e3 513d d0b2 f8bd
00000310: d023 5abc c066 2f3b b0c3 49bc 1efc e53d
00000320: c0db 39bd 0057 cd3c 2681 c63d c42f 733d
00000330: 58ad e43d 94f5 d0bd 905e 77bd 4009 d4bd
00000340: 3476 2d3d 88dc a23d e00b 75bc f4ae babd
00000350: 86e2 9cbd 621c b13d cc74 47bd 80d0 803a
00000360: 48cb afbd 1097 ce3c ee07 fabd a2bc d43d
00000370: 7813 393d e035 0f3d 7e37 b13d 5ea1 f53d
00000380: 647f 5bbd 6c87 bd3d 4093 6ebc b022 5b3d
00000390: 284c 8d3c ccfb 45bd b002 ce3c d00e 9f3d
000003a0: 9064 6abc d046 623c 400e 423c 5877 85bd
000003b0: 78bf b7bc 7c1e 523d 584d 44bd c0c9 b8bd
000003c0: 804e ab3b 80f8 43bb 2ce6 7b3d 481f bbbd
000003d0: 840e c03d d09b 39bd 549e 05bd 7e50 ccbd
000003e0: 0010 c4b8 24a7 213d e0d9 e2bb 5642 dd3d
000003f0: 986f 0ebd 9841 91bd 20fa c3bd 203d 9c3c

fc2.bias f4 [64]
-0.065674394 0.041894272 -0.051557183 -0.08922669 0.093441874 0.0014699697 -0.057688415 0.065668
0.032487735 -0.036458865 0.010463998 0.027592078 -0.043767437 -0.11099368 0.0431522 0.002286598
0.116995916 0.117983565 0.037002206 0.047970757 0.019779965 0.029972926 0.092161804 -0.11256033
0.08826852 -0.096544474 -0.0908076 -0.048172712 -0.02174735 0.02898918 0.06321967 -0.12282288
0.04350914 -0.09584795 0.009627089 -0.048181936 -0.030649126 0.02286984 0.064334646 -0.11103374
0.03402789 0.07221359 -0.08656682 -0.08726923 0.121680096 0.047004387 0.11712474 0.074611574
0.0076045245 0.076428354 0.100364864 0.07804723 0.12498231 -0.112712055 0.026604757 -0.04423581
-0.0030783415 -0.11187637 -0.047317788 -0.019445121 -0.015361458 -0.005132705 0.07503745 -0.084980935
00000000: 4c80 86bd 5499 2b3d a02d 53bd 7cbc b6bd
00000010: 745e bf3d 00ac c03a b04a 6cbd f27c 863d
00000020: dc11 053d e455 15bd 3071 2b3c c808 e23c
00000030: 7c45 33bd a850 e3bd 5cc0 303d c0da 153b
00000040: 8e9b ef3d 5ea1 f13d a08f 173d fc7c 443d
00000050: 9809 a23c c889 f53c 54bf bc3d 0886 e6bd
00000060: 20c6 b43d 1cb9 c5bd 56f9 b9bd c050 45bd
00000070: 8027 b2bc b87a ed3c 5079 813d 908a fbbd
00000080: a436 323d ee4b c4bd f0ba 1d3c 6c5a 45bd
00000090: e013 fbbc 8859 bb3c e2c1 833d a865 e3bd
000000a0: d460 0b3d b8e4 933d f249 b1bd 36ba b2bd
000000b0: 6a33 f93d ac87 403d 18df ef3d f4cd 983d
000000c0: 602f f93b 7886 9c3d 188c cd3d 3ad7 9f3d
000000d0: baf6 ff3d 94d5 e6bd 38f2 d93c 9c30 35bd
000000e0: 00be 49bb 701f e5bd 4cd0 41bd 604b 9fbc
000000f0: a0ae 7bbc 4030 a8bb 3cad 993d 7c0a aebd

fc3.weight f4 [6, 64]
0.108905524 -0.017465442 0.028181061 0.11108793 0.043158054 0.04655026 0.07505821 0.08173211
0.07118441 -0.0791451 0.04590349 -0.00022998452 -0.024694368 0.095604554 -0.039680094 -0.09015843
0.049841717 0.075208664 0.08963072 -0.07981835 0.034866497 -0.015401721 -0.041352287 -0.11635104
-0.011688039 0.11076142 -0.090498194 0.11755589 -0.108408436 0.045004964 -0.07371314 -0.07822092
0.0845591 -0.1090218 -0.014167801 -0.08352356 -0.04542665 0.11164157 -0.036566854 -0.078547016
0.0065906197 0.019639522 0.063016 -0.120740786 -0.030262575 0.04437901 0.08272515 0.077356115
0.08323422 -0.048523277 -0.08266227 0.11414276 -0.10339935 0.01982613 -0.10115409 -0.05630839
-0.07565816 0.0090242475 -0.09480201 -0.06757921 0.028091848 0.095886156 -0.0024086684 -0.11399409
0.010847032 0.07677983 -0.052458525 0.052786097 0.05237405 -0.08372527 -0.06625308 -0.117794946
0.019808963 -0.07313876 0.0030785352 -0.1145526 0.07162127 0.08326878 -0.08590807 0.046291605
-0.105923444 -0.08866812 -0.07472968 -0.07131459 0.07457651 0.09913957 -0.10115251 0.11172061
-0.07596238 -0.10538688 -0.023664892 0.106943116 0.03957443 0.062214106 -0.019489154 0.08666466
0.036039025 0.09786512 -0.059789285 -0.093158215 -0.011193588 0.065509945 -0.04172279 0.09854095
0.004326552 0.017752767 0.0805089 0.095602095 0.11732632 0.030520946 0.018918648 0.040670365
-0.011814728 -0.05568658 0.06106183 -0.09332523 -0.029473126 -0.10110995 0.057517797 -0.06781457
0.04951419 0.124097556 0.0073450357 0.07439378 0.059095904 0.111905396 -0.0687965 0.084535494
0.09399703 -0.08840132 -0.08888729 -0.01669553 0.113071814 0.055589452 -0.07054609 0.0235354
-0.009767354 -0.016007915 0.080699414 -0.033137828 -0.10665974 0.056930646 -0.07802807 -0.03936018
-0.114280224 0.027900934 0.019892514 -0.013443112 0.0392666 -0.047147542 0.060774714 -0.11432007
-0.016418234 0.05940178 0.0865034 -0.050179496 -0.027315691 0.08277534 0.11109644 0.07540214
-0.10567048 -0.04867652 -0.096441686 0.07228482 -0.07457176 -0.020159572 0.10909514 0.089145005
-0.009292409 -0.009413451 0.02388464 0.028837204 -0.059609756 -0.028459743 -0.025341138 0.018138781
0.018151164 -0.0937324 0.043380767 -0.019799188 -0.010705963 0.011297792 -0.11598952 0.040265992
0.042038366 0.069770426 -0.100795835 0.02908586 0.113459915 -0.045708865 0.1029052 -0.08753085
0.0065745264 0.12241307 0.06133166 0.11044887 -0.06565976 0.0019951165 0.11920369 -0.10250512
-0.066262126 0.0022600442 -0.08462836 0.12286727 -0.096602306 0.10359737 -0.07229991 -0.10031156
-0.03645812 -0.00813891 0.036746398 -0.026596233 -0.06332666 -0.11431898 -0.053819478 -0.02454789
0.09880377 0.004828289 0.035253793 0.11555734 0.052593216 -0.09704439 -0.06166105 0.069615945
0.0031198114 -0.08224003 0.09022854 0.058448464 0.09184311 0.08385432 -0.014323324 -0.065531656
0.12210561 -0.02184309 0.016040325 -0.011386082 0.103529155 0.08300336 -0.08614051 -0.0014272779
0.0029966533 0.09342688 -0.11121647 0.05531308 0.091803834 0.08341645 0.0010174662 0.112040594
0.09156011 0.024513647 -0.11825286 0.032907248 -0.004218802 0.044011638 -0.006492883 -0.080877826
00000000: dc09 df3d b013 8fbc f8db e63c 1282 e33d
00000010: 80c6 303d 7cab 3e3d 1eb8 993d 2a63 a73d
00000020: 22c9 913d d416 a2bd 4c05 3c3d 0028 71b9
00000030: d84b cabc 52cc c33d 9887 22bd fca4 b8bd
00000040: d426 4c3d 0007 9a3d 5090 b73d ce77 a3bd
00000050: 2cd0 0e3d 8057 7cbc 0461 29bd 7449 eebd
00000060: 307f 3fbc e2d6 e23d 1e57 b9bd 24c1 f03d
00000070: 3e05 debd 2057 383d eaf6 96bd 4a32 a0bd
00000080: 522d ad3d d246 dfbd 1020 68bc 660e abbd
00000090: 4c11 3abd 56a4 e43d 20c7 15bd 42dd a0bd
000000a0: 20f6 d73b 10e3 a03c 880e 813d f246 f7bd
000000b0: 38e9 f7bc c4c6 353d ce6b a93d e26c 9e3d
000000c0: b476 aa3d 58c0 46bd d64a a9bd aec3 e93d
000000d0: 0ac3 d3bd 686a a23c e029 cfbd a0a3 66bd
000000e0: aaf2 9abd 70da 133c 8e27 c2bd f866 8abd
000000f0: e020 e63c f65f c43d c0da 1dbb bc75 e9bd
00000100: c0b7 313c be3e 9d3d c0de 56bd 3c36 583d
00000110: 2c86 563d 2878 abbd b2af 87bd 7a3e f1bd
00000120: 6846 a23c c6c9 95bd 40c1 493b 8e9a eabd
00000130: 2cae 923d d288 aa3d 92f0 afbd 449c 3d3d
00000140: 64ee d8bd a297 b5bd e00b 99bd 620d 92bd
00000150: 92bb 983d b009 cb3d 0c29 cfbd c6cd e43d
00000160: 2a92 9bbd 14d5 d7bd e0dc c1bc fe04 db3d
00000170: cc18 223d 38d4 7e3d b8a7 9fbc 3e7d b13d
00000180: a89d 133d 826d c83d 9ce5 74bd bcc9 bebd
00000190: 5065 37bc 142a 863d 84e5 2abd d6cf c93d
000001a0: c0c5 8d3b 406e 913c dae1 a43d 08cb c33d
000001b0: c848 f03d 1007 fa3c 48fb 9a3c f895 263d
000001c0: 9092 41bc 9c17 64bd f81b 7a3d 4c21 bfbd
000001d0: a071 f1bc bc12 cfbd c897 6b3d 5ee2 8abd
000001e0: 64cf 4a3d dc26 fe3d a0ae f03b c45b 983d
000001f0: 8c0e 723d a82e e53d 2ee5 8cbd f220 ad3d
00000200: 8481 c03d c00b b5bd 8a0a b6bd 10c5 88bc
00000210: 3292 e73d c4b1 633d 787a 90bd 50cd c03c
00000220: 4007 20bc 0823 83bc bc45 a53d 88bb 07bd
00000230: 6c70 dabd 1c30 693d 2ecd 9fbd 2438 21bd
00000240: c00b eabd 8090 e43c a0f5 a23c 8040 5cbc
00000250: 04d6 203d c81d 41bd e8ee 783d a420 eabd
00000260: 887f 86bc 484f 733d b228 b13d 0489 4dbd
00000270: 28c5 dfbc 1e86 a93d 8886 e33d 706c 9a3d
00000280: c469 d8bd 0861 47bd 3883 c5bd 100a 943d
00000290: 14b9 98bd b025 a5bc 466d df3d a891 b63d
000002a0: 303f 18bc e03a 1abc b8a9 c33c 003c ec3c
000002b0: 5c29 74bd 6824 e9bc 3898 cfbc c897 943c
000002c0: c0b1 943c c6f6 bfbd 08b0 313d e831 a2bc
000002d0: 1068 2fbc 601a 393c ea8b edbd f4ed 243d
000002e0: 6c30 2c3d cce3 8e3d 0c6e cebd 7845 ee3c
000002f0: ac5d e83d 3839 3bbd f6bf d23d 6043 b3bd
00000300: 206f d73b b4b3 fa3d e836 7b3d 0433 e23d
00000310: a078 86bd 80c0 023b 1021 f43d 34ee d1bd
00000320: 70b4 87bd 401d 143b a251 adbd d6a1 fb3d
00000330: 6ed7 c5bd dc2a d43d fa11 94bd 2670 cdbd
00000340: 1c55 15bd 1059 05bc 6483 163d 58e0 d9bc
00000350: 68b1 81bd 1220 eabd d071 5cbd a818 c9bc
00000360: a259 ca3d a036 9e3b 4866 103d 54a9 ec3d
00000370: fc6b 573d 36bf c6bd 4c90 7cbd ce92 8e3d
00000380: c075 4c3b 766d a8bd bec9 b83d a867 6f3d
00000390: 3e18 bc3d d0bb ab3d 60ac 6abc 7635 86bd
000003a0: 8212 fa3d 48f0 b2bc 0067 833c b08c 3abc
000003b0: 1807 d43d aafd a93d 706a b0bd 8013 bbba
000003c0: 8063 443b 9856 bf3d 76c5 e3bd f88f 623d
000003d0: a603 bc3d 3ed6 aa3d 805c 853a 8a75 e53d
000003e0: de83 bb3d d8d0 c83c 8e2e f2bd c0c9 063d
000003f0: e03d 8abb 8c45 343d 40c2 d4bb 46a3 a5bd

fc3.bias f4 [6]
0.028671399 -0.069486335 0.012255713 -0.0050412267 -0.06015189 -0.049111456
00000000: 48e0 ea3c da4e 8ebd 30cc 483c e030 a5bb
00000010: d461 76bd 1829 49bd
