checkpoints/model_0.7_100.pth (torch, 25220 bytes, 6 tensors)

fc1.weight f4 [64, 16]
0	0xbe898e84	-0.26866543
1	0xbe9b21b4	-0.3029915
2	0xbbf01740	-0.0073269904
3	0x3d4ad698	0.04952106
4	0xbcef7710	-0.029231578
5	0xbe94602e	-0.2897963
6	0xbea0d52a	-0.3141263
7	0xbe4d0aaa	-0.200236
8	0xbebaac79	-0.3645971
9	0xbf1fb4e4	-0.6238539
10	0x3e548193	0.20752554
11	0xbf12a2f1	-0.5727988
12	0xbea9b701	-0.33147433
13	0xbe412e4b	-0.18865316
14	0xbefad1da	-0.4898823
15	0x3e41ceec	0.1892659
16	0xbe4df112	-0.20111492
17	0x3dcbbdc4	0.09948304
18	0x3bdc4f40	0.0067233145
19	0x3e180ef6	0.14849457
20	0xbe32723c	-0.1742639
21	0x3e693656	0.22774634
22	0xbdbf1ecc	-0.09332046
23	0xbdcfeb94	-0.10152355
24	0xbe2a905c	-0.16656631
25	0xbe3c5fec	-0.18395966
26	0x3e18780a	0.14889541
27	0xbbc3f780	-0.005980432
28	0xbbfbb040	-0.0076809227
29	0x3dff4618	0.12464541
30	0x3d8843e4	0.06653574
31	0xbdb15fe4	-0.08660868
32	0x3e2ff980	0.1718502
33	0x3bfd83c0	0.007736653
34	0x3de2ae6c	0.110684246
35	0xbe7c2ab4	-0.24625665
36	0x3d6ed198	0.058305353
37	0xbe45d412	-0.1931918
38	0x3d4f66a8	0.05063501
39	0xbdd4596c	-0.10368618
40	0xbdc4f434	-0.096168905
41	0xbe05c39e	-0.13062903
42	0x3df609a0	0.120135546
43	0x3c6b5ee0	0.014365882
44	0xbe0bebcc	-0.13664168
45	0xbe646608	-0.22304547
46	0xbb335b00	-0.0027367473
47	0x3e58016a	0.2109429
48	0x3e1b611e	0.15173766
49	0xbe5ac7f9	-0.21365346
50	0xbe508b88	-0.20365727
51	0xbc3a73c0	-0.011380136
52	0xbdb0665c	-0.086132735
53	0xbd0784de	-0.033085696
54	0xbe0ae8c6	-0.13565359
55	0xbe7c48b6	-0.24637112
56	0xbda5637d	-0.080756165
57	0x3c85e3d3	0.016343987
58	0xbfb5fa25	-1.4216963
59	0x3f0b5602	0.5442811
60	0x3f2ef108	0.68336535
61	0x3e2e81b8	0.17041671
62	0xbf0baff3	-0.5456535
63	0xbf25afe6	-0.64721525
64	0x3e00e350	0.12586713
65	0x3d9984a0	0.07495999
66	0xbe709ac4	-0.23496538
67	0xbcc2d3c0	-0.02378261
68	0xbe0fa720	-0.14028597
69	0xbcc2bad0	-0.02377072
70	0xbe024bfc	-0.12724298
71	0xbccc4da0	-0.024939358
72	0xbb147d00	-0.0022657514
73	0x3c7ede60	0.015555948
74	0x3e321182	0.17389491
75	0xbe0ce39c	-0.13758701
76	0x3d1cfe70	0.038328588
77	0x3d8105bc	0.06299922
78	0xbe050b08	-0.1299249
79	0xbd8002ac	-0.062505096
80	0x3efb8dda	0.49131662
81	0xbe21639b	-0.15760653
82	0x3d774f88	0.06037858
83	0xbdbc4e28	-0.091945946
84	0x3d7f1500	0.062275887
85	0xbf28868a	-0.6583029
86	0xbf041db0	-0.516078
87	0xbe5685d6	-0.20949492
88	0xbf05eec0	-0.5231743
89	0xbefa4adf	-0.48885247
90	0xc00679d9	-2.101187
91	0x40bbb7b7	5.866176
92	0xbf5ab658	-0.85434484
93	0x3f9eb35c	1.2398486
94	0xbf5f20ce	-0.8715943
95	0xbf40e255	-0.75345355
96	0xbe3eeb34	-0.1864441
97	0xbd8c87fa	-0.06861873
98	0x3e2ec574	0.1706751
99	0xbe32837e	-0.17432973
100	0x3e54243e	0.2071695
101	0xbe112217	-0.1417316
102	0xbeecc62c	-0.46244943
103	0xbc0bbe60	-0.008529276
104	0xbf032784	-0.5123217
105	0xbe6a1c9c	-0.22862476
106	0x3e866c44	0.26254475
107	0xbda9baa6	-0.082875535
108	0xbf058c4b	-0.52167195
109	0xbe5564f8	-0.20839298
110	0xbef1175c	-0.47088134
111	0x3db15cbc	0.08660266
112	0x3dd59020	0.1042788
113	0x3e5f6ece	0.21819612
114	0x3e30dfbe	0.17272851
115	0x3e19dec0	0.15026379
116	0xbdaadd90	-0.08343041
117	0xbd29b1b8	-0.04142925
118	0xbdddf778	-0.108382165
119	0x3e232d66	0.15935287
120	0xbe7de3ae	-0.24793884
121	0xbe56c61e	-0.20974013
122	0x3df467a4	0.119338304
123	0x3e7f320e	0.24921438
124	0x3dfa1b28	0.12212211
125	0x3da3e380	0.080023766
126	0x3e3b893e	0.18314072
127	0x3dd00d90	0.10158837
128	0xbc8af440	-0.01696217
129	0xbd564320	-0.05231011
130	0x3e69ff54	0.22851306
131	0x3e110460	0.14161825
132	0x3e706076	0.23474297
133	0x3d3efb50	0.04662639
134	0xbcebb5c0	-0.028773189
135	0x3e7e8360	0.24854803
136	0xbca6d320	-0.020364344
137	0xbe3024fc	-0.17201608
138	0xbd49c188	-0.04925683
139	0x3d9ef958	0.07762402
140	0x3e2d1656	0.16903052
141	0xbd40b9e0	-0.047052264
142	0x3e07fbca	0.13279644
143	0x3e08f230	0.13373637
144	0x3be06b40	0.0068487227
145	0x3dc75e94	0.09734836
146	0x3e038818	0.12844884
147	0x3e25b382	0.16181758
148	0xbdfb39e4	-0.12266901
149	0xbe718936	-0.23587498
150	0x3da4fa04	0.08055499
151	0x3c41b220	0.011822253
152	0xbdeea31c	-0.116522044
153	0xbe5cd9a4	-0.21567398
154	0x3dda6614	0.10664001
155	0x3e02ff6e	0.12792751
156	0x3e212c1c	0.15739483
157	0x3d67b860	0.056572318
158	0x3cdd7450	0.027033001
159	0x3bd07500	0.0063616037
160	0xbe7aa950	-0.2447865
161	0x3e077aa6	0.1323038
162	0xbdef6ddc	-0.11690876
163	0xbd8a0a60	-0.0674026
164	0xbe2d6366	-0.16932449
165	0xbdde5b44	-0.10857251
166	0x3cc79f00	0.02436781
167	0x3e15e3e6	0.14637718
168	0xbe38128c	-0.17975825
169	0xbe3a15c2	-0.18172362
170	0x3e75d8a0	0.24008417
171	0x3d7d0da0	0.061780572
172	0xbdf20c68	-0.118187726
173	0xbdae8ebc	-0.08523318
174	0x3d198ba0	0.037486672
175	0x3e4e8542	0.20168021
176	0xbec4a005	-0.38403335
177	0xc0a75649	-5.229283
178	0xbd8b4b74	-0.06801501
179	0x3e4c9cca	0.19981685
180	0xbdd89218	-0.1057474
181	0xbe6a3798	-0.2287277
182	0xbeed9883	-0.4640542
183	0xbd545ee8	-0.051848322
184	0xbf166a36	-0.58755815
185	0xbe7b760e	-0.24556753
186	0xbe7c22bd	-0.24622627
187	0x401fee5c	2.4989233
188	0x3f0e6308	0.5561986
189	0x4025cc49	2.5905936
190	0xc0e18f81	-7.0487676
191	0xbe6feb19	-0.23429526
192	0xbe97a8c4	-0.29620945
193	0xbe7b0094	-0.2451194
194	0xbe47e6c6	-0.19521627
195	0xb9a27800	-0.00030988455
196	0xbc3d5900	-0.011556864
197	0xbf1aff5a	-0.60545886
198	0xbeffd183	-0.49964532
199	0xbe35453c	-0.17702192
200	0xbf30cd8e	-0.6906365
201	0xbe809f3c	-0.25121486
202	0x3e0fce06	0.14043435
203	0xbe9526fa	-0.291313
204	0x3dadc4ac	0.08484778
205	0xbe8a22a4	-0.26979554
206	0xbe579790	-0.2105391
207	0x3e048596	0.12941584
208	0x3d07eb80	0.033183575
209	0xbca3e9a0	-0.020008862
210	0x3e450c6e	0.19243023
211	0x3e15727e	0.14594457
212	0xbe7b541e	-0.24543807
213	0x3c613e60	0.0137477815
214	0x3db57168	0.08859521
215	0x3b967280	0.004591286
216	0xbe57cb3e	-0.21073624
217	0xbe7acec2	-0.24492934
218	0xbe51eb40	-0.20499897
219	0xbd02b988	-0.031915218
220	0x3c94f5c0	0.018183589
221	0x3d4e1c68	0.05032006
222	0xbe4dc8e8	-0.20096171
223	0xbe16c3fa	-0.14723197
224	0xbf023876	-0.508674
225	0x3e09e71a	0.13467064
226	0xbe5c5130	-0.21515346
227	0x3dc64ecc	0.09682998
228	0x3e658398	0.2241348
229	0xbef04ef9	-0.4693525
230	0xbf403771	-0.75084597
231	0xbe245cba	-0.16050997
232	0xbed19a4e	-0.40938038
233	0xbefce90e	-0.49396557
234	0x3efa68c5	0.48908058
235	0xc083bb45	-4.11661
236	0x4007bfb2	2.1210752
237	0x401a5f52	2.412068
238	0x40675cac	3.6150312
239	0xbf8cc760	-1.0998344
240	0x3ca46780	0.020068884
241	0xbd9883a8	-0.074469864
242	0x3e0e8a9e	0.13920066
243	0x3db60608	0.08887869
244	0xbe0a6820	-0.13516283
245	0xbd3f6830	-0.04673022
246	0xbe38cf76	-0.1804789
247	0xbe079920	-0.13242006
248	0xbd2eca98	-0.042673677
249	0xbd1c4468	-0.038151175
250	0x3e195262	0.14972833
251	0xbd3bc760	-0.045844436
252	0x3de6ef1c	0.11276075
253	0x3e1e3476	0.154497
254	0xbe00ad78	-0.12566173
255	0xbe5ceb32	-0.21574095

fc1.bias f4 [64]
0	0xbf0c2c4f	-0.5475511
1	0xbd888078	-0.066651285
2	0x3c8b8e60	0.017035663
3	0xbed8b1b3	-0.42323074
4	0xbe62c55c	-0.22145599
5	0xbf124da2	-0.5714971
6	0xbea1b39d	-0.31582347
7	0xbdfdc4fc	-0.123910874
8	0xbd2079b0	-0.03917855
9	0xbe6ddbfc	-0.23228449
10	0x3d3badd0	0.045820057
11	0xbf2b8b01	-0.6700898
12	0xbefd7915	-0.4950644
13	0x3ddb35d4	0.10703626
14	0xbefe2396	-0.49636525
15	0x3e46ce80	0.19414711
16	0xbf14639c	-0.5796449
17	0xbf755a11	-0.95840555
18	0xbe5e16c3	-0.2168837
19	0xbed65e49	-0.4186881
20	0xbf0fec15	-0.5621961
21	0xbfb39ddc	-1.403255
22	0xbea49ae9	-0.32149437
23	0x3d45f0f0	0.04832548
24	0xbe659131	-0.22418667
25	0xbe32bb2b	-0.17454211
26	0xbefb735f	-0.4911146
27	0xbf1eb2b3	-0.61991423
28	0xbe70722c	-0.23481053
29	0xbe9b6747	-0.30352232
30	0xbe839203	-0.25697336
31	0xbe82ad89	-0.25523022
32	0xbe85f6eb	-0.26164946
33	0x3d81b570	0.063334346
34	0xbf0b6b76	-0.5446085
35	0xbea23b08	-0.31685662
36	0xbe8be535	-0.2732331
37	0xbe6c94dc	-0.2310366
38	0xbe72aa59	-0.23697795
39	0xbda39140	-0.079866886
40	0xbfb74580	-1.4318085
41	0xbe0d3f31	-0.13793637
42	0xbf167978	-0.58779097
43	0xbcf2c453	-0.02963463
44	0xbf12d7f8	-0.5736079
45	0x3e1529de	0.14566752
46	0x3b580380	0.003296107
47	0xbed729cf	-0.42024085
48	0xbe4fc098	-0.20288312
49	0x3e3ef39c	0.18647617
50	0x3e4c937a	0.19978133
51	0x3d598100	0.05310154
52	0xbeefec23	-0.46859846
53	0xbe50428a	-0.20337883
54	0xbeafa358	-0.3430431
55	0xbee71b58	-0.4513805
56	0xbf4713a8	-0.7776437
57	0x3e4fbd4e	0.20287058
58	0xbda19be5	-0.07891063
59	0xbeb2aef0	-0.34899092
60	0xbe3518da	-0.17685261
61	0xbe56d746	-0.20980558
62	0xbe0fb41a	-0.14033547
63	0xbef2c8e8	-0.47418904

fc2.weight f4 [64, 64]
0	0xbda956a6	-0.0826848
1	0x3d852a3c	0.06502196
2	0x3da1f2a6	0.0790761
3	0xbe4917de	-0.19638011
4	0x3d459938	0.048241824
5	0xbd3958d8	-0.045250744
6	0x3eb2c2cd	0.34914246
7	0x3d59fbf4	0.053218797
8	0x3d8afb58	0.06786221
9	0xbdd1316a	-0.10214503
10	0x3acc8c80	0.0015605837
11	0xbed1548f	-0.40884826
12	0xbd52f7e0	-0.051505923
13	0x3dbbd4d4	0.09171453
14	0xbecb935c	-0.39760864
15	0xbdc37ece	-0.095456704
16	0x3eb4c18e	0.3530392
17	0xbe1bbc10	-0.15208459
18	0xbe411847	-0.18856917
19	0x3e4fc1ba	0.20288745
20	0x3eb3832c	0.35061014
21	0xbea9082e	-0.33014053
22	0xbdaf373c	-0.08555457
23	0x3d7bd1d4	0.061479405
24	0xbe471f64	-0.19445568
25	0xbebba5ac	-0.36649835
26	0x3ea471b9	0.32118014
27	0x3e7891fe	0.24274442
28	0xbdb0526c	-0.08609471
29	0x3e97a9ad	0.2962164
30	0xbe3244fa	-0.17409125
31	0x3eaba2eb	0.33522734
32	0x3e7b4b82	0.24540523
33	0x3d060e50	0.032728493
34	0x3e34b9e8	0.17649043
35	0xbe18e5f3	-0.14931469
36	0x3e717336	0.23579106
37	0xbe9229c6	-0.28547496
38	0x3ea0f5c7	0.31437513
39	0xbe6bbd93	-0.23021536
40	0xbcc74978	-0.024327025
41	0x3ebc8304	0.36818707
42	0xbd33b442	-0.04387308
43	0xbe2cbd36	-0.16869053
44	0x3e071f58	0.1319555
45	0xbd880904	-0.066423446
46	0x3d194b4c	0.037425324
47	0xbe13a71c	-0.14419216
48	0xbe812c04	-0.25228894
49	0xbd6580ec	-0.056031153
50	0x3d86f1e4	0.06589106
51	0xbe45e7d0	-0.1932671
52	0x3e457151	0.19281508
53	0x3dcc392e	0.09971844
54	0xbe6bbb1f	-0.230206
55	0xbe89c5e1	-0.26908782
56	0xbed20ef0	-0.4102702
57	0x3d88b70a	0.06675537
58	0x3e5e2e46	0.2169734
59	0x3e5fc71a	0.21853295
60	0xbe95f526	-0.29288596
61	0x3ea11ee8	0.31468892
62	0xbea7850c	-0.32718694
63	0x3e3d445e	0.18483111
64	0x3df69fa2	0.12042166
65	0x3d4433b8	0.047900885
66	0xbdc16afc	-0.09444234
67	0x3e695aa9	0.2278849
68	0xbdc1ff2e	-0.094725
69	0x3e97ec1a	0.2967232
70	0xbd5bf350	-0.053698838
71	0xbd654810	-0.055976927
72	0xbd56d7a4	-0.052451745
73	0xbd8174a0	-0.063210726
74	0x3db88d50	0.09011328
75	0xbf550410	-0.83209324
76	0x3f0f195e	0.5589808
77	0x3d52e4ec	0.05148785
78	0x3daea2e0	0.0852716
79	0x3bc3baa0	0.005973175
80	0xbcdb1250	-0.02674213
81	0xbee805ab	-0.45316824
82	0xbd82534e	-0.06363545
83	0xbdcec9d4	-0.100970894
84	0xbda2e90e	-0.07954608
85	0xbfeeb970	-1.8650341
86	0xbdee4d2e	-0.116358146
87	0xbd25ec94	-0.04050882
88	0xbc99c5e3	-0.018771118
89	0x3e221f6c	0.15832299
90	0xbdb5e424	-0.08881405
91	0xbcf3c118	-0.02975516
92	0xbdf28998	-0.1184265
93	0xbd8c52dc	-0.06851742
94	0xbdd94e82	-0.10610677
95	0xbc434520	-0.011918336
96	0x3db2817a	0.08716102
97	0xbcbfad80	-0.023398161
98	0x3de63a7e	0.11241625
99	0x3c3daf60	0.011577457
100	0xbdc40c32	-0.095726386
101	0xbdbe0b1c	-0.09279463
102	0xbda0af80	-0.07845974
103	0xbea07910	-0.31342363
104	0xbc5b6f00	-0.013393164
105	0x3da3e314	0.08002296
106	0xbcd1f7f8	-0.025630936
107	0xbea4abfa	-0.32162458
108	0x3cc24408	0.02371408
109	0x3ce38ff0	0.027778596
110	0x3b532740	0.003221944
111	0xbd34c120	-0.04412949
112	0x3b804488	0.0039144196
113	0xbdd5ec60	-0.104454756
114	0x3d0bbeb0	0.0341174
115	0xbf8052da	-1.0025284
116	0x3cad6530	0.021166414
117	0xbd7c83e0	-0.061649203
118	0x3bd26e60	0.006421849
119	0x3de43316	0.11142556
120	0xbea8a2d0	-0.32936716
121	0xbc917898	-0.017757699
122	0xbd4655fc	-0.048421845
123	0x3dfe369e	0.12412761
124	0xbf80dc3f	-1.0067214
125	0x3c8643d0	0.016389757
126	0x3e5eddf2	0.21764353
127	0xbd134024	-0.03594984
128	0x3dcbbb7e	0.09947871
129	0x3c5360f0	0.01290153
130	0xbcb29c28	-0.021802977
131	0xbe57b73b	-0.2106599
132	0x3aaec980	0.0013335198
133	0xbd8a257b	-0.0674543
134	0x3e779d35	0.24181063
135	0xbd0d4768	-0.034491926
136	0x3d4dfe74	0.050291494
137	0xbdca5c58	-0.098808944
138	0x3defbaae	0.11705528
139	0xbf1824f3	-0.5943138
140	0x3db23370	0.08701217
141	0xbcb25938	-0.021771058
142	0xbea1bb26	-0.31588095
143	0x3d768c04	0.060192123
144	0x3e934dd7	0.28770325
145	0xbe6d41e7	-0.23169671
146	0xbe4b2111	-0.19836833
147	0x3ecf3dc3	0.40476808
148	0x3ec8954a	0.391764
149	0xbfa5a806	-1.2941902
150	0x3d2ec54b	0.042668622
151	0x3ca92878	0.02064918
152	0xbfa6e6c5	-1.3039175
153	0x40028d51	2.0398753
154	0x3e901bc2	0.28146178
155	0x3e988c6c	0.29794633
156	0xbc11ff00	-0.008910894
157	0x3e8f78b1	0.28021768
158	0xbe11f647	-0.14254104
159	0x3ebb68da	0.36603433
160	0x3ebc3edb	0.36766705
161	0xbd3ed154	-0.04658635
162	0x3ea0213b	0.31275353
163	0xbe6566a0	-0.2240243
164	0x3e8c7e94	0.2744032
165	0xbd24497c	-0.040109143
166	0x3e661d8d	0.2247221
167	0xbebe0f2f	-0.3712096
168	0xbd103b3c	-0.03521274
169	0x3e4a4182	0.19751552
170	0x3e708a9b	0.23490374
171	0xbe3abcce	-0.18236086
172	0x3e93e3b3	0.28884658
173	0xbdd872c6	-0.10568766
174	0x3daf8bda	0.085715964
175	0xbe28dc47	-0.16490279
176	0xbea8f728	-0.33001065
177	0xbd2be6a0	-0.041967988
178	0x3d8d9f10	0.069151044
179	0xbefcbbc7	-0.49362013
180	0x3ed65506	0.41861743
181	0xbdf47cda	-0.11937876
182	0xbeaa3edf	-0.33251092
183	0xbebd5884	-0.36981595
184	0xbea27831	-0.31732324
185	0x3dd601da	0.10449572
186	0x3e8d5439	0.2760332
187	0x3ed98715	0.42485872
188	0xbeb7635f	-0.35818002
189	0x3e7c0a22	0.2461324
190	0xbeb2ead8	-0.34944797
191	0x3e43dacd	0.19126435
192	0x3e955c9f	0.29172227
193	0x3d2f3498	0.042774767
194	0x3aa7aa80	0.0012791902
195	0xbdfe2eff	-0.124113075
196	0x3de8b798	0.11363143
197	0xbf8a07eb	-1.0783666
198	0x3e913e9e	0.28368086
199	0x3daa5a7c	0.0831804
200	0xbdcbaf26	-0.09945516
201	0xbdb00c48	-0.085960925
202	0x3ddc18e0	0.10746932
203	0xbf52b743	-0.82310885
204	0xbf09bc7a	-0.5380322
205	0xbddb8c5a	-0.10720129
206	0x3d3f4f3a	0.046706416
207	0x3db8e820	0.09028649
208	0x3ed4a4f1	0.4153209
209	0xbe90a801	-0.28253177
210	0xbce6957d	-0.028147453
211	0x3e9a8c42	0.30185133
212	0x3e3eacd3	0.18620615
213	0xbe9c8a38	-0.30574203
214	0x3e843673	0.2582279
215	0x3d1777e4	0.03697957
216	0xbe93d14e	-0.28870624
217	0x3e030975	0.12796576
218	0x3e70d5c9	0.23519053
219	0x3ed47bb2	0.41500622
220	0xbca65fc0	-0.020309329
221	0x3e91238b	0.2834743
222	0xbe3d4acc	-0.18485564
223	0x3e7c8b4d	0.24662514
224	0x3e3957a8	0.18099844
225	0x3d7ee488	0.062229663
226	0x3ec32e7d	0.38121405
227	0x3ed42d94	0.41441023
228	0x3e50fdf3	0.20409374
229	0x3d9dde8c	0.07708463
230	0x3e996f43	0.29967698
231	0x3e413a45	0.18869884
232	0x3de2927c	0.11063096
233	0x3ea81576	0.32828873
234	0x3e78081a	0.2422184
235	0xbc7c2f17	-0.0153920865
236	0x3e81e2fa	0.25368482
237	0x3cd73e68	0.026274875
238	0x3db214ba	0.086953595
239	0xbe7edfcc	-0.24890059
240	0xbdd23ee1	-0.102658994
241	0xbdd0feb4	-0.10204831
242	0x3be53320	0.00699462
243	0xbe2208e3	-0.15823703
244	0x3e5e529c	0.217112
245	0xbb000c40	-0.0019538552
246	0xbe70bab7	-0.23508726
247	0xbc6d422a	-0.014481107
248	0xbe29a786	-0.16567811
249	0x3ddfe5c2	0.10932495
250	0x3e932d70	0.28745604
251	0x3e5b3362	0.2140632
252	0x3e0bb6a9	0.13643898
253	0x3e9d475c	0.30718505
254	0xbe8ace4a	-0.2711051
255	0x3e44e135	0.19226535

fc2.bias f4 [64]
0	0xbdb7bbdb	-0.089713775
1	0xc09146ae	-4.539878
2	0xbfce0ef9	-1.6098319
3	0xbd917d5c	-0.071039885
4	0xbec8de69	-0.39232185
5	0xbe9253f3	-0.28579673
6	0xbf274f8f	-0.6535577
7	0xbec282f5	-0.37990537
8	0xbe69c501	-0.22829057
9	0xbe38268d	-0.17983456
10	0xbf09dec2	-0.53855526
11	0xbd18b3bf	-0.037280794
12	0xbff0952e	-1.8795526
13	0xbe338c8f	-0.17534088
14	0xbee8f5d2	-0.45500046
15	0xc10850a1	-8.519685
16	0xbf437af5	-0.7635949
17	0xbeb5e303	-0.3552476
18	0xbe92c8f5	-0.28668943
19	0xc0040ac2	-2.0631566
20	0xbebbbd57	-0.36667892
21	0xc0eebcf9	-7.460568
22	0xbef0e8b1	-0.4705253
23	0xbeb667f3	-0.35626182
24	0xbf6634e3	-0.8992445
25	0xbe573da2	-0.21019605
26	0xbcfeadf2	-0.031088803
27	0xbf008015	-0.5019544
28	0xbef5e800	-0.48028564
29	0xbeaa11f8	-0.33216834
30	0xbd02d086	-0.031937145
31	0xbe95e047	-0.29272673
32	0xbdff748b	-0.12473401
33	0xbd754ba0	-0.059886575
34	0xbdf73cf6	-0.12072174
35	0xbec7e526	-0.39042014
36	0xc0bea8ed	-5.958121
37	0xbe9b63ee	-0.30349678
38	0xbe9380df	-0.28809258
39	0xbfc6b585	-1.5524145
40	0xc001c835	-2.0278447
41	0xbd439fec	-0.047759935
42	0xc01735c9	-2.3626578
43	0xbeee55be	-0.4654979
44	0xbebb9784	-0.36639035
45	0xbeaed33c	-0.34145534
46	0xbeb40248	-0.3515799
47	0xbd92ebef	-0.07173907
48	0xbf81535e	-1.0103567
49	0xbe914316	-0.28371495
50	0xbfb1ed03	-1.3900455
51	0xbedc4825	-0.43023792
52	0xbe6e954d	-0.23299141
53	0xc0141b55	-2.3141682
54	0xbf44fe46	-0.7695049
55	0xbe8caacb	-0.27474055
56	0xbe6d51ef	-0.23175786
57	0xbef62500	-0.48075104
58	0xbf3621b6	-0.7114519
59	0xbf842815	-1.0324732
60	0x3faeda57	1.3660382
61	0xbe3f2d32	-0.18669584
62	0xbe14849f	-0.14503716
63	0xbfe24398	-1.7676878

fc3.weight f4 [6, 64]
0	0x3db3b033	0.08773842
1	0x3f06ad8f	0.5260858
2	0x3e8d7382	0.27627188
3	0x3e4aeb82	0.19816402
4	0xbe830e64	-0.25596917
5	0xbea01219	-0.31263807
6	0xbea8ef1d	-0.3299493
7	0x3e926b80	0.2859764
8	0x3e81c220	0.25343418
9	0xbe3c0e2c	-0.18364781
10	0xbe84629c	-0.25856483
11	0x3cbd22d4	0.023087896
12	0xbfc0bd72	-1.5057814
13	0xbd69ccd4	-0.057080105
14	0xbed5cf9a	-0.4175995
15	0xbee93c3d	-0.4555377
16	0xbc4ddd87	-0.012565023
17	0xbe3627fd	-0.17788692
18	0xbec2aca7	-0.38022348
19	0x3e7de36c	0.24793786
20	0xbe87c4d6	-0.2651736
21	0xbe82d268	-0.25551152
22	0xbeab83ca	-0.33498985
23	0xbe069a43	-0.13144784
24	0x3e1c6fa8	0.15276968
25	0x3e2009bf	0.15628718
26	0x3c144f82	0.009052159
27	0xbe5f77f4	-0.21823102
28	0x3e52e922	0.20596746
29	0xbec1339e	-0.37734693
30	0xbd837e5f	-0.06420588
31	0x3d961dc5	0.07329897
32	0xbf15f3b6	-0.58575
33	0x3ce3b554	0.027796425
34	0xbe86a993	-0.2630125
35	0xbeabfa4d	-0.33589402
36	0x3ef1c3a0	0.47219563
37	0xbe95e001	-0.29272464
38	0x3ed57991	0.4169431
39	0x3e9935ab	0.29923758
40	0x3df801fd	0.12109754
41	0x3e179edf	0.14806698
42	0xbe113070	-0.14178634
43	0x3e6c1cfc	0.23057932
44	0x3e7843ef	0.24244665
45	0xbee2eced	-0.44321385
46	0xbe9fd6fc	-0.31218708
47	0xbd3413fc	-0.04396437
48	0x3f83f521	1.0309182
49	0xbea4d222	-0.3219157
50	0x3ebebb7d	0.37252417
51	0xbeaa299c	-0.3323487
52	0xbe8437e6	-0.25823897
53	0xbf634fee	-0.8879384
54	0xbdf84ef2	-0.121244326
55	0x3ebfab5e	0.3743543
56	0x3e50f804	0.2040711
57	0xbdeed1a6	-0.11661081
58	0xbf226063	-0.63428324
59	0xbe8b2bac	-0.27181756
60	0x3e8040d7	0.2504947
61	0xbe08fb82	-0.13377193
62	0xbd6a006e	-0.057129316
63	0x3f6bc6f6	0.92100465
64	0x3e28d62e	0.16487953
65	0xbe7aa7fa	-0.2447814
66	0x3ced55c9	0.02897157
67	0xbe6c3a47	-0.23069106
68	0xbe884fb7	-0.26623318
69	0xbec8b908	-0.39203668
70	0xbe9ce5ca	-0.30644065
71	0x3e13961a	0.14412728
72	0x3e17b417	0.14814793
73	0x3ed04504	0.40677655
74	0xbe9e3dd1	-0.30906537
75	0xbcd2843c	-0.02569782
76	0x3d1dd7e0	0.038535953
77	0xbea65c14	-0.32492125
78	0xbe5024d2	-0.20326546
79	0xbe28d78c	-0.16488475
80	0xbe16ec1c	-0.14738506
81	0xbe895768	-0.26824498
82	0xbeb0f5ac	-0.34562433
83	0xbed3b6fa	-0.41350538
84	0xbe2b5938	-0.16733253
85	0xbc1da7d5	-0.009622534
86	0xbe47006b	-0.19433753
87	0x3af091fb	0.0018354052
88	0x3f52090f	0.8204507
89	0x3e43c455	0.19117863
90	0xbd7c8473	-0.06164975
91	0x3ada65df	0.001666244
92	0xbe546de9	-0.20745052
93	0xbe560602	-0.2090073
94	0xbdb94fde	-0.090484366
95	0xbbac1214	-0.0052511785
96	0x3e40f12c	0.18842
97	0x3d31edb7	0.043439593
98	0x3e4cd177	0.2000178
99	0xbea02826	-0.3128063
100	0x3f0bf815	0.5467542
101	0xbec82823	-0.39093122
102	0xbe7b0a9c	-0.24515766
103	0xbf337157	-0.7009482
104	0xbd20362e	-0.03911417
105	0x3e20614e	0.15662119
106	0xbf8be66a	-1.0929692
107	0xbc80fb8d	-0.015744949
108	0xbe4a12ea	-0.19733778
109	0xbeb1a2ad	-0.34694424
110	0xbeb652fb	-0.35610184
111	0xbc216034	-0.009849597
112	0xbc80ac10	-0.015707046
113	0xbe81c01e	-0.25341886
114	0x3e05c511	0.13063456
115	0xbdf5814d	-0.11987553
116	0xbe5cbee5	-0.21557195
117	0x4012223a	2.283339
118	0xbd74c1d4	-0.05975516
119	0x3dfa66c5	0.12226633
120	0x3e8c1ef1	0.27367356
121	0x3dbb6918	0.091509044
122	0x3e7be314	0.24598342
123	0xbe785d91	-0.24254443
124	0x3e375dd9	0.17906894
125	0x3d012795	0.03153189
126	0xbe379bab	-0.17930476
127	0x3f2f3a22	0.6844808
128	0x3cd69a6e	0.026196685
129	0xbd277f4b	-0.04089288
130	0x3e6d00f9	0.23144902
131	0xbe372c93	-0.17888097
132	0xbeb45c37	-0.35226604
133	0xbe5d5d84	-0.21617705
134	0xbec456ca	-0.38347465
135	0x3e916481	0.2839699
136	0x3e3f31dd	0.18671365
137	0xbe1e44b7	-0.154559
138	0xbdc943ef	-0.098274104
139	0x3c548bd4	0.012972791
140	0xbfdcb529	-1.7242786
141	0x3f9b6eff	1.2143248
142	0xbebb3c55	-0.36569467
143	0x3d114864	0.035469428
144	0xbe74285c	-0.23843521
145	0xbeab37df	-0.33441064
146	0xbe8723f4	-0.26394618
147	0x3ee3f328	0.4452145
148	0xbe76b683	-0.2409306
149	0x3ccbb3f8	0.02486609
150	0xbeae4b5b	-0.34041867
151	0xbd56da43	-0.052454244
152	0x3f69ba9d	0.91300374
153	0x3e60934a	0.21931186
154	0xbdec52c1	-0.115392216
155	0x3e8c0951	0.27350858
156	0x3eb1ce8d	0.34727898
157	0xbe8d9a3e	-0.2765674
158	0xbd31b8ca	-0.04338912
159	0xbe5211a7	-0.20514546
160	0xbdd5e419	-0.10443897
161	0x3ddc1f7e	0.10748194
162	0xbd0d9783	-0.03456832
163	0xbe5a4eb1	-0.21319081
164	0x3e037318	0.12836874
165	0xbe8855bc	-0.2662791
166	0x3f920e25	1.1410567
167	0x3fcf6026	1.6201217
168	0xbdfbd172	-0.12295808
169	0x3d1be300	0.03805828
170	0x3fa12028	1.2587938
171	0xbebf5ec8	-0.37377
172	0x3e60e642	0.21962836
173	0x3f118147	0.56837887
174	0xbec9a57c	-0.39384067
175	0x3ce86701	0.028369429
176	0x3c91aee8	0.017783597
177	0xbe555830	-0.20834422
178	0x3ec1a476	0.37820786
179	0x3f46ec5f	0.77704424
180	0xbe7c9fb1	-0.24670292
181	0xbf9d6795	-1.2297236
182	0xbf151cc2	-0.58247006
183	0x3e046154	0.12927753
184	0x3e4a0a94	0.19730598
185	0xbf001289	-0.5002828
186	0xbeab56d5	-0.33464685
187	0xbec6c75d	-0.38823977
188	0xbedf818a	-0.43653518
189	0xbd6c1bfb	-0.05764387
190	0xbe6ec05a	-0.23315564
191	0xbf1ddfc0	-0.6166954
192	0x3dd7337b	0.10507866
193	0x3c011d8b	0.007880579
194	0x3dc06245	0.093937434
195	0x3e03075c	0.12795776
196	0xbe4a20dd	-0.19739099
197	0xbe8446b6	-0.25835198
198	0x3f38a6b5	0.72129375
199	0x3ebd750b	0.3700336
200	0x3ddf47ad	0.10902343
201	0x3d8f237b	0.06989189
202	0xbe2a307c	-0.16620058
203	0x3e8327a8	0.25616193
204	0x3fb46ea6	1.4096267
205	0x3f02e76b	0.51134366
206	0xbe8be2bc	-0.27321422
207	0xbe31086a	-0.17288366
208	0xbeace8b6	-0.33771294
209	0xbe519242	-0.20465949
210	0xbe72b033	-0.23700027
211	0xbec03917	-0.37543556
212	0xbea10b1e	-0.31453794
213	0xbeda1ca6	-0.42599982
214	0x3f41fd86	0.7577747
215	0x3cfd11f6	0.030892354
216	0xbc958a80	-0.018254519
217	0x3e8b7c28	0.2724316
218	0xbe0242c7	-0.12720786
219	0xbe47d329	-0.19514145
220	0x3f49c88c	0.78821635
221	0xbeadcd7c	-0.33945835
222	0x3eb73f7e	0.35790628
223	0xbdb1e593	-0.08686366
224	0xbdb07983	-0.086169265
225	0x3f136dd0	0.57589436
226	0xbe0d34e5	-0.13789709
227	0xbe803fce	-0.2504868
228	0x3f104a03	0.5636293
229	0xbeac3a7a	-0.33638364
230	0xbd7909b5	-0.060800273
231	0xbeaf5e19	-0.34251478
232	0xbe000127	-0.1250044
233	0x3e82fa16	0.25581425
234	0xbeeafe54	-0.45897162
235	0x3e500f98	0.20318449
236	0xbed35070	-0.41272306
237	0x3f043cc4	0.5165522
238	0xbe3f06d2	-0.18654945
239	0x3ee52087	0.4475138
240	0xbf6514b7	-0.89484733
241	0xbe7072e3	-0.23481326
242	0x3e6c29c1	0.23062803
243	0xbe87dc7c	-0.26535404
244	0xbecf7f8d	-0.40527
245	0xbf8780df	-1.0586203
246	0xbdb3de08	-0.087825835
247	0x3e191df5	0.14952834
248	0x3e28184b	0.16415517
249	0xbeb9d22f	-0.3629317
250	0xbe89b1d3	-0.26893482
251	0x3f533339	0.82500035
252	0x40531403	3.2980964
253	0xbe10f8cc	-0.14157408
254	0xbe13e66a	-0.14443365
255	0x3ea2da2a	0.3180707

fc3.bias f4 [6]
0	0xbfad3e30	-1.3534603
1	0xbfa4c586	-1.2872779
2	0xbe9fc7bb	-0.3120707
3	0xc09ba892	-4.8643274
4	0xc10e1971	-8.881211
5	0xc12010dd	-10.004117
